lstmt/model_pt/lstmt_full_0_fold_CV_1100.pt (torch, 285693 bytes, 6 tensors)

rnn.weight_ih_l0 f4 [16, 4]
0	0x3d99e070	0.07513511
1	0x3ebf8844	0.3740865
2	0x3e73cf21	0.23809482
3	0xbd191769	-0.03737584
4	0xbb98bf71	-0.0046614935
5	0x3ea6686f	0.32501552
6	0xbdb49593	-0.088175915
7	0xbadf02f0	-0.0017014425
8	0x3d0b1388	0.033954173
9	0x3e9995a8	0.2999699
10	0xbeb23055	-0.348025
11	0x3ca5dd88	0.020247236
12	0xbd012b1c	-0.031535253
13	0xbe026a6d	-0.1273591
14	0xbe0249dc	-0.12723488
15	0x3cb6ad6a	0.022299487
16	0x3ea7bff4	0.32763636
17	0xbe61bf2a	-0.2204558
18	0x3edfa44b	0.43680033
19	0x3e88d05e	0.26721472
20	0x3d824d16	0.06362359
21	0xbd9609fe	-0.073261246
22	0x3cffd2f6	0.031228524
23	0xbd0d029e	-0.034426324
24	0xbb99e418	-0.0046963803
25	0x3d9806dd	0.07423184
26	0xbd259006	-0.040420555
27	0x3b3feb92	0.0029284698
28	0x3d2871e9	0.04112426
29	0x3c8c0d0a	0.017096061
30	0xbebcc663	-0.36870107
31	0x3a83c7fc	0.0010054107
32	0xbdfffe41	-0.12499667
33	0xbe2f6ffc	-0.17132562
34	0xbe06bc2f	-0.13157724
35	0xbdd2f5d5	-0.10300795
36	0xbd23e6b0	-0.040014923
37	0x3e1f4d15	0.15556748
38	0xbbc83fe5	-0.0061111324
39	0xbaae3228	-0.0013290094
40	0x3c6b8428	0.01437477
41	0xbe734523	-0.23756842
42	0x3d3848c5	0.044991273
43	0x3c07e86f	0.008295163
44	0xbea42def	-0.32066295
45	0xbcd895d1	-0.026438626
46	0x3e8c466e	0.27397484
47	0x3c1912c7	0.009342856
48	0x3be7d7c7	0.007075283
49	0x3e1cb571	0.1530359
50	0x3ef5df15	0.4802176
51	0xbc9a61cb	-0.01884546
52	0x3e2e5db9	0.1702794
53	0x3ea3b4ad	0.31973782
54	0xbe8cf781	-0.2753258
55	0xbd8e167f	-0.069378845
56	0x3e015979	0.12631787
57	0x3ef51f71	0.4787555
58	0xbefe7d5a	-0.4970501
59	0x3cc70174	0.024292685
60	0x3f1a8323	0.6035635
61	0x3e126d8e	0.14299604
62	0xbe440390	-0.19141984
63	0xbe399f96	-0.18127283

rnn.weight_hh_l0 f4 [16, 4]
0	0xbffa8b65	-1.957379
1	0xc02ed436	-2.7317023
2	0x4000c3c0	2.0119476
3	0xbf6663e8	-0.89996195
4	0xbe7725cd	-0.24135514
5	0xbfaec80e	-1.3654802
6	0xbf700362	-0.9375516
7	0xbf9d7482	-1.230118
8	0xbec19ea9	-0.3781636
9	0x3ffa8186	1.9570777
10	0x3e9b5114	0.30335295
11	0x3f28ab7c	0.65886664
12	0xbf143779	-0.57897145
13	0xbfa395f1	-1.2780133
14	0xbd7fe844	-0.062477365
15	0x3db13113	0.08651938
16	0xbdb696da	-0.089154914
17	0x3f163933	0.5868103
18	0x3f1abeab	0.60447186
19	0x3db1aef7	0.0867595
20	0x3ed15a92	0.40889412
21	0xbf0b9a4b	-0.5453231
22	0xbe0945cc	-0.13405532
23	0x3d27b679	0.040945504
24	0xbe11d11d	-0.14239927
25	0x3e4501f3	0.19239025
26	0x3f92756c	1.1442084
27	0xbb09e63c	-0.0021041771
28	0xbe0ee284	-0.13953596
29	0xbf0c6e6f	-0.5485601
30	0x3ec2ef5d	0.38073245
31	0x3f39fac5	0.7264827
32	0x3e9a8cb5	0.30185476
33	0x3ec0e788	0.37676644
34	0xbfb53102	-1.4155581
35	0x388af14a	6.6252964e-05
36	0x3f8509c3	1.0393604
37	0xbef1ec82	-0.47250754
38	0x3f2e64eb	0.6812274
39	0x3f3fb115	0.7487958
40	0xbf82f868	-1.0232058
41	0xbf2a1203	-0.66433734
42	0xbff9f3db	-1.9527544
43	0x3f3fde2e	0.74948394
44	0xbf06f0ce	-0.5271119
45	0x40080cb9	2.1257765
46	0xbf9178c9	-1.1364986
47	0x3f286d91	0.65792185
48	0x3f201714	0.62535214
49	0x3e41dcfe	0.18931958
50	0x3f83993d	1.028114
51	0xbfae6a8d	-1.3626267
52	0x3e379ed0	0.17931676
53	0xbedb8019	-0.42871168
54	0xbf12778f	-0.5721368
55	0xbec39d99	-0.38206175
56	0xbe428f32	-0.18999937
57	0xbf7dbe2f	-0.9911832
58	0x3fb2ec97	1.3978451
59	0xbe9332bd	-0.28749648
60	0xbf4fb96f	-0.81142324
61	0x3dba8849	0.091080256
62	0xbe579782	-0.2105389
63	0xbf22de97	-0.63620895

rnn.bias_ih_l0 f4 [16]
0	0x3edead9c	0.43491828
1	0xbd5ef41b	-0.054432016
2	0x3f54c7d2	0.831174
3	0x3e6808f7	0.2265967
4	0xbe329679	-0.17440213
5	0xbcab1393	-0.020883357
6	0x3eb44afc	0.3521346
7	0x3e963978	0.2934072
8	0xbe6396ff	-0.22225569
9	0xbdc6d07c	-0.09707734
10	0xbe376775	-0.1791056
11	0x3e9b3b2b	0.3031858
12	0x3f4d2ec0	0.8014946
13	0x3e868782	0.2627526
14	0x3d51f459	0.05125842
15	0x3f749ca0	0.9555149

rnn.bias_hh_l0 f4 [16]
0	0x3ec6b984	0.38813412
1	0xbccc721c	-0.024956755
2	0x3f684ec0	0.9074516
3	0x3e54cc33	0.20781021
4	0xbe2519d2	-0.16123131
5	0xbda7acc5	-0.0818725
6	0x3e584f45	0.21123989
7	0x3e6bb4fd	0.2301826
8	0xbe77bd3c	-0.24193281
9	0xbd2fe03a	-0.04293845
10	0xbe19dbc6	-0.15025243
11	0x3e2aad06	0.16667566
12	0x3f461e1d	0.773897
13	0x3e113bd5	0.1418298
14	0xbd43a2b8	-0.047762603
15	0x3f6d532b	0.9270503

fc_out.weight f4 [334, 211]
0	0x3e789784	0.24276549
1	0xbd29fe09	-0.041502032
2	0x3e20d17b	0.1570491
3	0x3fc482bb	1.5352396
4	0x3e98a21a	0.29811174
5	0x3c14d837	0.009084753
6	0x3ce66291	0.028123172
7	0x3fdbebcd	1.7181336
8	0x3ebb7b71	0.36617616
9	0x3d16ed0c	0.03684716
10	0xbdbd1e11	-0.0923425
11	0x3fde4253	1.736399
12	0x3ed1cda5	0.40977207
13	0x3d94a3f6	0.072578356
14	0xbe49d183	-0.19708829
15	0x3fd8cca2	1.6937449
16	0x3ee1aa4f	0.44075248
17	0x3dd9bfd7	0.10632294
18	0xbe9086fb	-0.28227982
19	0x3fbfc321	1.4981424
20	0x3eed9555	0.46402994
21	0x3e1e5824	0.1546331
22	0xbe94f087	-0.29089758
23	0x3f449e48	0.7680402
24	0x3f08447c	0.532295
25	0x3e6d6dcd	0.23186417
26	0xbec073e6	-0.37588423
27	0x3de802c1	0.1132865
28	0x3f2428b8	0.6412463
29	0x3eab96ca	0.3351348
30	0xbec45192	-0.38343483
31	0xbebf7902	-0.3739701
32	0x3f3006db	0.6876046
33	0x3ee2aa73	0.44270667
34	0xbebfe2e8	-0.37477803
35	0xbf47dbf2	-0.78069985
36	0x3f3f85af	0.7481336
37	0x3f10251b	0.5630662
38	0xbe98a17d	-0.29810706
39	0xbf81cde1	-1.0140954
40	0x3f4f4a49	0.80972725
41	0x3f1f9faa	0.62353003
42	0xbe9783d0	-0.29592752
43	0xbf8f1f42	-1.1181414
44	0x3f540181	0.82814795
45	0x3f2a0c97	0.6642546
46	0xbe36b659	-0.17842998
47	0xbf780bda	-0.96893084
48	0x3f12712e	0.5720395
49	0x3f40bb1b	0.752855
50	0xbdb5192d	-0.088426925
51	0xbe6b981d	-0.23007245
52	0x3ecdcc55	0.40194955
53	0x3ecf1fae	0.40453857
54	0xbd2a9519	-0.041646097
55	0x3ed60eba	0.4180811
56	0x3ec98bf5	0.3936459
57	0x3e8f0ab7	0.27937862
58	0x3caf22c0	0.021378875
59	0x3ea10257	0.31447098
60	0x3eecbf7f	0.4623985
61	0x3ea8bc52	0.32956177
62	0x3c4112ad	0.011784238
63	0x3e9e72c0	0.30946922
64	0x3f009136	0.50221574
65	0x3eaba01d	0.33520594
66	0x3c6e1af5	0.014532794
67	0x3e8963ff	0.26834103
68	0x3f060bf4	0.5236199
69	0x3eb290b6	0.3487603
70	0x3c35578c	0.011068236
71	0x3e947bff	0.29000852
72	0x3f11d97a	0.5697247
73	0x3eb73c07	0.35787985
74	0x3c5edce9	0.013602474
75	0x3e9ae0f4	0.3024975
76	0x3f17f0ec	0.5935199
77	0x3eb40e81	0.35167316
78	0x3c919657	0.017771883
79	0x3ea1c05e	0.31592077
80	0x3f1230bf	0.5710563
81	0x3ea9e816	0.3318488
82	0x3b99f1cd	0.0046980144
83	0x3e878a10	0.2647252
84	0x3eee8d49	0.46592167
85	0x3e78b40d	0.24287434
86	0x3d0ac15d	0.03387581
87	0x3e4bb418	0.19892919
88	0x3e476c90	0.19475007
89	0x3e07b4b5	0.13252528
90	0x3d1cdaa2	0.038294442
91	0x3dfd85fd	0.12379072
92	0x3e3689b7	0.17825972
93	0x3dfee451	0.12445892
94	0x3d03093d	0.031991232
95	0x3e0582e7	0.13038217
96	0x3e0852ac	0.13312787
97	0x3d9be04d	0.07611141
98	0x3d1cf99f	0.038323995
99	0x3e10fcb9	0.14158906
100	0x3df9674a	0.12177904
101	0x3db19536	0.08671038
102	0x3d275ab6	0.040857993
103	0x3e23f3fb	0.1601104
104	0x3ddf05ed	0.10889802
105	0x3d9fe209	0.07806785
106	0x3d263032	0.040573306
107	0x3e2b5dff	0.16735075
108	0x3e03c53b	0.12868206
109	0x3d99e179	0.075137086
110	0x3cccb620	0.024989188
111	0x3e303766	0.17208633
112	0x3ddf6a86	0.109089896
113	0x3d842545	0.06452421
114	0x3d05f0cd	0.03270035
115	0x3e2843ed	0.16432162
116	0x3ddacedb	0.10683986
117	0x3d6bd715	0.057578165
118	0x3cc7cd17	0.024389787
119	0x3e2b6521	0.16737796
120	0x3df80384	0.121100456
121	0x3d87ec78	0.066369
122	0x3ccd71fa	0.025078762
123	0x3e2457a6	0.1604906
124	0x3e01862e	0.12648842
125	0x3d8651f0	0.06558597
126	0x3d03fc70	0.032223165
127	0x3e2a5e33	0.16637497
128	0x3dfb8f22	0.1228316
129	0x3d801c7d	0.06255434
130	0x3d059ff5	0.03262325
131	0x3e0c0ecb	0.13677518
132	0x3deedd2d	0.1166328
133	0x3d418c2b	0.047252815
134	0x3ccb3261	0.024804296
135	0x3e17ce86	0.14824876
136	0x3df2f5c4	0.11863282
137	0x3d8ab461	0.06772686
138	0x3d1ffa13	0.03905685
139	0x3e159146	0.14606199
140	0x3dedc293	0.11609378
141	0x3d80328f	0.06259643
142	0x3d2f6b4d	0.04282694
143	0x3e1fc9d5	0.15604337
144	0x3dc61767	0.096724324
145	0x3db44b37	0.088034086
146	0x3d3a498c	0.045480296
147	0x3e1534ea	0.14570966
148	0x3dc37ecb	0.09545668
149	0x3dd8ddc7	0.10589176
150	0x3d11b69b	0.035574537
151	0x3e154ad4	0.14579326
152	0x3d8f9a64	0.070118695
153	0x3dac5dcb	0.08416327
154	0x3cfdc366	0.030976962
155	0x3df0ab8f	0.11751472
156	0x3d95d123	0.0731528
157	0x3d9b3734	0.075788885
158	0x3d1eac3c	0.038738474
159	0x3dec47f5	0.11537162
160	0x3d86a474	0.06574336
161	0x3d7e1640	0.062032938
162	0x3d14125f	0.036150333
163	0x3dbb98f9	0.091600366
164	0x3d41570a	0.047202148
165	0x3d80c2aa	0.06287129
166	0x3ce9aab1	0.028523775
167	0x3d9b0e68	0.07571107
168	0x3cfb6827	0.030689312
169	0x3d384753	0.044989895
170	0x3d3639cb	0.04448871
171	0x3d902a83	0.070393585
172	0x3c00e28d	0.007866514
173	0x3d08d8f4	0.033410028
174	0x3d040d0d	0.03223901
175	0x3d2fc965	0.042916674
176	0x3bcc5dc0	0.006236762
177	0x3cb46a9a	0.022023488
178	0x3d2cfaf9	0.042231534
179	0x3d45d9b7	0.048303332
180	0xb9c48b0c	-0.0003748763
181	0x3985c784	0.00025516388
182	0x3d0d80a3	0.034546506
183	0x3d3e0c1b	0.046398263
184	0xbbdadc6f	-0.0066791098
185	0x3b008a71	0.0019613768
186	0x3ce99e40	0.028517842
187	0x3d1439c8	0.036187917
188	0x3b9a73be	0.0047135046
189	0x3c28eb28	0.010309972
190	0x3d1a2dc3	0.037641298
191	0x3d2b29a6	0.041787766
192	0x3c23eb91	0.010004894
193	0xbacfb1a9	-0.0015845794
194	0x3d1be146	0.038056634
195	0x3d29911b	0.04139815
196	0x3c179971	0.009252892
197	0xbb098925	-0.0020986286
198	0x3ce480ad	0.027893389
199	0x3cf7a432	0.030229662
200	0xbf918794	-1.13695
201	0x3fdab98c	1.7087874
202	0xbf920b1c	-1.140964
203	0x3fa5ca5c	1.295238
204	0x3eb736e5	0.3578407
205	0xbf0c5c63	-0.5482847
206	0xbf942f09	-1.1576854
207	0x3a7ff0ec	0.0009763378
208	0x3f1fe16b	0.62453336
209	0x3f9084c8	1.1290522
210	0xbe25bd18	-0.16185415
211	0x3e60101c	0.21881145
212	0x3f1405e7	0.57821506
213	0xbd2f43dd	-0.04278933
214	0x3e206f73	0.15667515
215	0x3eb1994b	0.34687266
216	0x3f751523	0.9573538
217	0x3f1bfd4f	0.60933393
218	0xbf4b6588	-0.794518
219	0x3ed4d563	0.4156905
220	0x3f8531c0	1.0405807
221	0x3ef8c357	0.48586532
222	0xbf9bd492	-1.2174246
223	0x3eecc4c8	0.46243882
224	0x3f52e281	0.8237687
225	0x3f38a961	0.7213345
226	0xbfa953ec	-1.3228736
227	0x3ef695f1	0.4816127
228	0x3e5d0b35	0.21586306
229	0x3f68d385	0.90947753
230	0xbfa4848b	-1.2852949
231	0x3f21d4d5	0.6321538
232	0xbea1539e	-0.31509107
233	0x3f356c7b	0.70868653
234	0xbf9473c9	-1.1597835
235	0x3f35dd78	0.7104106
236	0xbf2f6472	-0.6851264
237	0x3f7606a1	0.96103865
238	0xbf88b4b3	-1.0680145
239	0x3f552245	0.83255416
240	0xbf7f594c	-0.9974563
241	0x3ecf03ac	0.4043249
242	0xbf811947	-1.0085839
243	0x3f614058	0.87988806
244	0xbf9a43f5	-1.2051989
245	0x3f312eea	0.6921221
246	0xbf7f0766	-0.99620664
247	0x3f600e7a	0.8752209
248	0xbfb66cf6	-1.4252002
249	0x3d86cf81	0.06582547
250	0xbf82577b	-1.0182947
251	0x3f2f70ea	0.6853167
252	0xbfc87450	-1.5660496
253	0x3e73cd20	0.23808718
254	0xbf84f08e	-1.0385911
255	0x3f08aca6	0.5338844

fc_out.bias f4 [334]
0	0x3fa3dbe6	1.2801483
1	0x3f71a40d	0.94390947
2	0x3f39172e	0.72300994
3	0x3f3a7ce5	0.72846824
4	0x3f79887b	0.9747388
5	0x3f1b2d59	0.6061607
6	0x3f20d05e	0.62817943
7	0x3f314ccf	0.69257826
8	0x3f76ec5e	0.9645442
9	0x3f55c171	0.83498293
10	0x3e9e1ea6	0.30882758
11	0x3efcce90	0.49376345
12	0x3ecae51f	0.3962793
13	0x3f27d860	0.6556454
14	0x3eae0fee	0.33996528
15	0x3e56f4c6	0.20991811
16	0x3f0e2977	0.5553202
17	0x3ef9129d	0.48647013
18	0x3f0f164f	0.55893415
19	0x3e1858f3	0.14877681
20	0x3e6e0604	0.23244482
21	0x3e9e764a	0.30949622
22	0x3eeb04ce	0.45902103
23	0x3ed65d84	0.41868222
24	0x3f03a8a6	0.5142921
25	0x3ee92c87	0.45541784
26	0x3f2da203	0.67825335
27	0x3eb88717	0.36040565
28	0x3ea5419f	0.32276627
29	0x3eb9ddbd	0.36301985
30	0x3ed236d2	0.4105745
31	0x3ebfcf70	0.3746295
32	0x3e2c74cc	0.1684143
33	0x3f04c44b	0.5186202
34	0x3efd32a3	0.49452695
35	0x3eb47aa6	0.35249823
36	0x3eaf7d49	0.34275272
37	0x3e2a2644	0.1661616
38	0x3eb499f1	0.35273698
39	0x3e9256fe	0.28581995
40	0x3dd4ad4f	0.103846185
41	0x3e6de797	0.23232876
42	0xbd30392a	-0.043023266
43	0x3e4d3d25	0.20042856
44	0x3ef41eba	0.47679693
45	0xbcbfbe03	-0.023406034
46	0x3e11c48f	0.14235137
47	0x3e008a75	0.12552817
48	0x3e2b6133	0.16736297
49	0x3e55e982	0.20889857
50	0x3e7de216	0.24793276
51	0x3ec7c44c	0.3901695
52	0x3e9d571c	0.30730522
53	0x3ea01da2	0.31272608
54	0x3e8d3a23	0.27583417
55	0x3e4e9cac	0.20176953
56	0x3e482cb3	0.19548301
57	0x3b2e9523	0.0026639185
58	0x3e3f2996	0.18668208
59	0x3eb049a9	0.34431198
60	0x3ead6a3d	0.33870116
61	0x3e2826fb	0.1642112
62	0x3dc26ee5	0.09493808
63	0x3e025d8a	0.12730995
64	0x3dbc9fa3	0.09210136
65	0x3df9e6e4	0.12202242
66	0x3cea8c2d	0.028631294
67	0x3b955af2	0.0045579607
68	0x3cb3ef0f	0.021964578
69	0x3e58b546	0.211629
70	0xbd87de4e	-0.06634198
71	0x3d78877c	0.060676083
72	0x3ccf9180	0.025337934
73	0x3e4b2234	0.19837266
74	0x3eb06cfd	0.3445815
75	0x3e63b873	0.2223833
76	0x3e7906f8	0.24319065
77	0x3e46939d	0.19392247
78	0x3e63d222	0.22248128
79	0x3dd45aba	0.10368867
80	0x3e4f9bef	0.20274328
81	0x3dc236a3	0.094830774
82	0xb8c5b7df	-9.427941e-05
83	0x3e6d3b6c	0.23167199
84	0x3dfb8d67	0.1228283
85	0xbe112c11	-0.14176966
86	0x3df501c5	0.11963228
87	0x3e3a9e5a	0.18224469
88	0xbe048302	-0.129406
89	0xbd456f5e	-0.04820191
90	0xbd3d13dd	-0.04616152
91	0xbd4d2b1a	-0.050089933
92	0xbdba6601	-0.09101487
93	0xbc7db370	-0.015484676
94	0x3db4350e	0.08799182
95	0x3e9dcec1	0.30821803
96	0xbdf668f8	-0.1203174
97	0x3d9280e1	0.07153488
98	0x3e40223a	0.18763056
99	0x3e837e03	0.25682077
100	0x3e186a19	0.14884223
101	0x3cb8dbdc	0.022565775
102	0x3c1c3620	0.009534389
103	0x3cb9b092	0.022667203
104	0x3e727942	0.23679069
105	0x3daf3a1d	0.08556006
106	0x3d702980	0.058633327
107	0xbd2613a8	-0.04054609
108	0x3e682e68	0.22673953
109	0x3d755ddd	0.059903968
110	0x3e25cbba	0.16190997
111	0xbd3d4482	-0.046207912
112	0x3e347b98	0.17625272
113	0xbe30e337	-0.17274176
114	0x3d2ad039	0.041702483
115	0x3d024b7b	0.031810265
116	0x3ddc7a5d	0.107655264
117	0x3d410f73	0.047133874
118	0x3da18f0b	0.078886114
119	0x3ac73a59	0.0015199884
120	0x3e7e0126	0.24805126
121	0xbc69fb24	-0.014281068
122	0x3b3807c8	0.002808081
123	0xbd17a40d	-0.037021685
124	0x3d617c7f	0.05505037
125	0xbd20e677	-0.03928229
126	0xbb721561	-0.0036939012
127	0x3c804da2	0.015662018
128	0x3e736edf	0.23772763
129	0x3bcf194f	0.0063201557
130	0xbdaa24d9	-0.083078094
131	0xbaa23b6b	-0.0012377327
132	0x3d536dba	0.051618315
133	0x3deb8c14	0.11501327
134	0x3d0a3d18	0.03374967
135	0xbd6f9f44	-0.058501497
136	0x3d9d9749	0.07694871
137	0x3d4ad226	0.04951682
138	0xbdd86c2d	-0.10567508
139	0xbdb5294f	-0.088457696
140	0x3c960c4c	0.01831641
141	0xbe094741	-0.13406087
142	0xbd86e807	-0.065872245
143	0x3d56724d	0.0523551
144	0x3e41e5db	0.18935339
145	0x3dc221ac	0.09479079
146	0x3cda9a11	0.026684793
147	0x3e6c7f9e	0.23095557
148	0x3c65bdf5	0.01402234
149	0x3d7fc057	0.06243929
150	0x3dc15fad	0.09442077
151	0x3dcd2e66	0.100186154
152	0x3da1184b	0.07865962
153	0x3d3940de	0.045227878
154	0x3b12bda4	0.0022390867
155	0x3da6a5c7	0.08137088
156	0xbb784bdd	-0.0037887015
157	0x3d781879	0.060570214
158	0x3d93546e	0.07193838
159	0x3c1f5464	0.00972471
160	0x3d778fee	0.060439996
161	0xbd7755e9	-0.060384665
162	0x3e127a61	0.14304496
163	0x3db52d4f	0.088465326
164	0x3d8a0963	0.067400716
165	0x3c5976e0	0.013272971
166	0xbe0e9eb4	-0.13927728
167	0x3d233dcd	0.03985386
168	0xbe06dbae	-0.13169739
169	0x3e5ddc06	0.21665964
170	0x3e14e157	0.14539085
171	0x3d6de729	0.05808178
172	0x3e5929fe	0.21207425
173	0xbe580fbc	-0.21099752
174	0xbdead8d4	-0.11467138
175	0xbe2f312b	-0.171086
176	0xbc34bb86	-0.011031037
177	0xbd860f7c	-0.06545922
178	0xbe24a454	-0.16078311
179	0xbd1d946c	-0.038471624
180	0x3d77d79f	0.060508367
181	0xbce5e8c0	-0.028065085
182	0xbb7c6a5f	-0.003851555
183	0xbe19bef6	-0.15014252
184	0xbe530f7d	-0.20611377
185	0xbd9d7432	-0.07688178
186	0xbd6ec754	-0.058295563
187	0xbd0d92da	-0.034563877
188	0xbd7c68f7	-0.06162354
189	0x3d949b5e	0.072561964
190	0x3e1ed36e	0.15510342
191	0xbe340639	-0.17580499
192	0xbe2d03f6	-0.16896042
193	0xbde20443	-0.11035969
194	0xbd68cece	-0.05683785
195	0xbd874ee6	-0.066068456
196	0x3c8b8110	0.017029315
197	0x3d933be8	0.071891606
198	0x3dcf9561	0.10135914
199	0x3c65f933	0.0140364645
200	0xbbf1c679	-0.007378396
201	0x3cc42cd9	0.023947166
202	0x3c471239	0.012150341
203	0x3d4c5aa0	0.049891114
204	0x3c038620	0.008027583
205	0x3caa77f6	0.020809155
206	0xbd4b5299	-0.04963932
207	0xbd840c1b	-0.064476214
208	0x3d1b8da2	0.03797687
209	0xbda49a2a	-0.08037217
210	0x3d64d132	0.055863567
211	0xbd33f285	-0.043932457
212	0xbe953566	-0.29142302
213	0xbbd14b33	-0.0063871383
214	0xbd19f02e	-0.03758257
215	0xbd0be750	-0.034156144
216	0xbdfd880f	-0.12379467
217	0xbde5e510	-0.11225331
218	0xbe030b38	-0.12797248
219	0xbdca72ec	-0.09885201
220	0xbcdd127a	-0.02698635
221	0x38a3af1c	7.805062e-05
222	0xbd61d303	-0.055132877
223	0xbdd3ca69	-0.10341341
224	0x3d48682e	0.04892748
225	0xbe5f680f	-0.21817039
226	0x3d6eb2d1	0.058276
227	0xbdd902f6	-0.10596268
228	0x3dec08f8	0.11525148
229	0xbcf9c011	-0.030487092
230	0xbc81f4b7	-0.01586376
231	0xbd981a14	-0.07426849
232	0xbdeb3dba	-0.11486383
233	0x3cd89f5f	0.026443182
234	0xbd3da00b	-0.046295207
235	0xbd120afe	-0.035655014
236	0xbdcc69de	-0.0998113
237	0xbdc45426	-0.095863625
238	0xbdc8009a	-0.0976574
239	0x3d03963a	0.03212569
240	0x3b2e6b0f	0.0026614105
241	0xbd55b659	-0.052175853
242	0xbd939fe8	-0.07208234
243	0xbd8aa4c0	-0.06769705
244	0xbda596bf	-0.08085393
245	0x3d1f3cfa	0.03887651
246	0xbcab471d	-0.020907933
247	0xbc201fa9	-0.009773173
248	0xbd7267ec	-0.05918114
249	0xbdbf4c81	-0.09340764
250	0xbe448331	-0.1919067
251	0xbe0e5ecf	-0.13903354
252	0xbdb2d222	-0.08731486
253	0xbdc95e9f	-0.09832501
254	0xbe22b3a3	-0.15888838
255	0xbded1fdb	-0.115783416
