lstmt/model_pt/lstmt_traj_4_fold_CV_2700.pt (torch, 271037 bytes, 6 tensors)

rnn.weight_ih_l0 f4 [16, 4]
00000000: 7e8b e03d c85f 83bd 31f8 babe a9a0 d5be
00000010: 9ac7 a93c c9b5 8d3e 11e8 a9be 6a79 dd3c
00000020: 4a82 293e 0df9 3b3e 8348 a83e 2e7d 30bc
00000030: 1ced 0040 460b b3bd cb67 a4be 0bbb 1e3e
00000040: 2a6a 193e 08cb c4bd 3dbb 3e3c c439 98bd
00000050: c6ec a23c 4fc5 853e 6e16 a7be dd46 cdbb
00000060: c716 b33d 5bf1 fa3d 801f 3b3e 602e 4e3b
00000070: ed47 9b3d 5d81 d23e 9bc0 013f 8aed fcbb
00000080: 36f5 e23d 9dcc 9abc f64a dabd 11d0 183c
00000090: 66ec 31bd 8419 a73d 89bd ef3b 0b07 92ba
000000a0: 94a9 0a3d 8749 883d 3a17 5b3c 2462 d339
000000b0: b7d8 ac3e 03cb a63e b83d 983d 0fd2 af3d
000000c0: 9a3d bfbc 1e4b 0fbe 88f6 81be 2589 6a3c
000000d0: 100c 2c3d cf69 babe 53a8 48bd 7399 b33c
000000e0: 9a2b b8bc 5678 5c3e 008c 9bbe d155 bc3b
000000f0: 4708 75bc 1437 ee3d 3258 8f3d c078 a3bb
0.10964106 -0.06414753 -0.3651748 -0.41724136 0.02072506 0.27677754 -0.33184865 0.027035434
0.16553608 0.18356724 0.32867822 -0.010772033 2.014472 -0.087423846 -0.32110438 0.15501039
0.14981905 -0.09609038 0.011641321 -0.07432893 0.019888293 0.26127097 -0.326343 -0.006264551
0.08744579 0.12253066 0.18273735 0.0031460747 0.07582078 0.4111432 0.5068452 -0.0077187466
0.110819265 -0.018896395 -0.10658829 0.009326951 -0.043438338 0.081591636 0.0073162955 -0.0011141015
0.03385313 0.06654649 0.013372237 0.00040318177 0.3375909 0.3257676 0.07433647 0.08584987
-0.023344804 -0.13993499 -0.253834 0.014314924 0.04200369 -0.3640885 -0.04898865 0.021923756
-0.022481728 0.2153028 -0.3038025 0.005747535 -0.014955587 0.11631599 0.06999244 -0.0049887598

rnn.weight_hh_l0 f4 [16, 4]
00000000: 4b78 813f 5b6e 1a3f 8059 b5bd 17e9 9e3f
00000010: 113d 553f 5ff7 b33d 44af 67bf aff1 943f
00000020: ccba 85bd 1111 ff3d 1d07 82be a498 873e
00000030: 1e37 833e 3bce 013e cf00 383e 1f8d d53e
00000040: 3d7c 3b3f d779 033f ff57 a63e dced 7e3f
00000050: 7ed8 163e db3f 933d 713c f3be e20d 353f
00000060: dffe febc d9f7 9cbe 9e91 6b3f 8fc5 013f
00000070: 39af d93d 1f72 3fbf 9e29 02c0 664d 503f
00000080: 2bdf 673e b062 a43e ff7c a3be 3577 3a3f
00000090: 7236 abbe 7be4 243f a617 d2be 90bc 2ebe
000000a0: 7a7a 6e3e a65c 66bd 3ade 7e3e 29e9 b53e
000000b0: 1f31 a53e 27c1 f1be 9cd9 1bbe 8513 df3d
000000c0: a2f1 113f 4c79 9e3f f100 25be b8ca 953f
000000d0: c711 eabe d9c8 9a3c 7289 be3f d4c4 4bbd
000000e0: fe24 e2be 79a5 48bf 8c24 b5bf a853 123f
000000f0: b8bc 1940 6bae 073e 57e3 b3bf 15b5 0b40
1.0114836 0.6032464 -0.088549614 1.2414883 0.83296305 0.08787417 -0.9050181 1.1636256
-0.06529769 0.12454427 -0.25396052 0.26483643 0.2562799 0.12676327 0.17969058 0.4170923
0.7323645 0.5135779 0.3248901 0.99581695 0.14731023 0.07189914 -0.4750705 0.7072431
-0.031127391 -0.30657843 0.9201907 0.50692075 0.10629124 -0.7478351 -2.03379 0.813681
0.22643726 0.32106543 -0.31931302 0.72838145 -0.33439976 0.64411134 -0.41033667 -0.17064118
0.23288909 -0.0562407 0.2488946 0.3552945 0.3226404 -0.47217676 -0.1521973 0.10892395
0.5700933 1.2380767 -0.1611364 1.170249 -0.45716688 0.0188946 1.4885695 -0.049748257
-0.44168848 -0.7837749 -1.4151778 0.571589 2.4021435 0.13250129 -1.4053754 2.1829274

rnn.bias_ih_l0 f4 [16]
00000000: c48e 813e 576c 2b3f 6bdf c3be 400f 0940
00000010: 2d2e 4a3f 8b51 bf3e 6c84 c43e 2c4d 713e
00000020: 6b83 84be 7be9 403e 048a efbe a12c 5c3e
00000030: ac17 523f aaf2 0f3f 97ab 1c3f fb28 e43e
0.25304234 0.6696219 -0.38256392 2.1415558 0.7897671 0.373669 0.3838228 0.23564595
-0.25881514 0.18839066 -0.46784985 0.215014 0.8206737 0.5622965 0.61199325 0.44562516

rnn.bias_hh_l0 f4 [16]
00000000: 76dc 503e 2d52 313f b28c b3be c891 0640
00000010: 11c8 593f f5d6 ae3e 10ae dc3e 42f2 8d3e
00000020: 5494 60be 8fcd dd3d 90a9 e7be 7258 4e3e
00000030: 8cfe 543f 9615 103f d64c 163f f056 dc3e
0.20396599 0.69266015 -0.3506828 2.1026478 0.850709 0.34148374 0.4310155 0.2772389
-0.21931583 0.10830223 -0.45246553 0.20150927 0.8320091 0.5628294 0.5871099 0.43035078

fc_out.weight f4 [334, 200]
00000000: 2f6c 27c0 017d 0dbe 31c9 75bf a537 f5bf
00000010: acd4 45c0 3071 7e3f 8f26 60bf 4231 ebbf
00000020: 4306 4ec0 8787 c13f a600 3abf 5a77 e6bf
00000030: 81c2 3ac0 603c df3f 91e3 16bf 8fa1 edbf
00000040: 78c1 05c0 4e65 db3f c4ab 0abf 5e5f 11c0
00000050: ea8e b4bf 9b05 d03f c66b dcbe 390e 36c0
00000060: 58e9 85bf 92c5 f23f dc36 f4bd adad 0fc0
00000070: 6631 49bf efc2 d83f 9786 b2bd 3c63 c9bf
00000080: 4abf ccbe dbe8 cd3f e579 a6bb b4fc 86bf
00000090: 3618 e4bd e6f7 bd3f 332e ce3d 9b5f 2cbf
000000a0: 84f4 853e 2cb8 bb3f 0c48 2f3e 6386 b7be
000000b0: e318 053f dfdb 6b3f 712d f2be 6696 5cbf
000000c0: 677d 323f 3559 6a3e 7a11 a6be 1d1e 90bf
000000d0: 3ac1 2e3f 2db2 49bd a4cd 2bbf 2a98 e9bf
000000e0: f3f0 ef3e e214 41be 3f23 70bf 6ae1 75c0
000000f0: 2daa eb3e 86ed 71be 96bf 82bf c609 53c0
00000100: 5ea0 e73e caa0 87be d7fd 82bf e578 53c0
00000110: 8957 ea3e 521e 92be bee3 85bf cae0 52c0
00000120: 9da6 eb3e 7fe1 a0be 6d8f 83bf e886 50c0
00000130: 1b88 eb3e 4f30 aebe f16d 83bf 6f40 52c0
00000140: 6223 eb3e 18bd b2be ab15 84bf 3d78 53c0
00000150: b7f9 ea3e 21c6 bbbe 0500 82bf 6abd 42c0
00000160: fa20 f33e 916d c2be cd07 81bf ef43 38c0
00000170: f5b6 ef3e 4f69 c5be 0b89 7ebf 76bc 33c0
00000180: c533 f53e 57b7 c3be 1ae8 81bf 6894 2ac0
00000190: 4742 fb3e 01f8 c3be a5e9 80bf ab09 22c0
000001a0: 77c1 063f 1880 c4be c3dc 7ebf 4e13 1ec0
000001b0: 4721 0e3f 5de3 c6be 0a30 7dbf f64c 18c0
000001c0: f502 013f 4157 c4be 5b36 7abf e47e 12c0
000001d0: c7fe f33e 57cf c3be c264 7cbf b895 0ec0
000001e0: b6e3 f13e 12d5 c2be 0d8f 79bf 79e4 0ac0
000001f0: e30c ef3e 7083 c5be 5ffc 7abf 76a0 08c0
00000200: 5f00 eb3e 3e51 c4be e303 76bf 038e 01c0
00000210: 6344 ed3e 258b c3be b273 71bf 1454 febf
00000220: 8d0a e93e d6ee c2be 1388 72bf ad52 f5bf
00000230: 1afe e53e 8e2c c0be 1e07 73bf 61aa eabf
00000240: a50c e23e 89dc c1be 9dbb 6bbf de99 f3bf
00000250: 191e e03e 7d26 bebe a80b 6abf 0dff e6bf
00000260: 872d e23e d999 bbbe 9be8 66bf 98a4 d4bf
00000270: 41da dd3e f3fd b9be d397 56bf a0c0 b6bf
00000280: 3ae5 df3e ef11 b9be a208 43bf bc8d 94bf
00000290: 91ba e23e 2678 b8be 8eca 3dbf cb97 85bf
000002a0: f8b0 e23e 81d5 babe 3ad7 34bf d260 4dbf
000002b0: 5512 df3e 4a34 b9be eb79 35bf 21e3 0ebf
000002c0: 2352 e13e 53b0 b5be d362 32bf 2f91 cabe
000002d0: 22af e13e 3f71 b4be 53ec 33bf 44be c3be
000002e0: edbe e03e adf7 b5be d87f 34bf f639 bdbe
000002f0: 4ef3 123f 3654 b8be e3a2 3cbf da7c f0bd
00000300: 5896 143f cc1d b6be 9537 3dbf 117a fcbd
00000310: c0a9 133f 40fb b9be dc34 3dbf 5534 eabd
00000320: b596 07c0 b839 863f c340 95bf 1a55 86c0
00000330: 4ccf bebf 9e61 463f ecbb b3bf b7b4 81c0
00000340: d0d9 5fbf fa11 f13d be1c c2bf 765d 8ac0
00000350: 44cf 9abe 918c edbe 9566 ddbf b496 75c0
00000360: b8f8 e33d 38b8 64bf ad6e d3bf 0c99 12c0
00000370: 5866 953e f616 88bf 39ce aabf 7195 76bf
00000380: bf0a b63e be68 8ebf 0b32 99bf 480a a0be
00000390: dd14 c33e 5ab9 8cbf 6028 7bbf 0bc9 74bd
000003a0: 4caf c43e bb96 87bf aeb6 52bf 08eb f13e
000003b0: 1350 c53e b053 7abf 190e 47bf 730c 6d3f
000003c0: d598 c43e 45ff 75bf 97ef 88bf d790 893f
000003d0: aeae c83e 6a26 61bf 6d87 ddbf 9715 583f
000003e0: 9d55 b23e 82c1 5abf d5b9 06c0 7633 313d
000003f0: 1eb2 033e 690e 21bf 242c e0bf 8c4a b7c0
-2.615978 -0.13817216 -0.9601012 -1.9157606 -3.0911055 0.9939146 -0.87558836 -1.8374407
-3.2191322 1.5119485 -0.7265724 -1.8005173 -2.9181216 1.74403 -0.5894099 -1.8564929
-2.0899334 1.7140291 -0.54168344 -2.2714458 -1.4106114 1.6251711 -0.43050975 -2.844618
-1.0461836 1.8966544 -0.11924526 -2.2449753 -0.78591 1.6934489 -0.08717077 -1.5733409
-0.39989692 1.6086687 -0.005080449 -1.0545869 -0.1113743 1.4841278 0.100674056 -0.6733338
0.26163113 1.466558 0.17117327 -0.35844716 0.519911 0.9213237 -0.47300294 -0.8616699
0.697226 0.22885592 -0.3243521 -1.125919 0.6826359 -0.049242187 -0.6711066 -1.8249562
0.46863517 -0.18855622 -0.9380378 -3.8418832 0.4602827 -0.23625764 -1.0214717 -3.2974715
0.45239538 -0.2648986 -1.0233716 -3.3042538 0.4576991 -0.28538758 -1.0460126 -3.29497
0.46025553 -0.3142204 -1.0278145 -3.258234 0.46002278 -0.34021232 -1.0267926 -3.2851827
0.45925432 -0.34909892 -1.0319113 -3.3042138 0.45893642 -0.36674598 -1.0156256 -3.042811
0.47486097 -0.37974218 -1.0080506 -2.8791463 0.46819273 -0.38556907 -0.9942786 -2.8083777
0.4789106 -0.38225815 -1.0148957 -2.665308 0.49074003 -0.3827515 -1.0071303 -2.53184
0.52638954 -0.38378978 -0.99555606 -2.4699283 0.5551953 -0.3884534 -0.98901427 -2.3796973
0.5039514 -0.3834782 -0.9773919 -2.2889948 0.47655317 -0.38244125 -0.98591244 -2.227888
0.47244042 -0.38053185 -0.97483903 -2.1701949 0.4668952 -0.3857684 -0.9804134 -2.1347938
0.4589872 -0.38343233 -0.9609968 -2.0242927 0.46341237 -0.38192096 -0.9431716 -1.9869409
0.45515862 -0.38072842 -0.9473888 -1.9165856 0.44920427 -0.37533993 -0.94932735 -1.8333246
0.44150272 -0.37863567 -0.9208315 -1.9031332 0.43772963 -0.3713874 -0.91424036 -1.8046585
0.4417536 -0.36640814 -0.9019868 -1.661273 0.43330577 -0.3632656 -0.83825415 -1.4277534
0.43729573 -0.36146495 -0.7618505 -1.1605754 0.44282964 -0.36029166 -0.741372 -1.0436949
0.4427564 -0.36491016 -0.7064091 -0.8022586 0.43568674 -0.36172706 -0.7088916 -0.5581532
0.44007978 -0.35486087 -0.69682044 -0.3956389 0.44078928 -0.3524265 -0.7028248 -0.382311
0.43895665 -0.35540524 -0.70507574 -0.36958283 0.57402503 -0.36001748 -0.73686045 -0.117425635
0.58041906 -0.35569608 -0.73912936 -0.1232797 0.5768089 -0.363245 -0.7390878 -0.11435763
-2.1185734 1.0486364 -1.1660389 -4.1978884 -1.4907012 0.774927 -1.4041724 -4.05331
-0.8744173 0.11771007 -1.5165021 -4.323909 -0.30236256 -0.46396306 -1.729693 -3.8373232
0.11131424 -0.89343596 -1.651815 -2.2905912 0.29179645 -1.0632007 -1.3344184 -0.9632178
0.35555074 -1.1125715 -1.1968397 -0.31257844 0.38101855 -1.0994065 -0.9810848 -0.059762042
0.3841499 -1.0592874 -0.8231 0.47249627 0.38537654 -0.97783947 -0.77755886 0.9259712
0.38397852 -0.96092635 -1.0698117 1.0747327 0.3919577 -0.8794924 -1.7306954 0.84407943
0.34830943 -0.8545152 -2.1050923 0.043261968 0.12860915 -0.62912613 -1.7513471 -5.72785

fc_out.bias f4 [334]
00000000: e76e 553f d5a6 ad3e 87fb cc3e 1eef 513e
00000010: 750e de3e 6d1f a13e d2e7 483e caff 663d
00000020: 4984 f03e 9c20 923e 0af9 283e 9ca6 283e
00000030: 8784 373e 9b43 ba3e 2942 953d 6d40 8e3e
00000040: 3bcc c4bd e3fd 9abd 1b57 083e 2d6f 3a3e
00000050: 4872 1d3d 299c a13c 05de 9a3d 1830 a73e
00000060: 1a10 4d3e e94f 7c3e 010f d63d 74f9 d63c
00000070: b094 85bd 876e b8bd ff98 83be 5a88 ad3d
00000080: 45ba b7bd d14f 413e 384f 133e 9097 36be
00000090: 84bd 3fbe 516b 303d ea83 9b3d 387c d3bd
000000a0: abf8 f5be e0e4 413d ce46 99be 3329 5a3d
000000b0: 869d e83d 179b 07bd f98d 1d3d e375 d9bd
000000c0: 206b 6b3d 33b1 7bbd efa2 6d3d e2cb 843e
000000d0: a5c6 503d 49fe be3e af24 29bd d115 3c3e
000000e0: 757f 08be f030 523e 2c7b 283e c757 ba3c
000000f0: 63d8 6d3e 7c57 653d 312c 26be 3193 f73c
00000100: 594d 22be 26f1 e43d 4b17 d8bd e52d 1bbd
00000110: d42d 3dbe ff96 763d 08eb 703b 69d1 3abe
00000120: 6d4d 37bc 8ff3 233e 7732 663e 075c 033d
00000130: 983a 303e adca 26be d0e9 8abe 7d21 86be
00000140: 3d7d 83bd 1a72 15be 04ff 9d3d 2601 f4ba
00000150: 7e70 eb3d 2380 02bc 6781 023e 235a 8a3e
00000160: 7907 31be 2f12 80bd 85df 6fbd cfd7 a63d
00000170: e913 d9bd 8ca4 58bd 003d 96bd 45a5 083e
00000180: a5e4 86bd c9bd 8d3d 7f08 09be 9c85 a83d
00000190: 443e 65bd bec7 87bc a07e d3bb ddd4 c4bd
000001a0: e54c 9d3d d38c 0e3e 33d1 26be 0e9a 33be
000001b0: dcdd e93d f86a 3abd 0753 a2be 0aa1 45be
000001c0: c2ce 723c 59c7 353e 5a79 193b b74d cb3e
000001d0: 3cc3 3e3c c66a 4b3e 82f6 05be 159c 753e
000001e0: d0a9 87bd 42d4 763d 778f 06be e777 f7bd
000001f0: 611c 82bd 3b3d 76bd ad0c 43be af5c fdbd
00000200: c1fc d3bd 488e 7fbc 8768 03be 0805 3ebe
00000210: 8935 3fbe 4d89 4fbe 4021 55be 45b6 55be
00000220: a00b 193d 2b60 2dbe 60f1 8ebd 869c 1e3e
00000230: 3ddb 05be 1322 f1bd fc71 073d 0e88 3dbd
00000240: 4ef1 e53e e002 ab3e 80e3 c03e be4d e83d
00000250: 5b42 013e 2c1b 233e 7fed 093e 7828 45be
00000260: a6ac 43be 1f60 a4be de57 8abe 953c c8be
00000270: 0e28 28be bfd1 0fbe 10a9 03be 2931 7bbe
00000280: 82ac e1bd a42b d63b 03cb 35be 2a7f 6bbb
00000290: 508f 563b 5762 c73d 176a e63c 58a4 f5bd
000002a0: d72e e13e d859 85bc ffad 483e 5f7a 2d3e
000002b0: c866 013d 527c fbbd ec7c 6fbe 5df2 b83c
000002c0: a7c4 7dbe 20c2 38be b9ae b8bc 1e2c d8bd
000002d0: dc96 ffbd 5e8d 42bc 93e4 043e 4ad8 cb3b
000002e0: 2b25 f0bb 4f53 183d e4d3 f53c cb26 11be
000002f0: a8fd eabd 9d7d cbbd bc98 f0bc c42d b63d
00000300: 909f 8abd 3c63 c5bd 76cc dabd b941 463e
00000310: 80e6 3c3e e5c0 153e 4697 123d f523 9fbd
00000320: 0eee 98bd fd86 9dbd 1900 4cbe e4b8 a93c
00000330: 1b1d cf3d ade6 34be feff 993e 1959 c9bd
00000340: c164 b2be 4a0d 37be 7cf3 dd3d fd50 963e
00000350: 3c6f e53e b783 2a3d 1975 213e 5d68 d33d
00000360: 558d 873d d0de 443e 3da4 693f cc5c 8e3f
00000370: d1f5 1d3f 52dc 143f ba76 3f3b 98a2 023f
00000380: 42ed 9e3e f4ef 1d3f 05e8 ef3d a5d2 923d
00000390: 2a0f 72be f0ba 52be c059 fcbc eddf 57be
000003a0: 629f 41bb 7f07 40be cc0d 14be 09fb 2bbe
000003b0: 2a86 833d ab0e 8abd 32b2 4dbd d84a 46be
000003c0: 7ae2 cbbd b90d 243d 2da7 323d 7e9f 5dbe
000003d0: adb7 43bd 3224 16be 8816 2bbe 389d 8cbe
000003e0: db36 9dbd 3522 89bd ba56 11bd bdc4 10be
000003f0: a9e1 19be 8804 943d e1ab c63d 5fab 3fbc
0.8337235 0.33916345 0.4003565 0.20501372 0.43370405 0.31469288 0.19619682 0.056396283
0.46975926 0.28540504 0.16501251 0.16469806 0.17921649 0.36379704 0.0728801 0.27783528
-0.09609266 -0.07567956 0.13314478 0.18206473 0.038439065 0.019727783 0.07561878 0.3265388
0.20025674 0.24639858 0.104520805 0.026241995 -0.065225005 -0.090054564 -0.25702664 0.084732726
-0.08971075 0.18878104 0.14385688 -0.17831254 -0.18724638 0.043071095 0.0759352 -0.10326427
-0.4804128 0.047337413 -0.29936832 0.053261947 0.1135817 -0.03310689 0.038465474 -0.10618188
0.05747521 -0.061448287 0.058016714 0.259368 0.050970692 0.3730338 -0.04129475 0.18367697
-0.13329871 0.2052648 0.16453236 0.022746934 0.23227076 0.055991635 -0.16227795 0.030221554
-0.15849818 0.11178808 -0.10551318 -0.037885565 -0.18474513 0.060202595 0.0036761183 -0.18243946
-0.011187893 0.16010879 0.22480188 0.032070186 0.17209852 -0.16288252 -0.2713151 -0.26197425
-0.06420372 -0.14594308 0.07714656 -0.0018616065 0.114960656 -0.0079651205 0.12744676 0.27021894
-0.17288007 -0.06253468 -0.058562774 0.08146631 -0.10599501 -0.0528913 -0.073358536 0.13344295
-0.06586579 0.06920964 -0.13382147 0.08228609 -0.055967584 -0.016574737 -0.006454304 -0.09610913
0.07680682 0.13920908 -0.1629074 -0.17539236 0.114192694 -0.04551217 -0.3170397 -0.19299713
0.014819803 0.17751826 0.0023418278 0.3970773 0.011643227 0.1986495 -0.13082317 0.23985322
-0.06624186 0.06026102 -0.13140665 -0.120834164 -0.06353069 -0.060116988 -0.19047804 -0.123711936
-0.10350943 -0.015597887 -0.12832843 -0.18556607 -0.18672766 -0.2026722 -0.20813465 -0.20870312
0.037364602 -0.16931216 -0.069796324 0.15489396 -0.13071914 -0.11774077 0.03306769 -0.04627233
0.44910663 0.3340063 0.3767357 0.11342953 0.12622969 0.15928334 0.13469504 -0.19253719
-0.19108829 -0.32104585 -0.27020162 -0.3910872 -0.1642153 -0.14044856 -0.12857461 -0.24530472
-0.110192314 0.006535964 -0.17753224 -0.003593395 0.003273923 0.09735554 0.02812676 -0.11994237
0.43981048 -0.016278192 0.19597624 0.16941212 0.03159216 -0.122795716 -0.23387498 0.022576505
-0.24782048 -0.18042803 -0.022544252 -0.1055529 -0.12479946 -0.011874525 0.12977819 0.006220852
-0.0073286495 0.037188824 0.030008264 -0.14174955 -0.11474162 -0.09936068 -0.029369704 0.08895448
-0.067687154 -0.09638068 -0.10683529 0.19361009 0.18447304 0.14624365 0.035788797 -0.0777053
-0.0746728 -0.076917626 -0.19921912 0.020718046 0.10112973 -0.17666121 0.3007812 -0.09831447
-0.34842494 -0.17876163 0.108374566 0.29358664 0.44811428 0.04162952 0.15767325 0.1032264
0.06618754 0.19225621 0.9126623 1.1122069 0.6170321 0.5814868 0.0029215054 0.5102935
0.31040388 0.61694264 0.11714176 0.071690835 -0.23638597 -0.20579123 -0.030804515 -0.21081515
-0.0029544462 -0.1875286 -0.14458388 -0.16794981 0.06422074 -0.06741079 -0.05021877 -0.19364488
-0.09955306 0.04005215 0.043616462 -0.21642873 -0.04778259 -0.14662245 -0.16707814 -0.27463698
-0.076764785 -0.066959776 -0.0354831 -0.1413755 -0.15027489 0.07227427 0.09700752 -0.011698573
