lstmt/model_pt/lstmt_traj_sf_5_fold_CV_2600.pt (torch, 272396 bytes, 6 tensors)

rnn.weight_ih_l0 f4 [16, 4]
0	0x3d1a3783	0.037650596
1	0xbd5be499	-0.053684805
2	0xbf0eaf99	-0.5573669
3	0x3cb12f5e	0.021629032
4	0x3c1e1e95	0.009650846
5	0x3debf368	0.115210354
6	0xbdf4c3dd	-0.119514205
7	0x39d5ebbc	0.00040802162
8	0xbc3df2cd	-0.011593533
9	0x3d3f2484	0.046665683
10	0xbe96fcc2	-0.29489714
11	0x3bbd6fbd	0.0057811425
12	0x3c8b07f1	0.01697156
13	0xbe188dec	-0.14897889
14	0x3f0195e1	0.5061932
15	0x3bb32b37	0.005467798
16	0x3ce7bfab	0.028289637
17	0x3741b8aa	1.1546692e-05
18	0xbe320aef	-0.17386983
19	0xbbf0fea3	-0.007354574
20	0xbd07bac3	-0.033137094
21	0x3ebfd213	0.3746496
22	0xbe1c6fab	-0.15276973
23	0xbc404dd6	-0.0117373075
24	0x3f69abd6	0.91277826
25	0x3dfa8a32	0.1223339
26	0x3e4f0220	0.20215654
27	0xbd8682cb	-0.065679155
28	0x3e38d55d	0.18050142
29	0xbd1e9693	-0.038717818
30	0x3d67d1e0	0.056596637
31	0x3d10fa8e	0.035395198
32	0x3d245a8b	0.04012541
33	0xbe0391a4	-0.12848526
34	0xbdc6a0dc	-0.0969865
35	0x3cf785cc	0.030215167
36	0x3df17b3f	0.117910855
37	0x3dc82d0f	0.09774219
38	0xbdfd5a60	-0.12370753
39	0xbe804c99	-0.2505844
40	0xbf6a7b38	-0.91594267
41	0xbe102b01	-0.14078905
42	0x3a78ef2a	0.00094960874
43	0x3b3665f1	0.0027831758
44	0x3d3d156e	0.046163015
45	0x3e2fe5e8	0.17177546
46	0x3d7ec2c6	0.06219747
47	0xbcd1c008	-0.025604263
48	0x3fcc1091	1.5942556
49	0xbe0337c5	-0.12814243
50	0x3eafd5f6	0.34342927
51	0xbe3655ad	-0.1780612
52	0x3d24926f	0.040178712
53	0x3e9364bc	0.28787792
54	0xbebe81ba	-0.3720835
55	0xbc97fc6d	-0.018552983
56	0x3cfc4067	0.030792428
57	0xbebb0af1	-0.36531785
58	0x3cffaf8a	0.031211633
59	0x3c453766	0.012037134
60	0x3c1ce9c3	0.0095772175
61	0x3ecb1708	0.3966601
62	0x3e1a1bc3	0.15049653
63	0x3c407abe	0.011748014

rnn.weight_hh_l0 f4 [16, 4]
0	0x3d830c48	0.06398827
1	0xbf2154de	-0.6302012
2	0xbf0a777b	-0.5408856
3	0x3f2017b9	0.625362
4	0xbe49710b	-0.19672029
5	0xbee78f7d	-0.4522666
6	0x3f8d8e02	1.1058962
7	0xbf29b9b1	-0.6629897
8	0xbfb81ae9	-1.4383212
9	0x3fd3d98e	1.6550767
10	0xbfbaf285	-1.4605261
11	0xbdf4d100	-0.11953926
12	0x3e821555	0.254069
13	0xbd072484	-0.03299381
14	0x3e1d0716	0.15334734
15	0xbe7ec523	-0.24879889
16	0xbf0d9aa3	-0.5531408
17	0xbee2a3c0	-0.44265556
18	0xbdab8e0f	-0.08376705
19	0xbe512213	-0.20423155
20	0x3e9afc08	0.3027041
21	0xbe1f7052	-0.1557019
22	0x3d188a72	0.037241407
23	0x3fdaea2d	1.7102715
24	0x3f4084a5	0.752024
25	0x3e741f22	0.23840001
26	0xbf22249f	-0.6333713
27	0x3ea597a4	0.32342255
28	0xbe404ac5	-0.18778522
29	0xbcae1dcc	-0.021254443
30	0x3ef014ef	0.4689097
31	0xbe9716a4	-0.2950946
32	0x3de9f0dc	0.114228934
33	0x3f725a5f	0.94669145
34	0xc0028e29	-2.0399268
35	0x3fb0d6c4	1.3815541
36	0x3f45b433	0.7722809
37	0x3ebdb0b5	0.3704888
38	0xbf9d9e48	-1.2313929
39	0x4006acef	2.104305
40	0xbf1ac700	-0.604599
41	0x3edb9004	0.42883313
42	0xbf693b97	-0.9110655
43	0x3ead0032	0.33789212
44	0x3ec51d22	0.3849879
45	0x3e35babe	0.17747018
46	0xbebc872b	-0.36821875
47	0x3e266d45	0.1625262
48	0x3f8907d8	1.0705519
49	0x3f2c4c4d	0.67303926
50	0xbeff85b2	-0.4990669
51	0x3eb22992	0.3479734
52	0xbe8ccd40	-0.27500343
53	0x404fc343	3.2462928
54	0x3f879212	1.0591452
55	0xbee31e56	-0.44359082
56	0x3f05e4b3	0.5230209
57	0x3f864218	1.048892
58	0x3f4ff4ca	0.81232893
59	0x3e9163c1	0.2839642
60	0x3f90b8f5	1.1306444
61	0x3f7966f7	0.97422737
62	0xbf94386d	-1.157972
63	0x3aa60f59	0.0012669369

rnn.bias_ih_l0 f4 [16]
0	0xbe839e4c	-0.25706708
1	0x3ee07ca3	0.4384509
2	0x3da14b95	0.07875744
3	0x3ee8f7d6	0.45501584
4	0x3dffdcd4	0.124932915
5	0x3f095356	0.53642786
6	0x3da77aae	0.08177696
7	0xbd7481ae	-0.059693985
8	0x3ea29835	0.3175675
9	0xbe90fdc4	-0.28318608
10	0xbcba5bb4	-0.022748806
11	0x3ec69f50	0.3879342
12	0x3c807ae8	0.015683606
13	0x3f74bb4f	0.9559831
14	0x3ef7c2b1	0.48390725
15	0x3fb0b1a5	1.3804213

rnn.bias_hh_l0 f4 [16]
0	0xbe536003	-0.20642094
1	0x3edb8343	0.42873582
2	0x3d877b01	0.06615258
3	0x3ee7ac41	0.45248607
4	0x3e2e3727	0.17013226
5	0x3f05b4df	0.5222911
6	0x3d102789	0.035193954
7	0xbc4ca9d9	-0.012491667
8	0x3e9a9513	0.3019186
9	0xbea994df	-0.33121392
10	0xbd43ec97	-0.04783305
11	0x3ebed196	0.37269276
12	0xbd51df41	-0.051238302
13	0x3f7e7d02	0.99409497
14	0x3ee8a35c	0.45437133
15	0x3fb0a96b	1.3801702

fc_out.weight f4 [334, 201]
0	0x3fea9f9b	1.8329958
1	0xbd012f36	-0.031539164
2	0x400a3b4b	2.159869
3	0xbf674bf8	-0.90350294
4	0x3e8cc902	0.27497107
5	0x3e6bb54a	0.23018375
6	0x401dd0bb	2.465865
7	0xbf815007	-1.0102547
8	0xbf7f400b	-0.99707097
9	0x3d97bf1e	0.074094996
10	0x4038c091	2.8867533
11	0xbf539bdd	-0.82659703
12	0xbf8f1138	-1.117713
13	0xbe12b5f2	-0.14327219
14	0x402f872e	2.7426257
15	0xbecedd95	-0.4040343
16	0xbf3fcc6a	-0.74921286
17	0xbd1263a2	-0.03573955
18	0x3ff95206	1.9478157
19	0xbe19c3f0	-0.1501615
20	0xbf0373a6	-0.5134834
21	0xbe6a02c6	-0.2285262
22	0x3f5fb67a	0.8738781
23	0xbd9b2f24	-0.07577351
24	0xbefca499	-0.49344328
25	0xbf296b4d	-0.66179353
26	0x3e42b288	0.19013417
27	0xbe55b06a	-0.20868078
28	0xbef76df5	-0.48326078
29	0xbf86f434	-1.0543275
30	0xbe8cfe61	-0.27537826
31	0xbf1bcd81	-0.6086045
32	0xbe9eab0c	-0.30989873
33	0xbfa2a274	-1.2705827
34	0xbf23900e	-0.63891685
35	0xbf341177	-0.7033915
36	0xbe16e1a2	-0.1473451
37	0xbfccac9c	-1.5990176
38	0xbf6f0c77	-0.93378395
39	0xbf4bd358	-0.7961936
40	0x3db7b35c	0.08969757
41	0xbfe9e632	-1.8273375
42	0xbf965f5d	-1.1747853
43	0xbf6c52a7	-0.9231362
44	0xbe91fe08	-0.28514123
45	0xbfd22765	-1.6418272
46	0xbc22baf2	-0.009932267
47	0xbf79e3e9	-0.9761339
48	0xbeb3d112	-0.35120445
49	0xbfb9f396	-1.4527462
50	0x3f8817f4	1.063231
51	0xbeaa5c16	-0.3327338
52	0xbe7d6b18	-0.24747884
53	0xbf20cf17	-0.62815994
54	0x3fcb5ab7	1.5887059
55	0xbd592288	-0.053011447
56	0xbe04e26c	-0.12976998
57	0xbe0880a8	-0.13330328
58	0x3fc3f728	1.5309801
59	0xbe395f67	-0.181028
60	0xbc9045a2	-0.017611329
61	0xbcf809ab	-0.030278048
62	0x3fc284ec	1.5196815
63	0xbc9b949a	-0.018991757
64	0xbc24dce8	-0.010062434
65	0xbc9d609d	-0.019211108
66	0x3fc1830d	1.5118119
67	0xbc6ff3e6	-0.014645552
68	0xbc22c40a	-0.009934435
69	0xbca28455	-0.019838491
70	0x3fc223a9	1.5167133
71	0xbc97bd1b	-0.01852279
72	0xbbfd9dca	-0.007739757
73	0xbcdadae4	-0.026715703
74	0x3fc27b85	1.5193945
75	0xbc18a036	-0.009315541
76	0xbc425825	-0.011861836
77	0xbcbe6a75	-0.023244122
78	0x3fc1d494	1.5142999
79	0xbc5f2e05	-0.013621812
80	0xbc190499	-0.009339475
81	0xbcc00420	-0.023439467
82	0x3fc1d3b2	1.5142729
83	0xbc87475d	-0.01651352
84	0xbb542efa	-0.0032376633
85	0xbc8413bb	-0.01612269
86	0x3fc2b399	1.5211059
87	0xbc273204	-0.010204796
88	0xbb9a7631	-0.0047137965
89	0xbc632261	-0.013863177
90	0x3fc238fe	1.5173643
91	0xbc3a9dfd	-0.011390206
92	0xbc3e4fc5	-0.011615698
93	0xbca63a4a	-0.020291466
94	0x3fc1df75	1.5146319
95	0xbcaba176	-0.020951014
96	0xbb96e2df	-0.004604682
97	0xbcd433b7	-0.025903566
98	0x3fc26ca9	1.518941
99	0xbcd02d68	-0.025412276
100	0xbc382888	-0.011240132
101	0xbce8e2ba	-0.028428424
102	0x3fc1f881	1.5153962
103	0xbc8e01eb	-0.017334899
104	0xbc1d7ff6	-0.009613028
105	0xbce25d9f	-0.027632533
106	0x3fc1c07e	1.5136869
107	0xbcaa49c8	-0.020787135
108	0xbbd7dbc0	-0.0065874755
109	0xbca1c940	-0.019749284
110	0x3fc26d2a	1.5189564
111	0xbc891a3d	-0.016736144
112	0xbb1948c1	-0.0023389312
113	0xbce0e746	-0.02745403
114	0x3fc29409	1.5201427
115	0xbc90907e	-0.017647024
116	0xbb9d6802	-0.0048036585
117	0xbc983770	-0.018581122
118	0x3fc1eba2	1.5150034
119	0xbc61663a	-0.013757283
120	0xbba7a124	-0.005115645
121	0xbc715eb0	-0.014732048
122	0x3fc1d725	1.5143782
123	0xbc6b57e9	-0.014364221
124	0xbb7fbf51	-0.0039023946
125	0xbcc8f8b3	-0.024532652
126	0x3fc2a933	1.5207886
127	0xbc17c6fc	-0.00926375
128	0xbbccf03f	-0.0062542255
129	0xbcaa1944	-0.020764
130	0x3fc21cbd	1.516502
131	0xbbf144c9	-0.007362936
132	0xbc03d16c	-0.008045536
133	0xbc609a9d	-0.013708738
134	0x3fc1f805	1.5153815
135	0xbc7f4fde	-0.015583007
136	0xbb2d2c8f	-0.0026424264
137	0xbc79da05	-0.015249734
138	0x3fc1c95f	1.5139579
139	0xbc3c139b	-0.011479284
140	0xbb94f91a	-0.004546297
141	0xbc9bcd63	-0.019018834
142	0x3fc20c6b	1.516004
143	0xbbb122d9	-0.0054057655
144	0xbb6657bb	-0.0035147506
145	0xbc287697	-0.01028218
146	0x3fc1bcdd	1.5135761
147	0xbbe7d539	-0.0070749787
148	0xbb8faa8b	-0.004384344
149	0xbcb0bd3d	-0.02157461
150	0x3fc1f787	1.5153664
151	0xbabea368	-0.0014544548
152	0xbb8e0254	-0.0043337736
153	0xbcad328d	-0.021142269
154	0x3fc25544	1.5182271
155	0xbbb830f1	-0.0056210686
156	0xbb0ecc59	-0.002178928
157	0xbc5f8c7f	-0.013644337
158	0x3fc18bc0	1.5120773
159	0x3b300446	0.0026858016
160	0xbb9a88b9	-0.0047160056
161	0xbc8313b2	-0.016000602
162	0x3fc251bc	1.5181193
163	0x3ad61a9f	0.0016334838
164	0xbb8e8b4a	-0.0043501006
165	0xbc34f68a	-0.011045108
166	0x3fc29eb9	1.5204688
167	0xbb1c7e46	-0.0023878976
168	0xbb2ba272	-0.0026189354
169	0xbc3f181e	-0.011663465
170	0x3fc287b5	1.5197664
171	0x3aadc7d7	0.001325841
172	0xbae440e7	-0.0017414362
173	0xbc8ee151	-0.017441424
174	0x3fc28026	1.5195358
175	0x3b83ae1e	0.004018559
176	0x3a865097	0.0010247406
177	0xbc154f3a	-0.009113127
178	0x3fc169c1	1.5110399
179	0x3aa60585	0.001266644
180	0xbac77f90	-0.0015220512
181	0xbc887314	-0.016656436
182	0x3fc180d3	1.5117439
183	0x3b73feb4	0.0037230672
184	0x3b4c0bb8	0.0031134915
185	0xbc2dc5da	-0.0106062535
186	0x3fc227a3	1.5168346
187	0x3b327b9c	0.0027234321
188	0xbbe19fb3	-0.0068854927
189	0xbc5e2024	-0.013557468
190	0x3fc1dcff	1.5145568
191	0xbb48b3b3	-0.0030624687
192	0xbba29cd6	-0.004962544
193	0xbbfb2f6b	-0.007665565
194	0x3fc2bc9d	1.521381
195	0x3b1e2ffa	0.0024137483
196	0xbaa8acc0	-0.0012868866
197	0xbc0d67ae	-0.008630676
198	0x3fc1ca92	1.5139945
199	0x3b1e4492	0.0024149758
200	0xbfc1b5c0	-1.5133591
201	0x3f5179b7	0.8182635
202	0xbf89500f	-1.0727557
203	0x3fe5e2f9	1.7959892
204	0xbeed39e3	-0.46333227
205	0x3f991de6	1.1962249
206	0xbf9fb5e4	-1.2477384
207	0x3f09c6ba	0.5381886
208	0xbf008b5e	-0.5021266
209	0x3f9f8646	1.2462852
210	0xbf736bce	-0.9508637
211	0xbf79cd84	-0.97579217
212	0xbf8b45a0	-1.0880623
213	0x3f9a9871	1.2077771
214	0xbf2ee432	-0.6831695
215	0xbfcee587	-1.6163796
216	0xbfc958a1	-1.5730172
217	0x3f92508e	1.1430833
218	0xbe8d95ac	-0.27653253
219	0xbfcdcee1	-1.607876
220	0xbfe13fc2	-1.7597582
221	0x3f8cf051	1.1010839
222	0x3d4ea540	0.050450563
223	0xbfb5381c	-1.4157748
224	0xbff87c5e	-1.9412954
225	0x3f8be7f5	1.0930163
226	0x3e9c8dd0	0.30576944
227	0xbf9ab2d0	-1.2085819
228	0xbffbdacb	-1.9676145
229	0x3f8783aa	1.0587056
230	0x3f55989f	0.83436006
231	0xbf872237	-1.0557317
232	0xbff88fe0	-1.9418907
233	0x3f8838fd	1.0642391
234	0x3f897cfb	1.0741266
235	0xbf7c0089	-0.98438317
236	0xbffd74b7	-1.9801244
237	0x3f89132b	1.0708975
238	0x3fb83ee2	1.439419
239	0xbf6eb465	-0.9324401
240	0xc00476cf	-2.0697515
241	0x3f8e3f22	1.1113017
242	0x3fd26a4c	1.6438689
243	0xbf5f9bc2	-0.8734704
244	0xc00b3eb9	-2.1757033
245	0x3f6e039f	0.92974275
246	0x3f81fe01	1.0155641
247	0xbf05c270	-0.52249813
248	0xbff17782	-1.8864596
249	0xbd501975	-0.050805528
250	0x3d4ffe4e	0.050779633
251	0x3f49f806	0.7889408
252	0xbfb1e86d	-1.3899056
253	0xbf1f567c	-0.6224134
254	0xbf2f6c44	-0.68524575
255	0x3fa74bba	1.3069985

fc_out.bias f4 [334]
0	0x3fcd74ef	1.605131
1	0x3f2efa10	0.68350315
2	0x3f7bc508	0.9834752
3	0x3f7c25ca	0.9849516
4	0x3f4c2294	0.7974026
5	0x3f882231	1.0635434
6	0x3f68f5e5	0.91000205
7	0x3f5e68e3	0.86878794
8	0x3f119233	0.5686371
9	0x3f837fe7	1.0273408
10	0x3ec46468	0.38357854
11	0x3e17ccec	0.14824265
12	0x3e95425b	0.29152188
13	0x3f16f253	0.5896351
14	0x3f08cab4	0.534343
15	0x3ee356a6	0.44402045
16	0x3f13ed18	0.5778365
17	0x3f02d4d0	0.51105976
18	0x3f2ded9d	0.67940694
19	0x3ec50a06	0.3848421
20	0x3ea52658	0.32255816
21	0x3f1c65c7	0.610928
22	0x3f25bb2a	0.64738715
23	0x3ebf333d	0.3734378
24	0x3e7917d2	0.24325493
25	0x3f449675	0.7679208
26	0x3f5cb242	0.862095
27	0x3e94f38c	0.29092062
28	0x3d819b75	0.06328479
29	0x3e5b5ed9	0.214229
30	0x3eab3b29	0.33443573
31	0x3eeaafce	0.45837253
32	0x3e2667ce	0.16250536
33	0x3f178158	0.5918174
34	0x3f003aed	0.50089914
35	0x3e40e7dd	0.18838449
36	0x3eb558ac	0.35419214
37	0x3e9d8389	0.30764416
38	0x3eae1302	0.33998877
39	0x3eb8dd43	0.3610631
40	0x3dea550f	0.11442005
41	0x3ea0f803	0.31439218
42	0x3e9570b1	0.2918754
43	0x3e99c716	0.30034703
44	0x3ee8d223	0.45472822
45	0x3e92710c	0.28601873
46	0x3e0b02d3	0.13575296
47	0x3e3ad468	0.18245089
48	0x3eca9186	0.3956415
49	0x3ee0826b	0.438495
50	0x3ee67c27	0.45016596
51	0x3ecd5db9	0.40110567
52	0x3ecbfdbd	0.39842024
53	0x3e06499e	0.1311402
54	0x3ead6cb2	0.3387199
55	0x3dbcd857	0.09220951
56	0x3e058e7b	0.13042633
57	0x3ef184e5	0.47171703
58	0x3ee79661	0.45231918
59	0x3f06aa3d	0.52603513
60	0x3ec10648	0.37700105
61	0x3e295358	0.165357
62	0x3e09d227	0.13459073
63	0x3e183152	0.14862564
64	0xbdcdaff4	-0.10043326
65	0x3d3134a8	0.043263108
66	0xbcf99900	-0.030468464
67	0xbe076229	-0.13221039
68	0xbd3dd93d	-0.046349753
69	0x3e33be6a	0.17553106
70	0x3e4e04d7	0.20119034
71	0x3d0afaa5	0.03393044
72	0x3e26623e	0.16248414
73	0x3e7bc6a1	0.2458749
74	0x3e32be97	0.17455517
75	0x3e861eb3	0.26195297
76	0x3e689e91	0.22716738
77	0x3c4df4fb	0.012570615
78	0x3d4ca96e	0.04996627
79	0x3e12e33c	0.14344496
80	0x3e7a7df8	0.24462116
81	0x3e4f594b	0.20248906
82	0x3d8ea86c	0.06965718
83	0x3e894a4f	0.26814505
84	0x3e000d40	0.12505054
85	0x3e2f9758	0.17147577
86	0x3e84ea60	0.25960064
87	0x3e8b9357	0.2726085
88	0x3db08fe1	0.08621193
89	0xbceb0ea8	-0.028693512
90	0x3d57d9cd	0.052697945
91	0x3db97459	0.09055395
92	0xbd39040d	-0.04516988
93	0xbdc95f6b	-0.09832653
94	0x3e31264a	0.17299762
95	0x3e37f17f	0.17963217
96	0x3dc62cda	0.096765235
97	0x3d98552b	0.074381195
98	0x3ea6907b	0.32532105
99	0x3dd5e832	0.10444678
100	0x3d3a411f	0.04547226
101	0x3bd3c4d9	0.006462675
102	0xbcb51a82	-0.022107366
103	0xbdc19396	-0.09451978
104	0x3e041d57	0.12901817
105	0x3d1d0a20	0.038339734
106	0x3e31fc22	0.17381337
107	0x3d970943	0.073748134
108	0x3e073ba8	0.13206351
109	0x3a708eb9	0.0009176541
110	0x3e812d81	0.2523003
111	0xbd24ee8e	-0.040266566
112	0x3eb0cdc1	0.34531978
113	0xbcee7b59	-0.029111551
114	0x3ee760b7	0.45190975
115	0x3df0c4e7	0.11756306
116	0x3f1036b7	0.5633349
117	0x3e342b2a	0.17594591
118	0x3e9c50fa	0.3053053
119	0xbd1acd4a	-0.037793435
120	0x3e75e648	0.24013627
121	0xbd87d5b9	-0.06632561
122	0x3dec2664	0.1153076
123	0x3c65d373	0.014027464
124	0x3dec0b18	0.115255535
125	0xbe406ec1	-0.1879225
126	0x3b52b69a	0.0032152296
127	0xbdf15af1	-0.11784924
128	0x3e9570ec	0.29187715
129	0xbcd80201	-0.026368143
130	0x3c87e123	0.016586846
131	0xbe2809fe	-0.16410062
132	0x3e1a2802	0.15054324
133	0x3c4187fd	0.011812207
134	0xbd06c8b7	-0.03290626
135	0x3df60292	0.12012209
136	0x3dc16ea8	0.09444934
137	0x3d9b1ff8	0.07574457
138	0x3dcd282d	0.100174285
139	0xbd988905	-0.074480094
140	0x3dd253e6	0.102699086
141	0xbd8493c9	-0.064735
142	0x3e670a59	0.22562541
143	0x3e981c31	0.29709008
144	0x3e589bf0	0.21153235
145	0xbd064744	-0.032782808
146	0xbde88c75	-0.11354915
147	0x3eb9a15a	0.36255914
148	0x3d16a98d	0.03678279
149	0x3dfd4165	0.12365989
150	0x3c05e1e3	0.008171531
151	0x3dee587b	0.1163797
152	0xbe0c96ab	-0.1372935
153	0x3d048779	0.03235576
154	0xbd76aa07	-0.060220744
155	0x3de005c4	0.109386
156	0xbbb1c3cf	-0.0054249535
157	0x3df6dbc9	0.120536394
158	0x3e3df194	0.18549186
159	0xbc47d996	-0.012197873
160	0x3da2e153	0.079531334
161	0xbd8b253e	-0.06794213
162	0x3e2a77be	0.1664724
163	0xbbedfa07	-0.0072624716
164	0x3bafb764	0.005362438
165	0xbe0668f8	-0.1312598
166	0xbe07e578	-0.13271129
167	0x3e167820	0.14694262
168	0xbe8c9a85	-0.2746164
169	0x3e9b8a50	0.30378962
170	0x3e5e453b	0.21706097
171	0xbb6b59cb	-0.0035911675
172	0x3e40cee5	0.18828924
173	0xbecfcb51	-0.40584806
174	0x3c61f2e9	0.013790824
175	0xbe929326	-0.2862789
176	0xbd0345ee	-0.032049112
177	0xbde323c3	-0.110908054
178	0xbe97f417	-0.29678413
179	0xbd67ff89	-0.05664018
180	0x3d8bf591	0.068339474
181	0xbecc6914	-0.39923918
182	0xbdaa3f06	-0.08312802
183	0xbee2a0c4	-0.4426328
184	0xbe7d2658	-0.24721658
185	0xbe0dcbe0	-0.13847303
186	0xbdbf6683	-0.093457244
187	0x3dbdb3e8	0.0926283
188	0xbdc4c19a	-0.09607239
189	0xbe06b44c	-0.13154715
190	0x3c744278	0.0149084255
191	0xbeafd3fc	-0.3434142
192	0xbe41a67d	-0.18911166
193	0xbdc8ec40	-0.09810686
194	0xbde1f6b3	-0.11033382
195	0xbd26f885	-0.04076435
196	0x3d51d716	0.051230513
197	0x3c2a61e3	0.010399315
198	0x3d67ba6d	0.056574274
199	0x3d389fe4	0.04507436
200	0xbde72f2b	-0.112882935
201	0x3d9f1336	0.07767336
202	0xbd761507	-0.060078647
203	0x3e2b7bf5	0.16746505
204	0x3ba5b9bf	0.005057543
205	0x3e545479	0.20735349
206	0xbb9e8088	-0.0048370995
207	0xbd26c533	-0.040715408
208	0x3dadccdf	0.08486342
209	0xbcf105b6	-0.029421668
210	0x3e1e5cc5	0.15465076
211	0x3d89bff9	0.06726069
212	0xbef127da	-0.47100717
213	0x3e84fd86	0.25974673
214	0x3e0f4d60	0.1399436
215	0x3d93fd23	0.07226016
216	0x3d7f7391	0.062366072
217	0xbdf47d48	-0.11937958
218	0x3d22b83a	0.039726473
219	0x3904edff	0.00012677161
220	0x3cb4b08c	0.02205684
221	0xbe12a122	-0.1431928
222	0x3dee6320	0.1164
223	0xbda4ece6	-0.08052997
224	0x3dbcc167	0.09216576
225	0xbe4063a0	-0.18788004
226	0x3d837ee7	0.06420689
227	0xbd86df27	-0.06585532
228	0x3e1fa578	0.15590465
229	0x3e0368c6	0.12832937
230	0x3d935aad	0.071950294
231	0x3d9e8eab	0.077420555
232	0xbd3e09c6	-0.04639604
233	0x3d837dc4	0.06420472
234	0xbd046bfc	-0.032329544
235	0x3c4012d6	0.011723241
236	0xbe4d2fa5	-0.20037706
237	0xbd62e665	-0.055395503
238	0xbe0b0dc0	-0.13579464
239	0xbca8baf2	-0.020596955
240	0xbe649c7d	-0.2232532
241	0xbda6f292	-0.08151735
242	0xbb674453	-0.0035288527
243	0x3cf96174	0.030441977
244	0xbdb7d138	-0.08975452
245	0x3cf7bfb0	0.03024277
246	0x3c4a8371	0.01236044
247	0x3d11ebc5	0.035625238
248	0xbddbdb6e	-0.10735212
249	0xbdd64a9c	-0.10463449
250	0xbe5a54bc	-0.21321386
251	0xbe027b4b	-0.12742345
252	0xbdc6da64	-0.097096235
253	0xbe4dbb4b	-0.20090978
254	0xbeb50dd3	-0.3536211
255	0xbe429a9a	-0.19004288
