lstmt/model_pt/lstmt_traj_sf_5_fold_CV_2100.pt (torch, 272396 bytes, 6 tensors)

rnn.weight_ih_l0 f4 [16, 4]
00000000: adad 193d d484 6dbd 9f5b 11bf 7a0b 863c
00000010: a865 1d3c 49d6 f73d 15f5 febd 423f 1a3a
00000020: 9eee 3fbc e8df 283d 9b74 96be 706f b83b
00000030: 806a 823c 22c6 18be 69dd 013f ac50 b83b
00000040: 5e6d f03c bfd1 a83c fb39 1ebe 1bac a23a
00000050: 929b 09bd 12e6 be3e a16b 1dbe 07e0 4bbc
00000060: bd43 5f3f cf77 043e aa5c 2b3e 2e48 93bd
00000070: e2cc 453e 84c8 64bd 2736 883d 6073 003d
00000080: 3667 293d 7129 01be 0e87 d7bd ee5a 0a3d
00000090: cd6c ef3d f099 c13d 34fd f8bd 6081 83be
000000a0: e54b 5dbf b8ed 10be e99d 133d 6198 c3bb
000000b0: 3129 433d 1209 313e 46db 813d 4a9f cbbc
000000c0: 6ead d23f d088 1dbe 2ffb b13e 12d1 01be
000000d0: 0acc 283d e2de 943e a289 c5be 7727 a2bc
000000e0: 0685 f03c d193 b9be 5fe9 c23c ee54 493c
000000f0: f7f7 293c 3dbd cb3e 435e 113e 8e95 453c
0.037519146 -0.057988003 -0.5678043 0.016362894 0.009606756 0.121014185 -0.124490894 0.000588406
-0.011714606 0.04122916 -0.29385838 0.0056285188 0.015919924 -0.14919332 0.5072847 0.005624851
0.029349025 0.020607827 -0.15451805 0.001241091 -0.03359563 0.37284905 -0.15373088 -0.012443549
0.87212735 0.12936328 0.16734567 -0.071915016 0.19316438 -0.05585529 0.06650954 0.03136003
0.041358195 -0.12613465 -0.105238065 0.033778124 0.11690674 0.094531894 -0.1215767 -0.25684643
-0.8644393 -0.14153183 0.036039267 -0.0059690927 0.047646705 0.17288616 0.06340651 -0.024856228
1.6459177 -0.15384221 0.3476195 -0.1267741 0.04121021 0.29076296 -0.38581568 -0.019794209
0.029360306 -0.36245587 0.02379292 0.012288315 0.010374061 0.39792815 0.14196114 0.012059582

rnn.weight_hh_l0 f4 [16, 4]
00000000: 0a34 ce3d a05d 27bf 2274 03bf d841 173f
00000010: 4343 5bbe 1cfa 0ebf 2d0a 803f 2a24 1cbf
00000020: c24c b2bf 0a18 d73f d786 b0bf 1d24 07be
00000030: 285f 753e c1ff 94bc 759c 053e 5bf5 54be
00000040: 4a71 03bf ad5c ebbe d0a8 3fbe bf3a 9cbe
00000050: 9f67 843e 4fa8 ffbd c3f8 473c c6e0 da3f
00000060: cfed 463f 81ea 6b3e 6e76 1bbf 91b6 c63e
00000070: cb7d 39be bfbd 22bd 7b94 0a3f dd0c 8cbe
00000080: cdca 083e 6076 663f c058 e8bf ca9a b33f
00000090: 3fdf 173f a9a8 6a3e 409c 80bf 8fa2 e63f
000000a0: 19b0 a0be d804 9a3e ef7f 50bf 9589 9b3e
000000b0: 1f32 c83e 51e1 063e bb42 c2be 1b93 af3d
000000c0: 8890 953f b833 143f 7e7b 1ebf 8a1c d83e
000000d0: d0f5 98be df4d 4840 e4d9 7c3f e107 b3be
000000e0: 2d69 023f 7d6a 873f 8006 463f 84e1 b43e
000000f0: 40bd 903f 3ce1 6b3f 8465 94bf e842 3ebc
0.100685194 -0.65377235 -0.5134908 0.59084845 -0.21412377 -0.55850387 1.0003105 -0.6099268
-1.3929675 1.6804211 -1.379115 -0.1319737 0.2396208 -0.01818836 0.13047965 -0.2079672
-0.5134474 -0.45969144 -0.1871674 -0.3051357 0.25860307 -0.12483274 0.0122053055 1.7099845
0.7770662 0.23038675 -0.60727584 0.38811162 -0.18114392 -0.039731737 0.54132813 -0.27353564
0.13358612 0.90024376 -1.8152084 1.4031613 0.5932502 0.22915901 -1.0047684 1.8018359
-0.31384352 0.3008182 -0.8144521 0.30378404 0.3910074 0.13171889 -0.37941536 0.0857298
1.1684732 0.57891417 -0.61907184 0.42209274 -0.2987504 3.1297529 0.98769975 -0.3496695
0.50941736 1.0579373 0.7735367 0.35328305 1.1307755 0.92140555 -1.159348 -0.011612631

rnn.bias_ih_l0 f4 [16]
00000000: d0c3 78be 17a0 d33e d818 863d a8b5 e93e
00000010: 4c8e 1e3e 9256 083f 769e c03d a228 82bd
00000020: 4d9a 9e3e 4586 76be 049e 70bd b2ac c03e
00000030: 9659 f63c 20f5 733f 8560 fa3e b918 ac3f
-0.24293447 0.41333076 0.06547707 0.45646405 0.1548397 0.53257096 0.09405224 -0.06355406
0.30977097 -0.24074657 -0.058744445 0.37631756 0.030072015 0.95295906 0.48901764 1.3445045

rnn.bias_hh_l0 f4 [16]
00000000: c9d3 3dbe a1fa cd3e 558a 513d 7441 e83e
00000010: 3825 533e da3f 043f 0076 283d a6a8 22bc
00000020: e981 953e 1537 97be 64aa b2bd 9bcc b73e
00000030: f23f 3cbd 0f38 7f3f 5d20 e93e d60f ac3f
-0.18537821 0.40230277 0.051157314 0.45362437 0.20619667 0.5165993 0.04112816 -0.009927904
0.29200676 -0.29534212 -0.08723906 0.3589829 -0.04595942 0.99694914 0.45532504 1.3442333

fc_out.weight f4 [334, 201]
00000000: 4d28 ec3f 6777 11be 3c4d 1140 7046 7abf
00000010: fdde 313e 768b 713d 3ece 2140 81ad 89bf
00000020: 3c40 8dbf 9d47 3fbd 552f 3a40 de94 62bf
00000030: b834 97bf 6778 43be bf7c 2c40 02a7 f0be
00000040: 9b00 4cbf 3078 233d 1c90 eb3f 78b5 4bbe
00000050: 080b 12bf e8d4 96bd 437c 3c3f 405d cfbd
00000060: 86b3 0ebf 5cca ebbe 33d3 6c3d 9c2e 48be
00000070: e09c 0cbf b85b 5bbf 480a c4be 451d 12bf
00000080: 1a09 c2be 7f5f 8abf 988a 37bf ec67 23bf
00000090: e6b5 5cbe 03e8 b7bf 701a 7dbf 8022 34bf
000000a0: d7e3 ec3c 5ad4 d7bf 62ad 9abf 0d00 4dbf
000000b0: b68d afbe cf8b c3bf 055b f9bb 75e7 61bf
000000c0: 1fee 9ebe 502a b0bf ce3f 7c3f 265d 83be
000000d0: 9302 3fbe af09 2abf c095 ba3f cdc6 5bbd
000000e0: 9258 16be 2546 1abe fc41 be3f b408 50be
000000f0: a249 a3bc 62e7 0cbd a9cf bc3f 13c0 b0bc
00000100: 1f4f 3bbc 24cc b2bc 54ac bb3f 204c 88bc
00000110: 5fec 38bc 0ea4 b8bc 3261 bc3f bb64 acbc
00000120: 6a14 10bc e2a0 f8bc 0fc7 bc3f e865 2dbc
00000130: 0ec4 5cbc 9f53 d8bc d009 bc3f 528b 7dbc
00000140: 6fd6 2dbc eb2b dabc c808 bc3f 5db1 99bc
00000150: b408 71bb 280e 96bc 2d08 bd3f 2af6 3dbc
00000160: 5e7d afbb 4705 81bc b37a bc3f a811 54bc
00000170: cd36 58bc 8fd8 bcbc 0915 bc3f 4b01 c3bc
00000180: 176c abbb 4d0e f1bc 02b6 bc3f c477 ecbc
00000190: e33f 51bc e04c 04bd f72f bc3f e452 a1bc
000001a0: 4def 32bc 1a96 00bd a6f2 bb3f 8275 c1bc
000001b0: 3937 f5bb b3cc b7bc 98b6 bc3f 84bf 9bbc
000001c0: 1625 2ebb 1b86 ffbc 4be3 bc3f d23d a4bc
000001d0: 40d4 b2bb 30ee acbc 7421 bc3f c20b 80bc
000001e0: 6f72 bebb e01c 89bc 970c bc3f aaad 85bc
000001f0: 4349 91bb 7d47 e4bc 27fd bc3f ea6f 2cbc
00000200: b8d1 e8bb ec40 c1bc b259 bc3f 920e 09bc
00000210: 78c5 15bc 2c2c 7fbc 642f bc3f ff0a 91bc
00000220: 14ba 44bb 33f0 8dbc 64fd bb3f 5da3 55bc
00000230: 613e a9bb c3ff b0bc f046 bc3f 6b3e c9bb
00000240: 24d8 82bb 2862 3fbc 8bee bb3f 4cb0 03bc
00000250: 0137 a3bb 48d0 c8bc d62e bc3f 5191 d8ba
00000260: 5953 a1bb fac0 c4bc ef9a bc3f ad48 d1bb
00000270: 613c 22bb f9f5 7dbc 8db7 bb3f f9f7 473b
00000280: 6692 afbb 35e9 94bc a896 bc3f 1b3f f33a
00000290: 16f3 a1bb b79b 4dbc 3df1 bc3f 9fcc 31bb
000002a0: 7302 43bb 1111 59bc 51d4 bc3f 7172 c53a
000002b0: 94a9 01bb ce53 a2bc 23cc bc3f bf9a 953b
000002c0: b898 983a c6a3 29bc 488d bb3f cd9c bc3a
000002d0: e5a6 e2ba 3508 9bbc fda8 bb3f 219a 8a3b
000002e0: b7c4 673b f36f 45bc 4f65 bc3f b8ca 4a3b
000002f0: 9c2b 00bc 055b 7cbc 8d12 bc3f 48f6 63bb
00000300: dfbf b8bb beb0 0ebc 7e11 bd3f 28b9 333b
00000310: b19e bfba 43a8 20bc b6fe bb3f 0ad1 333b
00000320: 64a4 c1bf 4627 223f b8a3 98bf 7dc4 c03f
00000330: 44d1 d9be 6bcb 813f a4a6 a6bf 54a8 eb3e
00000340: 114c e4be 4199 943f 4425 90bf dd73 67bf
00000350: bf2b 80bf dbca 973f f64b 5dbf a87b bbbf
00000360: c2b7 bebf f4c2 913f dd94 d8be 5b80 bdbf
00000370: b8d8 d8bf cc43 8d3f efb5 29bd 6fc2 a6bf
00000380: 30a3 f2bf 240e 8d3f 11e5 813e 8018 91bf
00000390: 6d86 fbbf 675b 883f 32ce 4d3f 63f3 80bf
000003a0: 9865 fbbf 2bd8 883f 9f5d 843f 1474 72bf
000003b0: b6d9 00c0 fe12 883f 4e1a b43f 1801 68bf
000003c0: fcd4 06c0 4c6c 8a3f e13d ca3f 474c 5cbf
000003d0: 49a2 0ec0 6da7 663f 585e 733f 9584 18bf
000003e0: 923d f5bf 20c2 e13b 518f 653c bdb3 373f
000003f0: a680 c3bf ebc2 18bf 464f 33bf 267f a83f
1.8449799 -0.14205705 2.270339 -0.9776373 0.1737022 0.05897089 2.528213 -1.0756074
-1.1035228 -0.046699155 2.909139 -0.88508403 -1.1812963 -0.19088899 2.695114 -0.47002417
-0.79688424 0.03990954 1.8403354 -0.19893444 -0.5704808 -0.073648274 0.7362711 -0.10125208
-0.5574268 -0.46052825 0.057818603 -0.1954903 -0.5492687 -0.85686827 -0.38289094 -0.5707591
-0.3789757 -1.0810393 -0.7169585 -0.6383045 -0.21553764 -1.4367679 -0.98868465 -0.7036514
0.028917236 -1.686168 -1.2084162 -0.800782 -0.34287804 -1.5277041 -0.0076097273 -0.882438
-0.31041047 -1.3762913 0.9853486 -0.25657004 -0.18653326 -0.66421026 1.457695 -0.053656388
-0.14682224 -0.1506582 1.4863887 -0.2031582 -0.019932572 -0.03440035 1.4750873 -0.021575963
-0.011432438 -0.021825857 1.4661965 -0.016637862 -0.011286824 -0.022539165 1.4717162 -0.021044126
-0.00879393 -0.030350152 1.4748248 -0.010583378 -0.013474477 -0.026407061 1.4690495 -0.015475111
-0.010610207 -0.02663227 1.469018 -0.018761331 -0.003677887 -0.018317297 1.476812 -0.011594335
-0.005355521 -0.015749587 1.4724945 -0.012943663 -0.013196659 -0.023052482 1.469392 -0.023804327
-0.005231391 -0.029425764 1.4743044 -0.028865702 -0.012771579 -0.032299876 1.4702138 -0.019692846
-0.010921312 -0.031393148 1.4683425 -0.023615602 -0.0074833897 -0.022436475 1.4743223 -0.01901222
-0.0026572398 -0.031191876 1.4756864 -0.02004901 -0.005457431 -0.02110967 1.4697709 -0.015630607
-0.0058119814 -0.016737401 1.4691342 -0.016318161 -0.0044337823 -0.02786612 1.4764756 -0.010524729
-0.0071050785 -0.023590527 1.4714873 -0.00836529 -0.0091413185 -0.015574496 1.4701962 -0.017705439
-0.0030018138 -0.01732645 1.4686704 -0.013039437 -0.005164907 -0.021606332 1.4709148 -0.006141474
-0.003993051 -0.011681117 1.4682173 -0.008037638 -0.004980922 -0.024513379 1.4701793 -0.00165228
-0.004923266 -0.0240178 1.4734782 -0.0063868375 -0.0024755227 -0.015500539 1.466539 0.0030512793
-0.005358028 -0.018177608 1.4733477 0.0018558236 -0.004942308 -0.012549332 1.476112 -0.002713002
-0.0029756099 -0.013248698 1.4752294 0.0015064013 -0.0019784914 -0.019815352 1.4749798 0.0045655663
0.0011642193 -0.010353988 1.4652491 0.0014389992 -0.001729217 -0.018924812 1.4660946 0.0042297994
0.0035365054 -0.012050617 1.4718417 0.0030943584 -0.007822897 -0.01540256 1.4693161 -0.0034784246
-0.005638107 -0.008709131 1.4770963 0.0027423594 -0.0014619437 -0.009805742 1.4687107 0.002743783
-1.5128293 0.63341177 -1.1924963 1.5059963 -0.4254247 1.0140203 -1.3019605 0.46026862
-0.44589284 1.1609269 -1.1261373 -0.9041117 -1.001335 1.1858782 -0.8644403 -1.4647112
-1.4899828 1.138762 -0.42301074 -1.4804796 -1.6941137 1.1036315 -0.04143327 -1.3028086
-1.8956051 1.101994 0.25370076 -1.1335602 -1.9650398 1.0652894 0.80392754 -1.0074276
-1.9640379 1.0690969 1.0341071 -0.9470837 -2.013288 1.0630796 1.4070528 -0.9062667
-2.1067495 1.08143 1.5800134 -0.8605389 -2.228655 0.9009922 0.9506583 -0.59577304
-1.9159415 0.0068895966 0.01401122 0.71758634 -1.5273635 -0.5967242 -0.70042837 1.3163803

fc_out.bias f4 [334]
00000000: 4435 c63f da60 2e3f f5a3 753f bbd7 713f
00000010: 7695 453f 475a 813f 73ad 603f 14ae 573f
00000020: 1875 093f 0391 7d3f 73eb b83e 2f01 0c3e
00000030: ef4c 983e 710d 113f b8f2 023f f27f dd3e
00000040: fe97 103f 9ab2 f83e 4b29 2d3f 52da bf3e
00000050: 9fec 9b3e acb5 163f 8dd3 213f db2f c03e
00000060: eb07 763e 3e18 413f 8efc 5c3f 72a1 913e
00000070: efc2 743d 89d4 543e 5cee a63e db07 eb3e
00000080: 117f 223e 3e2d 173f b550 fb3e b918 3c3e
00000090: 30ba ae3e dfe0 9b3e f5e3 a83e 3392 b83e
000000a0: 840d d83d a8bd 983e 3675 913e be73 933e
000000b0: 3806 e83e c1b1 923e 6b08 ff3d b515 333e
000000c0: fd16 c63e 16e7 db3e e3d3 e13e fcad c93e
000000d0: 9be4 cb3e 4fa6 023e d4e3 ab3e 9878 b93d
000000e0: 3281 023e 5d19 ed3e f78b db3e da7a fe3e
000000f0: ca48 c53e 7927 233e c033 063e 18b9 153e
00000100: 8e12 cebd 41b9 253d f659 01bd 3831 04be
00000110: b670 49bd 9863 323e f559 443e 2b27 0e3d
00000120: abbc 223e b0fd 7d3e 7b08 2c3e d197 863e
00000130: 55e1 623e dab6 4d3c da11 3c3d f513 0d3e
00000140: 5a52 783e 52ea 4b3e 72b1 803d b8bc 873e
00000150: cd22 ee3d c4af 373e e191 873e 850d 8d3e
00000160: 3f21 b23d 1a56 02bd a7f7 453d e30a a93d
00000170: 18d4 43bd 654f d6bd aa62 133e 752b 353e
00000180: c3e7 bd3d a047 833d 38d1 963e 9c33 db3d
00000190: 7693 373d 790e d738 f022 cbbc f160 c2bd
000001a0: 0edf 033e fb27 093d 666e 2d3e acef 8f3d
000001b0: 0e82 043e c0fb db39 7801 803e 443e 25bd
000001c0: cc4e b03e c8f7 a1bc 2c4e e53e 9f1f fd3d
000001d0: fbb0 0c3f e222 393e 7d9a 9c3e 4752 13bd
000001e0: 0e41 723e 4d12 87bd 512f e63d 18b7 573c
000001f0: b8ec e73d 8c84 40be bf69 e03a 223e ffbd
00000200: f602 933e 5d89 f1bc b789 2d3c e9ec 27be
00000210: e93d 183e a74e 383c 54d5 21bd caea ee3d
00000220: 9256 bd3d 921b 993d 4985 de3d 11e1 88bd
00000230: f0be d53d 7604 85bd 3f91 6e3e aa3c 9f3e
00000240: 444a 623e 604a c2bc 7df1 e9bd ae7a bf3e
00000250: f056 143d b845 f43d 6f75 023c f0a2 f13d
00000260: 4d4c 0cbe 3023 ea3c 28e8 7dbd 6184 d93d
00000270: bb96 b3bb 1281 f33d b3f9 383e c5c0 5cbc
00000280: 156f 9e3d 0f60 7fbd aa59 283e 81a3 12bc
00000290: 3ccc a03b e288 0abe 5dc2 0abe 0a8d 123e
000002a0: c58b 8bbe 31f4 9a3e 4764 653e 8be4 44bc
000002b0: f899 473e d1e9 d0be 9045 493c f1c9 8fbe
000002c0: 8075 2ebd 1a83 e0bd b4d4 97be 8795 76bd
000002d0: 0817 6e3d 988c cbbe 0461 b8bd c6ef debe
000002e0: 5eb1 7bbe 2180 0fbe fa61 c3bd 6e9a b33d
000002f0: 7ec6 cbbd f64a 0bbe 3b24 303c 6356 acbe
00000300: 598c 3fbe 9070 c8bd d983 e7bd 99fd 26bd
00000310: e107 4f3d 6bc5 253c 6a7b 5a3d d2e1 283d
00000320: e325 ecbd 3d5e 973d afdb 70bd 075c 283e
00000330: 2c69 183b 1f70 4d3e 23ab 84b9 9e2c 27bd
00000340: 0a0d a93d e387 06bd 8ada 1c3e 2478 883d
00000350: a214 edbe 1931 853e 8ce4 113e 64c5 9b3d
00000360: 2ad0 6d3d 3101 f2bd 047f 4b3d caa8 9f3b
00000370: 3548 003d eea1 10be 1a29 f13d 14ae 97bd
00000380: da66 c13d 91c8 43be ca89 803d 15b3 8ebd
00000390: ad6f 1d3e 83ee fc3d ff89 893d 8a79 943d
000003a0: e35e 37bd 3151 803d db70 12bd 098a 053c
000003b0: aded 4dbe e596 63bd eb62 0abe 39a0 b6bc
000003c0: c4a0 63be f40d a0bd 6fea b6bb d050 003d
000003d0: d1e3 b6bd dea9 ea3c 652d 123c 48fd 0a3d
000003e0: fe50 dabd ff45 ccbd a99c 54be 9836 01be
000003f0: 3e4e ddbd 8380 4bbe 9cec b6be d6f4 43be
1.5485005 0.68116534 0.95953304 0.94469804 0.77181184 1.0105675 0.8776466 0.8425
0.53694296 0.99049395 0.36117133 0.13672327 0.29746196 0.56661135 0.5115161 0.43261677
0.5648192 0.48573762 0.67641133 0.37471253 0.30453965 0.5887096 0.63213426 0.3753651
0.24026458 0.75427616 0.8632287 0.28443485 0.059756216 0.207842 0.3260373 0.4590443
0.15868784 0.5905341 0.49085012 0.18368806 0.34126425 0.30445 0.32986417 0.3604904
0.10549453 0.29832196 0.28409737 0.28799242 0.45317245 0.2865124 0.124527775 0.1748875
0.38689414 0.42949742 0.4410697 0.39390552 0.3982285 0.12758754 0.33572257 0.090562046
0.12744597 0.46308413 0.42880222 0.49703103 0.38532096 0.15933026 0.13105679 0.14621389
-0.10062133 0.040459875 -0.031579934 -0.129094 -0.049179755 0.17420805 0.19174941 0.034705322
0.15892284 0.24803805 0.1680011 0.26287702 0.2215627 0.012555802 0.045915462 0.13777144
0.24250165 0.19913605 0.06283845 0.26511168 0.116277315 0.17938143 0.26478484 0.27549377
0.086977474 -0.031820394 0.048331883 0.082540296 -0.04780969 -0.10464362 0.14393106 0.17692359
0.09272721 0.06410146 0.29456496 0.10703203 0.044818364 0.00010254695 -0.024796933 -0.09491146
0.12878057 0.033485394 0.16936645 0.07028136 0.12940237 0.00041958503 0.2500112 -0.040342584
0.34435117 -0.019771472 0.44786203 0.12359547 0.5495755 0.18079713 0.30586615 -0.035967138
0.23657629 -0.065952875 0.11239494 0.013166212 0.113244474 -0.18800563 0.0017121359 -0.12463023
0.28713197 -0.029484445 0.010591916 -0.16398968 0.14867367 0.011249221 -0.039510086 0.11665876
0.092450276 0.07475962 0.10865266 -0.06683553 0.10436809 -0.064949915 0.23297594 0.3110097
0.22098643 -0.023717105 -0.11423013 0.37398285 0.036215723 0.1192736 0.007962569 0.11798656
-0.13700981 0.028581232 -0.06198898 0.106209524 -0.005480615 0.118898526 0.18064003 -0.013473694
0.07736031 -0.062347468 0.16440454 -0.008950115 0.004907159 -0.13528779 -0.13550706 0.14311615
-0.27255073 0.30264428 0.22401534 -0.0120173795 0.19492328 -0.40803388 0.012284651 -0.28083757
-0.042592525 -0.10962506 -0.29654467 -0.060201194 0.058127433 -0.39755702 -0.09002879 -0.43542308
-0.24579379 -0.14013721 -0.09540172 0.087696895 -0.09949969 -0.13602814 0.0107508255 -0.33659658
-0.18705882 -0.097870946 -0.11304445 -0.040769193 0.050544623 0.010117869 0.053340353 0.041230984
-0.11530664 0.073910214 -0.058803257 0.16441356 0.0023256047 0.20062302 -0.0002530451 -0.040814035
0.0825444 -0.032844435 0.15317741 0.0666354 -0.46304804 0.2601402 0.1424734 0.07606009
0.05805985 -0.118166335 0.04968168 0.004872416 0.031318862 -0.14124271 0.117754176 -0.0740625
0.094434455 -0.19119479 0.06276281 -0.06967751 0.15374632 0.1235018 0.06715774 0.07249744
-0.044768225 0.06265486 -0.03575216 0.008150586 -0.20110197 -0.055563826 -0.13514297 -0.022293197
-0.22229296 -0.07815161 -0.005582146 0.03132707 -0.08930171 0.028645452 0.008921956 0.033932954
-0.10659979 -0.09974288 -0.20762886 -0.12618482 -0.10805939 -0.19873242 -0.35727394 -0.19136366
