lstmt/model_pt/lstmt_traj_sf_lf_2_fold_CV_600.pt (torch, 273750 bytes, 6 tensors)

rnn.weight_ih_l0 f4 [16, 4]
0	0x3f6dcbea	0.92889273
1	0x3e187c0b	0.14891069
2	0x3e8710fe	0.26380152
3	0xbd96bb2e	-0.073599204
4	0xbd5187ac	-0.051154777
5	0xbc458bb2	-0.012057232
6	0x3deb3661	0.11484981
7	0xbb84fe2e	-0.004058621
8	0xbca344b4	-0.019930221
9	0x3c13eaa5	0.009028112
10	0xbed3534d	-0.4127449
11	0x3bb2c24d	0.0054552914
12	0x3e3a936d	0.18220301
13	0xbecb0120	-0.39649296
14	0xbeda7a1c	-0.42671287
15	0x3d82badf	0.06383299
16	0xbd73e65b	-0.059545856
17	0x3f428831	0.7598906
18	0x3d9b1ee2	0.0757425
19	0xbce11c30	-0.027479261
20	0x3d812c6d	0.06307302
21	0xbdbef7d8	-0.09324616
22	0x3ef73a84	0.4828683
23	0x3d1088e0	0.035286784
24	0x3e07e34a	0.13270298
25	0xbd9bb84f	-0.076035134
26	0xbef064b6	-0.46951836
27	0xbd07499d	-0.033029187
28	0x3d6be51c	0.057591543
29	0xbef4e7b9	-0.4783304
30	0x3e08e6e4	0.13369328
31	0x3c66e1f1	0.014091955
32	0xbacdd573	-0.0015703872
33	0x3e2df812	0.16989163
34	0x3da8ea7c	0.08247849
35	0xbaaad0a7	-0.0013032154
36	0x3d7b87c9	0.06140879
37	0xbd749146	-0.059708856
38	0x3e8d3639	0.2758043
39	0xbbc90281	-0.0061343317
40	0xbda59994	-0.08085933
41	0xbe5e8dfd	-0.21733852
42	0x3d0e772d	0.034781624
43	0xbc13cad7	-0.009020529
44	0x3d48b12e	0.048997097
45	0xbe4faa26	-0.2027975
46	0xbd85bdc3	-0.06530335
47	0x3bd363ee	0.0064511215
48	0x3d80d7bf	0.0629115
49	0xbef1aa39	-0.47200182
50	0xbdf12d0b	-0.117761694
51	0x3d1e5f1c	0.038664922
52	0x3e24dfcc	0.16100997
53	0xbd8b1d3b	-0.06792685
54	0xbd4b7a3a	-0.04967711
55	0xbe6f57a3	-0.23373275
56	0x3ec45b27	0.38350794
57	0xbe6032e0	-0.21894407
58	0xbd4e1d47	-0.05032089
59	0xbd600f14	-0.05470188
60	0x3ac75520	0.0015207864
61	0x3e52b2d0	0.20576024
62	0xbe80ef71	-0.2518268
63	0x3b8d55ab	0.004313191

rnn.weight_hh_l0 f4 [16, 4]
0	0xbe8147df	-0.25250146
1	0xbe06b1f0	-0.13153815
2	0xbeaeebaf	-0.34164187
3	0xbe42731b	-0.18989222
4	0x3ee0d005	0.43908706
5	0x3fb607d3	1.4221138
6	0xbf7d955c	-0.9905603
7	0x3f43c366	0.7647003
8	0x3fb626a5	1.4230543
9	0x3fbe7997	1.4880856
10	0xbe8eeccb	-0.27915034
11	0xbe88dca6	-0.2673084
12	0x3f94d3a7	1.1627091
13	0x3f8b8af7	1.0901784
14	0xbf1dbae1	-0.6161328
15	0xc0173469	-2.3625739
16	0x3ed596a9	0.41716507
17	0xbd2db465	-0.042408366
18	0xbe976c22	-0.29574686
19	0xbdb7877b	-0.08961388
20	0x3ea10762	0.31450945
21	0xbf5f9edf	-0.87351793
22	0xbdf5470f	-0.11976444
23	0xbd9d8b79	-0.07692618
24	0x3e363cac	0.17796582
25	0x3ba7aea8	0.005117256
26	0x3e3afe4e	0.18261072
27	0xbf7d279c	-0.98888564
28	0x3e2585ea	0.16164365
29	0x402db1f6	2.7139869
30	0xbe427e5b	-0.18993513
31	0x3f0a2898	0.5396819
32	0xbfa95e0b	-1.3231825
33	0x3e882ab9	0.26595095
34	0xbf87f2f5	-1.062102
35	0xbc9c1e5b	-0.019057443
36	0x3d4a8209	0.049440417
37	0x3de4d780	0.11173916
38	0xbebe1acb	-0.37129816
39	0xbeafb79f	-0.3431978
40	0x3f17c108	0.5927892
41	0xbf00d669	-0.50327164
42	0xbe82314b	-0.25428233
43	0xbedaa694	-0.42705214
44	0xbfbbfaf6	-1.4685962
45	0x3f7a4cd7	0.977735
46	0x3d5ee976	0.054421864
47	0xbfb34df4	-1.4008164
48	0x3f9af712	1.210665
49	0x3e8ed8e9	0.27899864
50	0x3f01f34e	0.5076188
51	0xbd718da8	-0.058972985
52	0xbf031c3f	-0.51214975
53	0x3ff099ce	1.8796937
54	0x3c580d37	0.013186744
55	0x400d374b	2.2064998
56	0x3fe01ccc	1.7508788
57	0x4013bc2d	2.3083603
58	0xbf78f5c6	-0.9725002
59	0xbfd186a0	-1.6369209
60	0xc011677d	-2.2719414
61	0x3fad02bf	1.3516463
62	0x4019f3a4	2.4054956
63	0x3f838cdb	1.0277361

rnn.bias_ih_l0 f4 [16]
0	0xbe72364b	-0.23653524
1	0x3f6914bc	0.91047263
2	0x3df2321e	0.11825965
3	0x3e20c3a5	0.15699632
4	0x3f1bd118	0.60865927
5	0x3ee6b26b	0.45057997
6	0x3e420f82	0.18951228
7	0x3e00a2ce	0.12562105
8	0x3d75b632	0.059988208
9	0x3de93b4b	0.11388262
10	0x3dda6648	0.1066404
11	0xbd357658	-0.044302315
12	0x3f5581cc	0.8340118
13	0x3f5c22ae	0.85990417
14	0x3ecf24f9	0.40457895
15	0x3f3fd61d	0.74936086

rnn.bias_hh_l0 f4 [16]
0	0xbdfec20f	-0.124393575
1	0x3f34ef82	0.7067796
2	0xbd898d4f	-0.067164056
3	0x3d6f0b48	0.058360368
4	0x3edfb651	0.43693784
5	0x3eaf3bb5	0.3422524
6	0x3e13c2f2	0.14429834
7	0x3e7ce91c	0.24698299
8	0x3e50639f	0.20350502
9	0x3e10b74b	0.1413242
10	0xbb104991	-0.0022016505
11	0xbe1c6dd0	-0.15276265
12	0x3f4475ef	0.7674245
13	0x3f54bb96	0.83098733
14	0x3e9a672a	0.30156833
15	0x3f484b90	0.782403

fc_out.weight f4 [334, 202]
0	0x3f987e2e	1.1913507
1	0x3f2a6ded	0.66573983
2	0x3edfe999	0.43732908
3	0x3c35c37d	0.011093971
4	0x3ed3ff79	0.41405848
5	0x3f5dc61e	0.8663043
6	0x3f25d533	0.6477844
7	0x3c403b45	0.011732881
8	0xbe123a96	-0.14280161
9	0x3f756886	0.95862615
10	0x3f3be452	0.73395264
11	0x3ebca488	0.36844277
12	0xbea2af22	-0.3177424
13	0x3f7ac1e4	0.97952104
14	0x3f20bad6	0.6278509
15	0x3edb5964	0.42841637
16	0xbe5856bb	-0.21126835
17	0x3f7745a0	0.96590614
18	0x3f078b01	0.5294648
19	0x3e8fa956	0.2805888
20	0xbed5394a	-0.4164527
21	0x3f787f29	0.9706903
22	0x3ef54d3e	0.47910494
23	0x3e09859a	0.13429871
24	0xbee88a1c	-0.4541787
25	0x3f79845a	0.9746758
26	0x3f0ba2c3	0.5454523
27	0x3daf282f	0.08552586
28	0xbf3bdb72	-0.7338172
29	0x3f7b649b	0.98200387
30	0x3ef9928a	0.48744613
31	0xbe2a6159	-0.16638698
32	0xbf4c80fc	-0.79884315
33	0x3f832189	1.0244609
34	0x3f0ca132	0.54933465
35	0xbdbaccbf	-0.091210835
36	0xbf81024b	-1.0078825
37	0x3f7bd6dd	0.9837473
38	0x3f15b89b	0.5848481
39	0x3d087456	0.03331407
40	0xbf870e4f	-1.0551242
41	0x3f81f6e1	1.0153466
42	0x3f374fb2	0.7160598
43	0x3e84deba	0.25951177
44	0xbf8969eb	-1.0735449
45	0x3f1edc6f	0.62055105
46	0x3f2e5448	0.68097353
47	0x3f057764	0.521353
48	0xbf5d90ec	-0.8654926
49	0x3d151d8a	0.036405124
50	0x3f38647d	0.7202833
51	0x3f5b2562	0.85603917
52	0xbf263fc8	-0.6494107
53	0xbef48f1b	-0.4776543
54	0x3f391d12	0.7230998
55	0x3f647738	0.89244413
56	0x3d9ddcac	0.077081054
57	0xbfa9f15e	-1.3276784
58	0xbe4769a2	-0.1947389
59	0x3f053ca3	0.5204565
60	0x3d854a9e	0.06508373
61	0xbe92c3e7	-0.28665087
62	0xbe63de9f	-0.22252892
63	0x3ec9921d	0.39369288
64	0xbcf8c5df	-0.03036779
65	0xbd6c9305	-0.057757396
66	0x3e62ff70	0.22167754
67	0x3ea8a347	0.3293707
68	0xbd13ba39	-0.036066268
69	0xbd5d7ee1	-0.05407608
70	0x3e5da193	0.21643667
71	0x3eae3ea1	0.34032157
72	0xbd16a24d	-0.036775876
73	0xbd9d1d6c	-0.076716274
74	0x3e359341	0.17731954
75	0x3eab997a	0.3351553
76	0xbbc70ffd	-0.006074904
77	0xbd6b754c	-0.05748491
78	0x3e249add	0.160747
79	0x3eb10eae	0.34581512
80	0xbd0f1f36	-0.034941874
81	0xbd0dac6f	-0.034588274
82	0x3e20f340	0.15717793
83	0x3eaccc2a	0.33749515
84	0xbc0a05c5	-0.008424227
85	0xbd7bf61d	-0.06151401
86	0x3e0dd97c	0.13852495
87	0x3e9e2416	0.30886906
88	0xbce21aab	-0.027600607
89	0xbd57bc28	-0.052669674
90	0x3dde8295	0.1086475
91	0x3eab9f3e	0.3351993
92	0xbbe6c73c	-0.0070427936
93	0xbd41cb9a	-0.04731331
94	0x3e043422	0.12910512
95	0x3eab7e9a	0.33495027
96	0xbc58204c	-0.013191294
97	0xbd2a7bf5	-0.04162212
98	0x3de74a4d	0.112934686
99	0x3ea099e7	0.31367418
100	0xbcc2aff2	-0.023765538
101	0xbcbb7e9f	-0.022887526
102	0x3dcfbe75	0.10143749
103	0x3ea75def	0.32688853
104	0xbc80435b	-0.015657118
105	0xbc95923c	-0.018258207
106	0x3de5da10	0.11223233
107	0x3ea1a164	0.31568444
108	0xbc91c4a6	-0.017793965
109	0xbd0d73d9	-0.03453431
110	0x3dd4d100	0.10391426
111	0x3ea4e2b6	0.32204217
112	0x3c293c99	0.010329389
113	0xbc32ed1c	-0.010920789
114	0x3da28424	0.0793536
115	0x3e985f12	0.29760033
116	0xbc93dcd4	-0.018049635
117	0xbc1c910a	-0.009556064
118	0x3dacb9df	0.084338896
119	0x3e9e72db	0.30947003
120	0xbc86593e	-0.016399976
121	0xbd19c334	-0.037539676
122	0x3da2a0e9	0.079408474
123	0x3ea701d3	0.3261858
124	0x3bf4f058	0.0074749403
125	0xbc3ff5f9	-0.011716359
126	0x3d9b547d	0.07584474
127	0x3e974ded	0.2955164
128	0x3c430452	0.0119028855
129	0xbc4d1ef6	-0.012519589
130	0x3d94573f	0.07243203
131	0x3e92a4a9	0.2864125
132	0xbc88949b	-0.016672423
133	0xbca30236	-0.019898515
134	0x3dc321b3	0.09527912
135	0x3e9d617f	0.30738446
136	0xbb2adc63	-0.0026071302
137	0xbccc31fb	-0.024926176
138	0x3d68e396	0.056857668
139	0x3e92a0f2	0.28638417
140	0xbb6275af	-0.0034555008
141	0xbce84ea8	-0.028357819
142	0x3da1823e	0.0788617
143	0x3ea644f2	0.32474476
144	0xbcb71116	-0.022347014
145	0xbc53afa6	-0.012920296
146	0x3da7538f	0.081702344
147	0x3ea2907f	0.31750867
148	0xb9822f66	-0.00024830847
149	0xbd14c33f	-0.036319014
150	0x3daf1d77	0.08550542
151	0x3e9e90d1	0.3096986
152	0xbcb546dc	-0.022128515
153	0xbc278de8	-0.010226704
154	0x3d924dda	0.07143755
155	0x3e975a77	0.29561207
156	0x3bb39a98	0.0054810755
157	0xbbb2d8d4	-0.005457977
158	0x3d3be666	0.045874022
159	0x3e914fe7	0.28381273
160	0x3ca904f8	0.020632252
161	0xbc68e189	-0.014213928
162	0x3d5e368e	0.054251246
163	0x3ea0cffa	0.31408674
164	0xbba24b93	-0.004952857
165	0xbd220bfb	-0.039562207
166	0x3d75a2f2	0.05996985
167	0x3e9c96b0	0.30583715
168	0xbc98fd03	-0.018675333
169	0xbd164561	-0.03668726
170	0x3d7699f0	0.0602054
171	0x3e961d1d	0.29319087
172	0xbc000e86	-0.007815963
173	0xbc1946e7	-0.009355283
174	0x3d255858	0.040367454
175	0x3e95701d	0.29187098
176	0x3c0e2865	0.008676623
177	0xbc579d40	-0.01316005
178	0x3d19fcd0	0.037594616
179	0x3e913794	0.28362715
180	0xbc54855f	-0.012971251
181	0xbba9bd0e	-0.005180008
182	0x3cb6bf8f	0.02230814
183	0x3e96c355	0.29445902
184	0xbba2adca	-0.004964565
185	0xbd1528b7	-0.03641578
186	0x3cfd9499	0.030954646
187	0x3e9e2a4a	0.3089164
188	0xbc6b7dc5	-0.0143732475
189	0xbcf3046a	-0.02966519
190	0x3caeada3	0.02132303
191	0x3e8fab03	0.2806016
192	0x3c8e560f	0.01737502
193	0xbc883136	-0.016625028
194	0x3c7f93cf	0.015599205
195	0x3e984f54	0.29748023
196	0x3c2697d4	0.010168035
197	0xbca7a2dc	-0.0204634
198	0xbc775293	-0.015095371
199	0x3ea32973	0.3186756
200	0xc0039a3a	-2.0562882
201	0x3e55f6e9	0.2089497
202	0x3f7a772d	0.978381
203	0x3d8d3a3d	0.06895874
204	0x3f64f9ae	0.8944348
205	0x3ee25389	0.44204357
206	0x3f0d5abe	0.55216587
207	0xbedb2958	-0.4280498
208	0x3f5adb46	0.85490835
209	0x3f29bf5c	0.66307616
210	0x3db93f06	0.09045224
211	0xbf2c118c	-0.67214274
212	0x3f182041	0.59424216
213	0x3f2c73cd	0.673642
214	0xbe92b8ca	-0.28656608
215	0xbf45b14d	-0.77223665
216	0x3ef12355	0.4709727
217	0x3f294297	0.66117233
218	0xbeef2363	-0.46706685
219	0xbf61ab7a	-0.8815228
220	0x3ec66d4a	0.38755256
221	0x3f1ec82c	0.6202419
222	0xbf013a18	-0.5047927
223	0xbf73c585	-0.95223266
224	0x3ecc087d	0.39850226
225	0x3f118e8b	0.5685813
226	0xbef7a05c	-0.48364532
227	0xbf816787	-1.0109719
228	0x3eec2f54	0.46129858
229	0x3f1a8f60	0.6037502
230	0xbec2e72c	-0.38066995
231	0xbf909997	-1.1296872
232	0x3f1a1a33	0.60196227
233	0x3f190063	0.59766215
234	0xbeb512b7	-0.3536584
235	0xbfaada76	-1.3347919
236	0x3f7e2e6e	0.99289596
237	0x3f166f2c	0.58763385
238	0xbeb82dca	-0.35972434
239	0xbfbb134f	-1.4615268
240	0x3fbecca5	1.4906203
241	0x3f137b49	0.57609993
242	0xbeb85b71	-0.36007264
243	0xbfdf2c81	-1.7435457
244	0x3f438f48	0.76390505
245	0x3f103242	0.5632669
246	0xbf09ade8	-0.53780985
247	0xbfafce24	-1.3734784
248	0x3fabbfb1	1.3417875
249	0x3f049693	0.5179226
250	0xbeb96084	-0.36206448
251	0xbf869114	-1.0513024
252	0x3f94ffc5	1.1640555
253	0x3efbb640	0.49162483
254	0x3e89d326	0.26918906
255	0xbf50f8da	-0.8162972

fc_out.bias f4 [334]
0	0x3e97e471	0.29666474
1	0x3ead4fc4	0.3384992
2	0x3ebb39f6	0.36567658
3	0x3ede1af8	0.4337995
4	0x3edc595c	0.43036926
5	0x3ec6ab99	0.38802794
6	0x3ef105af	0.4707465
7	0x3f074aad	0.5284832
8	0x3d746bc0	0.05967307
9	0x3e96b506	0.29434985
10	0x3e7b7225	0.24555261
11	0x3e7d6df8	0.24748981
12	0x3dfe68b4	0.12422314
13	0x3e801dbc	0.25022686
14	0x3e23ba4e	0.15989038
15	0x3e652eef	0.22381185
16	0x3ea870f3	0.32898673
17	0x3ed3d6d4	0.41374838
18	0x3e938d05	0.28818527
19	0x3daa8fed	0.08328233
20	0x3e238fa6	0.15972766
21	0x3ea85ef6	0.3288495
22	0x3ebf4cf7	0.37363407
23	0x3cf09325	0.029367039
24	0x3d470a68	0.04859391
25	0x3dbb9c51	0.09160674
26	0x3ea3c0fc	0.31983173
27	0x3d2bf71d	0.041983712
28	0x3e131428	0.14363158
29	0x3e1ed6e8	0.15511668
30	0x3e8bcfc3	0.27306947
31	0x3e160671	0.14650895
32	0x3d99c4fd	0.07508276
33	0x3e8e156d	0.27750722
34	0x3e5040c6	0.20337209
35	0x3e81e82e	0.25372452
36	0x3e4c3f8f	0.1994612
37	0x3e2355ee	0.15950748
38	0x3e39fcd0	0.18162847
39	0x3e2042ab	0.15650432
40	0x3d946198	0.07245177
41	0x3e238943	0.1597033
42	0x39f35f01	0.00046419355
43	0x3da5d787	0.08097749
44	0x3e4bde64	0.19909054
45	0x3de3c88f	0.11122238
46	0x3d955530	0.07291639
47	0x3da1c7ed	0.07899461
48	0x3dba1d14	0.090875775
49	0x3e421f90	0.18957353
50	0x3deefdde	0.11669515
51	0x3eae5289	0.34047344
52	0x3e0f1d3a	0.13975993
53	0xbc968f28	-0.01837881
54	0x3de7b0f5	0.11313049
55	0xbd08fd93	-0.033444952
56	0x3cc10864	0.023563571
57	0x3dc03826	0.093857095
58	0x3e124be5	0.14286764
59	0x3e50a373	0.20374851
60	0x3dfd54f3	0.123697184
61	0xbda43a22	-0.080189005
62	0x3cd074a3	0.025446242
63	0x3cd9ef15	0.026603261
64	0xba8f3b99	-0.0010927796
65	0xbc203772	-0.009778844
66	0xbddd782b	-0.10813936
67	0xbc83a124	-0.016068049
68	0xbc1ffb51	-0.009764508
69	0x3d4b8b63	0.049693476
70	0x3cd68785	0.026187668
71	0x3c43c9df	0.011949985
72	0x3ca86b3b	0.020558944
73	0x3e7758f6	0.2415503
74	0x3c5b2b23	0.013376984
75	0x3d8e5893	0.06950488
76	0x3d6cbb2e	0.057795696
77	0x3dcf498b	0.10121449
78	0x3d78af00	0.060713768
79	0x3df594e1	0.11991287
80	0x3e28e6a1	0.16494228
81	0x3dee1c60	0.11626506
82	0x3c045d15	0.008078833
83	0x3d88ef5f	0.066862814
84	0xbbae7d89	-0.0053250236
85	0x3d060922	0.032723553
86	0x3de973eb	0.11399063
87	0x3e27381d	0.1633
88	0xbc239625	-0.009984528
89	0xbe2941d7	-0.16529022
90	0xbdafbc87	-0.085808806
91	0x3b8321ba	0.0040018233
92	0x3cd74d2e	0.02628192
93	0x3d8a2939	0.06746144
94	0x3e297419	0.16548194
95	0x3e1367c5	0.14395054
96	0x3dc88e4a	0.097927645
97	0xbca77795	-0.020442763
98	0x39babad9	0.00035615897
99	0x3d0794f9	0.033101056
100	0xbaf06e80	-0.0018343478
101	0x3cf26a25	0.02959163
102	0x3c90e1df	0.017685829
103	0xbd3ab236	-0.04558011
104	0x3b13041d	0.0022432872
105	0xbd7e4875	-0.06208082
106	0xbdc43b33	-0.09581604
107	0xbdefe1ed	-0.11713014
108	0xbb94f9e2	-0.00454639
109	0xbd85e601	-0.065380104
110	0xbd2b4158	-0.041810364
111	0xbd6a19cb	-0.057153504
112	0x3d927051	0.07150329
113	0xbd3c4fdc	-0.045974597
114	0x3d6ac035	0.05731221
115	0xbd119298	-0.035540193
116	0x3e1c2db1	0.15251805
117	0x3d479050	0.04872161
118	0x3db68c06	0.08913426
119	0xbd4c2493	-0.049839567
120	0x3cba3bf6	0.02273367
121	0xbe29ee2a	-0.16594759
122	0xbd066a35	-0.03281613
123	0xbce2ba2e	-0.027676668
124	0xbd7e4c23	-0.06208433
125	0xbd3f962d	-0.04677408
126	0xbce3d5c1	-0.027811887
127	0xbdb8264d	-0.0899168
128	0xbbfcbb97	-0.007712792
129	0xbc9357ca	-0.017986197
130	0xbdf770b8	-0.12082046
131	0xbe27368d	-0.16329403
132	0x3e1a91e0	0.1509471
133	0x3e1a0404	0.15040594
134	0xbc34fced	-0.01104663
135	0xbb9c5d53	-0.0047718673
136	0x3a757a61	0.0009364244
137	0x3c992476	0.018694144
138	0x3dc2c4e3	0.095102094
139	0x3d064fc7	0.032790925
140	0x3bd0e2e9	0.006374706
141	0xbcb969bf	-0.022633431
142	0x3d1b351b	0.037892442
143	0x3c8e9dd2	0.017409239
144	0x3dbe9890	0.09306443
145	0x3da0ba29	0.07848007
146	0xbd49c7e2	-0.04926289
147	0x3e72b84c	0.23703116
148	0x3cfe8575	0.031069497
149	0x3d208032	0.039184757
150	0x3c464ef5	0.012103786
151	0x3dbebe74	0.0931367
152	0x3c609c88	0.013709195
153	0x3dbe9e19	0.093074985
154	0xbd6ec632	-0.058294483
155	0x3e1a07ae	0.15041992
156	0x3d012193	0.03152616
157	0x3e13d854	0.14437991
158	0x3d84c876	0.064835474
159	0xbd982b77	-0.07430165
160	0x3cb05a58	0.021527454
161	0xbcded546	-0.027201306
162	0x3ddda148	0.108217776
163	0xbd394191	-0.045228545
164	0x3ca9dc2b	0.020734867
165	0x3d22a081	0.03970385
166	0xbe12e2da	-0.1434435
167	0xbd52721c	-0.051378354
168	0xbdb65ec1	-0.089047916
169	0x3d756934	0.059914783
170	0x3d516aa2	0.051127084
171	0xbc88b755	-0.016688982
172	0x3de56817	0.11201494
173	0xbe449975	-0.19199164
174	0xbd83c73a	-0.06434484
175	0xbe7c8fb1	-0.24664189
176	0xbdaad4a6	-0.08341341
177	0xbd597356	-0.05308851
178	0xbe3cfc88	-0.18455708
179	0xbdc868d5	-0.0978562
180	0xbd1cce3f	-0.03828263
181	0x3ccb573a	0.024821866
182	0x3d520f2b	0.051283997
183	0xbd994e82	-0.07485677
184	0x3d637507	0.055531528
185	0x3c2c71c2	0.010525169
186	0x3d82e1ba	0.0639071
187	0x3d11d7f5	0.035606343
188	0x3d125150	0.035722077
189	0x3d91b7ab	0.0711511
190	0x3d8e8e30	0.06960714
191	0xbe31bdcb	-0.17357557
192	0xbd841b14	-0.06450477
193	0xbd7c850d	-0.061650325
194	0x3c8f7e86	0.017516386
195	0x3bd6fa67	0.006560612
196	0xbd7504f9	-0.059819195
197	0x3cbd7842	0.023128632
198	0x3b108c57	0.0022056305
199	0xbc1123b8	-0.008858614
200	0xbdd48c90	-0.10378373
201	0xbd486c63	-0.04893149
202	0xbddcdebb	-0.1078467
203	0x3ce414ec	0.027842008
204	0x3d8a2dcc	0.06747016
205	0x3d640923	0.055672776
206	0x3d7fb992	0.062432833
207	0xbd3a8e2c	-0.045545742
208	0xbd554ef5	-0.052077252
209	0xbe09818b	-0.13428323
210	0xba57afff	-0.00082278246
211	0xbccf9bff	-0.02534294
212	0xbd3c6090	-0.045990527
213	0x3d8aaaf8	0.06770891
214	0x3cf940ab	0.030426344
215	0x3d8138f9	0.06309695
216	0xbcedf4b2	-0.029047344
217	0xbd929a13	-0.071582936
218	0xbcd1ad26	-0.025595259
219	0x3cb0edad	0.021597708
220	0x3d2997d3	0.041404556
221	0xbcb5dfb4	-0.022201397
222	0x3de629ac	0.11238417
223	0x3d7caa35	0.06168576
224	0x3daa9fe9	0.08331282
225	0xbb8dcb3c	-0.004327206
226	0xbd2fb7fc	-0.04290007
227	0xbb81b141	-0.003957898
228	0xbda3bbb7	-0.07994788
229	0xbcbc8a0f	-0.02301505
230	0xbbc0ef96	-0.005887936
231	0xbc90e645	-0.017687926
232	0xbd519c3d	-0.05117439
233	0xbcbd0b49	-0.02307667
234	0xbd50e60a	-0.051000632
235	0xbd2061e6	-0.039155863
236	0xbd886650	-0.066601396
237	0xbd359cf0	-0.04433912
238	0xbdaff0aa	-0.08590825
239	0xbd50bd1e	-0.050961606
240	0xbdc6685f	-0.09687876
241	0xbcff4d9e	-0.03116494
242	0xbc0fa60e	-0.008767618
243	0xbcc9f4a6	-0.02465279
244	0xbd867b62	-0.06566502
245	0xbd47c964	-0.048776045
246	0xbd31e6b9	-0.043432925
247	0xbd9fac03	-0.077964805
248	0xbdb4b9fb	-0.088245355
249	0x3d016b4d	0.03159647
250	0xbd923f9a	-0.07141037
251	0xbc496f5a	-0.012294615
252	0x3ca307aa	0.019901115
253	0xbdc4674b	-0.09590014
254	0xbe09b01d	-0.13446088
255	0xbe43f880	-0.19137764
