lstmt/model_pt/lstmt_full_1_fold_CV_2100.pt (torch, 285693 bytes, 6 tensors)

rnn.weight_ih_l0 f4 [16, 4]
00000000: 3983 fe3c c19e ca3e 65d5 4ebe 03ed f6bc
00000010: 2537 8b3f 816b b33d be31 923e 8dd6 52bd
00000020: 1aab 2f3e 0ea7 ae3e 205b c13d 7024 bfbd
00000030: f83e 18b8 c160 633e f44b dc3d 02d4 83bc
00000040: 9054 053e 83b8 793d 68c7 823d 9a0c 133e
00000050: 2781 443d 8e6a bf3e d4fb a3be 2b1b 89bd
00000060: e258 e63a 1b4f 3cbf af32 bc3e 4454 393d
00000070: 4cdf 0b3e f7ec 27be 2a7e b93e f466 52bd
00000080: ba7a b1be 85f2 89bd e293 873e a9e4 7cbd
00000090: 06a0 f3bb ab6e 123e 9dea 8d3d 8e2c 4dbc
000000a0: 5f33 52bd f230 dfbd e0f5 f3bd 7144 b33b
000000b0: 596c 08bd 7ab2 77bc 1c82 66be 86ce c33b
000000c0: 4b10 81bb 9a14 373e 4857 c1be 915d 893c
000000d0: a1e4 5c3d b98c be3e 9019 ccbe e676 c33c
000000e0: 5f7a 0f3d 74bc 8ebe 7ff0 da3e 4bfd b6ba
000000f0: 4229 9c3b e780 613e c1a7 993e 90a9 54bb
0.031068431 0.39574245 -0.20198591 -0.030142313 1.0876204 0.08760739 0.28553575 -0.051474143
0.17155114 0.34111828 0.09441209 -0.09333122 -3.629827e-05 0.22204877 0.107566744 -0.016092304
0.1302054 0.06096698 0.0638569 0.14360276 0.04797473 0.37385982 -0.32028067 -0.06694635
0.0017574097 -0.73558205 0.3675742 0.045246378 0.136594 -0.16398989 0.36229068 -0.051367715
-0.34663945 -0.0673571 0.26480013 -0.061741505 -0.0074348478 0.14300029 0.069295146 -0.01252283
-0.051318523 -0.108980075 -0.11912131 0.0054708053 -0.033306453 -0.015118236 -0.2251057 0.0059755472
-0.00393871 0.17878953 -0.37761903 0.016768249 0.053928975 0.37216738 -0.39863253 0.023860406
0.03502881 -0.27878153 0.4276161 -0.0013960985 0.0047656605 0.22021829 0.300108 -0.00324497

rnn.weight_hh_l0 f4 [16, 4]
00000000: b69e d4bf 7b56 67bd c425 b6be 8fcf 10c0
00000010: 6940 ecbc cac8 abbe c653 b63d 29c9 13ba
00000020: 4552 a9bf 7a5f 08bf 5e23 0ebf 3445 76bf
00000030: 0829 a1bf ee34 f9be a915 e7be 8346 623e
00000040: b608 dbbd 4586 963f af88 1bc0 c31c 0ac0
00000050: 7306 ae3e fb24 02bf 249b 82be 7d38 883f
00000060: be26 a8be 922d 5e3d 4e2a e3be 088c 9ebf
00000070: dd5c 893e 99d9 893e 6d2c c4be 1fd3 d3bf
00000080: 2999 fcbe f38a 4abe 790c 86be fdcf 2cbe
00000090: fa06 9d3e 9887 93bf 3a39 7d3f d112 3d3f
000000a0: 20ba 023e ed22 4a3e e994 24bf 8dd6 813f
000000b0: 795d 633f 0f4a 973e 44d6 83be 35cc 193f
000000c0: e42a 2c3f 1cd4 fa3e 2ca7 50be 453d 0dc0
000000d0: a995 1fbf 809a 24bf 896b 9a3d 9361 913f
000000e0: 2314 0fbf 7493 2a3f 56f5 04be 71cd 58bf
000000f0: 6773 a8be a0c5 fabe f6a9 82bf 0518 6abe
-1.6610935 -0.05647896 -0.35575688 -2.2626684 -0.028839307 -0.33551627 0.08902697 -0.000563758
-1.3228232 -0.53270686 -0.55522716 -0.96199346 -1.2590647 -0.48673195 -0.45133713 0.2209721
-0.10695021 1.1759726 -2.4302175 -2.1580055 0.33989295 -0.5083768 -0.25508988 1.0642239
-0.32842058 0.054242678 -0.44368213 -1.2386484 0.26828662 0.26923826 -0.38315144 -1.6548804
-0.49335602 -0.19779567 -0.2618139 -0.16876216 0.30669385 -1.1525755 0.98915446 0.73856837
0.12766314 0.19739886 -0.6428972 1.0143601 0.888145 0.2954869 -0.2574941 0.6007722
0.67252946 0.48989952 -0.20376271 -2.2068646 -0.6233774 -0.6429825 0.07540042 1.1357902
-0.558901 0.66631246 -0.12984213 -0.8468848 -0.32900545 -0.489789 -1.0208118 -0.22860725

rnn.bias_ih_l0 f4 [16]
00000000: 50d1 6c3e d1ca 00be 6a3a 71be 496b 973d
00000010: 6904 3fbe 480d 0b3f 3d49 e2bd ed4a 95bd
00000020: ed99 c63d 9cb0 8bbe 0aaf 09bd f30d 9fbc
00000030: e881 0d3f 901c 6f3f ffc7 493f 64f3 c83e
0.23126721 -0.12577368 -0.2355744 0.0739351 -0.18654026 0.5431714 -0.11049125 -0.072896816
0.09697328 -0.2728318 -0.033614196 -0.019415831 0.55276346 0.9340296 0.78820795 0.39248192

rnn.bias_hh_l0 f4 [16]
00000000: cc5f 643e d265 dbbd 2d38 90be 740f 863a
00000010: e8d9 63be c26e 0b3f 5b57 febd c0b0 adbc
00000020: 859f 8a3d 1c97 93be e19f 3fbc 98d8 dbbc
00000030: c192 063f 1351 6b3f 4541 443f 2756 df3e
0.22302169 -0.1071278 -0.2816786 0.0010227994 -0.22251093 0.5446588 -0.124190055 -0.021202445
0.06768707 -0.28826225 -0.011695833 -0.026836678 0.5256768 0.91920584 0.76662093 0.43620417

fc_out.weight f4 [334, 211]
00000000: 9f29 1e3f 38a4 22bf 816b fa3e eb27 14be
00000010: db8f 293f 80c6 d4be 7b3a 003f b863 8bbe
00000020: 690b 213f 56b6 3abe 751f fc3e d07e cfbe
00000030: 0c98 203f dd1c 1d3d 6bfe fe3e addf bebe
00000040: 2caf 253f d403 5a3e 8eae 103f b76d 76be
00000050: 70ab 243f 7241 933e d0cc 1e3f 1a12 41be
00000060: 6969 163f fc1e fc3e 5475 293f cafa 31be
00000070: e654 233f 8d85 0b3f e4a0 393f b313 47be
00000080: d7e4 243f 459b 1f3f 7d1c 3b3f c478 60be
00000090: 9f25 373f f29c 3b3f 51fd 423f 26dd 79be
000000a0: 2e47 493f 99ca 4a3f c60a 553f f691 94be
000000b0: aa45 543f e48e f73e 8568 413f 2c1b 77be
000000c0: 7fae 493f 985a b13e 9b1b 5a3e d8fc 7c3d
000000d0: 7e43 123f 0ef2 093e de25 8cbe 69bf 013f
000000e0: 519b 803e daad 243e 1c7d 59bf b1b2 b93e
000000f0: 75b5 193e 3f43 4f3c cac5 10bf 0fcb 1f3e
00000100: 4160 da3d 57f2 0bbe 4c8a ad3d 3119 ac3d
00000110: 80bc d13d ceca 0cbe b45b cc3d 9be9 a73d
00000120: 377d eb3d 7d3b 04be bb97 e93d 5d94 ab3d
00000130: 4e40 e73d a87f 00be 47be ff3d 772f b03d
00000140: e38e ca3d b775 0fbe 3a17 aa3d b418 683d
00000150: b2a3 b13d 9c6d 16be fa55 a83d 642f 713d
00000160: 9982 943d db16 2cbe 6f6c 7c3c f002 4f3d
00000170: 6212 aa3d e781 25be 90a2 d33c 7ee4 6c3d
00000180: 7fd4 993d aeb8 2abe 27be 893c de7a 583d
00000190: 7eb3 a33d 5929 26be f1f4 bf3c 10d2 7d3d
000001a0: 24a9 983d f93d 29be 7666 ec3c 0762 513d
000001b0: ec96 a93d ef28 25be 1b05 d63c 2565 733d
000001c0: 8d4f ac3d 07a3 25be d605 f63c 79d8 4d3d
000001d0: 9553 983d 8ae5 1fbe d6fd c53c e372 563d
000001e0: be76 a53d d93a 20be ee6a ab3c 2429 653d
000001f0: 5fe9 913d e94f 1bbe 1027 923c e2f6 893d
00000200: 77b0 9b3d aa96 22be 1a3c f33c b951 743d
00000210: dcc5 833d bec3 1fbe 120e cf3c 1679 4d3d
00000220: 75d0 423d 0452 24be b4df bb3c f79c 4e3d
00000230: c8a4 bf3c 1f96 21be 68ea 803c daf7 0f3d
00000240: de24 943c 819f 27be 30d9 383c 9535 ea3c
00000250: eed7 af3b c591 27be 324d bc3c b1f6 cc3c
00000260: ae4f 443c a803 22be b663 983c 15d3 023d
00000270: b0a2 223b 61e7 21be 169f 463c b8e9 c63c
00000280: 190d 4d3c 4169 26be 0a0b 543c 6c1c c03c
00000290: fbb5 213c 1d5f 31be 0864 a83c b485 793c
000002a0: 94c2 2d3c 034c 2fbe 2a5a 353c 2c92 453c
000002b0: d2fc 043c ff55 2ebe 739b 053c bc62 803c
000002c0: c96c 81ba e52b 39be 322b 093c 285e c2b9
000002d0: 12ea 4f3b 1446 2ebe 457a 603a a52a 9a3b
000002e0: e255 d8bb 984f 38be a3a1 1d3c 4c73 d23b
000002f0: 7e63 77bb c2eb 31be cb57 9a3b f3f1 913b
00000300: 06cc 10bc da43 38be ce49 d33b 1241 483b
00000310: 39e0 88bb b421 41be 5e23 623b e824 5bbb
00000320: caea 0bc0 ff77 0340 2ae5 ffbf 0617 da3f
00000330: c49f 2c3e 7db9 4c3d 51b4 c7bf a01a 00bf
00000340: 9c2d 6b3e 1995 0340 4502 02bf 57d2 a03f
00000350: de96 fa3e 5b9b f93e 1262 02be b856 993f
00000360: f43a 823e ffd3 f33e e7b1 babc cf74 6e3f
00000370: 8558 4dbe ef64 e93e d05b bd3d 602c 063f
00000380: add3 37bf 4b0a c93e fdd7 403e 94b4 e9bc
00000390: 36fe 8ebf 3f4c b13e 45f6 6e3e c139 ddbe
000003a0: 0c7f abbf 5770 af3e 02f3 913e 1256 33bf
000003b0: f85b bdbf 7abb ad3e 0064 a43e 9039 81bf
000003c0: 7fd2 c7bf a07e 5f3e 5eb1 d23e 1b92 99bf
000003d0: dacd c9bf 3af7 853e b543 f23e 5b99 a9bf
000003e0: 4ed6 c8bf 7184 cd3e c0cc f53e 9a08 b4bf
000003f0: d3d7 ccbf d9a2 293f 2547 e13e d2af 6fbf
0.6178226 -0.6353183 0.48910144 -0.14468352 0.6623513 -0.41557693 0.50089234 -0.27224517
0.62908036 -0.18233618 0.4924275 -0.40526438 0.62732005 0.038357604 0.4980348 -0.37280026
0.64720416 0.21290523 0.5651635 -0.2406529 0.6432409 0.28760868 0.6203127 -0.18854561
0.58754593 0.4924239 0.66194654 -0.17380825 0.6380142 0.5450066 0.72511125 -0.19441108
0.6441168 0.623463 0.73090345 -0.21921068 0.7154178 0.73286355 0.7616778 -0.24400768
0.78624237 0.7921539 0.83219564 -0.2901761 0.829188 0.48351204 0.7555011 -0.24131459
0.78781885 0.3463943 0.21299593 0.061764568 0.57134235 0.13471243 -0.2737264 0.50682694
0.25118497 0.16081944 -0.84956527 0.36269143 0.15010627 0.01265031 -0.565518 0.15604804
0.1066289 -0.13666664 0.08473644 0.084032424 0.10241032 -0.13749239 0.099784285 0.081988536
0.11498492 -0.12913318 0.114058934 0.083779074 0.11291562 -0.12548697 0.124874644 0.08602803
0.09890535 -0.14009748 0.08305211 0.056664184 0.086738005 -0.1469025 0.08219524 0.058883086
0.07251472 -0.16805594 0.015406712 0.05053991 0.083042875 -0.16162835 0.025834352 0.057835095
0.075112335 -0.16672012 0.016814305 0.05285155 0.0799322 -0.1622671 0.023432227 0.06196791
0.07454136 -0.16527547 0.028857451 0.051118877 0.08280739 -0.16128896 0.026125481 0.05942263
0.084136106 -0.16175471 0.03003208 0.050255273 0.07437817 -0.15614906 0.02416889 0.05235566
0.08079289 -0.15647449 0.020925011 0.055947438 0.0712459 -0.15167202 0.017840892 0.06736542
0.076020174 -0.15877786 0.029691745 0.05964825 0.06434223 -0.15602013 0.025275264 0.050164305
0.04756208 -0.16046911 0.022933818 0.050442662 0.023394004 -0.15779923 0.015736774 0.03514848
0.018083986 -0.1636944 0.01128225 0.028590003 0.005366317 -0.163642 0.022986028 0.025019975
0.011981888 -0.15821707 0.018602233 0.031939585 0.0024816208 -0.1581092 0.01212289 0.024281368
0.01251533 -0.16251089 0.012942085 0.023451053 0.009870048 -0.17321439 0.020555511 0.015229631
0.010605473 -0.1711884 0.01106886 0.012058776 0.008116918 -0.17024992 0.008154738 0.01567208
-0.000987434 -0.1808315 0.008372115 -0.00037072715 0.003172521 -0.1701892 0.00085631415 0.0047047907
-0.006602035 -0.17999113 0.009621057 0.006422436 -0.003774851 -0.1737509 0.004710173 0.0044538914
-0.0088377055 -0.17994633 0.006448007 0.0030556363 -0.00417712 -0.18860513 0.0034505944 -0.0033438746
-2.1862054 2.054199 -1.999181 1.7038276 0.16857821 0.049981583 -1.5601903 -0.50040627
0.22966617 2.0559752 -0.50784713 1.2564191 0.48943228 0.4875134 -0.12732723 1.197959
0.25435603 0.47622678 -0.022789909 0.93146986 -0.20053299 0.4558482 0.092460275 0.5241146
-0.71807367 0.39265665 0.18832393 -0.02852849 -1.1171329 0.34628484 0.23336132 -0.43208125
-1.3398147 0.34265396 0.28505713 -0.7005321 -1.4793692 0.33932096 0.32107544 -1.0095692
-1.5611113 0.21825647 0.41150945 -1.1997713 -1.5765946 0.2616518 0.4731728 -1.3249925
-1.5690401 0.40140107 0.48007774 -1.4065125 -1.6003364 0.6626411 0.4399959 -0.93627656

fc_out.bias f4 [334]
00000000: fce0 d13f 1a5b 533f 27f7 393f bcf2 4b3f
00000010: 4753 2a3f 2b31 193f fa4d 3c3f c76a 063f
00000020: 80d3 1140 55d5 8b3f 8ca6 d13e b21b 663e
00000030: 466f 1f3f d2fe c83e ba7d d23e 3a45 773e
00000040: 4b84 c03e 53b6 803e 3a38 0a3f 8cff 043e
00000050: 54c4 7e3e e038 043f 10dc 9b3e 01a9 313e
00000060: 5d9b e33e a807 1d3f 0868 203f 1acf ee3e
00000070: 1782 bb3e 98d4 9e3e 0e30 f33e 0aab 2b3f
00000080: d433 ea3d a06d 8a3e fc41 c33e 56be bb3e
00000090: 275c b13e c51a 403e aff3 813d 8403 673e
000000a0: a7f7 8e3d d401 e73d f686 1b3e 83be 843e
000000b0: d8a3 c13e 2b1b a13d bff2 ec3c e5a5 9b3e
000000c0: d54e 913e 15ff 6e3e 663d 4d3e 54c6 7b3e
000000d0: b9b6 4cbc dec7 943e 7bd2 043f 5d25 453e
000000e0: e3ba a23e f213 ef3e 7985 bd3e c0bc 9a3e
000000f0: 2d16 d23d 9e45 623e ce0d 593e a9e7 2a3e
00000100: f25b 273e cf68 073e 336a 82bc be05 fcbb
00000110: 8d1b 19bb 3b6e a23e 3804 453e c04b 333e
00000120: c1fb 2f3e a11e 923d 5820 5f3e e923 013e
00000130: d646 1fbd 34f0 1c3e b1b2 7e3e 512d 373d
00000140: fce4 383e bcc3 233e daaf 653d bad1 4b3e
00000150: 6716 5dbd 8565 0139 fb46 4b3e 3cf7 e93d
00000160: d64c 5abc 29d5 88be 37d8 4c3d bdd1 18be
00000170: cef0 c83d f96b 333e 96fb 323e 7d91 583e
00000180: 15d3 003d f361 4a3d b721 c53d e0c6 c9bc
00000190: 3284 d83c 24ac ebbd fbec faba 2ecb 0fbe
000001a0: 8f8c 983e de94 1e3e 5f50 ad3d 6514 9ebc
000001b0: 14e2 a23e 8cb2 323d c24b 9e3e a14c bf3c
000001c0: 132e 9e3e 9749 1d3e 1a79 053e f991 0f3d
000001d0: 02e4 583e 9d7a 813d a627 1a3e 06ea c5bd
000001e0: 2886 a93e c61d 393d ef69 a73d cfe0 2a3d
000001f0: ff4c 57bd 7086 e2bc 9f8d 9d3c e596 223d
00000200: 06ef 813e 4dd8 e13c ffb7 6a3c 53e5 83bc
00000210: c4e8 b83d a3e7 513e 67cf 283d 28ed f03d
00000220: 14d1 273e 8072 693e ed28 3c3e 5358 5c3d
00000230: 0510 c13d f51f 25bd a359 833d ec05 193e
00000240: 232f bcbc 2b70 8dbc 5117 08bc a41e f03d
00000250: 6226 583d 1620 ee3c 312b 183c cccb 143e
00000260: 8aac 7a3d 45ff 023e b7e4 0e3c 1cbb 7d3d
00000270: 73d4 3e3d bff0 183d 5003 da3d 7818 6ebd
00000280: 057f 803a 3ec7 aa3c 2dbd c93d 3c5b d3bd
00000290: 5d69 21be 8a45 f1bd 98a7 2ebe 9ba8 2f3e
000002a0: 4c6e 0fbe 6968 913d 1c8e 853d 04dd 5cbd
000002b0: 3ba3 df3d 1b45 86be 0404 7fbd fe31 9cbe
000002c0: 90f1 6bbd 033c e0bd 8dd8 4dbe 701c 06be
000002d0: e984 113b 1dbb 47be 7a13 d0bd bc41 55be
000002e0: 769a 9bbe cbbc 4cbe 57f8 e5bd 3c8c 3d3d
000002f0: 0f8b 74bc 3822 d73c 8cfd 973d 9e34 8abe
00000300: 61b3 54be daaf c8bd 2e0a 71bd bed7 60bd
00000310: 9f88 043d 0d90 983d c2d3 043e 6f97 803c
00000320: 5b5d 62bd 85c1 473d a065 fdbc 4719 ba3d
00000330: 91b1 953d 718b da3d 2f1d 94bb a09e 10bd
00000340: 4a48 1d3d bada 2bbd 298b 483d 2c7b 523d
00000350: 1bf2 83be 860c 123e b1e9 033e 5540 ee3d
00000360: ed49 9b3c db69 3cbe f167 e2bd 7635 f6bd
00000370: 10dc 14bc 4bdc e3bd 9c32 5e3d a43b b7bd
00000380: bbf3 203d 990e 84be 4a4e 023e 8b14 283d
00000390: c9c3 383e 8770 9e3d 1d94 a23d fb2b 1e3d
000003a0: 7877 58bd 151e ac3d ecb8 083c cfdd d0bc
000003b0: dec5 0ebe 72c1 0ebe 16d0 bbbd fceb bebb
000003c0: 4b42 4abd 26b9 f6bb 45fe b23c dc76 4f3d
000003d0: 8955 1bbd 1ce6 6e3d 20d1 91bc 41ff f43b
000003e0: e70d 85bc 5b64 15be 0c2a eebd 55c1 0cbe
000003f0: c1ff e7bc b9f5 cdbd 0b00 2bbe 94a9 44be
1.6396785 0.82560885 0.7264275 0.7966726 0.6653332 0.5984065 0.7355648 0.5250668
2.278534 1.0924479 0.40947378 0.22471502 0.62279165 0.39256912 0.41111547 0.24147502
0.37600932 0.25139102 0.53992045 0.12988108 0.2487958 0.51649284 0.30441332 0.17349626
0.4445447 0.6133981 0.6265874 0.4664238 0.36622688 0.3102157 0.474976 0.6705786
0.11435667 0.27036762 0.3813628 0.36668652 0.3464062 0.18760212 0.06345307 0.22559935
0.0698083 0.112796456 0.15188202 0.259266 0.37820315 0.0786651 0.028924344 0.30400005
0.28380457 0.23339494 0.20042953 0.24587375 -0.012494736 0.29058737 0.5188367 0.19252534
0.31783208 0.46694905 0.37015894 0.3022213 0.10258136 0.2209687 0.21196672 0.16689934
0.16343668 0.13223575 -0.01591978 -0.007691114 -0.0023362369 0.31724724 0.1923989 0.17509365
0.1718588 0.07134748 0.21789682 0.12611355 -0.038885914 0.15326005 0.24872853 0.04472095
0.180561 0.15992635 0.05607591 0.19904223 -0.053976443 0.00012340218 0.19851296 0.11424109
-0.013323983 -0.26725128 0.050010886 -0.14923759 0.09811555 0.17521657 0.17478785 0.2114925
0.031451304 0.049409818 0.09625571 -0.024630964 0.026430223 -0.115074426 -0.0019144112 -0.1404235
0.29794738 0.15486476 0.08462595 -0.019296834 0.3181311 0.043627307 0.30917174 0.02335197
0.30894527 0.15360104 0.13034478 0.03505132 0.21180728 0.06322215 0.15054187 -0.09663777
0.33110166 0.04519441 0.08174502 0.0417183 -0.052563664 -0.027651995 0.01923257 0.039694685
0.25377673 0.02756896 0.014326095 -0.016100561 0.090287715 0.20498519 0.04121342 0.11763984
0.1638835 0.22797585 0.18374987 0.05379517 0.094268836 -0.04031368 0.06413581 0.14943665
-0.022971695 -0.0172654 -0.00830634 0.11724594 0.05277098 0.029068034 0.009287641 0.14530867
0.061199702 0.1279269 0.008721522 0.06194602 0.046589326 0.03733897 0.10645163 -0.058128804
0.000980348 0.02084696 0.098505355 -0.10320136 -0.15762849 -0.11780842 -0.1705612 0.17154162
-0.14006919 0.07099993 0.06521246 -0.053921714 0.109198056 -0.26224598 -0.06225969 -0.3050689
-0.05760342 -0.10948946 -0.20102139 -0.13096786 0.0022204465 -0.19504972 -0.10159965 -0.20825857
-0.30391282 -0.19993894 -0.11229008 0.046276316 -0.014925732 0.026261434 0.07421407 -0.2699327
-0.20771553 -0.09799166 -0.0588476 -0.054893248 0.032356855 0.074493505 0.12971404 0.01569721
-0.055264812 0.04876854 -0.030932248 0.090868525 0.07309259 0.106711276 -0.0045200805 -0.035307527
0.03839902 -0.04195664 0.04896084 0.051386997 -0.2577065 0.1426259 0.12882115 0.11633364
0.018956149 -0.18399756 -0.110549815 -0.120219156 -0.00908567 -0.11126002 0.054247484 -0.089469224
0.03929494 -0.25792387 0.12725177 0.041035216 0.18043436 0.07736307 0.079384066 0.03861616
-0.05284831 0.08404175 0.00834487 -0.025496392 -0.13942668 -0.13940981 -0.091705486 -0.0058264714
-0.04937963 -0.0075293956 0.02184976 0.050650463 -0.03792337 0.05832492 -0.017799914 0.0074767177
-0.01624198 -0.14589064 -0.116291136 -0.13745625 -0.028320195 -0.100566335 -0.16699235 -0.19205314
