lstmt/model_pt/lstmt_traj_2_fold_CV_1800.pt (torch, 271037 bytes, 6 tensors)

rnn.weight_ih_l0 f4 [16, 4]
00000000: 01ad f53e 093d cc3d 19a5 d7be 095e 3f3e
00000010: f507 17bd 13ed e53c 6575 5f3e b34a be3a
00000020: 1d83 14bd f9bd c33b 2f98 7dbe 5b75 6bbb
00000030: af2b 4c3e d15e 07bf 2d81 0d3e dd4d 50bd
00000040: 8914 ec3b ce0f 05bd 34f2 35bd 60c5 d1bc
00000050: d5d1 8f3e 0ea8 6dbe 0d91 9fbd 9be0 8b3e
00000060: 4a70 0a3e 68ab 02be ea99 8fbe 9df0 0a3c
00000070: cdde 123d 5b1d 01bf 6c0c ef3c 81e5 563d
00000080: fc36 91bc a3b1 043e f732 84bc 2247 27bb
00000090: 1324 123e 9e0a afbd e05f cd3d 0bd3 edbc
000000a0: 00b3 b0bd aa9b 40be 2362 f83d ffa0 12bb
000000b0: 6299 0c3d d2e0 6abe 69d5 6a3c cdc1 813b
000000c0: 305d dabc 7fad 9ebe 2a04 3fbe ab3e fd3b
000000d0: 5e14 4f3f c8df ac3d 1a22 00bf cff9 f6bd
000000e0: 81ed 453f 57bf 10bf 3899 18be 0133 05be
000000f0: c83f d4bb 639a 3c3e 8c27 3cbe 2f79 7f3a
0.47983554 0.09972579 -0.42118147 0.18688215 -0.036872823 0.028067147 0.21822126 0.0014518112
-0.036257852 0.0059735742 -0.24765085 -0.0035928104 0.19938539 -0.52879053 0.13818808 -0.050855506
0.0072045964 -0.032485776 -0.044420436 -0.025606811 0.28089777 -0.23208639 -0.07791338 0.27319798
0.13519397 -0.12760699 -0.28047115 0.008480218 0.03585701 -0.5043542 0.029180728 0.052464966
-0.017726414 0.12958388 -0.016137583 -0.0025524576 0.14271574 -0.08546947 0.10028052 -0.029031297
-0.086278915 -0.18809381 0.12128093 -0.0022373793 0.034325965 -0.22937325 0.0143331075 0.0039598704
-0.026655763 -0.30991742 -0.18653932 0.007728418 0.8089045 0.084411204 -0.50052035 -0.12059366
0.7731553 -0.5654196 -0.14902198 -0.13007738 -0.00647733 0.18418269 -0.18374461 0.0009745536

rnn.weight_hh_l0 f4 [16, 4]
00000000: d45a 86bf ca77 3b3f 362b 3b3e 89e4 1d3f
00000010: 679f 80be 78ef 0540 2f34 c4bf c882 773e
00000020: 15f0 1c3f 4574 ad3f 3c58 75bc 1aa3 0e3c
00000030: 7b9f 5b40 9652 bd3f 7c5c 95be f4e9 67c0
00000040: f070 83be dbbf 8dbe ce89 c43e e777 6ebf
00000050: 808f 5abf a145 313e 6c79 3f3f f876 b1be
00000060: 8df7 a73f 62d7 dabe 2c7b a13e 9a63 52bf
00000070: cd9f 42be 57d4 e63f 1982 7dbf 64cf 6c3f
00000080: 8eb0 67bf 5b18 cfbd 0204 7bbe e4db e73e
00000090: cf3c 373e cf3f f3bd 0c3d 413f 6132 6b3f
000000a0: c497 303f 6d9a 30bf 6f26 1f3f 877b 0ebf
000000b0: 1e19 0cbf 1a26 e83e 9ee7 21be 72b1 b5bf
000000c0: a612 c93e b836 1f3f d9d1 0d40 508b 9e3f
000000d0: 987d 09be 8d66 f23f 882c 853f a9a8 1240
000000e0: 29af 4840 b329 1d40 b13a 29c0 b64e 30bf
000000f0: 079f 0cc0 70ac 9f3f 659d 2c40 5ac4 0440
-1.0496469 0.7322966 0.18278202 0.6167684 -0.25121614 2.092741 -1.5328425 0.24170983
0.61303836 1.3551108 -0.01497465 0.008705879 3.431609 1.4790828 -0.29172122 -3.6236544
-0.25672102 -0.27685437 0.38386387 -0.93151706 -0.85375214 0.17311718 0.7479465 -0.34661078
1.3122422 -0.4274245 0.31539285 -0.8218323 -0.19006272 1.8033551 -0.9902664 0.9250395
-0.90503776 -0.10112067 -0.24513248 0.4528495 0.1789429 -0.11877405 0.75483775 0.9187375
0.68981576 -0.68985635 0.6216802 -0.5565724 -0.54725826 0.4534157 -0.15811011 -1.4194777
0.3927204 0.6219287 2.215933 1.2386265 -0.13426816 1.8937546 1.0404215 2.2915442
3.135691 2.45567 -2.6442072 -0.68870103 -2.1972063 1.2474499 2.6971066 2.0744843

rnn.bias_ih_l0 f4 [16]
00000000: 3182 55bf 1e29 243e 4b1a 823e e5c0 f83c
00000010: 9a4c 053f 5031 07bf 8a9e 4ebe ead3 1b3e
00000020: ffa8 823e a099 04bf 74fe c53e 4f48 803e
00000030: f163 483f 873e fbbd b3bf 483f 9f58 f33e
-0.8340178 0.1603131 0.25410685 0.030365417 0.5207001 -0.5280962 -0.20177665 0.15217558
0.2551956 -0.51796913 0.38670695 0.25055167 0.782775 -0.122677855 0.7841751 0.4752855

rnn.bias_hh_l0 f4 [16]
00000000: a521 4bbf 8d53 b13d ae7c 3f3e 9ac3 aebb
00000010: e0c8 ea3e 3e3b 11bf 1a5f 5fbe f8cf 483e
00000020: 2a42 9d3e e50e 02bf 7fd2 b13e e85e 583e
00000030: 1b38 423f 1d58 08be f434 3f3f 3985 f93e
-0.7934821 0.08658514 0.18699905 -0.005333376 0.4585638 -0.5673102 -0.21813622 0.19610584
0.30714542 -0.5080398 0.34730908 0.21129954 0.7586686 -0.13314863 0.74690175 0.48734453

fc_out.weight f4 [334, 200]
00000000: 32a2 b840 dd46 47c0 ee37 d13f 0fa1 343f
00000010: e63f b240 e099 05c0 49c3 b63f dca7 b2bf
00000020: 8978 9d40 be9b 1fbf 22c6 a63f 5f57 6fbf
00000030: 37ea 7840 e3cc 463e 213e a23f 5a82 96be
00000040: 8cfc 2a40 112e d03e 3a76 a13f 1e4a 7dbd
00000050: 1560 c73f fbc7 da3e f6c9 933f 0346 553d
00000060: 9e87 383f 84e0 c93e cd05 9c3f 3e9e 0a3e
00000070: 21be 8f3e 0cec b03e d6a5 963f 45de 2e3e
00000080: 6e49 cebd 2595 a63e c1f5 8e3f 5ce3 823e
00000090: 0ccf b1be 4d30 943e 0e35 893f 3327 a63e
000000a0: b8be bbbe 194d 913e 6a09 813f 2227 bf3e
000000b0: 05e9 c7be 66b2 9a3d dd2d 833f 4777 c73e
000000c0: 0f11 c2be 6449 0cbf a693 8f3f d0f2 dc3e
000000d0: f9bb c3be f524 51bf f065 b33f 83e9 e03e
000000e0: 3620 d7be f11f 50c0 36bd af3f cefb b73e
000000f0: bfc7 d7be 01bc 3ac0 6b9b a23f 2997 cd3e
00000100: 2bdf c8be c5a2 39c0 4d8c 9b3f 1ebd d63e
00000110: ffd2 b9be db67 25c0 39b7 903f ff2e d23e
00000120: c4ae adbe 8b1c 01c0 42bb 153f 66aa 823e
00000130: 5484 a6be 65bf b3bf a84a bd3e 6e79 813e
00000140: b5e3 abbe 5cfd a7bf 7f41 a83e 5a1c 7e3e
00000150: a625 a7be 4d6f a3bf e565 a33e 9205 713e
00000160: 0843 aabe 20dd 8cbf 3a21 9c3e 7b33 783e
00000170: 5e03 a6be 64a9 86bf 0c7c 9e3e e54b 763e
00000180: d6db a6be 3a83 81bf 329f 9a3e 4513 6d3e
00000190: 7678 a8be ffab 6dbf 51cb 963e 3202 713e
000001a0: 82b2 a6be 73f9 56bf 0b7a 973e 35e3 6b3e
000001b0: 9bda a6be 013b 4fbf acdd 943e b4c3 6d3e
000001c0: b0a7 a1be 6b8b 4abf 42f6 8f3e e521 643e
000001d0: ed80 a6be 797f 3abf d96d 903e 9cd3 673e
000001e0: 61fc a5be 5fad 31bf f2e4 8e3e 8f87 6d3e
000001f0: 2385 a1be ba89 26bf faac 8d3e 0c9d 613e
00000200: a872 a0be c544 19bf 379f 8c3e 77b7 5d3e
00000210: 5597 a5be 59bf 19bf ccd9 8f3e 0c1d 653e
00000220: 08e0 a2be 2949 18bf 90e1 873e 67d6 5c3e
00000230: 47c6 a2be 013b 12bf 9a9e 8a3e d67b 6a3e
00000240: 7119 a5be 1ef7 09bd 6dd2 873e e4c5 643e
00000250: 05d8 a0be 0751 0abd 4056 863e 4a5d 613e
00000260: 9fcc a4be e608 96bc b8ed 823e d2b6 5b3e
00000270: 3f8b 9fbe 602d 4bbc 3df5 7a3e d0e5 563e
00000280: 3a99 9cbe cea9 f6bb fe5e 803e 7ab3 613e
00000290: d445 a1be 82eb 11bc 8705 823e 4839 5e3e
000002a0: 0cc6 a3be a105 b5bb 2255 813e e743 593e
000002b0: ccb8 a1be 39ae ba3b a4db 7a3e aa93 583e
000002c0: b3a5 9ebe f632 9f3b 594e 793e ad5f 553e
000002d0: e7b3 a2be bedc 0b3c c15b 703e b945 593e
000002e0: f635 a1be 4553 ddba f567 723e 5c8f 5e3e
000002f0: e2f6 a2be 6156 703a 9e27 763e a5f5 533e
00000300: 3811 9dbe d874 ba3b 2748 6a3e fe37 5a3e
00000310: 0065 9ebe e2ea 9d3b 18c1 553e 1913 623e
00000320: d900 ab3f eb54 ce3e 464e 0c40 a479 ac3f
00000330: 9c16 0f3d 4d5f 43bf ff45 1540 2ed5 da3f
00000340: 77a7 78bf 9c45 07bf ccd7 1540 1329 d43f
00000350: 3364 a3bf 68bf 2abf bc6d 1740 fb16 d23f
00000360: ea79 abbf abf5 5dbf 526b 1a40 e60d d03f
00000370: 10c2 86bf b968 87bf baab 1b40 b739 ca3f
00000380: 177c 36bf fe15 8abf 293b 2240 7361 c73f
00000390: 25fb b53e 3cdf 70bf 890a 2940 7992 c43f
000003a0: 671a 353f fc30 7dbf 39ea 1c40 7d74 c43f
000003b0: ac9e b73f e5bb 84bf fc10 e73f 6e60 c33f
000003c0: b986 d83f 61b4 70bf d2d2 593f 9129 bf3f
000003d0: 7356 2140 fa5f 56bf 215c 15bf d115 b93f
000003e0: 8dd7 3e40 6023 8ebf 140b 50bf 0af7 a03f
000003f0: 4bb3 3840 8377 03c0 b589 033f fd43 a43f
5.769799 -3.1137002 1.6345193 0.70558256 5.5703 -2.0875168 1.4278346 -1.3957477
4.920964 -0.6234702 1.3029215 -0.9349269 3.8892953 0.19414096 1.267521 -0.29396325
2.6716642 0.40660146 1.2614205 -0.06183826 1.5576197 0.42730698 1.1546009 0.05206872
0.72081935 0.39429104 1.218927 0.13536927 0.28074744 0.3455509 1.1769359 0.17076977
-0.10072599 0.32535663 1.1168748 0.25564086 -0.34728277 0.289431 1.0719316 0.32451782
-0.36668944 0.28379133 1.0080998 0.37334543 -0.39044967 0.07553558 1.0248371 0.3895819
-0.3790364 -0.54799485 1.1216934 0.43154 -0.3822935 -0.81697017 1.4015484 0.43928155
-0.42016762 -3.2519495 1.3729618 0.359343 -0.42144582 -2.9177248 1.270368 0.4015439
-0.39232764 -2.9005597 1.2152191 0.4194116 -0.3629379 -2.5844638 1.1305915 0.4105148
-0.33922398 -2.0173671 0.5848886 0.2552063 -0.32522833 -1.4042784 0.3697102 0.25287956
-0.33572164 -1.3124194 0.3286247 0.24815503 -0.3264591 -1.2768341 0.31913677 0.23537281
-0.33254266 -1.1004982 0.304941 0.24238388 -0.32424444 -1.0520444 0.30954015 0.24052389
-0.32589597 -1.0118172 0.3019958 0.23151882 -0.32904404 -0.9284057 0.29451993 0.23535994
-0.32558066 -0.8397438 0.295853 0.23035891 -0.32588658 -0.8094941 0.29075372 0.23219186
-0.31573248 -0.79118985 0.28117567 0.22278555 -0.32520238 -0.7285076 0.28208807 0.22639316
-0.32419112 -0.6940517 0.27909046 0.23196243 -0.31546888 -0.65053904 0.27671033 0.22032565
-0.31337476 -0.5987056 0.2746522 0.21652018 -0.3234202 -0.600576 0.28095853 0.22374362
-0.31811547 -0.59486634 0.26539278 0.21566163 -0.317919 -0.5712128 0.27074128 0.22898802
-0.32245973 -0.033682935 0.2652773 0.22341114 -0.3141481 -0.03376868 0.2623768 0.22008243
-0.32187364 -0.01831479 0.2557199 0.21456459 -0.31160924 -0.012400955 0.24507613 0.20986104
-0.30585653 -0.0075275665 0.25072473 0.22041121 -0.31498587 -0.008906247 0.25394842 0.21701539
-0.31987035 -0.0055243527 0.25260264 0.21217309 -0.315863 0.0056970385 0.24497849 0.2115008
-0.30985793 0.00485837 0.24346294 0.20837279 -0.3177788 0.008536516 0.23472501 0.21218003
-0.3148648 -0.0016885778 0.23672469 0.21734375 -0.31828982 0.0009168145 0.2403855 0.20699175
-0.306772 0.0056901984 0.22879086 0.21310422 -0.30936432 0.00481926 0.2087444 0.22077598
1.3359634 0.40299162 2.1922774 1.3474622 0.03493367 -0.7631729 2.3323972 1.7096307
-0.9713053 -0.5284059 2.3412962 1.6575035 -1.2764953 -0.6669831 2.3660727 1.6413263
-1.339658 -0.86702985 2.4128003 1.6254241 -1.0527973 -1.0578834 2.4323564 1.5798863
-0.71283096 -1.0787961 2.5348608 1.5576614 0.3554317 -0.9409063 2.641268 1.53572
0.7074341 -0.9890287 2.4517958 1.5348049 1.4345298 -1.0369841 1.8052058 1.5263803
1.6916114 -0.94025236 0.8508731 1.493456 2.5209014 -0.837402 -0.583437 1.4459783
2.9819062 -1.1104546 -0.81266904 1.257539 2.8859432 -2.0541694 0.51382 1.2833248

fc_out.bias f4 [334]
00000000: 9c94 523e 4610 963e d550 2e3f eaad 7d3e
00000010: 2b60 ee3e 119d aa3e b163 f63e af67 023f
00000020: d958 953d 84d5 593d 01bd 243e ceea f53d
00000030: 0528 c03d ae93 a93e 8aea c83d f664 a43e
00000040: 9d87 24bb 70b6 203d c420 9c3d 1c3e fb3c
00000050: bf97 153d c802 4a3e cc6d 0b3e 2704 373d
00000060: 6cb5 ae3d cb86 27bd e8b0 81bc 9bb7 dabd
00000070: 10fe 2d3d 2320 163d 7d15 523c fc0b 76bd
00000080: 6008 de3c a7b2 5b3e 99a5 963d f144 003e
00000090: 7baf d33d e791 853d f9c3 2b3d a808 79be
000000a0: ea33 19bf f53b c5be fd5b a8be 1b88 5ebc
000000b0: 8557 d13d b607 a53c df35 d4bd 07b0 4fbe
000000c0: 85a2 69be a0f7 da3c 9ff7 ffbc 16a3 013e
000000d0: b6fa 5ebd 4640 373d 3b6c 3fbd 780a d93c
000000e0: dcb3 ffbd 9026 663b 5fd4 af3c bcd0 8ebc
000000f0: 233c 523a b888 7bbd 96ae 22be caf6 7abd
00000100: d422 1ebd 7d3e 93bd e5ab b1bc 8e2b a53d
00000110: 7b12 823a 8e37 14be 695f 76bd 2d12 bfbd
00000120: 4c57 133d acd7 c33d 5948 133e 08e6 083d
00000130: 074d 723e d94d 9e3d 2236 90bd cc17 e53d
00000140: 2164 ca3d fccf cf3c 4efb 703d 62cb b93d
00000150: f43d 483d 11a8 d0bd d977 1a3d 40e9 223e
00000160: 2272 a2bd 0505 c1bd 2732 edbd faca 19bd
00000170: b719 67be 988b 86be d0e3 62be 0b3f 5f3d
00000180: cb46 a13d 1913 883d 5a0f 8cbe be67 603d
00000190: 9d78 54be d928 48bb 286a 74be d41c 34be
000001a0: b370 0fbd 7c8d 873d ba7b 84bd ca84 13be
000001b0: 6dfa a1bd ea8b 94bd b5e0 98be bbe1 a3bd
000001c0: 1f8b 8fbd 6a4a 113c 5bae 9abc dad7 e63c
000001d0: 9d5e 07be 2dac 04bc 15c7 4dbe 01bd abbc
000001e0: 9e4f 22be a90b 10bd d36c 26be 3d7f 1dbe
000001f0: af10 2cbe c6fb 5a3c 3c4c 87bd 9756 91bd
00000200: 1c8c 4ebe 5ac4 adbd 9af4 67be a0f4 74bd
00000210: 1110 0bbe 8209 f0bd 5bb9 afbd 2292 7cbe
00000220: e278 dabd da59 bebd d9ca eb39 7701 c13c
00000230: 8e8f 03be 36fb 1dbd 3fe4 f03d 5ee2 b8bd
00000240: 0487 af3d c381 1b3e c807 b63d 10ea 1e3e
00000250: 5161 f33d bc60 193e de19 373e ffe4 69be
00000260: 8cfc 823d c32f 7e3d 4c29 2c3d 9cab ac3b
00000270: 8305 043e 5ad7 da3d 00a1 a1bc 24ed 3f3d
00000280: e70d 5e3d a347 743c 3f3e fe3c 348f 133d
00000290: 0993 9a3d 81ee e13d 3ce8 1abd e95d 0abe
000002a0: ef6a 083e aaad c7bd 099c 93bd cfab 7c3c
000002b0: 5eff 083d 02e9 d9bd b067 3ebe b31f 00bd
000002c0: 5d8b b9be 194c 20be b9bc aabd 56a0 78be
000002d0: 2336 54be d847 5b3e 0294 2a3e 5f03 193b
000002e0: b296 2ebc 012f 203e 25fd 963b 17cc d2be
000002f0: 61a3 debc 90be 92bc bb92 efbb bf3a a13d
00000300: e778 2bbc e437 02bc 4d9c 043c 96b6 723e
00000310: 40a2 793e 5a64 213d 5b85 08bd c5f5 093e
00000320: b0f2 0e3d 65a5 40bd 754c f7bd ae51 123d
00000330: 37c5 b43d 7483 48be 3768 f93d 1f27 c43a
00000340: 8c1e 7fbe a712 11be 6253 3d3c f3c7 76bd
00000350: e1c1 073e 9e0d eabd 8693 0d3c 0481 913c
00000360: f754 dbbd 8516 94bd e479 69bd 39ca aa3d
00000370: 4013 463b 377c 3b3d 5364 693d c284 303e
00000380: ebcd 743c 6657 4a3e 9b17 163e 6ac4 1c3d
00000390: 050b 44be 2fd3 dbbd 71cc 99bd 4d57 8abe
000003a0: 0068 23bd 1905 52be a470 0e39 3830 ccbd
000003b0: ed54 a63d f84c 30bc 1e10 ba3d eb72 22bd
000003c0: 04a3 513d 3b7c 793d 3bd6 19be 0628 25be
000003d0: c5f7 27be c71d 8dbd 0119 03be 0e26 8bbe
000003e0: c698 7dbd 8a87 d63b 2259 f73c 5729 15bd
000003f0: a071 463d e658 c3bd cf2d c7bd d432 f9bd
0.20564502 0.2930929 0.6809209 0.24773374 0.46557745 0.33322957 0.48122934 0.5093946
0.07292337 0.05318214 0.16087724 0.12007676 0.09382633 0.33120483 0.0981036 0.32108277
-0.0025105246 0.039236486 0.07623437 0.030669264 0.03652167 0.19727623 0.13616103 0.044681694
0.08530697 -0.040900033 -0.015831426 -0.10679551 0.04247862 0.03665174 0.012822506 -0.060070023
0.027103603 0.21454869 0.07355804 0.12526299 0.103362046 0.06521969 0.04193494 -0.24319708
-0.5984484 -0.38522306 -0.3288268 -0.013582255 0.10221771 0.020145278 -0.103618376 -0.20281993
-0.22815903 0.026729405 -0.031246005 0.12659869 -0.054438315 0.04473903 -0.046734076 0.02649425
-0.12485477 0.00351182 0.021463571 -0.017433517 0.00080198253 -0.061409682 -0.15886912 -0.061270513
-0.038607433 -0.07189653 -0.021688411 0.08064948 0.000992372 -0.14474317 -0.060149584 -0.09329639
0.035971925 0.095626205 0.14383067 0.0334225 0.23662196 0.07729692 -0.07041575 0.111861795
0.09882379 0.02536773 0.058833413 0.09071995 0.048887208 -0.10188306 0.037711952 0.1590929
-0.07931925 -0.094247855 -0.115818314 -0.03754709 -0.22568403 -0.26278377 -0.22157216 0.05450348
0.07874831 0.066442676 -0.27355462 0.054786436 -0.20749135 -0.0030541925 -0.2386862 -0.17589122
-0.035019588 0.06618783 -0.064689115 -0.14406124 -0.07909093 -0.07253249 -0.29858938 -0.08002039
-0.07008957 0.008867839 -0.018881967 0.028179098 -0.13219686 -0.0080976905 -0.20095475 -0.020964148
-0.15850684 -0.03516737 -0.1625245 -0.15380569 -0.1680324 0.0133656915 -0.066063374 -0.07096594
-0.20170635 -0.08484717 -0.22651902 -0.059803605 -0.13580348 -0.117205635 -0.085802756 -0.2466512
-0.10667588 -0.092944816 0.00044973826 0.023560269 -0.1284773 -0.03856965 0.117622845 -0.09027551
0.08570674 0.15186219 0.08888203 0.15518975 0.11883796 0.14978307 0.17880961 -0.22841261
0.06395826 0.062057268 0.04203157 0.005269481 0.12892728 0.10685606 -0.019730091 0.046857014
0.054212477 0.014909658 0.03103554 0.03602524 0.07547576 0.11031819 -0.037819132 -0.13512386
0.13322042 -0.09749921 -0.07207496 0.015421822 0.033446662 -0.10640146 -0.18594241 -0.03128023
-0.36239138 -0.15654029 -0.08336777 -0.24279913 -0.20723777 0.21414125 0.16658023 0.0023347957
-0.010656046 0.1564293 0.004607814 -0.41171333 -0.027177515 -0.017913133 -0.007311193 0.07872533
-0.010465837 -0.007947896 0.008093906 0.23702464 0.243783 0.039402343 -0.033330303 0.1347266
0.034899414 -0.047032733 -0.1207513 0.035722427 0.08826678 -0.19581395 0.121780805 0.0014965272
-0.24913996 -0.14167272 0.011555525 -0.06024928 0.13257553 -0.114283785 0.008641129 0.017761715
-0.10709565 -0.07230858 -0.05700101 0.08339352 0.0030223876 0.045772757 0.056980442 0.17238143
0.014941673 0.19759902 0.14657442 0.038273253 -0.19144829 -0.107336394 -0.07509697 -0.2701973
-0.039894104 -0.20509757 0.00013584137 -0.099701345 0.08121667 -0.010760538 0.09085105 -0.039660376
0.051180854 0.06090949 -0.15023129 -0.16128549 -0.1640311 -0.06890445 -0.12802507 -0.2717747
-0.061913274 0.0065469192 0.030193869 -0.036416378 0.048448205 -0.095384404 -0.09725534 -0.12167898
