lstmt/model_pt/lstmt_traj_sf_0_fold_CV_3000.pt (torch, 272396 bytes, 6 tensors)

rnn.weight_ih_l0 f4 [16, 4]
000000 ce ce b5 3d a4 a5 d9 3e 4f b5 f5 3d 69 a5 d4 bc
       0.088773355 0.42509186 0.119974725 -0.02595778
000010 7a 99 7b bc a4 72 73 3e f7 d8 75 bd 9d 74 b8 bc
       -0.015356416 0.237742 -0.060021367 -0.022516543
000020 1d 49 8e 3a 46 83 ed 3d ee 11 6b be 07 a1 e4 3d
       0.001085553 0.11597304 -0.22956058 0.11163526
000030 1f 39 0b bd 78 0d eb bd 2c da 2c bd de e2 f3 3b
       -0.03399002 -0.11477178 -0.042200252 0.007442816
000040 d6 a8 d0 3d 8c 31 24 3e b0 d7 a8 3e 9c aa ce bd
       0.10188453 0.16034526 0.32977057 -0.10091135
000050 76 03 a5 3d e2 42 c2 be fc 3c 82 3e d5 4c bd 3d
       0.08057301 -0.37941653 0.25437152 0.0924317
000060 00 9f 20 39 17 c3 07 3d ac 56 fd bc 2f bb 05 bf
       0.00015318021 0.033145037 -0.030925117 -0.52238744
000070 a3 9e f3 3c c4 9b 0c bd 42 21 85 be 0d 39 52 3c
       0.02973873 -0.034328237 -0.26001936 0.012830985
000080 d5 f1 8d bc 26 e3 3a bd 43 10 6e be 80 49 9e 3b
       -0.017327229 -0.045626782 -0.23248391 0.004830539
000090 3c 6c 06 bd 9a cd b3 3d c3 77 c6 bc aa 68 b1 3b
       -0.032818064 0.0877945 -0.024227029 0.0054140883
0000a0 f7 0f 00 3d 82 cc 88 be cb 56 8e 3d 79 8a 73 3c
       0.031265225 -0.26718527 0.06950148 0.014864557
0000b0 2e aa 8a bc f3 2a 47 3d 98 ac 35 3e 7f 4e 12 3b
       -0.016926851 0.048624944 0.1774162 0.002232462
0000c0 5a bc 41 3a eb 56 14 3e 6a 92 f6 3e ff 2e 66 3c
       0.00073904323 0.14486282 0.4815858 0.014049291
0000d0 d8 15 df 3d ad 5a e2 3e 1f 79 64 be e6 49 ac 3c
       0.10892838 0.44209805 -0.22311829 0.021031331
0000e0 78 59 11 3e f3 e9 6a be b0 95 14 3c 00 22 9d 3d
       0.14194286 -0.22940807 0.009068891 0.076725006
0000f0 c0 ca 5e 3f a6 03 f1 3e 4e a8 c1 be 42 5f f5 38
       0.8702812 0.47073096 -0.3782372 0.000117002535

rnn.weight_hh_l0 f4 [16, 4]
000000 23 a0 a7 bf ed b0 74 c0 ba 5a 06 40 98 90 71 bf
       -1.3095745 -3.8232987 2.0992875 -0.9436126
000010 22 55 6c be 20 22 09 c0 72 f3 8b bf bc ff da bf
       -0.2307935 -2.1427078 -1.0933669 -1.7109294
000020 96 12 91 bf bb ba de 3f 84 74 b1 3f 67 0d a9 3f
       -1.1333797 1.7400736 1.3863683 1.3207215
000030 7a fd 3f be 4b 45 0d c0 48 9e 81 bf 7e 29 b4 be
       -0.18749037 -2.2073543 -1.0126429 -0.35187906
000040 46 50 43 c0 c3 c1 35 3d 17 8a 56 3e d1 88 f1 bd
       -3.0517745 0.04437424 0.20951115 -0.11793674
000050 0d 56 0a bf 72 40 46 bf 2a 0f 96 3e 7e 09 d3 bf
       -0.54037553 -0.77442086 0.29308444 -1.6487272
000060 95 1e 1a 3e 1f 3a a8 3f 78 74 dc 3d 2d 8c 49 3f
       0.15050729 1.3142737 0.10764402 0.78729516
000070 c7 1f cf bc 19 ce 33 bf ee 8f fc 3e 9d 3d 8b 3f
       -0.025283707 -0.70236355 0.4932856 1.0878178
000080 11 77 b7 3f ae b6 10 3d af f3 9e be 9f 96 57 3f
       1.4333211 0.035330467 -0.3104529 0.84214205
000090 43 47 1a 3f 09 48 4c bf 59 9b 23 be 40 38 ad 3e
       0.60264987 -0.79797417 -0.15977229 0.33831978
0000a0 62 ad 2c bf a2 0f fe be 9e ee b7 bf b7 74 5a 3e
       -0.6745206 -0.49621302 -1.4369695 0.21333586
0000b0 04 c5 1e 3d 4e c6 c8 3e 90 b0 e9 3c 9b 05 bb be
       0.038762107 0.39213794 0.028526574 -0.36527714
0000c0 3f 31 2b 3f 89 95 b5 3e 05 f4 1d 40 dc 97 0a bf
       0.6687202 0.3546565 2.4680188 -0.5413797
0000d0 43 82 a8 3e a2 12 33 bf 8e c6 d3 3e e0 ac 93 bd
       0.32911882 -0.69950306 0.41362423 -0.07210708
0000e0 d7 25 1e bf 1b 4d 1e c0 6b e3 7f be 1b 3a 83 bd
       -0.6177649 -2.4734561 -0.24989097 -0.06407567
0000f0 79 7b d2 be ca 4d 5c bd 5b 06 1f bc b2 88 80 bf
       -0.41109827 -0.053785123 -0.009706105 -1.0041716

rnn.bias_ih_l0 f4 [16]
000000 44 0a fa 3e 66 53 93 be f9 ba 1e 3f a7 1c aa 3e
       0.48835957 -0.28774565 0.6200405 0.33224985
000010 eb 7e 77 3e 13 e3 15 3f 65 18 fc be ec 89 2f 3e
       0.24169509 0.5854961 -0.49237362 0.17142457
000020 42 19 09 bf f2 31 bf be 72 79 2b 3c b6 fa c8 be
       -0.53554165 -0.37342793 0.010465967 -0.39253777
000030 5b e2 93 3f 77 f7 d5 3e 2a 3d c3 3d 89 61 59 3f
       1.1553453 0.41790363 0.095331505 0.8491445

rnn.bias_hh_l0 f4 [16]
000000 49 bc ee 3e 71 33 8c be 3b ef 27 3f b7 95 a5 3e
       0.46628025 -0.27382997 0.6559941 0.32340786
000010 42 e2 7d 3e df 81 0e 3f 10 21 0f bf c7 f8 10 3e
       0.24793342 0.5566692 -0.55909824 0.14157401
000020 57 78 0b bf 8e 1c b2 be 50 6a c5 3c 48 ff e9 be
       -0.544805 -0.3478741 0.024098545 -0.45702577
000030 09 38 92 3f ad b5 b8 3e 5b e5 46 3d f8 ed 55 3f
       1.142335 0.36076108 0.048558574 0.83566236

fc_out.weight f4 [334, 201]
000000 2b f6 51 3e 5b 4e 2e bf 61 ea 5d 3f 52 88 22 3f
       0.20504062 -0.6808831 0.8668576 0.6348926
000010 88 b1 5c 3e 7a e6 21 bf 6b 07 3c 3f 14 e3 89 3f
       0.21552098 -0.63242304 0.7344882 1.0772424
000020 4e 54 6f 3e b5 26 e8 be d1 01 16 3f ab 61 c8 3f
       0.23372003 -0.4534203 0.5859652 1.5654806
000030 9a e0 10 3f 83 70 4a be 1b c5 e9 3e e9 02 d6 3f
       0.56592715 -0.19769482 0.45658192 1.6719638
000040 6f 7c 66 3f 05 9a f4 3d 9f f0 c0 3e 11 57 bd 3f
       0.9003362 0.119434394 0.3768358 1.4792196
000050 55 61 80 3f 56 d9 09 3f 5e 2c f5 3e 21 5b bf 3f
       1.0029703 0.53847253 0.47885412 1.4949685
000060 c3 8f 85 3f 9a 4e 6d 3f 3a 7a d9 3e e9 bb ac 3f
       1.0434498 0.9269806 0.42476064 1.3494846
000070 16 2c 91 3f aa d8 9f 3f 40 aa 94 3e 58 f7 5f 3f
       1.1341579 1.2487996 0.2903614 0.8748679
000080 32 18 94 3f 14 5c df 3f 1b 69 3c 3e 26 d7 ed 3e
       1.1569884 1.7449975 0.1839947 0.46453208
000090 4e 6d a2 3f 45 98 fe 3f 69 09 61 3e dc bb 8e 3d
       1.2689607 1.9890219 0.21976246 0.06969425
0000a0 6c eb ab 3f b8 2e 17 40 cc c3 83 3e 62 13 a4 be
       1.343122 2.3622265 0.2573532 -0.32046038
0000b0 e4 57 9e 3f f2 62 12 40 7e dc c9 3e e1 e5 f8 bd
       1.2370572 2.2872891 0.39426035 -0.12153221
0000c0 f3 3e 99 3f 81 53 d9 3f 12 a7 fa 3e 56 a2 cc be
       1.1972336 1.6978608 0.4895559 -0.39967602
0000d0 50 c9 96 3f 76 3b 3c 3f 22 9c 63 3f 87 8f db 3e
       1.1780186 0.7352823 0.88910115 0.4288294
0000e0 d9 4e da 3e 91 ca 77 3e 79 2e 85 3f e7 fa aa 3e
       0.4263828 0.24198367 1.0404807 0.33394548
0000f0 3a 6b b4 3e e0 c8 54 3e 78 49 85 3f 86 d5 57 3e
       0.35238057 0.20779753 1.0413046 0.21077546
000100 e5 a8 c3 3e bf 66 5f 3e aa 1d 84 3f 48 d2 38 3e
       0.38214794 0.21816538 1.0321553 0.18048966
000110 84 eb cb 3e a5 16 71 3e 19 a5 83 3f f1 ce 39 3e
       0.39828122 0.23543794 1.0284759 0.18145348
000120 7b 9d d8 3e 71 f2 7e 3e e5 c9 83 3f 30 ec 37 3e
       0.42307648 0.24897172 1.0295988 0.17961192
000130 10 37 bd 3e ec 4a 5e 3e 21 d4 83 3f dc c9 2b 3e
       0.36956072 0.21708268 1.0299112 0.16776222
000140 67 bd 95 3e 40 28 28 3e a9 ad 82 3f 25 2f 18 3e
       0.29246065 0.16421604 1.0209247 0.14861734
000150 88 07 31 3e 36 08 f6 3d a6 c2 83 3f 6b 8a f0 3d
       0.17288029 0.12013285 1.0293777 0.11745151
000160 b3 78 00 3e 1c 86 d2 3d 79 30 83 3f ec ef cb 3d
       0.12546043 0.102794856 1.0249168 0.09957871
000170 06 78 d4 3d fc 2e a6 3d 13 ce 82 3f 20 7a c6 3d
       0.10374455 0.0811443 1.0219139 0.09691262
000180 33 d4 9b 3d f5 b0 49 3d 10 25 83 3f b9 6d bd 3d
       0.07608833 0.049241025 1.0245686 0.092494436
000190 f5 41 97 3d e6 71 61 3d 88 41 83 3f 30 3a c2 3d
       0.07385627 0.055040263 1.0254374 0.09483755
0001a0 11 82 86 3d 0b 20 4e 3d 51 3d 83 3f 87 0f cc 3d
       0.06567777 0.050323527 1.0253087 0.09963899
0001b0 c1 2b 92 3d db a4 49 3d 8e 43 82 3f 14 54 c6 3d
       0.07137252 0.049229484 1.0176866 0.096840054
0001c0 a5 83 77 3d ef 01 3a 3d 63 ca 82 3f e7 82 bf 3d
       0.06042828 0.045412 1.0218014 0.093511395
0001d0 1b ac 74 3d de 05 33 3d 83 30 82 3f 38 7a bd 3d
       0.059734445 0.043706767 1.0171055 0.09251827
0001e0 a6 f5 70 3d 5d df 42 3d 00 3b 82 3f df ce b9 3d
       0.05882802 0.047576297 1.0174255 0.09072661
0001f0 d8 70 82 3d 09 18 48 3d 1e b1 82 3f 0f 04 d5 3d
       0.063691795 0.048851047 1.0210302 0.10401165
000200 c8 0e 73 3d c1 b0 43 3d 68 b7 82 3f 49 11 ba 3d
       0.05934027 0.047775988 1.0212221 0.09085328
000210 e4 d7 57 3d 7c d2 2c 3d 6e 27 82 3f 93 75 e2 3d
       0.052696124 0.04219292 1.0168283 0.11057582
000220 60 56 65 3d 28 5c 3b 3d b5 18 83 3f d4 e8 e1 3d
       0.055990577 0.045742184 1.0241915 0.110307366
000230 cf ff 5a 3d c8 94 32 3d b5 3a 83 3f 83 74 e1 3d
       0.053466614 0.04359892 1.0252291 0.11008551
000240 06 4f 27 3d c0 5c 47 3d 56 5d 83 3f cb 42 db 3d
       0.040846847 0.048672438 1.0262859 0.10706099
000250 d4 58 06 3d dd 7a 2f 3d c9 cb 82 3f 6d bb ae 3d
       0.032799557 0.04284178 1.021844 0.085318424
000260 f1 9a 9a 3c 2d d4 f3 3c 9b 75 82 3f 75 36 87 3d
       0.01887271 0.02976426 1.019214 0.06602184
000270 86 37 8e 3c e9 82 cb 3c 64 f7 82 3f e0 e6 5b 3d
       0.01736046 0.024842696 1.0231748 0.053686976
000280 c5 3f 95 3c c2 af af 3c d2 c9 82 3f 0c e9 40 3d
       0.018218884 0.021446113 1.0217841 0.04709725
000290 b2 1e 4a 3c 6d 8e c1 3c fd 3e 82 3f 43 02 1a 3d
       0.01233642 0.023627484 1.0175472 0.037599813
0002a0 0e bd f9 3b c1 d6 72 3c b1 35 83 3f 1c 2e 00 3d
       0.007621414 0.014821709 1.025076 0.031293973
0002b0 04 c8 24 3b e2 3b 4e 3c 45 76 82 3f 07 27 83 3c
       0.0025143633 0.012587519 1.0192343 0.01600982
0002c0 1b 7a 17 3b f1 b8 39 3c 7f 1b 83 3f 66 f5 84 3c
       0.0023113552 0.011335597 1.0242766 0.016230296
0002d0 22 ba 06 39 22 58 3f 3a de 9b 82 3f 36 08 83 3c
       0.00012848576 0.00072992046 1.0203817 0.015995126
0002e0 6e 1a 54 bb cf da 09 3b 0b 34 82 3f 7d f1 31 3c
       -0.0032364386 0.002103496 1.0172132 0.010860798
0002f0 a2 63 22 3b 0c 8c e0 3b fb d4 82 3f e3 47 61 3c
       0.0024778624 0.0068526324 1.0221246 0.013750049
000300 4b b8 a2 3b 3e df 9d 39 79 db 82 3f e0 22 5e 3c
       0.004965817 0.00030111702 1.0223228 0.01355812
000310 d0 34 93 3b 16 03 83 ba d9 28 82 3f 8e 8c 05 3c
       0.0044923797 -0.0009995427 1.0168716 0.008151187
000320 65 6a 9c bf d3 51 57 be 3c 4b 5e 3f c7 8f 61 3f
       -1.2219969 -0.21027307 0.8683355 0.8811001
000330 58 16 05 3f 3f d3 ad bd 4f 09 b7 3f bb 94 8c 3f
       0.5198722 -0.084875576 1.4299716 1.0982889
000340 f4 36 a2 bd ed 54 34 3e 93 a9 c2 3f af 37 8d 3f
       -0.07920638 0.17610522 1.5208 1.1032618
000350 5f 68 64 bf fe 4a 04 3f f5 3d 85 3f 67 34 8f 3f
       -0.8922176 0.5167693 1.0409533 1.1187867
000360 2e a3 bb bf 95 90 68 3f 75 2c a6 3e c7 25 84 3f
       -1.4659173 0.90845615 0.32455793 1.0324029
000370 12 7f be bf 96 df a4 3f 9c f3 f1 be bb 98 5e 3f
       -1.4882529 1.2880733 -0.47256172 0.869518
000380 7c 8a 96 bf 30 75 b3 3f 83 8d 76 bf ad 91 6d 3f
       -1.1761012 1.4020138 -0.9630968 0.9280041
000390 41 f1 88 bf 53 a2 b6 3f 20 61 9d bf d2 54 41 3f
       -1.0698625 1.4268287 -1.2295265 0.7552005
0003a0 3f bf 65 bf 94 61 c3 3f 19 58 c5 bf 92 de 6a 3f
       -0.89744943 1.5264153 -1.541751 0.91745865
0003b0 0d 59 46 bf f6 4a c0 3f 94 83 de bf 21 ef 3f 3f
       -0.7747963 1.5022876 -1.7383904 0.74974257
0003c0 2d db 33 bf b0 c2 b6 3f c0 c5 f0 bf a2 05 21 3f
       -0.7025631 1.4278164 -1.8810349 0.6289922
0003d0 77 d2 22 bf 66 69 5e 3f a9 31 bc bf 87 af d7 3e
       -0.63602394 0.86879575 -1.4702655 0.42126104
0003e0 5d 2c 5c bf 60 2d 6b 3f f9 fe 18 bf 36 52 1e 3f
       -0.86005193 0.9186611 -0.5976406 0.61844194
0003f0 4d c5 1c be ed 67 60 3f 69 b0 8a 3f 88 b9 43 3f
       -0.1530964 0.8765858 1.0835086 0.76454973

fc_out.bias f4 [334]
000000 45 ea 6e 3f f1 eb f4 3e 18 ab 0d 3f 79 12 59 3f
       0.93326217 0.4783626 0.55339193 0.8479381
000010 d6 60 39 3f ce 55 12 3f f4 fc 3a 3f 84 12 54 3f
       0.72413385 0.5716218 0.73042226 0.8284075
000020 3a 2d dd 3e 37 6a 24 3f 6f c1 85 3e aa b0 c8 3e
       0.43198568 0.6422457 0.2612414 0.39197284
000030 dd 9b 4e 3e b0 8b c3 3e e9 7c c1 3e 06 94 c8 3e
       0.20176645 0.3819251 0.3779061 0.39175433
000040 2c d4 c1 3e 9e b0 26 3f cd e2 d7 3e 4c ba bd 3e
       0.37857187 0.65113246 0.42165223 0.37056196
000050 46 03 6c 3e 98 07 e9 3e 3a f0 20 3f 29 24 d2 3e
       0.23048124 0.45513606 0.62866557 0.41043213
000060 fd 2d a3 3e 62 3c 99 3e 71 f8 07 3f 68 c4 56 3e
       0.31871024 0.2992888 0.53113467 0.2097336
000070 74 37 40 3e c5 bb af 3e 70 a1 bf 3e f0 37 74 3e
       0.18771154 0.34322944 0.37427855 0.23849463
000080 3a 42 fa 3d 9d 8b c9 3e 46 5f a8 3e c8 9b 99 3e
       0.12219663 0.3936433 0.32885188 0.30001664
000090 e4 e8 aa 3e b9 93 41 3e 83 ea c4 3e 7c b9 8a 3e
       0.33380806 0.18904008 0.38460168 0.27094638
0000a0 d5 0c f9 3c 8f ce 8d 3e 8b 0e 08 bd d7 0a 8a 3e
       0.030401627 0.27696654 -0.033216994 0.26961395
0000b0 b6 60 ec 3e 13 37 45 3e 9a ec 2b 3e 5c 9a 0a 3e
       0.46167535 0.1925929 0.16789475 0.13535446
0000c0 65 0c 8f 3e 94 c8 e1 3e 0c c1 0b 3f f3 28 a8 3e
       0.27939144 0.4409834 0.5459144 0.32843742
0000d0 75 74 d3 3e 53 b2 98 3e f5 3f 9a 3e 5a a7 2e 3e
       0.41299787 0.2982355 0.3012692 0.17056027
0000e0 48 db 4e 3e 9c bc 08 3e 06 6d 91 3e 17 61 8a 3e
       0.20200837 0.13353199 0.2840349 0.270272
0000f0 73 ad a2 3e e1 72 16 3e c6 85 9b 3c e4 07 dd 3d
       0.31772956 0.1469226 0.018984687 0.10792521
000100 b5 f2 60 3c 2f d1 04 3e 55 65 e3 3c 84 06 99 bd
       0.013729741 0.12970422 0.02775828 -0.07471946
000110 9b 04 99 bc 6d 50 37 3d 90 95 ae bb 99 70 88 3d
       -0.018678954 0.044754434 -0.005327888 0.06662101
000120 3b a6 04 bd c0 7e 9f 3e 64 c1 60 3e e2 74 8f 3e
       -0.032385092 0.3115139 0.21948773 0.28018862
000130 2a 12 6f 3e 8e 32 12 3e fd 15 04 3e 56 c1 90 3d
       0.23346773 0.14277098 0.12899013 0.07068126
000140 0b b7 16 3e d0 8e 8d 3d be 42 04 be 92 53 9b 3e
       0.14718263 0.06912005 -0.12916085 0.30337197
000150 a4 db d4 3d 11 5a ce bc 4b 17 08 3e 09 94 6a 3e
       0.103934556 -0.025189431 0.13290136 0.22908033
000160 f4 13 f1 bd be eb c7 bd ed 76 8b bd 94 ab ba bd
       -0.11771384 -0.09761761 -0.06809793 -0.09114757
000170 ab b7 55 3d dc a7 89 3d 56 75 8b 3e bf 75 64 3e
       0.052177113 0.0672147 0.27237958 0.22310542
000180 93 a4 ac bd 90 0f 2a 3d 6b cd d0 3e 2b 56 25 3e
       -0.084298275 0.041518748 0.4078172 0.16146152
000190 4b 1a fa 3d ad 9f 86 3a 31 dc f5 bd 46 15 13 be
       0.12212046 0.0010270976 -0.12004889 -0.14363584
0001a0 43 73 82 3e a6 c0 a8 3d c9 ad 8c 3d 36 f8 62 bd
       0.25478563 0.0823987 0.068690844 -0.055412494
0001b0 a7 83 25 3e 56 45 fe bc 84 1e 61 3e f2 54 04 be
       0.16163503 -0.031038921 0.21984297 -0.12923029
0001c0 f7 2e 99 3e 0d 69 20 bd 29 66 a7 3d 01 ca 95 bc
       0.29918644 -0.039162684 0.081737824 -0.0182848
0001d0 9b 91 a5 3e d5 f6 18 3d 18 e6 22 3e de bc c3 bd
       0.3233765 0.037344772 0.15908086 -0.09557508
0001e0 17 92 7f 3e 4f 1a cd bd 36 c9 62 3d 1d 50 bb bd
       0.24958073 -0.100147836 0.05536767 -0.0914614
0001f0 b8 f1 c7 3d ec 9b 1b be 41 b3 8d 3b be ee b9 3b
       0.09762901 -0.15196198 0.0043243472 0.0056742122
000200 50 d4 85 3e e3 b6 72 bd 38 24 ed 3c 9a 9f e1 bc
       0.26138544 -0.059256446 0.028947935 -0.027541924
000210 b4 f0 d2 3c d3 f4 2e 3d ec 48 98 3b e8 c5 26 bb
       0.025749542 0.04271395 0.004647365 -0.002544755
000220 33 af 80 3d 1e 45 89 bd fb ba 9f bc 7b 1a e3 bd
       0.062834166 -0.06702636 -0.019498339 -0.11089035
000230 af fa ce 3c 78 10 34 be fe 29 31 bd 22 13 b2 3d
       0.02526602 -0.17584407 -0.043252937 0.086950555
000240 82 7b 86 3e 4e b0 23 3e d2 5f 06 bd 63 d3 ae 3e
       0.26266104 0.15985224 -0.032806225 0.3414565
000250 2e ec 6e bc 56 30 90 3d de a0 bc 3c 98 7c 82 3b
       -0.014582677 0.07040469 0.023025926 0.003982138
000260 5a 3b ee bc ea d7 af 3d 42 99 98 bc 86 ce ed 3d
       -0.029081035 0.08586104 -0.018627767 0.11611657
000270 37 ea 5d bd a5 61 db 3d 7b 22 f9 3d 3f 47 27 bd
       -0.054178443 0.107119836 0.1216478 -0.04083943
000280 e9 1b 85 3d ce b3 b0 bd df a3 30 3e 21 c2 bf 3d
       0.06499464 -0.08628045 0.17250012 0.09363199
000290 84 e6 a4 3d 60 bf 01 be a0 ce 45 be 9b 10 01 be
       0.0805178 -0.1267066 -0.19317102 -0.1260399
0002a0 87 47 30 be ab 3f 2a 3e f5 0b b4 3d c6 74 c2 bd
       -0.17214786 0.1662585 0.08791343 -0.09494929
0002b0 c4 78 20 3e f6 b7 63 be 66 58 1c be 9d ba ca be
       0.15671068 -0.22238144 -0.15268096 -0.395955
0002c0 92 4e 5a bd 1c 03 0b be 30 51 e7 bd 3e a0 6f bd
       -0.053297587 -0.13575405 -0.11294782 -0.05850243
0002d0 5b e1 07 3e 77 3e a2 bd be 89 65 bd 8d f6 3d be
       0.1326956 -0.079220705 -0.056039564 -0.18551083
0002e0 0c 2a 2b be c8 f1 20 be 4e 91 6c bd 33 f1 8f bd
       -0.16715258 -0.15717232 -0.05775576 -0.07028427
0002f0 1e fc a2 bd cd 0d f9 bc b2 8d e2 3d d1 9f 18 be
       -0.07958244 -0.030402089 0.110621825 -0.14904715
000300 1d 4c ee bd 7f 41 48 be 98 a3 bf bd 47 5f 20 bd
       -0.11635611 -0.19556235 -0.09357375 -0.039153364
000310 5d ff af 3d c1 04 e4 3d 64 c3 02 3e 12 3d 82 bc
       0.085936286 0.11133719 0.12769848 -0.015898261
000320 f4 dd bc bd eb 32 2d 3e 9a b5 6e 3d 75 f6 dd 3d
       -0.09222022 0.16913955 0.058278657 0.108380236
000330 20 8d 2e bd b1 19 79 3d 31 c6 cf bd 08 cf 92 bd
       -0.042615056 0.060815517 -0.10145224 -0.07168394
000340 6a 4c aa 3c 40 dd 1b be a4 28 95 3d 75 5e 23 bd
       0.02078839 -0.15221119 0.07283142 -0.039885003
000350 6d 8c 85 be 98 f6 46 3d df 5c ca bb b4 0f 59 bd
       -0.260837 0.048575014 -0.006175622 -0.05299349
000360 1a 87 41 be e6 cd c3 bc 03 74 ac bd 38 1c 77 3d
       -0.18899193 -0.023901891 -0.08420565 0.060329646
000370 40 7e e0 bb 79 30 f2 bb 49 da df 3c 7e 20 85 3b
       -0.0068509877 -0.0073910323 0.027325766 0.0040627113
000380 09 1a ec 3d 68 b0 22 be 06 04 99 3d 2c dc 8e be
       0.11528403 -0.15887606 0.074714705 -0.27902353
000390 e0 45 fc bb 17 82 24 3d 04 b1 1f bd b1 00 bf bc
       -0.0076987594 0.040163126 -0.038987175 -0.02331576
0003a0 10 d6 9f bd 8c 29 37 3c 93 c4 20 bd 46 bb a7 bd
       -0.07804501 0.011179339 -0.039249968 -0.081900164
0003b0 49 98 e4 bd 6d 20 cb bd 0d c8 19 be f7 90 3c b9
       -0.111618586 -0.09918294 -0.1501772 -0.00017983081
0003c0 50 07 be bd 79 d6 b8 bd ee 50 bb bd 0b 46 a8 bd
       -0.092787385 -0.090252824 -0.091462955 -0.08216485
0003d0 ce d1 0b be aa 5c 49 3d 00 70 9f 3c b5 21 aa 3c
       -0.13654253 0.049160637 0.019462585 0.020768026
0003e0 1d 15 85 bd 44 1f ba bd 0f 5b 2d be 30 6f 4c be
       -0.06498168 -0.09087995 -0.16929267 -0.1996429
0003f0 f1 ed 97 bd 1d e2 15 be ae 5d 1a be 3f 59 f0 bd
       -0.074184306 -0.14637037 -0.15074798 -0.11735772
