lstmt/model_pt/lstmt_traj_sf_lf_4_fold_CV_2800.pt (torch, 273755 bytes, 6 tensors)

rnn.weight_ih_l0 f4 [16, 4]
0	0x3dbc46d4	0.09193197
1	0xbe1544f3	-0.14577083
2	0x3dcd3d5f	0.10021471
3	0xbeee5713	-0.46550807
4	0x3c6b42cc	0.014359187
5	0x3e03d791	0.12875201
6	0xbe2a54d5	-0.16633923
7	0x3cf22d43	0.029562598
8	0x3cb5288b	0.022114059
9	0xbe866fe3	-0.26257238
10	0x3e2fc488	0.17164814
11	0x3cf2b9fb	0.029629698
12	0x3e2181c9	0.15772165
13	0x3ed6334e	0.41836017
14	0xbe3499cf	-0.17636798
15	0xbe855b48	-0.26046205
16	0x3cb19adb	0.021680286
17	0xbdb8ed76	-0.09029667
18	0xbd44e921	-0.04807389
19	0x3d9d00c0	0.07666159
20	0x3c916d05	0.01775218
21	0x3d095f4a	0.03353814
22	0xbe9ebc12	-0.3100286
23	0xbc818f7f	-0.015815495
24	0x3c285a0f	0.010275378
25	0xbe633ff2	-0.22192362
26	0x3e1b3f2e	0.1516082
27	0xbc0ec5c6	-0.008714145
28	0x3ec55772	0.38543278
29	0xbdfe3348	-0.12412125
30	0xbe34f671	-0.17672135
31	0x3d4b4508	0.04962638
32	0x3c8d720f	0.017266301
33	0xbe00ee35	-0.12590869
34	0xbe176c78	-0.14787471
35	0x3c84b93e	0.016201612
36	0xbd98436e	-0.07434736
37	0x3dc4b216	0.0960428
38	0xbe3b9716	-0.18319353
39	0x39305742	0.00016817174
40	0x3c941bbe	0.018079635
41	0x3dc2db69	0.095145054
42	0x3e5eb3fc	0.21748346
43	0xbbee052d	-0.0072638006
44	0x3eafac87	0.34311315
45	0x3e0b50d3	0.1360505
46	0xbec72219	-0.38893202
47	0xbd911690	-0.070843816
48	0xba8067eb	-0.0009796595
49	0xbd9dce8c	-0.07705411
50	0xbe40521c	-0.18781322
51	0x3c2255d1	0.009908156
52	0x3f074080	0.52832794
53	0xbecf59a5	-0.4049808
54	0xbedef2da	-0.43544656
55	0xbcf59bb5	-0.029981473
56	0x3b8f523c	0.004373817
57	0x3e3e9072	0.18609789
58	0xbdd4a91d	-0.10383818
59	0x3bcbe278	0.0062220655
60	0xbc26502c	-0.01015095
61	0x3e96e756	0.2947337
62	0xbe647e85	-0.22313888
63	0x3a977651	0.0011555647

rnn.weight_hh_l0 f4 [16, 4]
0	0x3e53f1db	0.2069773
1	0x3f75c326	0.960009
2	0xbf64aa05	-0.8932193
3	0x3eb9fb31	0.36324456
4	0x3e23399c	0.15939945
5	0xbdaaf1bb	-0.08346888
6	0xbecddba8	-0.40206647
7	0xbf4d7ff3	-0.8027336
8	0xbbc815a3	-0.006106095
9	0x3d5afaf2	0.053461976
10	0x3e89b343	0.26894578
11	0x3e33554c	0.17513007
12	0x3f25494a	0.64564955
13	0xbfda99be	-1.7078168
14	0x3e8e9afe	0.27852625
15	0x3f94cc15	1.1624781
16	0xbedae823	-0.4275523
17	0x3e6e72d2	0.23285988
18	0x3ef8af91	0.48571447
19	0x3ec18a92	0.37801033
20	0xbf025891	-0.5091639
21	0x3ec39be4	0.38204873
22	0x3f969d8c	1.176683
23	0xc037d319	-2.8722594
24	0x3ed86f49	0.42272404
25	0xbf055ed8	-0.52097845
26	0x3ec965b9	0.3933542
27	0x3ef11317	0.47084877
28	0x3cd72667	0.026263429
29	0x3f191c12	0.59808457
30	0x3f4cc15d	0.7998255
31	0x3f6aa30d	0.91655046
32	0xbfad09f2	-1.351866
33	0x3daf4215	0.08557526
34	0x3f2e8ee9	0.68186814
35	0x3f8ac432	1.0841124
36	0xbf92b5dd	-1.146175
37	0xbed50090	-0.41601992
38	0x3f444139	0.7666202
39	0xbf085698	-0.5325713
40	0x3f3d137e	0.7385787
41	0xbfa7c29d	-1.3106266
42	0xbf16fb18	-0.5897689
43	0xbe068c59	-0.13139476
44	0x3fc27924	1.5193219
45	0x3ea10be5	0.31454387
46	0x3e8388cc	0.25690305
47	0xbe413925	-0.18869455
48	0x3fad0f88	1.3520365
49	0x40134184	2.3008738
50	0xbf72a0bc	-0.9477651
51	0x3f888e28	1.0668383
52	0x3fc5647f	1.5421294
53	0x3fda3d36	1.704993
54	0xbed45869	-0.41473702
55	0xbf3298ea	-0.6976458
56	0x3fe543a1	1.7911264
57	0x3fb4ee02	1.4135134
58	0x3fcd8689	1.6056682
59	0x40cf6818	6.4814568
60	0xbc0c7f5f	-0.0085752895
61	0x3f0b3a3f	0.5438575
62	0xbf714f68	-0.9426179
63	0xbf9ea02d	-1.2392632

rnn.bias_ih_l0 f4 [16]
0	0x3ee7e96e	0.4529528
1	0xbeb604b8	-0.35550475
2	0x3f81148f	1.0084399
3	0x3e44fa42	0.19236091
4	0x3e165f23	0.1468473
5	0x3e50f10b	0.2040445
6	0x3f13d53e	0.57747257
7	0x3f084b8b	0.5324027
8	0x3e404c5e	0.18779132
9	0x3ea4b64e	0.32170337
10	0x3eca661f	0.39531037
11	0xbe10affb	-0.14129631
12	0x3ed7df59	0.42162588
13	0x3d9d8a59	0.07692403
14	0x3f586331	0.84526354
15	0x3f86a853	1.0520118

rnn.bias_hh_l0 f4 [16]
0	0x3ecf3205	0.4046785
1	0xbeaa6ff8	-0.3328855
2	0x3f852005	1.0400397
3	0x3e1e072f	0.15432428
4	0x3e53a34d	0.20667763
5	0x3e308f2e	0.17242119
6	0x3f1fb398	0.62383413
7	0x3f12be3f	0.5732154
8	0x3e680eb9	0.22661866
9	0x3e78ce01	0.24297334
10	0x3ed228b1	0.4104667
11	0xbe1e44b6	-0.15455899
12	0x3edd86b3	0.4326683
13	0x3d9e7cf4	0.07738677
14	0x3f521944	0.820698
15	0x3f84bf60	1.0370903

fc_out.weight f4 [334, 202]
0	0x3f8595ef	1.0436381
1	0xc0084e3b	-2.1297748
2	0xbffea7a0	-1.9894905
3	0xc0097e35	-2.148328
4	0x3f470d16	0.7775434
5	0xbfd384cb	-1.65249
6	0xbf6339c0	-0.88759995
7	0xc00ce626	-2.2015471
8	0x3f33d666	0.7024902
9	0xbf482b93	-0.7819149
10	0x3f5e8ef4	0.8693688
11	0xc00e2be1	-2.2214282
12	0x3f57fb61	0.8436795
13	0xbe69269f	-0.22768639
14	0x3f708ad8	0.9396186
15	0xc017beb6	-2.371015
16	0x3f79eb47	0.9762463
17	0x3d91abca	0.07112844
18	0x3ec35ab3	0.38155136
19	0xc0159335	-2.3371098
20	0x3f89c870	1.0764294
21	0x3e84989c	0.25897682
22	0xbe617390	-0.2201674
23	0xc0129589	-2.290377
24	0x3f97f485	1.1871496
25	0x3f122aa5	0.5709632
26	0xbe8e262c	-0.27763498
27	0xc00778dd	-2.116752
28	0x3fa21c2d	1.2664849
29	0x3ef247b7	0.4732034
30	0xbf2d93b5	-0.6780351
31	0xc0038020	-2.0546951
32	0x3fa6a965	1.3020445
33	0x3eb005b2	0.34379345
34	0xbf5f3eb2	-0.8720504
35	0xbffeba2a	-1.9900563
36	0x3fab9877	1.3405904
37	0x3e576447	0.21034347
38	0xbf73c4a2	-0.9522191
39	0xc001bdc8	-2.0272083
40	0x3fadda64	1.3582273
41	0x3e9a21b2	0.30103832
42	0xbf5cf385	-0.8630908
43	0xbffb6524	-1.9640241
44	0x3fa38a02	1.2776492
45	0x3eb989db	0.36237988
46	0x3d95394f	0.07286321
47	0xbfca311b	-1.5796236
48	0x3f954886	1.1662757
49	0x3efcadd2	0.49351364
50	0xbed3a199	-0.41334227
51	0xbf831b96	-1.0242794
52	0x3f8e7370	1.1128979
53	0x3f18456f	0.5948095
54	0xbff61950	-1.9226475
55	0xbfac4b58	-1.3460493
56	0x3f6db286	0.9285053
57	0x3f18b7be	0.5965537
58	0xbf9e6c24	-1.2376752
59	0xbf87a7a3	-1.0598034
60	0x3f5be8dc	0.8590219
61	0x3f1ad10f	0.6047525
62	0xbd96bb41	-0.073599346
63	0xbd871857	-0.06596439
64	0x3f5832b6	0.8445238
65	0x3f1add71	0.6049414
66	0xbd8401db	-0.064456664
67	0xbd590ca0	-0.052990556
68	0x3f593826	0.848513
69	0x3f1c9385	0.61162597
70	0xbd84e9d3	-0.06489911
71	0xbd52c3f3	-0.051456403
72	0x3f595892	0.8490077
73	0x3f1ecf24	0.6203482
74	0xbd2d4722	-0.042304166
75	0xbd5e916b	-0.0543379
76	0x3f58d942	0.8470651
77	0x3f1e8260	0.61917686
78	0xbd0f8ff1	-0.035049383
79	0xbd64f889	-0.055901084
80	0x3f5812ae	0.844035
81	0x3f204509	0.6260534
82	0xbcf08f15	-0.029365102
83	0xbd4ecd17	-0.050488558
84	0x3f574700	0.8409271
85	0x3f2116cb	0.62925404
86	0xbcbbebae	-0.02293953
87	0xbd27284e	-0.040809922
88	0x3f5a5459	0.85284954
89	0x3f2287b0	0.6348829
90	0xbc9bf4c4	-0.019037612
91	0xbd1682d2	-0.036745854
92	0x3f575cae	0.8412579
93	0x3f211f01	0.62937933
94	0xbc85c612	-0.016329799
95	0xbcee389e	-0.029079732
96	0x3f584dae	0.8449353
97	0x3f225f3d	0.6342657
98	0xbcd3c175	-0.025849083
99	0xbd09d54a	-0.033650674
100	0x3f57fda3	0.84371394
101	0x3f1db99a	0.6161133
102	0xbca78161	-0.020447435
103	0xbcb9ff02	-0.022704605
104	0x3f59ba85	0.8505023
105	0x3f196d75	0.59932643
106	0xbcc2130f	-0.023690728
107	0xbcecfb9b	-0.028928569
108	0x3f59d1b0	0.8508558
109	0x3f152784	0.5826342
110	0xbccddc53	-0.025129473
111	0xbcb6bec3	-0.02230776
112	0x3f59f149	0.85133797
113	0x3f134dc3	0.5754053
114	0xbca57e54	-0.02020184
115	0xbcba72c3	-0.0227598
116	0x3f573aaa	0.8407389
117	0x3f0e61ef	0.55618185
118	0xbcd19e78	-0.02558826
119	0xbcd497a6	-0.025951218
120	0x3f58773e	0.8455695
121	0x3f0fff50	0.5624895
122	0xbc809bf4	-0.015699364
123	0xbcf1706d	-0.029472554
124	0x3f58641b	0.8452775
125	0x3f0e3a29	0.55557495
126	0xbcb5856c	-0.022158347
127	0xbcb6f9f7	-0.02233599
128	0x3f5743a3	0.8408758
129	0x3f0ddfcd	0.5541962
130	0xbc9bacd0	-0.019003302
131	0xbccb2324	-0.02479703
132	0x3f59df11	0.85106
133	0x3f0cb0f4	0.5495751
134	0xbc7bc9a4	-0.015367899
135	0xbcd38f82	-0.025825266
136	0x3f58caad	0.8468426
137	0x3f0bdeb0	0.5463667
138	0xbc77bd89	-0.015120872
139	0xbc892577	-0.016741497
140	0x3f5841f9	0.84475666
141	0x3f0b880a	0.54504454
142	0xbcd8f2c2	-0.026482943
143	0xbcb71d19	-0.022352742
144	0x3f57bcd2	0.8427249
145	0x3f0966af	0.5367231
146	0xbc94e0ac	-0.018173538
147	0xbcd30c7a	-0.025762785
148	0x3f57574f	0.841176
149	0x3f0a0e24	0.53927827
150	0xbcbec4ba	-0.023287166
151	0xbc693040	-0.014232695
152	0x3f58eb38	0.84733915
153	0x3f099f84	0.53759027
154	0xbc9282e9	-0.017884688
155	0xbc89788d	-0.016781116
156	0x3f578488	0.841866
157	0x3f09187b	0.5355298
158	0xbc8dd679	-0.017314183
159	0xbc8c3449	-0.017114775
160	0x3f583815	0.84460574
161	0x3f08c051	0.5341845
162	0xbca50f7a	-0.020148981
163	0xbcbde487	-0.02318026
164	0x3f5998a3	0.8499853
165	0x3f080b32	0.5314208
166	0xbca7d599	-0.020487593
167	0xbc9241d2	-0.017853651
168	0x3f59afbd	0.8503378
169	0x3f06696d	0.52504617
170	0xbc8fac2c	-0.017538153
171	0xbc783535	-0.015149404
172	0x3f581062	0.844
173	0x3f066bdf	0.5250835
174	0xbcd538fe	-0.026028153
175	0xbcb38bac	-0.021917187
176	0x3f597892	0.849496
177	0x3f07aa4f	0.52994245
178	0xbc877bfb	-0.01653861
179	0xbc8b73eb	-0.017023047
180	0x3f59c4ab	0.85065717
181	0x3f07e079	0.53076893
182	0xbcbbb956	-0.022915523
183	0xbca75890	-0.020427972
184	0x3f596b5c	0.8492944
185	0x3f069e5c	0.5258539
186	0xbcc7cc7d	-0.0243895
187	0xbcad54fe	-0.021158691
188	0x3f581178	0.84401655
189	0x3f04bfb4	0.51855016
190	0xbcc61b4d	-0.02418294
191	0xbcab4eef	-0.020911662
192	0x3f59c4ba	0.85065806
193	0x3f04fa80	0.5194473
194	0xbcd6dc93	-0.026228225
195	0xbcc4ef2c	-0.024039827
196	0x3f58e851	0.84729487
197	0x3f026e75	0.50949794
198	0xbcd67f0d	-0.02618363
199	0xbcae2cef	-0.02126166
200	0xc01877e1	-2.3823168
201	0x3f1fb0eb	0.6237933
202	0x3f012635	0.50448924
203	0xbf6af2ce	-0.9177674
204	0xbe60cb3e	-0.2195253
205	0xc025c965	-2.5904171
206	0x3f11d96c	0.56972384
207	0xbdd0fa76	-0.10204022
208	0xbed74756	-0.42046613
209	0xc0164585	-2.3479931
210	0x3f16fadc	0.5897653
211	0x3e1ecc8b	0.15507714
212	0xbeeae6e1	-0.45879272
213	0xbfef955b	-1.8717455
214	0x3f17f25e	0.593542
215	0xbdc54d2f	-0.09633862
216	0xbf005b2c	-0.5013912
217	0xbfacfc82	-1.3514559
218	0x3f1871d6	0.595487
219	0xbe53afbd	-0.20672508
220	0xbf20c3a1	-0.62798506
221	0xbf61b931	-0.88173205
222	0x3f19514e	0.59889686
223	0xbe8efdcf	-0.27928016
224	0xbf41e8a2	-0.75745595
225	0xbebca90a	-0.36847717
226	0x3f1bfa3f	0.6092872
227	0xbeb295e1	-0.34879974
228	0xbf6bb8db	-0.9207894
229	0xbbcd122f	-0.006258271
230	0x3f1c2e2a	0.6100794
231	0xbebfd87e	-0.37469858
232	0xbf849269	-1.0357181
233	0x3ec07f14	0.37596953
234	0x3f1f0434	0.6211579
235	0xbeb76949	-0.35822514
236	0xbf88367a	-1.0641625
237	0x3f1b05be	0.60555637
238	0x3f1ed8c5	0.62049514
239	0xbea98a2c	-0.3311323
240	0xbf8f0b7d	-1.1175381
241	0x3ef8e6d5	0.4861361
242	0x3f1fa42a	0.6235987
243	0xbea8f61f	-0.33000275
244	0xbf9ce90e	-1.2258623
245	0x3f17356a	0.5906588
246	0x3f1c93c3	0.61162966
247	0xbe811b6d	-0.25216237
248	0xbf5c78fb	-0.861221
249	0x3f10522a	0.5637537
250	0x3f174e5f	0.5910396
251	0xbe39110c	-0.18072909
252	0xbf118488	-0.5684285
253	0xbe4abbb6	-0.19798169
254	0x3f1b4b7a	0.60662043
255	0xbebd47e8	-0.36968923

fc_out.bias f4 [334]
0	0x3f5918a3	0.8480322
1	0x3f13a756	0.5767721
2	0x3f0eef4c	0.5583389
3	0x3e8e78b7	0.27826473
4	0x3ee4a169	0.44654396
5	0x3f3ecd30	0.7453184
6	0x3f0178bd	0.50574857
7	0x3f0f7031	0.56030566
8	0x3f6958ef	0.91151327
9	0x3f3d13ad	0.7385815
10	0x3e9b7b08	0.30367303
11	0x3e31c240	0.17359257
12	0x3eaac366	0.33352202
13	0x3f0c4d39	0.5480533
14	0x3e8ee8d2	0.27912003
15	0x3ea70eb3	0.32628402
16	0x3f179c21	0.5922261
17	0x3e8f2725	0.27959552
18	0x3ef64c88	0.48105264
19	0x3e911fe5	0.28344646
20	0x3e8d1ae3	0.27559575
21	0x3eb9c1fb	0.36280808
22	0x3ebb53da	0.3658741
23	0x3ecc319f	0.39881608
24	0x3ebfacdd	0.37436572
25	0x3e8c3864	0.27386773
26	0x3f10c8aa	0.5655619
27	0x3e375e6e	0.17907116
28	0x3da48dc6	0.08034854
29	0x3e02858f	0.12746261
30	0x3dbda896	0.09260671
31	0x3e6e8b75	0.23295386
32	0x3e7b5e22	0.24547628
33	0x3ef8a9ea	0.48567134
34	0x3ebad5c9	0.3649123
35	0x3c8d3bb2	0.017240379
36	0xbb672e83	-0.0035275526
37	0x3d9d6c19	0.076866336
38	0x3e324790	0.17410111
39	0x3eb8ce2d	0.360948
40	0x3e00e592	0.12587574
41	0x3e76022b	0.24024265
42	0x3e1041b3	0.14087562
43	0x3e6fef9b	0.23431246
44	0x3edca4cd	0.43094483
45	0x3e91bbc9	0.2846358
46	0x3e2d3016	0.16912875
47	0x3e33041e	0.1748204
48	0x3e9e58ed	0.3092722
49	0x3e3fbfc7	0.18725501
50	0x3ea9a1af	0.33131167
51	0x3ed28471	0.4111667
52	0x3e5b7dbe	0.21434686
53	0x3e338e71	0.17534806
54	0x3e0f79ce	0.14011309
55	0x3d909b78	0.07060903
56	0x3d8ca515	0.068674244
57	0x3d20d154	0.03926213
58	0x3ea59a2f	0.32344195
59	0x3e776956	0.24161276
60	0x3ec419dd	0.38300982
61	0x3d268340	0.040652514
62	0x3e123d0f	0.14281105
63	0x3d417636	0.047231875
64	0x3d49321a	0.049120046
65	0xbb653136	-0.003497196
66	0x3b050ea8	0.0020302925
67	0xbdd6b551	-0.10483802
68	0xbddd1659	-0.10795278
69	0x3d32e7b6	0.043678008
70	0x3d808bbe	0.06276654
71	0xbd284486	-0.041080974
72	0x3e6f573b	0.2337312
73	0x3ea513be	0.32241625
74	0x3e845a4a	0.25850135
75	0x3e3f0304	0.18653494
76	0x3dee87be	0.116469845
77	0xbd20eb6b	-0.039287012
78	0xbddce062	-0.10784985
79	0xbd7f94f0	-0.062397897
80	0x3dcaffa6	0.09912042
81	0x3d21872d	0.039435554
82	0x3d64515f	0.055741664
83	0x3d179e61	0.037016276
84	0x3e2197cf	0.15780567
85	0x3d0906eb	0.033453863
86	0x3e23980a	0.15975967
87	0x3eb484f4	0.35257685
88	0x3e0950f2	0.13409784
89	0x3d316ad9	0.04331479
90	0xbdbf2e53	-0.093350075
91	0x3c8db0b0	0.017296165
92	0x3e1eab1d	0.15494962
93	0x3e17366e	0.14766857
94	0x3eddb7a3	0.43304166
95	0x3da86a39	0.08223385
96	0x3dc08f24	0.09402302
97	0x3dfe9687	0.124310546
98	0x3e552495	0.20814736
99	0x3dce1054	0.10061708
100	0x3d8a824a	0.06763132
101	0xbd9495a4	-0.07255104
102	0xbd86238b	-0.06549748
103	0xbe6f3c36	-0.23362812
104	0x3d1387c0	0.036018133
105	0xbdc3c1ce	-0.0955845
106	0xbdb8cbac	-0.09023222
107	0xbcfd1504	-0.03089381
108	0x3d87d2d0	0.06632006
109	0xbd5cac66	-0.05387535
110	0x3ddcbdc1	0.1077838
111	0xbd17252e	-0.03690069
112	0x3de2742c	0.11057314
113	0xbde156ad	-0.1100286
114	0x3daf9d2c	0.085749
115	0x3de8de41	0.113705166
116	0x3e0e8162	0.13916543
117	0x3d9842a7	0.07434588
118	0xbb8f27aa	-0.004368742
119	0x3d44d1c1	0.0480516
120	0x3b8510b1	0.0040608277
121	0xbe26c962	-0.16287759
122	0xbd76f14e	-0.06028872
123	0x3e314842	0.1731272
124	0xbd6a6df8	-0.05723378
125	0xbdd6274f	-0.10456716
126	0xbd0a2d55	-0.03373464
127	0xbddf0533	-0.108896635
128	0x3bfde559	0.0077482876
129	0xbc84979e	-0.016185578
130	0xbd9f823f	-0.07788514
131	0xbc17f8dc	-0.009275641
132	0x3d80d768	0.062910855
133	0x3d219872	0.039452024
134	0xbd5c259f	-0.053746816
135	0xbb9394c7	-0.0045038196
136	0x3dd0e460	0.10199809
137	0x3e3ce730	0.18447566
138	0x3c818884	0.015812166
139	0x3dbb7104	0.091524154
140	0x3e80e869	0.25177315
141	0x3d805b10	0.06267369
142	0x3e1efb06	0.15525445
143	0x3e7fec64	0.2499252
144	0x3e75f3bd	0.2401876
145	0x3e286452	0.16444519
146	0x3dc25497	0.094887905
147	0x3ebb7ac9	0.36617115
148	0x3e22d4ea	0.15901533
149	0x3e1091db	0.1411814
150	0xbd2db6c2	-0.04241062
151	0xbddb0fe4	-0.1069639
152	0xbe3a0f9c	-0.18170017
153	0xbe04ef3e	-0.12981889
154	0xbe030ea2	-0.1279855
155	0xbcd3bf47	-0.025848044
156	0xbd850ec5	-0.06496958
157	0xbcc5c905	-0.024143705
158	0x3e06e1fc	0.13172144
159	0xbdef6c6e	-0.11690603
160	0xbd54a0bf	-0.051911112
161	0xbc4c73f5	-0.012478818
162	0x3b37b3cf	0.0028030758
163	0xbd1d014b	-0.03833131
164	0x3b616b0a	0.0034396076
165	0xbc5843ef	-0.01319979
166	0xbdb533d6	-0.088477775
167	0x3e509000	0.20367432
168	0x3daeef1c	0.085417
169	0x3e808604	0.25102246
170	0x3e4e23a7	0.20130788
171	0x3e6627d0	0.22476125
172	0x3eb1384c	0.34613264
173	0xbe3c99fb	-0.18418114
174	0x3d98b05c	0.07455513
175	0xbe6dd028	-0.23223937
176	0x3b45a40b	0.0030157592
177	0xbd4d7877	-0.050163712
178	0xbe1883e8	-0.14894068
179	0xbd1c3810	-0.038139403
180	0xbdd8f199	-0.10592956
181	0xbe2cf7c5	-0.16891392
182	0xbcf5884a	-0.029972214
183	0xbe2c1bc4	-0.16807467
184	0xbe4cb724	-0.19991738
185	0xbe6d06ae	-0.2314708
186	0xbd82bb5a	-0.06383391
187	0x3cfbd458	0.030740902
188	0x3d034cf0	0.032055795
189	0x3d7f335f	0.06230485
190	0x3decbc88	0.11559397
191	0xbe2a0692	-0.16604069
192	0xbe2e1fba	-0.1700429
193	0xbded5e10	-0.115902066
194	0xbd865f44	-0.06561139
195	0xbe2a603d	-0.16638274
196	0xbdee19f2	-0.116260424
197	0xbc9767f8	-0.018482193
198	0xbe6a2441	-0.22865392
199	0xbe4fc0ce	-0.20288393
200	0xbe6ee60b	-0.23329942
201	0xbe647c5a	-0.22313061
202	0xbe836a0c	-0.25666845
203	0xbc2f2ffc	-0.010692593
204	0xbc96a1e6	-0.018387746
205	0x3e1651a0	0.14679575
206	0x3e2b13c4	0.16706759
207	0xbe123d45	-0.14281185
208	0x3cb04b12	0.021520171
209	0xbc77224e	-0.0150838625
210	0x3c9a8e52	0.018866692
211	0xbc22350c	-0.009900343
212	0xbdffdf59	-0.12493772
213	0x3ba681d2	0.0050813938
214	0x3d17238d	0.03689914
215	0x3d95784c	0.072983354
216	0x3cc968ef	0.024586169
217	0x3ca8cc86	0.020605337
218	0xbd269f21	-0.0406791
219	0x3e1fa4d0	0.15590215
220	0x3d767974	0.06017442
221	0x3d18f002	0.037338264
222	0x3cd8056f	0.026369778
223	0x3dccf455	0.1000754
224	0x3de19822	0.11015345
225	0xbcc48231	-0.023987861
226	0xbe0521c1	-0.13001157
227	0xbe1d0bac	-0.15336484
228	0x3d8ffd69	0.07030756
229	0x3dcde4bd	0.10053394
230	0x3e246a23	0.16056113
231	0x3cb1b9b2	0.021694992
232	0x3c933e6d	0.017974103
233	0x3d205f67	0.039153483
234	0xbc91cfbd	-0.017799253
235	0x3d235cd1	0.03988344
236	0xbdcf5551	-0.10123695
237	0xbd97c36b	-0.0741032
238	0xbd9cbc02	-0.07653047
239	0xbda3b8c7	-0.07994228
240	0xbdfd22f2	-0.12360181
241	0xbc6a6f48	-0.014308758
242	0x3d00d01e	0.031448476
243	0x3ddd2ecd	0.10799942
244	0xbd784d3a	-0.060620524
245	0x3d18facf	0.037348565
246	0x3cfd0d4e	0.030890133
247	0x3bc4587e	0.0059919944
248	0xbc5eaab4	-0.0135905035
249	0xbd01b83d	-0.031669844
250	0xbe40f316	-0.1884273
251	0xbd3214de	-0.04347693
252	0xbdb96557	-0.09052532
253	0xbd73af38	-0.059493273
254	0xbe24ccdc	-0.16093773
255	0xbe17dc38	-0.148301
