lstm/model_pt/lstm_traj_5_fold_CV_2800.pt (torch, 203960 bytes, 6 tensors)

rnn.weight_ih_l0 f4 [12, 3]
00000000: 9324 5fbe bb40 363d f0a6 3d3c d69c 593e
00000010: ab62 84bc 794e 7d3b 94ae 2f3d c453 c33e
00000020: 8d12 29bc 7507 08be 3cc3 d73c a55d f5ba
00000030: 0c54 5bbd a130 fcbc 0a45 0a3c 9700 3bbd
00000040: a873 bbbd be5c 0e3c 4e2e dd3d 2f6a 03be
00000050: 60aa 2f39 f84d 263e d537 8bbd 417f 14bb
00000060: 0191 f23b 2a91 3d3e 26b6 dfbb 9af8 993d
00000070: f600 1ebf 89d8 593c 5917 593e 6652 f9bd
00000080: fb69 52b9 b0a3 bf3d 959e a63e 4f44 c93b
-0.21791296 0.044495326 0.0115754455 0.21251234 -0.01616033 0.003865151 0.0428911 0.38149846
-0.010319364 -0.13284095 0.026338212 -0.0018719925 -0.05354695 -0.030784907 0.008439312 -0.04565486
-0.09152919 0.008689104 0.107998475 -0.12833475 0.0001675277 0.1624068 -0.067977585 -0.0022658857
0.0074025397 0.18512407 -0.0068271337 0.0751812 -0.61720216 0.013296255 0.21200313 -0.121739194
-0.00020066641 0.09357393 0.32542863 0.006142176

rnn.weight_hh_l0 f4 [12, 3]
00000000: fc84 d33f 8f94 063f d7da 143e 975a 6ebe
00000010: 15a5 29c0 8e75 9ebe b97c 753f 04ec 02bf
00000020: df74 66c0 4f78 983e 02c0 c13e 1051 913d
00000030: 66cd 52be 2974 843e 24e8 523e 58c3 d73e
00000040: 72e2 0ebf 0f5f 5a3f de7f afbd 95ef 673f
00000050: 7f3a 743f 1ec8 83bf 3af8 d9be acfa e2bd
00000060: 0142 4b3f 79a4 2b3f f2d2 15bf 541a 2fbf
00000070: 2e49 7c3f 0b9e 513f c69d 12bf d1ec 23c0
00000080: f903 01bd 3a5f 813f 2863 02bf 1d7a 21c0
1.6524959 0.5257043 0.14536606 -0.23276745 -2.6507008 -0.30949062 0.95893437 -0.5114138
-3.6008832 0.29779288 0.37841803 0.070955396 -0.20586166 0.25869873 0.20596367 0.42141223
-0.5581428 0.853013 -0.085693106 0.9059995 0.9540176 -1.0295446 -0.42572194 -0.11082968
0.7939759 0.6704784 -0.58525 -0.6839955 0.98549163 0.8188178 -0.57271993 -2.5613291
-0.03149793 1.0107186 -0.5093255 -2.5230782

rnn.bias_ih_l0 f4 [12]
00000000: e638 a13f d4c7 303f 0a56 303f 1fff 4d3f
00000010: a375 783f af4d 893f 6160 8e3e f9b5 d7be
00000020: 5cac 1fbf 21e8 ce3f bbd2 b83f 1129 963f
1.2595489 0.69054914 0.68881285 0.8046741 0.970545 1.0726832 0.27807906 -0.42131022
-0.62372375 1.616459 1.443931 1.1731282

rnn.bias_hh_l0 f4 [12]
00000000: 3439 a13f d8a6 303f 9250 303f 0ff7 4d3f
00000010: 6b59 783f 2e52 893f af95 8e3e 45d9 d7be
00000020: f8c0 1fbf 4de9 ce3f 91d7 b83f a023 963f
1.2595582 0.69004583 0.6887294 0.80455106 0.9701144 1.0728204 0.27848575 -0.4215795
-0.6240382 1.6164948 1.4440786 1.1729622

fc_out.weight f4 [334, 150]
00000000: 6f9c 9cbf ac5d 94be 7b41 b5be c2fa 3ebf
00000010: 40ff 8a3e c471 f0be 8dfd b3be f141 1c3e
00000020: 470e d7be 0bcf 4ebe d4ce 083d 2b61 cabe
00000030: aca3 1fbe 24c3 2cbd 7d03 dcbe f072 9bbd
00000040: b8bb ffbd f663 f8be 0c47 5f3d d665 c3bd
00000050: e449 2dbf 5c47 e83d 7821 69bd aa2a 44bf
00000060: d6c1 0b3e e8c9 14bd 40c9 41bf 7f73 3d3e
00000070: 2049 20bd e3b4 56bf 644f 173e 527c c2bd
00000080: fa35 75bf e201 cebe 8813 333f bc27 37bf
00000090: d0fa 5dbf 8784 593f d0d1 d0be 4f58 51bf
000000a0: 95c5 7f3f a1e9 8c3e 4582 1abf 21c1 233f
000000b0: dff1 3740 bc8e 19bf a1f8 b23d 6f55 d73f
000000c0: ea37 1cbf bee5 d8bc 5477 a83f 0ff0 1fbf
000000d0: 7210 ae3c 9f85 943f 595c 1ebf 2dfe a53d
000000e0: 84ec 823f c946 f7be 07c4 6a3d 1eb7 553f
000000f0: 88dc 3bbe 893a aabd ab2a f73e eeed 9bbd
00000100: 8de9 81be 01af 263e 88d6 64bd 67dd 39be
00000110: 44e6 ac3e 8c61 b23d 03aa 34be f92c b83d
00000120: e5ca c33e cfaf 42be c693 c7bc 2202 e83e
00000130: 5bef 4e3d db3e 2ebe ccfd 113f ecaa ccbd
00000140: 793c 913c 8d0b 023f 33ea 48be 1f53 d5bd
00000150: b66c d43e fcb4 d3be e291 39be 40f7 a43e
00000160: 1a88 0dbe fc3b 433c f0ab 883e 45c7 4f3d
00000170: 9b87 f03d 9fb8 6f3e 009d cf3d b407 453e
00000180: f4f7 5a3e 5bec 1e3e a342 773e 10d5 4d3e
00000190: 44c3 b63b 03ef 453e 8c83 3c3e 679b 1d3e
000001a0: 3a9f 9d3e 6703 2b3e 2429 d33c 38a1 f2bc
000001b0: 09e2 283e f439 7e3d 9083 13bd 8966 143e
000001c0: 0c43 50be d497 823d 8a15 063e 5ccc 6abe
000001d0: a849 613d 8f01 003e 99c5 773d d57c b63d
000001e0: d85d ef3d 8d40 a8bd 3dee 5c3e 6260 e53d
000001f0: 687b 78be 329d 78be 878e dd3d cdc9 95be
00000200: 768f 4d3e 6191 d73d ace0 2cbd 2f4b d93d
00000210: b173 cf3d 0755 a3bc e129 8c3d 1b0d cb3d
00000220: d3db d2bd a598 6dbd 51e8 c53d 47d8 17bc
00000230: 7d24 07bb 166d c23d a50f f2ba a328 003a
00000240: 099d be3d 08e7 d8b8 4685 52b9 3a34 bb3d
00000250: 9468 b1b8 a1eb 91b8 2372 81bf 6d8f 45be
00000260: 4373 29be 8408 96bf 3672 49be 7f81 3cbe
00000270: 8d7b 9bbf 1fda e3be 2317 a3bd 00e2 dbbf
00000280: 0cad 16bf d3aa 843b 47ec d5bf 09c0 32bf
00000290: e645 083e 3e0a d1bf b62a 42bf e3f0 0a3f
000002a0: 5e54 5abf 5313 44bf 1b9c 163f 5d11 61be
000002b0: 10f8 3cbf c88c 323f e0bc ea3d c36b 2fbf
000002c0: 2c0f e13e dcfc 833e dd88 26bf 31f1 3f3e
000002d0: a097 b63e 90c6 28bf aed2 55bd af20 f23e
000002e0: bf76 1fbf 6ce6 eebe f5ae 153f 84a2 19bf
000002f0: d233 18bf 755b 4b3f 238c 423f 837a 433f
00000300: 2f09 5a3f f774 3c3f fa39 403f 038b 4e3f
00000310: f830 de3e a0ea 5a3e a290 343f e009 6f3e
00000320: daf6 003d 7fb8 143f f4ec 9e3e de1f 82bb
00000330: 45de 013f 6373 d73e 999f c7bc c55f f53e
00000340: b842 dd3e a53f cabc e413 ee3e a13c d23e
00000350: f916 92bc 4ffb e63e fab7 5d3e 06ea 483b
00000360: ff37 d23e 281c 133f 60bb 173f ed70 c53e
00000370: 04bc 013f a32b 1b3f 5217 bb3e 2b67 ab3e
00000380: dd49 a73e 318a b13e 8f31 943e 853a 2e3e
00000390: 1e1f a73e d14d e93d 59fe 2b3d ef9b 9b3e
000003a0: 60e9 593d 2fc6 89bb 313e 903e 432a 933c
000003b0: 66c1 a2bc a507 863e 80a1 243e 9782 903d
000003c0: 94ad 813e 3102 363e f4df 213e d1c1 7e3e
000003d0: 57ff d13d 36e8 d23d e0e6 703e a2ae 95bd
000003e0: 6713 883b 6874 543e 13fe 1c3c 1908 83bc
000003f0: 02b2 373e 7683 99bd def4 dfbb 3471 073e
-1.223524 -0.28977716 -0.3540152 -0.74601376 0.27147865 -0.46961796 -0.3515438 0.1525953
-0.4200308 -0.20196168 0.03340037 -0.39527258 -0.1558978 -0.042178288 -0.4297141 -0.07590282
-0.124869764 -0.48513764 0.054511115 -0.09540908 -0.67690873 0.11341736 -0.056916684 -0.766276
0.13648161 -0.036325365 -0.7569771 0.1850109 -0.039132237 -0.8386976 0.14776379 -0.094963685
-0.95785487 -0.4023581 0.6995168 -0.71545005 -0.86710835 0.84967846 -0.40785074 -0.81775373
0.9991086 0.27521995 -0.60355026 0.63966566 2.8741376 -0.5998342 0.087388285 1.6822947
-0.6102282 -0.026476737 1.3161416 -0.62475675 0.021248076 1.1603278 -0.6185966 0.08105121
1.0228429 -0.48296192 0.057315852 0.8348254 -0.18345845 -0.08311946 0.4827474 -0.07613741
-0.25373498 0.16277696 -0.055868655 -0.18150865 0.3376943 0.08710012 -0.1764298 0.08992953
0.38240734 -0.19012378 -0.024362456 0.45314127 0.050521236 -0.17016165 0.5702789 -0.09993538
0.01772903 0.50798875 -0.1962059 -0.10416245 0.4148919 -0.41349018 -0.18122056 0.32219887
-0.1382145 0.011916157 0.26693678 0.050727148 0.11744615 0.23410271 0.10137367 0.1924122
0.21383649 0.1551985 0.24146514 0.20100808 0.0055774767 0.19329457 0.18409556 0.15391313
0.30785543 0.16700517 0.025776453 -0.02961789 0.16492476 0.062066987 -0.03601414 0.14492239
-0.20338076 0.06376615 0.13094154 -0.2292952 0.055001885 0.12500595 0.06049118 0.089105286
0.11687821 -0.08215437 0.21575256 0.11200024 -0.24265826 -0.24278715 0.108182006 -0.29255524
0.20074257 0.10525776 -0.04220645 0.10610043 0.10129488 -0.019938005 0.06843925 0.09914609
-0.102958344 -0.0580069 0.096634515 -0.009267873 -0.0020621114 0.09493463 -0.0018467797 0.0004888868
0.09307296 -0.000103427155 -0.00020076809 0.09140821 -8.459497e-05 -6.958028e-05 -1.0112957 -0.19292994
-0.16547875 -1.1721349 -0.19672474 -0.18408774 -1.214708 -0.4450235 -0.07963397 -1.7178345
-0.588578 0.004048684 -1.6712731 -0.6982427 0.13307914 -1.6331251 -0.7584642 0.54273814
-0.85284984 -0.76591986 0.5883195 -0.2197928 -0.73816013 0.69746065 0.11461806 -0.68523806
0.43956888 0.25778854 -0.65052587 0.18744351 0.35662556 -0.6592798 -0.052202873 0.4729056
-0.6229057 -0.46660173 0.5847009 -0.60013604 -0.5945407 0.7943643 0.7599508 0.76358813
0.85170263 0.73615974 0.75088465 0.80680865 0.43396735 0.21378565 0.7053319 0.23343611
0.031485416 0.5809402 0.31040156 -0.003971084 0.5072978 0.4208022 -0.024368094 0.4792463
0.43214965 -0.024688551 0.4649955 0.4106188 -0.01783322 0.45113608 0.21652213 0.0030657067
0.41058347 0.5746484 0.59270287 0.38562718 0.50677514 0.6061346 0.3654123 0.33477148
0.3267354 0.34675744 0.2894406 0.17014511 0.32640928 0.113917954 0.04199061 0.30392405
0.05320108 -0.0042045335 0.28172448 0.017964488 -0.01986761 0.26177707 0.16077232 0.07056158
0.25327742 0.17774273 0.15808088 0.24878623 0.1025378 0.10298197 0.23525572 -0.07308699
0.0041527036 0.2074753 0.00958206 -0.015995072 0.17938998 -0.07495777 -0.0068346104 0.13226777

fc_out.bias f4 [334]
00000000: 19d1 1e3c fda9 3abe a8ae 86be 1439 d6be
00000010: 0c7c 4dbf aec2 41be bdd9 9dbd 3581 f7be
00000020: 7ce0 14bf e298 363e a9f4 07be 5322 12bf
00000030: c3a7 63be 7ba5 e3bd 39bc 7ebe 45c3 07be
00000040: a694 34bf 3768 03be 0a90 1abd 0878 f83c
00000050: ea84 77bc 84af 7a3d c4dc 903d aac4 6d3c
00000060: 34b4 fc3d f1ab 8abe ab1e 723e c69f 1f3d
00000070: 5d99 313d f4a1 ab3d efc3 e13b 70bb 5e3d
00000080: a696 843c 0b4c 163e 100c 113e 2a76 1fbe
00000090: 3549 71bd 4443 ad3c 3fdd 1f3e 0504 583e
000000a0: 95d0 42be 3160 e23d a43f 17be 03b6 1c3e
000000b0: 8df6 1e3e f6d5 e53c 540f 30bc a8d0 96bd
000000c0: ff57 673d c850 813d 9066 163e d759 35bd
000000d0: 1af9 513d bc18 923d a0a3 a13d e249 2a3e
000000e0: 6d83 ed3b 5916 e63d 945b 893e 541a de3e
000000f0: 22e2 a6bd c1d5 c33d 69e8 3bbb 63ef cf3d
00000100: 4c74 5bbd c738 143e 434d d53c 29f1 5bbd
00000110: 127b 413d 351c 2ebd 2d5e 1d3d a065 bcbd
00000120: c319 fb3b c285 f03d 737d a4bd ca8a 543e
00000130: e291 f1bd a458 9fbd 3d2f 20bb 7494 e4bd
00000140: d383 1e3e fcf0 0ebd f3e3 083e 9be7 3abe
00000150: 0339 d93d ed68 223d 6c83 203e 53d8 2c3e
00000160: 61e8 75bd 4b7f 633e b6c0 c4bc 164e ffbb
00000170: d468 83bc 1dc2 a93b 97ee 16bd 75b2 273b
00000180: 3b08 513d 451d 143e 7d5b d63d ca0a 313d
00000190: d39e 913e ffe4 1dbe 2afa d8bc 1291 17bd
000001a0: fbc4 a43d d186 bc3d eb3b 0abe 5ed4 dfbd
000001b0: 42c1 38bd 8db5 8dbd 1183 b6bd e0ab babd
000001c0: 4cb8 483e adf7 4a3e 9cf8 d73e b5be 663e
000001d0: 7535 063f 5672 003f 8203 34be d864 293d
000001e0: 3439 d23d 6ac6 483d ad9d 34be 9bc4 aebd
000001f0: d02a a83c 0a2a 6cbd 62b3 bdbd 4a86 c6bd
00000200: 6918 9dbb 5d89 733d 5418 09be f62d 68bd
00000210: 6ef8 40be 9dc5 c83d 174c 0abe f65c acbd
00000220: 82b5 e73d 62ac b8bc 5550 7dbc 3e3f 88bd
00000230: de2d 7ebd 2dd8 d23c a402 29be f753 c73d
00000240: c9e9 593d 5934 42bd 7c24 cf3c b6c4 973d
00000250: ebb5 4e3e 2563 ae3c c3ea b93d f124 573b
00000260: 18f0 57bd 6c96 22bd 66cd b8bc 1017 24bd
00000270: f086 a43d 2d88 c43d 3e4a 9b3d 412b 9c3c
00000280: bea3 27bc 9198 c83d fe18 8e3d 97d7 3ebd
00000290: f6e5 473d 78e2 8d3d c68b 64bd 8512 90bd
000002a0: 88bd b03d fb39 1d3e d44d 85bd e2ef 07bd
000002b0: 5a95 1a3e e85d eebd 1d2f dabb 9e31 7dbb
000002c0: 038e 253e 392e 30be ac87 0ebe 4eab 9dbd
000002d0: 7a41 62be aa7c cdbb 2c9c 873d 979b bc3d
000002e0: cc61 bcbd e4a3 a6bd 8e8c b23c 8cd8 923d
000002f0: 6e29 543e 6881 813d 0c2f 5b3d 1486 073d
00000300: eea9 af3c 459b be3d b0cc 233e f77a 0e3e
00000310: 70f7 913d a183 243e 7b7d 653d cb96 06be
00000320: 7f43 bcbd e116 e0bd f938 0ebe e210 1c3e
00000330: caa0 193e b126 0bbe f7cc 09be 81fe 17be
00000340: 4c0b f1bd 958f 33be 35bf 1c3d 7f3a 813e
00000350: 61cf 793e b619 813e 6e13 bd3e 9888 683d
00000360: b1ad aabd 2169 ecbb 1b7d 783f 18f2 483e
00000370: fe54 b63e 0e9a 5f3b 0dcb a4be 3fe7 9abe
00000380: 74d9 8ebd 1a17 38be 9964 0c3e e0b9 f2bc
00000390: f06e 113c f1f7 b9bd acea c7bd ed4e 90be
000003a0: 8f37 7ebe 868e 81bd 161d 1abc 0cad bbbb
000003b0: a6b6 963d 0a15 febc 2e9f 1fbe f4ea aebc
000003c0: 98bc 83be e941 17be 155c 5fbe d2ce 89be
000003d0: 7836 19be 81ce 93bd edc7 4bbd 2fba 44be
000003e0: 3d63 e3be a021 c23d 593c c53e ce20 233f
000003f0: c937 813e 1831 0abf ac86 a1be 6887 54be
0.009693407 -0.18228908 -0.26305127 -0.41840422 -0.80267406 -0.1892192 -0.07707546 -0.48340765
-0.58155036 0.17831758 -0.13276924 -0.57083625 -0.22231965 -0.11115547 -0.24876489 -0.13258083
-0.7053932 -0.12832724 -0.037735023 0.030330673 -0.015107373 0.06120254 0.07073358 0.01451222
0.123390585 -0.27084306 0.23644511 0.03897073 0.04335915 0.083804995 0.006889812 0.054377973
0.016185116 0.14677446 0.14164758 -0.1557242 -0.058907706 0.021150239 0.15611742 0.21095283
-0.1902488 0.11053503 -0.1477037 0.15303807 0.15523739 0.028056126 -0.010745842 -0.07364017
0.056480404 0.06314236 0.14687562 -0.04427513 0.051262952 0.07133624 0.07892537 0.16629747
0.007248333 0.11234731 0.2682768 0.43379462 -0.081486 0.09562255 -0.0028672463 0.10153081
-0.053577706 0.14474784 0.026037818 -0.053696785 0.04723651 -0.04250737 0.03841989 -0.09199071
0.007662983 0.11744262 -0.0803174 0.20756069 -0.11795403 -0.07780579 -0.0024442219 -0.11161128
0.15479974 -0.03489779 0.13368206 -0.18252413 0.10606577 0.039650846 0.15675133 0.16879396
-0.060036067 0.22216527 -0.024017673 -0.007791291 -0.016041197 0.005180611 -0.03684863 0.0025588546
0.05103324 0.1446429 0.10466669 0.04322318 0.28441486 -0.15419386 -0.026486475 -0.037003584
0.080453835 0.09205402 -0.1349942 -0.10929178 -0.04510618 -0.06919394 -0.08911718 -0.09114814
0.19601554 0.19821043 0.4218186 0.22533686 0.5242532 0.5017446 -0.17579463 0.041355938
0.10264817 0.049017347 -0.17638274 -0.08533593 0.020528227 -0.05765728 -0.0926273 -0.09693582
-0.0047941697 0.05945717 -0.13388187 -0.056684457 -0.18844768 0.09803317 -0.13505588 -0.084161684
0.11313917 -0.022543136 -0.015461047 -0.066526875 -0.06205546 0.025737846 -0.16504914 0.09732812
0.05320147 -0.047413204 0.025285952 0.074105665 0.20186584 0.02128751 0.0907798 0.0032828415
-0.052719206 -0.039694235 -0.02255888 -0.040061057 0.0803355 0.09596286 0.0758252 0.019063594
-0.01023191 0.09794725 0.06938361 -0.04659232 0.048803292 0.06927961 -0.05579736 -0.07034782
0.086299 0.15354149 -0.06508985 -0.033187754 0.15096036 -0.11639005 -0.0066584484 -0.003863431
0.16167454 -0.17205133 -0.13918942 -0.076986894 -0.2209529 -0.0062709646 0.06621584 0.09209364
-0.09198341 -0.081367284 0.021795537 0.07170209 0.20718929 0.063235104 0.053511664 0.03308685
0.021443333 0.09306959 0.15996051 0.13914095 0.07127273 0.16065837 0.05602787 -0.1314346
-0.09192561 -0.10941864 -0.13888921 0.15240815 0.15002742 -0.13588978 -0.13457094 -0.1484318
-0.11769733 -0.17535241 0.038268287 0.2523994 0.24395515 0.25214928 0.36928886 0.05677089
-0.0833391 -0.007214681 0.97065896 0.19623601 0.3561172 0.0034118923 -0.32186165 -0.30254552
-0.0697507 -0.17977563 0.1371025 -0.029629648 0.008876547 -0.09080494 -0.09761557 -0.28185216
-0.24825881 -0.06326012 -0.009406349 -0.005727416 0.07359056 -0.031015892 -0.15588066 -0.021352269
-0.25729823 -0.14771236 -0.2181247 -0.26915604 -0.14962184 -0.07217122 -0.04975121 -0.19211648
-0.4441165 0.0947907 0.38522604 0.6372193 0.25237873 -0.5398116 -0.3154806 -0.20754778
