lstm/model_pt/lstm_traj_sf_3_fold_CV_2500.pt (torch, 205319 bytes, 6 tensors)

rnn.weight_ih_l0 f4 [12, 3]
00000000: dad2 853b 3c02 4ebc ce21 6b3c a558 08be
00000010: c3d2 04be 306e 3b3c e209 c23d 9b41 febd
00000020: a64f e73c e4e9 853c 83ea 5abc 49d5 61bc
00000030: 92f1 a6bb 0d3a 20bd 1fc2 dfba a892 d7bc
00000040: 5517 003d 56bf b7bb d568 3b3d 6ba4 333e
00000050: 8c97 b4bb 8060 dfbd e7dc 82bc 4931 173b
00000060: 3c23 acbd c078 2b3e 0491 3bba 7590 2abe
00000070: b309 a5be 3275 7f3c aed1 6abe 3c3f a53d
00000080: c30b a23c 1b21 113e 925c a3be c154 7f3c
0.0040839734 -0.012573775 0.014351321 -0.13315065 -0.12971024 0.011439845 0.09474541 -0.12414857
0.028236222 0.01634688 -0.013361576 -0.013783761 -0.0050947154 -0.03911786 -0.0017071402 -0.026315048
0.03127225 -0.005607526 0.045754272 0.17543189 -0.00551123 -0.10907078 -0.015974475 0.0023070148
-0.08405158 0.16745281 -0.0007155093 -0.16656668 -0.32233962 0.015591906 -0.22931549 0.080687016
0.019780999 0.14172785 -0.31906563 0.015584172

rnn.weight_hh_l0 f4 [12, 3]
00000000: 4153 8e3e c891 c1be 9aa7 a53e 8e5a 2f3f
00000010: 2a09 53bf 8f16 f3be c072 363f 116d 14bf
00000020: 0fec 0b3f 7d00 9eba eb50 153d 7808 393e
00000030: 7981 453e fb29 7cbe 810b 823c 05f2 c43d
00000040: 6be6 12be cac3 80be bedc 42bf 1d25 f6be
00000050: 2875 93be 23dc 133f 09ff b3bd 1c76 7fbf
00000060: 30bf 21bf 030c 293f e321 89be 5149 f53f
00000070: 02a9 2ebf 4ddd b43e 46cc 373e 5706 1ec0
00000080: a36c 34bf 872d 303f 1a50 683f e246 2840
0.27797893 -0.37806535 0.32354432 0.6849755 -0.8243586 -0.47478148 0.71268845 -0.5797892
0.5465707 -0.0012054589 0.036454123 0.18069637 0.19287671 -0.2462539 0.015874626 0.09616474
-0.1434571 -0.25149375 -0.76118076 -0.4807519 -0.2880032 0.57757777 -0.087888785 -0.99789596
-0.63182354 0.66033953 -0.26783666 1.9162999 -0.68226635 0.3532509 0.17949018 -2.469137
-0.70478266 0.6881947 0.90747225 2.6293263

rnn.bias_ih_l0 f4 [12]
00000000: 5b8a 6140 7d8a 963f 3a88 6f3f 9573 303f
00000010: 60d3 213f ecc2 243f 0ec0 a93e e535 a7be
00000020: 2fcc a83e a047 a43f 9c12 af3f f689 9a3f
3.5240695 1.1761013 0.9356724 0.68926364 0.6321316 0.6435993 0.3315434 -0.32658306
0.3296828 1.2834358 1.3677554 1.2073352

rnn.bias_hh_l0 f4 [12]
00000000: 4585 6140 f88f 963f e958 6f3f f365 303f
00000010: f5d5 213f 4bb6 243f f9a9 a93e 2a16 a7be
00000020: 59e4 a83e 1c3e a43f 8716 af3f 4581 9a3f
3.5237591 1.1762686 0.9349504 0.6890556 0.632171 0.64340657 0.3313749 -0.32634097
0.32986715 1.2831454 1.367875 1.20707

fc_out.weight f4 [334, 151]
00000000: e571 833e f413 dc3e 33ee 7b3e b13b 4a3e
00000010: 79d9 013f cd42 b43e 6f89 513e 1ab0 0a3f
00000020: e422 d13e cdd2 5a3e 53a9 113f d2f5 e13e
00000030: a05b ee3d 26b4 1b3f cd4b ee3e e7ec e9bc
00000040: a817 203f 5b5f f63e 2cff 12be e8dd 1d3f
00000050: 4683 fc3e 783b 7ebd f5c8 1e3f 5115 e33e
00000060: 85be dbbb 6aca 213f 8604 d93e 9054 5a3b
00000070: 2de6 233f 1fbd d33e a2c7 4abc f511 243f
00000080: 6883 db3e a594 20bd 11f3 233f c776 e33e
00000090: 4d0b 40bd b2a3 243f bf9a e23e e5fd 64bd
000000a0: a24b 1e3f b19d 3d3e ac4e 87bd ed68 073f
000000b0: 833e d5be f435 75bd c499 f23e cfc4 0ebf
000000c0: a4c4 77bd 0cd7 e83e 4eed ffbe 6ba0 71bd
000000d0: 8349 e63e 3480 e4be 97f3 6dbd 54df e53e
000000e0: 7cc6 dbbe 6e69 67bd d7da e53e f651 dabe
000000f0: bf61 5bbd 3390 e53e 3e0e dabe dac9 5abd
00000100: a6d0 e43e 14c1 d9be 2dc7 49bd d2a1 e33e
00000110: 80cb d9be 52c1 3abd 063d e33e 00c2 d9be
00000120: 2652 29bd 9124 e33e fac1 d9be 2bdc 20bd
00000130: 8c16 e33e 3cc8 d9be 8143 1cbd 9f1f e33e
00000140: 8bca d9be cba2 17bd 8421 e33e 9ecf d9be
00000150: c9e1 15bd 0a1b e33e d3c4 d9be d362 14bd
00000160: f617 e33e 2ec6 d9be 6161 13bd 1f19 e33e
00000170: 58cf d9be 65e3 12bd 8722 e33e e7c9 d9be
00000180: 5753 12bd f918 e33e 3bc8 d9be fc24 12bd
00000190: f41e e33e 6dc7 d9be b603 12bd 721f e33e
000001a0: 48cf d9be 1451 12bd 2d1f e33e 03cb d9be
000001b0: 1d3d 12bd ff15 e33e 46d4 d9be e2f7 11bd
000001c0: 2315 e33e 9fd1 d9be 0b35 12bd db1e e33e
000001d0: cdd9 d9be 6240 12bd 0c20 e33e aecf d9be
000001e0: e5e9 11bd 901b e33e 33d8 d9be d4e5 11bd
000001f0: fc1e e33e 43d5 d9be 7034 12bd b91d e33e
00000200: 3fdb d9be 9b3d 12bd 341c e33e 23dd d9be
00000210: bd36 12bd a21e e33e 32d5 d9be 2405 12bd
00000220: a31e e33e aad6 d9be 8e0d 12bd d819 e33e
00000230: b9d5 d9be d823 12bd dc1c e33e 9ad8 d9be
00000240: 3815 12bd e61f e33e 8fe0 d9be 2629 12bd
00000250: d317 e33e 1cd9 d9be ef74 aebf 0f62 42be
00000260: 30c8 013f f9fd 173f 8450 bbbe 85f2 c73e
00000270: dee3 353f 6a50 d2be 01ae f1bd 9adf 293f
00000280: 4f9d d9be e07c e0be 8265 113f b4c2 ddbe
00000290: fd3c 00bf e8b4 fe3e e027 e2be 9706 fbbe
000002a0: b2fa 913e 0b75 e5be 4481 e5be 728b 70bc
000002b0: 49b8 e4be 97c2 c4be 52c5 69be 11a7 d5be
000002c0: 18f9 8dbe 5b7a c2be 33e7 cbbe 7025 05be
000002d0: 5c4e d3be 09ec c2be 3d56 ddbc 0831 b8be
000002e0: 078e 93be 2b13 b7bd 5492 67be da5b 75be
000002f0: 9e7e 2ebc 73eb 68be 3d81 75be c2f3 153f
00000300: 319a 0bbf 7c90 71be db35 083f 11a2 dfbe
00000310: 76ea 6bbe 8c6d de3e fd9d bdbe b3ee 6bbe
00000320: 9eaa c13e 9b4e b3be 5a32 6bbe 4e08 bb3e
00000330: d59a b0be 93b4 6abe acd2 b93e 531e b0be
00000340: 05db 6bbe 16aa b93e 811c b0be cd27 62be
00000350: 8c51 b93e 101d b0be a102 5cbe ac62 b83e
00000360: aec8 afbe 3469 58be 7ca0 b53e adc2 afbe
00000370: 0de2 54be 75d8 b43e a6ca afbe 7c4a 52be
00000380: 27b5 b43e dbc6 afbe 9fe0 50be f4b9 b43e
00000390: 7ecd afbe affb 4ebe 7bba b43e 13d0 afbe
000003a0: 5015 4bbe 3bb8 b43e aac3 afbe 08d4 48be
000003b0: a1b7 b43e e3c3 afbe ece7 47be 9ebc b43e
000003c0: 45cc afbe 9853 47be 9dbd b43e 03c6 afbe
000003d0: 48fd 46be b8b3 b43e 87c7 afbe 44bb 46be
000003e0: 3eb3 b43e e7ce afbe f5ad 46be b5bb b43e
000003f0: b8c4 afbe 3fab 46be 6bb7 b43e b5cc afbe
0.25672832 0.42983973 0.24602585 0.19749333 0.5072246 0.35207215 0.20462583 0.5417496
0.40846932 0.21369477 0.56898993 0.4413286 0.1163857 0.6082176 0.46542206 -0.028555347
0.62536097 0.48119625 -0.14355153 0.6166673 0.49318904 -0.062068433 0.62025386 0.443522
-0.0067060613 0.63199484 0.42386264 0.0033314563 0.64023095 0.41355225 -0.012376698 0.640899
0.42873693 -0.03920426 0.64042765 0.44426557 -0.046885777 0.6431228 0.44258687 -0.055906195
0.61834157 0.18517186 -0.06606802 0.5289448 -0.41649255 -0.059865907 0.4738294 -0.55769056
-0.060490265 0.45476568 -0.49985737 -0.058990877 0.4497796 -0.4462906 -0.058093634 0.44896948
-0.4292487 -0.05649703 0.44893524 -0.42640656 -0.053560015 0.44836578 -0.4258899 -0.053415157
0.44690436 -0.4253012 -0.049262214 0.44459397 -0.4253807 -0.04559452 0.44382495 -0.42530823
-0.04133811 0.44363835 -0.42530805 -0.03927247 0.4435314 -0.4253558 -0.038150314 0.44360062
-0.4253734 -0.037020486 0.44361508 -0.42541212 -0.03659228 0.44356567 -0.42532977 -0.03622706
0.44354218 -0.42534012 -0.03598154 0.44355103 -0.42541003 -0.03586139 0.4436228 -0.42536852
-0.03572401 0.4435499 -0.42535576 -0.035679802 0.44359553 -0.42534962 -0.03564807 0.44359928
-0.42540956 -0.035721853 0.44359723 -0.42537698 -0.035702813 0.4435272 -0.42544764 -0.03563679
0.44352064 -0.4254274 -0.035695117 0.44359478 -0.4254898 -0.03570593 0.44360387 -0.4254126
-0.03562345 0.44356966 -0.4254776 -0.03561957 0.44359577 -0.42545518 -0.03569454 0.44358614
-0.42550084 -0.035703283 0.44357455 -0.42551526 -0.035696734 0.44359308 -0.42545468 -0.035649434
0.4435931 -0.42546588 -0.035657458 0.44355655 -0.4254587 -0.035678715 0.44357955 -0.42548066
-0.035664767 0.44360274 -0.42554137 -0.035683773 0.44354114 -0.42548454 -1.3629435 -0.18982719
0.50696087 0.59371907 -0.36584866 0.39052215 0.7105082 -0.41076976 -0.11800767 0.66356814
-0.4250283 -0.43845272 0.56795514 -0.4331261 -0.5009306 0.49747396 -0.44171047 -0.49028465
0.28511578 -0.4481586 -0.44825184 -0.014681684 -0.44671848 -0.3842971 -0.22829178 -0.41729024
-0.27729106 -0.37983975 -0.39824829 -0.13002563 -0.4127072 -0.38070706 -0.02701866 -0.35974908
-0.28819296 -0.08939203 -0.22614413 -0.2396082 -0.010650305 -0.22746067 -0.23975082 0.5857507
-0.5453215 -0.23590273 0.53207177 -0.43678334 -0.23038658 0.43442953 -0.37034598 -0.23040275
0.37825483 -0.3502091 -0.22968426 0.36529773 -0.34493127 -0.22920446 0.36293542 -0.34398136
-0.23032768 0.36262578 -0.34396747 -0.22085495 0.36195028 -0.34397173 -0.21485378 0.3601278
-0.34332794 -0.21133882 0.35474002 -0.34328213 -0.20789357 0.35321394 -0.34334296 -0.20536226
0.35294458 -0.34331402 -0.20398186 0.3529812 -0.34336466 -0.20213197 0.35298523 -0.34338436
-0.19832349 0.35296807 -0.34328967 -0.19612134 0.35296348 -0.34329137 -0.19522065 0.35300153
-0.34335533 -0.19465482 0.35300913 -0.34330758 -0.19432557 0.35293365 -0.34331915 -0.19407374
0.35293 -0.3433754 -0.19402297 0.3529946 -0.34329772 -0.19401263 0.35296187 -0.34335867

fc_out.bias f4 [334]
00000000: 2d17 e43e 76de b43e e87e 9b3e bb73 8f3e
00000010: 6727 993e 2d2b 823e 0b17 9d3e 3c46 c33e
00000020: 189e 1a3e 757f 6c3e 9bf6 663e cd1c 553e
00000030: c18b 653e d6b8 fa3d 9a5f 3e3e f758 c83d
00000040: e860 933e 1f0a 123f 2329 033e 08b2 f93d
00000050: 7300 113e 4e95 3f3e b855 d13e 7a36 583e
00000060: 7e0f 023e ea66 993e 9059 473e b461 173e
00000070: 1684 873e 805d 333e ecbf 523e 302f 7c3e
00000080: 8580 6c3e 0d25 2a3e 4db7 633e 6360 dd3d
00000090: 486b 523e df69 803d b0fc 273e 173f 7a3e
000000a0: 0a59 f13e d2e7 c63e 9662 bd3d 188f dc3d
000000b0: b1a2 7a3e c3f0 ef3d 3421 ab3d a301 183e
000000c0: 22a0 753e 9f82 3c3e 915b 633e d92c c23e
000000d0: f74b c43e 6e5d 593d d837 863e 18e8 343d
000000e0: 5d51 043e a1d1 1b3e 9127 f13d b018 033e
000000f0: a2b9 b73d 55c4 7b3d 7f26 af3d 5916 2b3e
00000100: cbf4 093e 87c0 d53c a59f b13d 7ae7 943d
00000110: 5933 56bd 982b cb3d 73b2 9a3d 858f 003e
00000120: 7787 463d c1f1 053e 1afe 993d ac16 fa3d
00000130: ca62 833d 6781 b23d a72b 5c3d 9196 073e
00000140: 0304 0a3e 9a61 223e 495d df3c 69ef 403d
00000150: 5576 7f3d f274 eb3c dde6 b53d e127 b93d
00000160: f825 c43d e5f2 13bd 7dd6 26bd be82 2abd
00000170: d0f4 4e3d b5bc 373e bee3 f53e 737c b93e
00000180: e7cd b93b 3b30 813b 3370 d73e 6071 503e
00000190: 9a9a c93d 0f99 0abc f100 a93b 5ec3 fcbd
000001a0: cc9a 793d 458a c5bc 9cca a13d 060a 3fbd
000001b0: 4438 833d 5de7 4bbd eac3 7c3e 9aa3 1d3c
000001c0: f58f 383e 3442 40bd cdb5 a83d 2f01 79bd
000001d0: 7b56 333e ebe1 88bc 3aa0 ac3d df1d 63bd
000001e0: ef25 f23d f503 09be fe25 b33d 1fea 873d
000001f0: 8e39 b13d 53bc 3d3b 3f0f cc3d 7907 023c
00000200: 4076 793e daba 1fbc a8e2 b5bd 62b7 9e3c
00000210: aea4 2c3e f429 bd3d e96d 2cbd 5e11 05bd
00000220: 7ae3 b63d 0d49 173d a141 fb3c ec66 3cbd
00000230: 1c65 a13d fd5d 9d3c 4928 783d 393f 0d3e
00000240: e280 0dbc d5b5 99bc d8a9 a0bd 68be 4e3e
00000250: 1df1 253d 3470 df3c f897 013c f533 0e3e
00000260: 7222 96bd 7318 123d 4ac4 3ebc 71da 883d
00000270: 41bb 373d 39e8 0b3e 6b82 633d c176 333d
00000280: 9403 663d 6289 5ebd ddc8 0d3e a517 4e3b
00000290: 3d43 62bc aaeb 4abd f688 c4bd eb0d d53d
000002a0: 8d4f 32be 0a0f 4f3d 8ddf 253d f4ef 11bd
000002b0: a109 393e 9e05 13be a006 583e 6544 61be
000002c0: d822 0bbe 05ad 553d 8788 c4bd 8280 89bd
000002d0: 8e7e 693d b357 42be d403 ba3a 6be1 e8bd
000002e0: 99ef aabd e562 d1bd 8e61 7f3c 7ecd 84bd
000002f0: 0106 d1bd a5ff dcbc aec0 b63d 058a 0ebe
00000300: ed47 2abd b0e0 0cbd 467d 25bd 4cbb e9bd
00000310: 776b afbd f047 06be 8219 babd 1c1a 36bd
00000320: 19df e6bd 1709 d13c f1a0 c9bd aa11 e23c
00000330: d14d fdbc f903 dc3d af36 43bd 475c fdbd
00000340: f919 aebc dc79 2cbd c33f a53d 0816 823d
00000350: 76c0 6abe 7f24 5e3d da62 9e3d 51a4 d23b
00000360: ad2b 0d3d 561a b2bd 8bc6 56bd 6ea9 41be
00000370: c2b3 debd c457 09be 037a 4fbd d059 22be
00000380: 3676 8c3a 5daf 85be f865 97bc 5b65 37be
00000390: 20bb c73d e913 6b3d 7859 563d 7603 ad3b
000003a0: 71ad c93d 44ca b43c 275c 463d b363 0f3d
000003b0: 05c3 a3bd d68b bd3a 72ca b1bd 0feb 973d
000003c0: 7611 febd e9b3 bd3c b2d5 523d ddd8 1c3d
000003d0: aacb 82bd e862 d0bc 23e3 483d f1a6 bb3d
000003e0: c04f 8f3b 88cb 893a fd72 0cbe 8e05 173c
000003f0: 54c4 6fbd 05e6 0f3d 2363 a9bd da26 98bd
0.44548932 0.35325974 0.3037026 0.28017983 0.29912874 0.25423566 0.30681643 0.38139522
0.1509937 0.23095496 0.2255501 0.20811768 0.22416593 0.12242286 0.18591157 0.09782594
0.2878487 0.57046694 0.12808661 0.1219216 0.14160328 0.18709299 0.4088571 0.21114531
0.12701222 0.2996133 0.19467759 0.14783365 0.2646796 0.17516136 0.20581025 0.24627376
0.23095901 0.16615696 0.22237892 0.108094 0.20548737 0.06270193 0.16404986 0.2443813
0.47138244 0.3884874 0.092473194 0.107694805 0.24476124 0.117158435 0.08355942 0.14844374
0.23986867 0.18409203 0.22202899 0.3792484 0.38339207 0.053067617 0.2621448 0.044166654
0.12921663 0.15216686 0.11775125 0.12802386 0.089709535 0.061466534 0.085522644 0.16707744
0.13472287 0.02609278 0.08673028 0.07270713 -0.052295063 0.09920424 0.07553568 0.12554748
0.048469033 0.13080503 0.07519169 0.122113556 0.06415327 0.08716088 0.053752568 0.1324103
0.13478093 0.15857545 0.027266162 0.04710332 0.06236871 0.028742287 0.08881924 0.090408094
0.095775545 -0.036120314 -0.040731896 -0.04162859 0.05052644 0.1794308 0.48025316 0.3622776
0.0056702974 0.003942517 0.4207779 0.20355749 0.09843941 -0.008459344 0.005157583 -0.12341951
0.06093864 -0.024113784 0.07899973 -0.04664042 0.06407216 -0.049781192 0.2468411 0.009621525
0.18023665 -0.046938136 0.08237801 -0.060792144 0.17513458 -0.016709289 0.08428998 -0.05544841
0.118236415 -0.13380416 0.08747481 0.06636452 0.08653556 0.0028951361 0.099638455 0.007936352
0.24361515 -0.009749139 -0.08881122 0.019374553 0.16859695 0.092365175 -0.042097006 -0.032487266
0.089301065 0.0369349 0.030670943 -0.04599659 0.07880613 0.019209856 0.060585294 0.13793649
-0.008636685 -0.018763462 -0.07844895 0.20189822 0.040513147 0.027275182 0.007909767 0.13887008
-0.07330789 0.035667848 -0.011643479 0.066822894 0.044856314 0.13662805 0.0555443 0.043814424
0.056155756 -0.054330237 0.13846155 0.0031447199 -0.013809976 -0.049541153 -0.09596436 0.10403045
-0.17413159 0.05055145 0.040496398 -0.035629228 0.1807008 -0.14357612 0.21096277 -0.21998747
-0.1358751 0.052166957 -0.09596353 -0.06713964 0.057005458 -0.18978767 0.0014191815 -0.1137112
-0.08346481 -0.10223941 0.015587224 -0.06484507 -0.10206223 -0.02697737 0.089234695 -0.13919838
-0.0415725 -0.034393966 -0.040402673 -0.11412677 -0.08565419 -0.1311338 -0.090868965 -0.044458494
-0.11273021 0.02551703 -0.0984515 0.027596314 -0.030920895 0.10742945 -0.047659572 -0.12371116
-0.02125262 -0.0421084 0.08068802 0.063518584 -0.2292498 0.054234024 0.07733698 0.0064282794
0.03446548 -0.086964294 -0.05243544 -0.18912289 -0.1087413 -0.13412386 -0.05065347 -0.15854573
0.0010716382 -0.26110354 -0.01848124 -0.17909758 0.09752488 0.057392035 0.052331418 0.0052799536
0.098475344 0.022069104 0.048427727 0.03500719 -0.079961814 0.001446123 -0.086811915 0.07417881
-0.12405674 0.023157077 0.051473327 0.038292754 -0.06386502 -0.025437787 0.04904474 0.09162701
0.0043735206 0.0010512928 -0.1371574 0.009217633 -0.058536842 0.035131473 -0.08270862 -0.07429285
