lstm/model_pt/lstm_traj_sf_lf_dm_5_fold_CV_2200.pt (torch, 210725 bytes, 6 tensors)

rnn.weight_ih_l0 f4 [12, 3]
0	0xbea29ff5	-0.31762663
1	0x3e87191c	0.26386344
2	0xbe9d645d	-0.30740634
3	0x3da25087	0.079255156
4	0xbe02de88	-0.12780201
5	0x3d72d0e0	0.05928123
6	0xbee2a6c0	-0.44267845
7	0xbf09fe52	-0.53903687
8	0xbf91d67b	-1.1393579
9	0x3e3cae58	0.18425882
10	0x3e82029c	0.25392616
11	0x3e38e619	0.18056525
12	0x3f19f7e3	0.6014387
13	0x3f234f21	0.63792616
14	0x3d4c2f1b	0.04984961
15	0x3d317347	0.043322828
16	0x3e58a5dc	0.2115702
17	0x3f4e6ca9	0.8063455
18	0x3e5c60ae	0.21521255
19	0xbec5fc73	-0.38669166
20	0x3af0ef4e	0.0018381865
21	0x3f715cb0	0.94282055
22	0x3d86d68c	0.0658389
23	0x3c188f20	0.009311467
24	0x3f15a4cf	0.584546
25	0x3f565dae	0.83736694
26	0xbca74d2b	-0.020422539
27	0xbe9c4e0c	-0.30528295
28	0x3d9555da	0.072917655
29	0xbf98eef5	-1.1947924
30	0x3f710d00	0.9416046
31	0x3e338c28	0.17533934
32	0xbcfa8911	-0.030582936
33	0x3eef9372	0.4679218
34	0x3ed9f458	0.42569232
35	0x3eb14fb8	0.34631133

rnn.weight_hh_l0 f4 [12, 3]
0	0x3fa63257	1.2984113
1	0xbe27c458	-0.16383493
2	0xbd384ab9	-0.044993136
3	0x3cae9221	0.021309914
4	0xbe362b27	-0.17789899
5	0x3e11c89d	0.14236684
6	0xbd8b163c	-0.0679135
7	0x3d46bd7a	0.048520543
8	0x3f950bb2	1.1644194
9	0xbddd4c24	-0.10805538
10	0xbed50aa0	-0.4160967
11	0x3ec258fd	0.37958518
12	0x3e8ae060	0.2712431
13	0xbee7fc07	-0.4530947
14	0xbfa0c461	-1.255993
15	0x3edc50e9	0.4303048
16	0xbea77204	-0.32704175
17	0xbe3a7016	-0.1820682
18	0x3dc29a0c	0.09502038
19	0xbe8153e0	-0.25259304
20	0x3df1566a	0.1178406
21	0x3f63e371	0.89018923
22	0xbdc3f78d	-0.09568701
23	0x3e7b7e64	0.24559933
24	0x3ec4a602	0.38407904
25	0xbe732c4e	-0.2374737
26	0xbeb6c3d5	-0.35696283
27	0x3e7221df	0.23645733
28	0xbf61eee2	-0.8825513
29	0x3f214000	0.6298828
30	0x3e0c5e75	0.13707907
31	0xbccbdfeb	-0.024887046
32	0x3e73b8c2	0.23800948
33	0xbe18df98	-0.14929044
34	0xbec35bc5	-0.38155952
35	0xbd16edea	-0.036847986

rnn.bias_ih_l0 f4 [12]
0	0x3f9d6d52	1.2298987
1	0x40d35edb	6.605329
2	0x3f808e34	1.0043397
3	0x3f84e1ef	1.038145
4	0x3f887c8a	1.0663006
5	0x3fc9e28b	1.577226
6	0x3ba20f08	0.0049456395
7	0xbe0a879a	-0.1352829
8	0xbd893dce	-0.067012414
9	0x3fe7e037	1.81153
10	0x4007d3a9	2.1222937
11	0x406c7fe1	3.695305

rnn.bias_hh_l0 f4 [12]
0	0x3f9d71ef	1.2300395
1	0x40d32272	6.5979548
2	0x3f806eee	1.0033853
3	0x3f849891	1.035906
4	0x3f877bf2	1.05847
5	0x3fca2ae6	1.5794342
6	0x3c388a38	0.011263423
7	0xbe0eb42e	-0.1393592
8	0xbd944c4a	-0.072411135
9	0x3fe7f569	1.8121768
10	0x4007f7c1	2.1244967
11	0x406c5264	3.6925287

fc_out.weight f4 [334, 155]
0	0x3ef6def9	0.4821699
1	0xbd796f9b	-0.06089745
2	0xbde9178a	-0.11381443
3	0x3cc68fe0	0.024238527
4	0xbdddc958	-0.10829419
5	0x3d9759a7	0.07390147
6	0xbe689c8a	-0.22715965
7	0xbdec4b22	-0.11537768
8	0x3e3368d5	0.17520459
9	0xbea8ea16	-0.32991093
10	0xbde73b0b	-0.112905584
11	0x3e028322	0.12745336
12	0xbeb4f526	-0.35343283
13	0xbddf977c	-0.10917565
14	0xbb129eae	-0.0022372412
15	0xbec10497	-0.37698814
16	0xbdd2a95a	-0.102862075
17	0xbdfa59de	-0.12224172
18	0xbece9ea8	-0.4035542
19	0xbdc98938	-0.098406255
20	0xbe8f3160	-0.27967358
21	0xbee15601	-0.44010928
22	0xbdc49095	-0.09597889
23	0xbec3313a	-0.38123494
24	0xbef93568	-0.48673558
25	0xbdca7a20	-0.09886575
26	0xbed148af	-0.40875766
27	0xbf0e74b1	-0.55646807
28	0xbdd15d66	-0.102228925
29	0xbeceb7b9	-0.40374544
30	0xbf2adad3	-0.6674015
31	0xbddf5cf4	-0.10906401
32	0xbec78d2e	-0.389749
33	0xbebdc898	-0.37067103
34	0x3dfb3e60	0.122677565
35	0xbdff737c	-0.12473199
36	0xbca5c345	-0.020234713
37	0x3ead7d51	0.3388467
38	0x3db34421	0.08753229
39	0x3dde0339	0.108404584
40	0x3ead9cde	0.33908743
41	0x3ea969a4	0.3308841
42	0x3edac176	0.42725724
43	0x401ca7f8	2.447752
44	0x3e813098	0.25232387
45	0x3ed93e12	0.42430168
46	0x3eb78083	0.35840234
47	0xbd492619	-0.0491086
48	0x3ec3bdd1	0.38230756
49	0x3e759844	0.23983866
50	0xbddc758f	-0.1076461
51	0x3eba4f3a	0.3638857
52	0x3e3614fd	0.17781444
53	0xbe18d622	-0.14925435
54	0x3eb19030	0.3468032
55	0x3e33f458	0.17573678
56	0xbe3f8297	-0.1870216
57	0x3e9fd854	0.31219733
58	0x3db46609	0.08808524
59	0xbe57dd24	-0.21080452
60	0x3e85607a	0.26050168
61	0xbd4a34ba	-0.04936669
62	0xbe5f3e1d	-0.21801038
63	0x3e5501f3	0.20801525
64	0xbdab9e2e	-0.0837978
65	0xbe58096b	-0.21097343
66	0x3e2ef89b	0.17087023
67	0xbdb6ec99	-0.08931846
68	0xbe4f98fd	-0.20273204
69	0x3e10a484	0.14125258
70	0xbda8a5a8	-0.082347214
71	0xbe3eed7a	-0.18645278
72	0x3dea8a5d	0.11452172
73	0xbda137f8	-0.07872003
74	0xbe143d9a	-0.14476624
75	0x3dca0f29	0.09866173
76	0xbd9a6343	-0.07538464
77	0xbdf642ff	-0.12024497
78	0x3db39f60	0.08770633
79	0xbd97b98e	-0.074084386
80	0xbdd92370	-0.10602462
81	0x3da4e135	0.08050767
82	0xbd96e9a3	-0.073687814
83	0xbdc88525	-0.0979102
84	0x3d9dc4eb	0.07703575
85	0xbd968058	-0.073486984
86	0xbdb6dcb1	-0.08928812
87	0x3d96432e	0.07337032
88	0xbd958f9a	-0.073027804
89	0xbdac3eb2	-0.08410396
90	0x3d938b2e	0.07204281
91	0xbd9718fd	-0.07377813
92	0xbda655c4	-0.08121827
93	0x3d91c7e4	0.07118204
94	0xbd95cdca	-0.07314642
95	0xbd9f33a5	-0.07773522
96	0x3d8feb6d	0.07027326
97	0xbd94cc0f	-0.072654836
98	0xbd99c9d6	-0.075092
99	0x3d8cecb3	0.06881084
100	0xbd93a56e	-0.072092876
101	0xbd989a0f	-0.07451259
102	0x3d8d7aa5	0.06908158
103	0xbd90cad2	-0.07069935
104	0xbd956d01	-0.072961815
105	0x3d8bb233	0.06821098
106	0xbd90a145	-0.0706201
107	0xbd930a4d	-0.07179699
108	0x3d8c46f2	0.06849469
109	0xbd8edab7	-0.0697531
110	0xbd8fa85c	-0.07014534
111	0x3d8c0e97	0.0683872
112	0xbd8e269c	-0.06940958
113	0xbd906d02	-0.070520416
114	0x3d8cba01	0.06871415
115	0xbd8ed787	-0.06974702
116	0xbd8df782	-0.06931974
117	0x3d8bdd4b	0.06829318
118	0xbd8ed29b	-0.069737636
119	0xbd8d6c47	-0.06905418
120	0x3d8b4f1e	0.068022
121	0xbd8db031	-0.069183715
122	0xbd8f2f69	-0.06991465
123	0x3d8b4178	0.067995965
124	0xbd8f6dd8	-0.07003373
125	0xbd924744	-0.07142499
126	0x3d8c570f	0.068525426
127	0xbd901fae	-0.070372924
128	0xbd95350b	-0.07285508
129	0x3d8a67ac	0.06758055
130	0xbd93b73e	-0.07212685
131	0xbd9a6d96	-0.07540433
132	0x3d8a5b07	0.06755643
133	0xbd96f2ed	-0.07370553
134	0xbda5fd3a	-0.0810494
135	0x3d8a10b7	0.06741469
136	0xbd9cd1b1	-0.07657183
137	0xbdb650b6	-0.08902113
138	0x3d8b0609	0.067882605
139	0xbda5280b	-0.08064278
140	0xbdd09eaa	-0.10186513
141	0x3d8a6060	0.06756663
142	0xbdadef37	-0.08492892
143	0xbdfd1486	-0.1235743
144	0x3d8b74b4	0.06809369
145	0xbdbc3004	-0.09188846
146	0xbe218ef0	-0.15777183
147	0x3d8a288d	0.06746016
148	0xbdd8068c	-0.10548124
149	0xbe569dc6	-0.20958623
150	0xbf280523	-0.6563284
151	0xbe8a76c9	-0.2704375
152	0xbf5eb806	-0.8699955
153	0x3f6c218a	0.92238677
154	0x3e873684	0.2640878
155	0xc03d57ec	-2.9584913
156	0xbf015114	-0.5051434
157	0xbea415bd	-0.32047835
158	0xc009444c	-2.1447935
159	0xbea57321	-0.323144
160	0xbeb8eac5	-0.36116615
161	0xbf9745b3	-1.1818146
162	0xbe53aa70	-0.20670485
163	0xbea7e27f	-0.3278999
164	0xbe854513	-0.26029262
165	0xbe1fb4eb	-0.15596358
166	0xbe9c4e41	-0.30528453
167	0x3eb4336d	0.35195485
168	0xbe0c2b9d	-0.13688512
169	0xbe9aad3f	-0.302103
170	0x3f239ade	0.63908184
171	0xbe18ccdd	-0.14921899
172	0xbe90d18f	-0.2828488
173	0x3f3d2b97	0.7389464
174	0xbe3add5b	-0.18248503
175	0xbe8a5a3e	-0.27021974
176	0x3f479dab	0.7797496
177	0xbe6ee518	-0.2332958
178	0xbe956ab2	-0.29182965
179	0x3f3d7c5e	0.74017894
180	0xbe98ccee	-0.2984385
181	0xbe9061b9	-0.28199556
182	0x3f2f7750	0.6854143
183	0xbec8c516	-0.39212865
184	0xbe90bf9e	-0.28271192
185	0x3f21af27	0.63157886
186	0xbf03ff9b	-0.515619
187	0xbe98b55a	-0.2982586
188	0x3ed59a9e	0.41719526
189	0xbec4c666	-0.38432616
190	0xbdbb517f	-0.091464035
191	0x3e7475cc	0.23873061
192	0xbe320e73	-0.17388324
193	0x3e817af3	0.25289115
194	0xbd225eaa	-0.03964106
195	0x3f28180e	0.65661705
196	0x3fa8ceba	1.3188088
197	0xbd46754d	-0.04845171
198	0x3fb25e0d	1.3934952
199	0x3f1fa8ec	0.6236713
200	0x3b93930b	0.004503613
201	0x3e017b5e	0.12644717
202	0xbe2bab15	-0.16764481
203	0x3d938452	0.072029725
204	0xbbc125be	-0.005894392
205	0xbe8a0cf8	-0.2696302
206	0x3e1d2c7f	0.15349005
207	0xbdd64028	-0.104614556
208	0xbeb47dcc	-0.35252225
209	0x3e7199bc	0.23593801
210	0xbe29c877	-0.16580378
211	0xbee4cc32	-0.4468704
212	0x3e6c9198	0.23102415
213	0xbe0e32c0	-0.13886547
214	0xbef5604f	-0.4792504
215	0x3e32017d	0.1738338
216	0xbe6316c7	-0.22176658
217	0xbed36266	-0.4128601
218	0x3e01e5ba	0.1268529
219	0xbe742a97	-0.23844372
220	0xbebb530f	-0.36586806
221	0x3dc31242	0.09524967
222	0xbe48eb13	-0.19620924
223	0xbe9bcf4d	-0.30431595
224	0x3d8d8ba0	0.06911397
225	0xbe02053a	-0.12697306
226	0xbe54bd3e	-0.20775315
227	0x3d5c13b4	0.053729728
228	0xbd91796f	-0.0710324
229	0xbe12ea91	-0.14347292
230	0x3d222598	0.039586633
231	0xbd333710	-0.043753684
232	0xbdd9fc45	-0.1064382
233	0x3cdacab8	0.026707992
234	0xbce02297	-0.027360244
235	0xbda1a7b5	-0.07893316
236	0x3c7d6fb8	0.01546853
237	0xbc953060	-0.018211544
238	0xbd7ab745	-0.061209936
239	0x3c04bb89	0.0081013525
240	0xbc995ae6	-0.018720102
241	0xbd4c7766	-0.049918555
242	0x3bcc1a69	0.0062287343
243	0xbca520a2	-0.020157162
244	0xbd32a998	-0.04361877
245	0x3bc39d3c	0.0059696715
246	0xbc8b9fc8	-0.017043963
247	0xbd1384d5	-0.03601535
248	0x3b98769a	0.0046528103
249	0xbc85e7f6	-0.01634596
250	0xbcf9797e	-0.03045344
251	0x3bc181d6	0.00590537
252	0xbc69316b	-0.014232974
253	0xbcd18f39	-0.02558099
254	0x3b7c98a9	0.003854314
255	0xbbc50765	-0.0060128444

fc_out.bias f4 [334]
0	0x3d89120a	0.06692894
1	0xbdbdd2f8	-0.09268755
2	0xbdadd78e	-0.084883794
3	0xbf473b00	-0.778244
4	0xbf667743	-0.9002573
5	0xbe407a27	-0.18796597
6	0xbf749028	-0.95532465
7	0xbf4eeb9e	-0.80828273
8	0xbb99c236	-0.004692341
9	0x3be8df69	0.0071067107
10	0xbd8f8510	-0.070078015
11	0xbd7b524d	-0.061357785
12	0x3ce875d9	0.028376507
13	0xbe7f567d	-0.24935336
14	0xbf2ea3a1	-0.6821843
15	0xbf9170fd	-1.1362606
16	0xbe2f58c9	-0.17123713
17	0xbe2ce46c	-0.16884011
18	0x3d76cd04	0.060254112
19	0xbe735e40	-0.23766422
20	0x3c7300f8	0.014831774
21	0x3cc66dad	0.02422222
22	0xbda9997d	-0.08281229
23	0xbdd80112	-0.10547079
24	0xbe312e0f	-0.17302726
25	0xbda19c25	-0.0789111
26	0xbd9916be	-0.07475041
27	0xbc87ff74	-0.016601302
28	0xbdbab7d7	-0.09117096
29	0xbd2b9edf	-0.04189956
30	0xbc13af6c	-0.009013992
31	0xbb4013f8	-0.0029308777
32	0xbb5f8b79	-0.0034110232
33	0xbdc706d2	-0.09718098
34	0xbe4c14b6	-0.19929776
35	0xbf01fa0f	-0.50772184
36	0xbe2f3704	-0.1711083
37	0xbcc9ab56	-0.024617832
38	0xbdd5dc06	-0.10442357
39	0xbca0997f	-0.019604443
40	0x3e68abe4	0.22721821
41	0xbd9e4a0f	-0.07728969
42	0xbbad3392	-0.0052856887
43	0x3c1c9619	0.00955727
44	0xbceeb10e	-0.02913716
45	0xbe72e146	-0.23718747
46	0xbb50d039	-0.0031862392
47	0x3d58eb38	0.052958697
48	0xbafd1f57	-0.0019311708
49	0x3d204211	0.039125506
50	0xbd857aa1	-0.0651753
51	0xbd4788d7	-0.048714485
52	0xbdb6e299	-0.08929939
53	0x3adc1979	0.0016792259
54	0xbd5745fb	-0.052556973
55	0x3bab61f2	0.005230182
56	0xbe050e19	-0.12993659
57	0xbe1ba61f	-0.15200089
58	0xbd8fd865	-0.07023696
59	0xbc961acd	-0.018323326
60	0xbcf12d0a	-0.029440422
61	0xbd08cc6a	-0.03339807
62	0xbb700392	-0.0036623222
63	0x3cea3c4c	0.028593205
64	0x3cbc1bbc	0.022962444
65	0x3c64f42a	0.013974229
66	0xbd20c0c9	-0.039246354
67	0xbd92fdad	-0.07177291
68	0xb9cafafb	-0.00038715437
69	0xbd828c19	-0.06374378
70	0xbd274409	-0.040836368
71	0xbd724037	-0.05914327
72	0x3d8f5821	0.06999231
73	0xba22bc8d	-0.0006207906
74	0xbe1cd1a9	-0.15314354
75	0xbc560eec	-0.013065081
76	0xbf115d4e	-0.56782997
77	0xbeaabb8a	-0.33346206
78	0xbdcd59e7	-0.10026913
79	0xbe8e5850	-0.27801752
80	0xbe560b2b	-0.20902698
81	0x3c4c0365	0.012451981
82	0xbde2f4e2	-0.11081864
83	0xbddccce0	-0.10781264
84	0xbeb34706	-0.35015124
85	0xbd981e72	-0.07427682
86	0x3b742cb2	0.0037258086
87	0xbdf5cc08	-0.120018065
88	0x3ce1e86b	0.027576646
89	0xbc5854b9	-0.013203793
90	0xbd343aad	-0.04400127
91	0xbeabfab6	-0.33589715
92	0x3dc4b79a	0.09605332
93	0x3e475874	0.19467336
94	0x3d888094	0.06665149
95	0x394b4338	0.0001938463
96	0x3cadb568	0.021204665
97	0x3d62b21d	0.055345643
98	0xbe08a6b5	-0.13344844
99	0xbd72626e	-0.0591759
100	0xbd16dac5	-0.03682973
101	0xbd93e387	-0.07221132
102	0x3d252771	0.040320817
103	0xbdbed210	-0.0931741
104	0xbba5464c	-0.0050437804
105	0xbdde356b	-0.108500324
106	0xbc97ce30	-0.018530935
107	0xbd745f82	-0.059661396
108	0xbbfda0bc	-0.0077401083
109	0xbcdaedfc	-0.026724808
110	0x3d5ac8c4	0.05341412
111	0x3cf378ae	0.02972063
112	0xbe26d985	-0.16293915
113	0xbe25f7d6	-0.16207823
114	0xbe1ad741	-0.15121175
115	0xbc52fff5	-0.012878408
116	0x3d3f68a2	0.046730645
117	0x3a21abd6	0.0006167268
118	0x3c176cba	0.009242231
119	0x3c457d00	0.012053728
120	0x3a291088	0.0006449302
121	0xbc448b91	-0.011996166
122	0xbd9a0f56	-0.07522456
123	0x3d3d84b2	0.046269126
124	0xbcd7c5b6	-0.026339393
125	0xbdc9ee04	-0.09859851
126	0x3c71d7a8	0.014760889
127	0xbda8a33d	-0.0823426
128	0xbde09c1a	-0.10967274
129	0xbcc7f391	-0.024408134
130	0xbd25bc8a	-0.040463008
131	0xbdbbc716	-0.09168832
132	0x3c24c131	0.010055826
133	0x3c93a6ab	0.01802381
134	0xbd0c2ed6	-0.034224354
135	0x3d1ed951	0.038781468
136	0xbd87ac59	-0.066246696
137	0xbb5e2a53	-0.003389974
138	0xbd9701f8	-0.073734224
139	0xbcfd25fe	-0.030901905
140	0xbc362736	-0.011117747
141	0x3d2c58e9	0.04207698
142	0x3d064ebd	0.032789934
143	0xbb228626	-0.0024799197
144	0xbe162c4f	-0.1466534
145	0x3d2c849a	0.042118646
146	0xbe097369	-0.13422932
147	0x3c6dfa2d	0.014524979
148	0x3c89ae8b	0.016806861
149	0xbee86610	-0.45390368
150	0xbf19717e	-0.599388
151	0xbc99c52c	-0.018770777
152	0xbe1967f2	-0.14981058
153	0x3c39bd1f	0.011336594
154	0xbdd33321	-0.103124864
155	0xbd252ab8	-0.040323943
156	0x3d0d8cda	0.034558155
157	0xbd91c055	-0.071167625
158	0xbe11010a	-0.14160553
159	0xbc716971	-0.014734612
160	0xbd1220f1	-0.035675947
161	0xba8f1f62	-0.0010919387
162	0xbd3475fe	-0.04405784
163	0xbe0ac55b	-0.13551848
164	0xbe3dcbbb	-0.18534748
165	0xbdc59dcb	-0.09649237
166	0xbdc18751	-0.09449638
167	0x3dc67316	0.0968992
168	0xbd066f45	-0.03282096
169	0x3db3726f	0.08762061
170	0x3d0f2991	0.03495175
171	0xbe03db53	-0.12876634
172	0xbccf0b4a	-0.025273938
173	0xbde7c732	-0.1131729
174	0x3d9f6b9f	0.07784199
175	0x3dd68b63	0.10475805
176	0x3e2111b1	0.15729405
177	0xbcee0cd0	-0.029058844
178	0x3c1adb26	0.009451663
179	0xbd8323e9	-0.06403334
180	0x3dc8987d	0.0979471
181	0x3cda3555	0.026636759
182	0x3d220070	0.0395512
183	0xbd35c279	-0.044374917
184	0x3cb19b3c	0.021680467
185	0xbd7e21da	-0.062044002
186	0x3d50e78e	0.051002078
187	0x3debb410	0.115089536
188	0x3c6d6868	0.014490224
189	0x3d9fd63a	0.07804532
190	0x3d6401ba	0.05566571
191	0x3d8c8041	0.068604
192	0x3d2358fc	0.039879784
193	0xbd8ef434	-0.06980172
194	0x3d2fa438	0.04288122
195	0x3da7f2a9	0.082005806
196	0x3db5bb92	0.08873667
197	0xbd9dcf1d	-0.07705519
198	0xbd9defb9	-0.07711739
199	0xbc15c1f3	-0.009140479
200	0x3cea8c43	0.028631335
201	0x3cfdbe2b	0.030974468
202	0xbe66d5c2	-0.2254248
203	0x3c437efd	0.011932132
204	0xbb9cd8a9	-0.00478657
205	0xbbf0b101	-0.0073453193
206	0x3e26c7a8	0.162871
207	0xbd8a3ea6	-0.067502305
208	0xbc8fa1a3	-0.01753313
209	0x3d7479dc	0.059686527
210	0x3dea39bb	0.114367925
211	0x3d83635b	0.06415435
212	0xbe12ed4e	-0.14348337
213	0x3d237d0f	0.039914187
214	0x3d301c58	0.04299578
215	0x3d86dd26	0.065851495
216	0xbd4f706a	-0.050644316
217	0x3c91d013	0.017799413
218	0x3d94073e	0.07227944
219	0x3d5f94fb	0.05458544
220	0x3d37358c	0.0447288
221	0x3c823f7a	0.015899409
222	0xbcf407bf	-0.02978885
223	0x3db0449e	0.08606838
224	0x3da46d58	0.08028668
225	0x3d3e7a8e	0.046503596
226	0x3d54bfaa	0.051940598
227	0xbd17d8b6	-0.037071906
228	0xbd8245f8	-0.06361002
229	0xbd6858f2	-0.05672545
230	0xbca4a4e4	-0.020098157
231	0xb9922a0f	-0.00027878626
232	0x3dcf69c8	0.10127598
233	0x3c12ff35	0.008971979
234	0x3b6066f5	0.0034241055
235	0x3d0010c5	0.031265993
236	0xbd104f67	-0.035231974
237	0x3d5f2453	0.054478
238	0xbcd60594	-0.026125707
239	0x3d794cf5	0.060864408
240	0x3c82e1ff	0.015976904
241	0xbd82ac4b	-0.063805185
242	0xbc80e9f8	-0.015736565
243	0x3cdfea1b	0.02733331
244	0x3d54aae9	0.051920805
245	0xbd11a42f	-0.03555697
246	0xbd245513	-0.040120196
247	0x3d0b86b7	0.03406402
248	0xbcc088ec	-0.02350279
249	0x3d2420be	0.040070288
250	0x3e0ed00b	0.1394655
251	0x3e2a5471	0.16633774
252	0x3deb5f8e	0.11492835
253	0x3d0c876d	0.03430884
254	0x3d0b07a6	0.03394284
255	0xbd5002b3	-0.050783824
