lstm/model_pt/lstm_traj_sf_test_800_wd01.pt (torch, 205314 bytes, 6 tensors)

rnn.weight_ih_l0 f4 [12, 3]
-0.006663362 -0.41559452 0.02073124 0.25856027 0.06907534 -0.008938242 -0.23495957 -0.08977381
0.02907073 0.0025492588 0.0910705 -0.0066872104 -0.05454474 0.06723046 0.002662488 -0.06850914
0.02906888 -0.016080076 0.11807092 -0.36096048 0.011156534 -0.111428514 0.06692146 0.0032295447
0.23606984 -0.090258926 -0.0002647597 -0.13092561 0.3765552 0.0058549014 0.24534722 0.2861267
-0.0033199023 0.26668543 -0.3606019 0.019344252
00000000: 5558 dabb cec8 d4be 90d4 a93c 0362 843e
00000010: 5f77 8d3d b471 12bc 3e99 70be 55db b7bd
00000020: bd25 ee3c 7711 273b 2c83 ba3d 6320 dbbb
00000030: 4e6a 5fbd 20b0 893d 237d 2e3b 854e 8cbd
00000040: dc21 ee3c 5dba 83bc 2bcf f13d d0cf b8be
00000050: e5c9 363c a234 e4bd 1e0e 893d c5a6 533b
00000060: 4bbc 713e acd9 b8bd 72cf 8ab9 5d11 06be
00000070: d8cb c03e 79da bf3b 4d3c 7b3e 337f 923e
00000080: b892 59bb fe8a 883e d0a0 b8be d677 9e3c

rnn.weight_hh_l0 f4 [12, 3]
-2.9844832 0.15537238 0.41853306 -0.22702847 1.8220006 -1.0525078 0.22855382 -0.36849672
0.9245525 0.5497514 -0.3327174 -0.01610634 0.70114124 -0.71810216 -0.88571644 0.11087412
0.07695045 0.6011583 -1.9437776 0.78751695 -0.40809223 0.19200115 -0.3101613 -1.1798387
-0.3515278 1.2137808 -0.8095095 2.7455225 -0.18987525 0.18652381 1.3239559 1.5122647
-1.5433749 -0.9135025 0.5425846 -1.9229242
00000000: c601 3fc0 f019 1f3e f749 d63e 277a 68be
00000010: 5137 e93f 93b8 86bf 030a 6a3e 9aab bcbe
00000020: 79af 6c3f 82bc 0c3f ef59 aabe 71f1 83bc
00000030: fe7d 333f 8bd5 37bf 50be 62bf f811 e33d
00000040: 3398 9d3d 83e5 193f b4cd f8bf b69a 493f
00000050: 77f1 d0be f39b 443e 76cd 9ebe f404 97bf
00000060: 74fb b3be 2b5d 9b3f 043c 4fbf a4b6 2f40
00000070: a86e 42be 1900 3f3e 6377 a93f e491 c13f
00000080: 4f8d c5bf 4ddb 69bf d3e6 0a3f 6122 f6bf

rnn.bias_ih_l0 f4 [12]
1.298685 0.82029945 1.1957657 0.8147016 1.1532671 0.5707099 -0.058404934 0.6505874
0.18762614 1.9159112 1.5976627 2.409495
00000000: 4f3b a63f 25ff 513f da0e 993f 4990 503f
00000010: 429e 933f 0b1a 123f 033a 6fbd e58c 263f
00000020: 1121 403e 943c f53f 3680 cc3f 2b35 1a40

rnn.bias_hh_l0 f4 [12]
1.2962347 0.83917576 1.1767923 0.8288909 1.1349401 0.5720114 -0.04714677 0.64557403
0.20062388 1.9256848 1.5898447 2.3903403
00000000: 05eb a53f 39d4 563f 21a1 963f 3232 543f
00000010: b845 913f 576f 123f f91c 41bd 5744 253f
00000020: 5970 4d3e d77c f63f 0880 cb3f 56fb 1840

fc_out.weight f4 [334, 151]
-0.9989805 0.023282057 -0.8624817 -1.0859473 0.2172406 -1.0529147 -1.0928344 0.4611052
-1.0840156 -1.0770538 0.38989285 -1.0692204 -1.0522869 0.20529906 -1.020662 -1.0289739
0.15589921 -1.0044878 -1.0822707 0.18115889 -0.94376224 -1.0376073 0.05271083 -0.8897178
-1.0342842 0.016072594 -0.8699291 -1.0426388 0.038611673 -0.864544 -1.12666 0.2086659
-0.9207724 -0.6736063 -0.18941176 -0.91717625 -0.07775933 -0.3760098 -0.8578375 0.48733675
-0.45978808 -0.6233111 0.2705726 -0.10497468 -0.56616455 0.08427018 0.0038842484 -0.58683515
0.04906592 0.007698547 -0.58664936 0.04762342 0.008499153 -0.58673126 0.045921378 0.010795212
-0.58529735 0.041359335 0.0088081015 -0.5808398 0.04456081 0.007664557 -0.57611525 0.03950707
0.0047291033 -0.5763642 0.039298095 0.0033471237 -0.57606155 0.041578382 -0.001795762 -0.573806
0.038518883 -0.0019786973 -0.57676166 0.03870436 0.0028255475 -0.5728822 0.039238967 -0.00067320716
-0.5720326 0.038548745 0.0021738654 -0.5767675 0.038632564 0.0025677716 -0.574917 0.03882009
-0.0015495 -0.5755237 0.040789425 0.0015191495 -0.57359403 0.038897734 0.0008045883 -0.5718936
0.039385498 -0.00027889456 -0.5759739 0.035816398 0.0026356115 -0.5742691 0.040007927 0.0007453863
-0.57450616 0.037625324 0.0021282455 -0.57331216 0.036069028 -0.0012839057 -0.5745174 0.035785932
0.000110786284 -0.5760152 0.038439438 0.0020130852 -0.5734568 0.037549652 6.104289e-05 -0.57584625
0.038682614 -0.00037928016 -0.57648486 0.038748406 -0.001619287 -0.57611 0.036382847 -0.000334387
-0.57681066 0.037697446 -0.002280132 -0.57309914 0.036187913 -0.0018685593 -0.5725827 0.03535348
-0.0019579062 -0.5753124 0.037110697 -0.0004693579 -0.5750022 0.0397166 0.0016758172 -0.57305443
0.03777776 -0.0017176352 -0.5720657 0.037191782 -0.0005227308 -0.5741481 -1.7165998 -0.7049526
0.058140628 -1.0208348 0.36197382 0.14491414 -1.0527544 0.2456371 0.4266166 -1.0314827
0.68029016 0.5196776 -0.97373545 0.86099786 0.59331125 -0.8712494 0.9003028 0.6611165
-0.59036213 0.9385016 0.6640489 -0.32133627 0.94088763 0.6007481 -0.1753416 0.9209146
0.53311986 -0.042909034 0.91352123 0.38622543 0.019157302 0.9138972 0.32790554 0.10633529
0.74319136 0.5471978 0.16752228 0.47983786 0.42487112 0.13562429 -0.42476937 -0.3475283
-0.63331187 0.04874051 0.021296209 -0.468262 0.04794928 0.011651586 -0.43046615 0.04317048
0.0057947957 -0.4238123 0.042889908 0.0066979574 -0.4213389 0.04424666 0.0099946335 -0.42433473
0.03995835 0.008837498 -0.4224 0.042415455 0.003808273 -0.42518356 0.042602777 0.0024781753
-0.42288834 0.041773897 0.0003390236 -0.42585453 0.037894025 0.0022427451 -0.42402738 0.040777504
0.0034187192 -0.42590472 0.04108143 0.00066050305 -0.4241807 0.04011634 0.0027586196 -0.4247639
0.041048545 -0.0002986576 -0.42598233 0.040612776 0.0030315928 -0.42146948 0.037667587 -0.0006119172
-0.42281374 0.038949545 -0.0010553979 -0.42164326 0.03678666 -0.0011190943 -0.42236948 0.039394077
0.0015240092 -0.42171562 0.039689504 -0.00017984147 -0.4216589 0.0360995 -0.001269694 -0.42299962
00000000: 30bd 7fbf 03ba be3c 9acb 5cbf 5200 8bbf
00000010: 5274 5e3e e9c5 86bf ffe1 8bbf fb15 ec3e
00000020: 06c1 8abf e6dc 89bf 09a0 c73e 37dc 88bf
00000030: 56b1 86bf eb39 523e 0da5 82bf 6bb5 83bf
00000040: 0ba4 1f3e 0e93 80bf d987 8abf b781 393e
00000050: 679a 71bf 51d0 84bf 50e7 573d 8cc4 63bf
00000060: 6d63 84bf acaa 833c acb3 5ebf 3075 85bf
00000070: 4627 1e3d c152 5dbf 6536 90bf 84ac 553e
00000080: bdb7 6bbf 7671 2cbf 28f5 41be 10cc 6abf
00000090: 4940 9fbd 5b84 c0be 3d9b 5bbf 3484 f93e
000000a0: 5869 ebbe 5191 1fbf 7e88 8a3e f7fc d6bd
000000b0: 29f0 10bf d895 ac3d e08e 7e3b d43a 16bf
000000c0: 59f9 483d 1844 fc3b a72e 16bf c610 433d
000000d0: 0840 0b3c 0534 16bf 0e18 3c3d 67de 303c
000000e0: 0cd6 15bf 6868 293d db4f 103c ebb1 14bf
000000f0: 6585 363d f726 fb3b 4a7c 13bf 2ad2 213d
00000100: 98f6 9a3b 9b8c 13bf 0af7 203d 6b5b 5b3b
00000110: c578 13bf 184e 2a3d c65f ebba f3e4 12bf
00000120: fac5 1d3d 08ad 01bb a7a6 13bf 7788 1e3d
00000130: d22c 393b 68a8 12bf 0ab9 203d 2b7a 30ba
00000140: ba70 12bf 4ae5 1d3d 6977 0e3b 09a7 13bf
00000150: 2e3d 1e3d 0f48 283b c32d 13bf d101 1f3d
00000160: 9818 cbba 8555 13bf d012 273d 331e c73a
00000170: 0fd7 12bf 3b53 1f3d 02eb 523a 9e67 12bf
00000180: b052 213d 9838 92b9 0773 13bf 37b4 123d
00000190: 39ba 2c3b 4d03 13bf 5adf 233d 0766 433a
000001a0: d612 13bf 031d 1a3d 097a 0b3b 96c4 12bf
000001b0: 1ebd 133d ba48 a8ba 9313 13bf 4594 123d
000001c0: ef55 e838 bb75 13bf ac72 1d3d f7ed 033b
000001d0: 11ce 12bf aacd 193d 2704 8038 a96a 13bf
000001e0: a971 1e3d 1fda c6b9 8394 13bf a6b6 1e3d
000001f0: 413e d4ba f27b 13bf 2e06 153d aa50 afb9
00000200: dda9 13bf a368 1a3d 446e 15bb a0b6 12bf
00000210: c739 143d 72ea f4ba c894 12bf d0ce 103d
00000220: 3750 00bb ac47 13bf 6301 183d 2714 f6b9
00000230: 5833 13bf e0ad 223d 18a7 db3a b2b3 12bf
00000240: dabc 1a3d 4622 e1ba e672 12bf 6956 183d
00000250: df07 09ba 5ffb 12bf 8bb9 dbbf c677 34bf
00000260: de24 6e3d b7aa 82bf a254 b93e 5f64 143e
00000270: a8c0 86bf 4b88 7b3e 7e6d da3e a007 84bf
00000280: 7f27 2e3f 9709 053f ba46 79bf 5b6a 5c3f
00000290: 3fe3 173f 330a 5fbf 3f7a 663f ee3e 293f
000002a0: f921 17bf a441 703f 1cff 293f 3086 a4be
000002b0: 03de 703f a1ca 193f c08c 33be 0fc1 6b3f
000002c0: 8b7a 083f 62c1 2fbd 87dc 693f 57bf c53e
000002d0: c6ef 9c3c 2bf5 693f 3ce3 a73e 51c6 d93d
000002e0: ca41 3e3f 2815 0c3f f68a 2b3e 4fad f53e
000002f0: b588 d93e 18e1 0a3e 5f7b d9be 3bef b1be
00000300: ba20 22bf 21a4 473d 6375 ae3c 09c0 efbe
00000310: 7766 443d 4be6 3e3c 0f66 dcbe 87d3 303d
00000320: 45e2 bd3b edfd d8be 54ad 2f3d 8a7a db3b
00000330: bbb9 d7be fc3b 353d 88c0 233c 6742 d9be
00000340: 5eab 233d 27cb 103c d044 d8be d4bb 2d3d
00000350: 3894 793b a9b1 d9be 4080 2e3d e268 223b
00000360: d284 d8be 1b1b 2b3d fabe b139 9b09 dabe
00000370: c436 1b3d 05fb 123b 1e1a d9be 5006 273d
00000380: 970c 603b 2f10 dabe 0045 283d 9c25 2d3a
00000390: 362e d9be 0851 243d f5c9 343b a77a d9be
000003a0: 8522 283d 2595 9cb9 5b1a dabe 9559 263d
000003b0: b0ad 463b d9ca d7be 5449 1a3d 1169 20ba
000003c0: 0b7b d8be 8f89 1f3d 4755 8aba a0e1 d7be
000003d0: 9cad 163d 93ae 92ba d040 d8be af5b 213d
000003e0: 43c1 c73a 1ceb d7be 7691 223d d493 3cb9
000003f0: ade3 d7be 12dd 133d dc6b a6ba 6893 d8be

fc_out.bias f4 [334]
1.0661303 0.8794522 0.8758829 0.6538012 0.75839394 0.7025383 0.7112012 0.8677655
0.9473839 0.58303386 0.467552 0.4662743 0.6439664 0.29299054 0.23302159 0.34760258
0.6814299 0.7804237 0.35776907 0.35009694 0.34598252 0.40615383 0.63256556 0.78198135
0.7199058 0.59114796 0.4655 0.48586893 0.3359695 0.57765424 0.40283307 0.5094962
0.4966603 0.41372904 0.3600562 0.4213472 0.1123063 0.28220493 0.39381394 0.50190055
0.6409392 0.4279398 0.47456643 0.16848844 0.29821008 0.3249714 0.204145 0.48112285
0.39144552 0.42511544 0.44973585 0.66576517 0.4794839 0.62570506 0.3858134 0.49475074
0.1679554 0.33726063 0.20613421 0.33326375 0.09162458 0.371044 0.20548107 0.33476162
0.26429668 0.0845755 0.10643229 -0.027847024 -0.101524465 0.16484942 0.0049579125 0.20806499
0.23004666 0.22205096 -0.0313139 0.09937973 0.26997998 0.39881536 0.014614365 0.12335668
0.06644865 0.08819397 -0.09445693 0.32861322 0.0095614 -0.05375209 0.09967048 0.22644469
0.12235067 -0.22565843 -0.008027269 -0.035968114 0.124008246 0.14897557 0.57312006 0.3918498
-0.034506444 0.11506136 0.6120086 0.16948797 0.08258596 -0.07387444 0.14973098 -0.117975116
0.43172705 0.19854018 0.05281203 -0.074941516 0.40398276 0.030287778 0.21652034 0.05706125
0.31406346 -0.101311214 0.16375013 -0.23282044 0.30582273 0.013843509 0.04372835 -0.10182252
0.44239828 -0.08614129 0.040260788 0.17063536 0.12296177 -0.10493011 0.14725505 -0.09228537
0.2715822 0.004202429 -0.08941899 -0.040085074 0.21469925 0.2985073 0.027778165 0.040156104
0.19036552 0.16437523 0.04065643 -0.05313492 0.24866486 0.035333693 0.21437614 0.18095484
0.034560744 0.021057881 -0.14193004 0.24178238 0.008221505 0.02442408 0.05671441 0.5087366
-0.057229925 0.15651861 -0.15186909 0.24245882 -0.08650155 0.105850935 0.239562 -0.023269214
0.06635139 -0.043380793 0.328563 0.01611569 -0.06842896 -0.13436379 -0.2925651 0.15391502
-0.3006408 0.29709712 0.028102186 -0.024643559 0.33349848 -0.29768127 0.23209648 -0.28672916
-0.08426281 -0.025977002 -0.31934476 -0.07349813 0.26976642 -0.24129327 -0.12192839 -0.18217783
-0.2117331 -0.31363845 -0.077730216 0.08899277 -0.09610929 -0.07114442 0.09662204 -0.25136888
-0.15886055 -0.12849055 -0.12773664 -0.15990183 -0.19602384 -0.0720836 -0.10589997 -0.22800133
-0.14516068 -0.07836946 -0.34865946 0.029218722 -0.060544726 -0.12466031 -0.017520135 -0.25344124
-0.12008304 -0.024336014 0.02390535 0.025830716 -0.5342055 0.11784217 0.003961992 0.008513991
-0.029486006 -0.044035535 -0.105699085 -0.13947389 -0.026395643 -0.15580952 0.016032415 -0.12251791
-0.006707923 -0.324861 -0.16394691 -0.13451014 0.12143183 -0.010179304 0.029377773 -0.072616644
-0.04535966 0.024230137 0.072867036 -0.047458373 -0.15730481 -0.04216552 -0.14187686 0.06720915
-0.11351722 -0.11461884 -0.032838624 0.06354805 -0.09429403 0.0039045757 0.028508421 0.037142705
-0.007442124 0.011654826 -0.20765018 -0.06083971 -0.2738066 0.03964277 -0.1590418 -0.14903541
00000000: f576 883f c823 613f dd39 603f 845f 273f
00000010: 1b26 423f 8dd9 333f 4811 363f e125 5e3f
00000020: c087 723f b541 153f fa62 ef3e 81bb ee3e
00000030: fbda 243f db02 963e 369d 6e3e f7f8 b13e
00000040: 3172 2e3f d9c9 473f 822d b73e e83f b33e
00000050: 9f24 b13e 65f3 cf3e d1ef 213f ee2f 483f
00000060: bf4b 383f 7955 173f 0456 ee3e d0c3 f83e
00000070: 3204 ac3e 26e1 133f 2340 ce3e 586e 023f
00000080: 424a fe3e 4bd4 d33e 4959 b83e d2ba d73e
00000090: d800 e63d 2a7d 903e fba1 c93e 8e7c 003f
000000a0: 9714 243f ed1a db3e 5ffa f23e 3c88 2c3e
000000b0: feae 983e a762 a63e 630b 513e bc55 f63e
000000c0: 8c6b c83e bba8 d93e c743 e63e 966f 2a3f
000000d0: ea7e f53e 352e 203f 5589 c53e f84f fd3e
000000e0: 80fc 2b3e 6dad ac3e d914 533e 8ca1 aa3e
000000f0: aba5 bb3d 7bf9 bd3e a169 523e e065 ab3e
00000100: e551 873e eb35 ad3d 2cf9 d93d 711f e4bc
00000110: 0fec cfbd 49ce 283e fc75 a23b fd0e 553e
00000120: 5a91 6b3e 5461 633e 0143 00bd 9a87 cb3d
00000130: d13a 8a3e 8731 cc3e 1771 6f3c 6da2 fc3d
00000140: 3b16 883d 0a9f b43d a372 c1bd fe3f a83e
00000150: 6ba7 1c3c 272b 5cbd 0920 cc3d 1ee1 673e
00000160: fd92 fa3d 0113 67be ce84 03bc 4d53 13bd
00000170: 09f8 fd3d 0d8d 183e ffb7 123f 89a0 c83e
00000180: a156 0dbd 4aa5 eb3d 98ac 1c3f 418e 2d3e
00000190: d422 a93d 7b4b 97bd 1453 193e f09c f1bd
000001a0: 540b dd3e 1e4e 4b3e 6d51 583d f07a 99bd
000001b0: d4d6 ce3e 131e f83c 82b7 5d3e 0fb9 693d
000001c0: edcc a03e 417c cfbd 1dae 273e 7b68 6ebe
000001d0: cc94 9c3e e3cf 623c 801c 333d 5388 d0bd
000001e0: 0782 e23e d86a b0bd 7fe8 243d 09bb 2e3e
000001f0: 61d3 fb3d 99e5 d6bd 07ca 163e 1d00 bdbd
00000200: d20c 8b3e 88b4 893b 4e21 b7bd 3f30 24bd
00000210: 1fda 5b3e f3d5 983e 098f e33c ba7a 243d
00000220: 2eef 423e fb51 283e 5b87 263d 00a4 59bd
00000230: 00a2 7e3e 10ba 103d 6b85 5b3e 3a4c 393e
00000240: 918f 0d3d 9481 ac3c 1c56 11be cd95 773e
00000250: 7eb3 063c 0215 c83c 5f4d 683d 903c 023f
00000260: ed69 6abd 6a46 203e 9283 1bbe 2047 783e
00000270: ba27 b1bd 60c8 d83d be4f 753e 149f bebc
00000280: 3de3 873d 0fb0 31bd 6939 a83e 0d05 843c
00000290: 7c24 8cbd a996 09be 18cb 95be e69b 1d3e
000002a0: 97ed 99be 1d1d 983e 8e36 e63c 4ae1 c9bc
000002b0: 50c0 aa3e ae69 98be b3aa 6d3e 2ace 92be
000002c0: fb91 acbd b9cd d4bc 2881 a3be 3086 96bd
000002d0: d31e 8a3e 9515 77be 97b5 f9bd d38c 3abe
000002e0: 90d0 58be 3895 a0be 0531 9fbd d741 b63d
000002f0: f3d4 c4bd 2ab4 91bd c7e1 c53d 6cb3 80be
00000300: 57ac 22be 0793 03be 65cd 02be 4ebd 23be
00000310: 79ba 48be 91a0 93bd 15e2 d8bd 2e79 69be
00000320: 00a5 14be 2b80 a0bd 7e83 b2be 1a5c ef3c
00000330: bffd 77bd e84d ffbd 6386 8fbc 0dc3 81be
00000340: 19ee f5bd 525c c7bc 27d5 c33c f09a d33c
00000350: b1c1 08bf 3c57 f13d 99d3 813b 447e 0b3c
00000360: a38c f1bc 9b5e 34bd c378 d8bd 3ed2 0ebe
00000370: ad3b d8bc 888c 1fbe 6956 833c acea fabd
00000380: 23ce dbbb 2e54 a6be b3e1 27be 07bd 09be
00000390: 40b1 f83d 18c7 26bc a8a9 f03c 09b8 94bd
000003a0: 0dcb 39bd 487e c63c 503b 953d b663 42bd
000003b0: 8314 21be c1b5 2cbd 2b48 11be f3a4 893d
000003c0: b77b e8bd 48bd eabd cb81 06bd 7b25 823d
000003d0: 3a1d c1bd e9e3 7f3b 7e8a e93c f322 183d
000003e0: 10dd f3bb e2f3 3e3c 40a2 54be 0f33 79bd
000003f0: 6130 8cbe 7560 223d dbdb 22be bd9c 18be
