lstm/model_pt/lstm_traj_sf_3_fold_CV_2100.pt (torch, 205319 bytes, 6 tensors)

rnn.weight_ih_l0 f4 [12, 3]
000000 c3 ce 99 3b d7 87 62 bc 5c bb 57 3c 84 43 0a be
       0.0046938374 -0.013826332 0.013167229 -0.13502318
000010 73 e3 ff bd 8d 1e 41 3c cc 57 ca 3d e9 65 03 be
       -0.12494554 0.011787069 0.09880027 -0.12831844
000020 d6 14 e8 3c a6 2d 86 3c 2b 41 54 bc 7f 2a 54 bc
       0.028330248 0.016379189 -0.01295499 -0.012949585
000030 75 ea c2 bb 7f 3c 21 bd bc a9 a6 ba 62 8b 9e bc
       -0.0059483596 -0.039364334 -0.001271538 -0.019353572
000040 14 57 bc 3c a9 e0 af bb f6 0c 3a 3d 6e 74 34 3e
       0.02299074 -0.0053673577 0.045422517 0.1762254
000050 74 14 aa bb ae 44 e1 bd 5b e5 84 bc 41 01 33 3b
       -0.0051904265 -0.10999428 -0.016222646 0.002731398
000060 0d 93 ad bd f4 01 2d 3e 1d c4 7c ba c8 35 2b be
       -0.08475313 0.16895276 -0.000964226 -0.16719735
000070 f4 03 a4 be c3 d0 80 3c 8e b4 6c be 9d b5 aa 3d
       -0.32034266 0.015724545 -0.23115751 0.08335421
000080 33 d8 9f 3c 60 0b 0f 3e aa a9 a2 be 43 7d 65 3c
       0.019512272 0.13969183 -0.31770068 0.0140069155

rnn.weight_hh_l0 f4 [12, 3]
000000 2c b7 91 3e 60 6c c7 be 68 24 a6 3e 32 3c 27 3f
       0.28460062 -0.3894987 0.3244965 0.65326226
000010 b0 93 4f bf f0 05 00 bf fb 17 45 3f 1b 2b 0a bf
       -0.8108473 -0.5000906 0.76989716 -0.53972024
000020 6a f2 1d 3f a4 d4 e9 38 34 22 e1 3c 99 be 29 3e
       0.6169802 0.00011149913 0.02748213 0.16576613
000030 fe 03 48 3e 2c a8 82 be e0 55 06 3d 8a 1b e4 3d
       0.19532773 -0.2551893 0.03279674 0.11138065
000040 ba 1e 00 be 2d 63 2c be e6 7b 44 bf b7 24 f2 be
       -0.12511721 -0.16834708 -0.76751554 -0.47293636
000050 1a c7 9c be 4c 7d 15 3f a8 ff b0 bd 77 f5 7e bf
       -0.30620652 0.5839431 -0.086425126 -0.995933
000060 39 d1 21 bf d2 60 23 3f 57 3d 95 be 2b 71 f5 3f
       -0.63209873 0.6381961 -0.2914836 1.9175161
000070 3b e5 27 bf e6 b1 aa 3e 14 4d 4e 3e 23 7d 1d c0
       -0.6558415 0.3333885 0.2014659 -2.4607627
000080 3c 26 3d bf e7 78 27 3f 9c c1 6c 3f d1 5d 29 40
       -0.73886466 0.6541886 0.92482924 2.646351

rnn.bias_ih_l0 f4 [12]
000000 25 9a 57 40 b9 a9 96 3f 47 09 70 3f 5e 94 31 3f
       3.3687832 1.1770545 0.93764156 0.69367015
000010 0b 39 1e 3f 7f 54 24 3f a8 46 a8 3e b8 48 a8 be
       0.6180579 0.6419143 0.32866406 -0.3286798
000020 2b 6e a5 3e 86 d4 a5 3f 0f 7b b0 3f 43 15 9b 3f
       0.32310614 1.2955482 1.3787555 1.2115864

rnn.bias_hh_l0 f4 [12]
000000 a7 92 57 40 a3 b1 96 3f be c9 6f 3f 0c 82 31 3f
       3.368326 1.177296 0.9366721 0.6933906
000010 da 3c 1e 3f aa 42 24 3f 95 29 a8 3e 37 1c a8 be
       0.618116 0.6416422 0.32844225 -0.32834026
000020 9e 8e a5 3e 53 c5 a5 3f 45 80 b0 3f 01 09 9b 3f
       0.3233537 1.2950844 1.3789145 1.2112123

fc_out.weight f4 [334, 151]
000000 30 24 8c 3e 48 51 e9 3e 39 6e 8c 3e cd 9f 54 3e
       0.2737136 0.45569825 0.27427843 0.20764084
000010 79 77 05 3f ae 76 bf 3e 37 8c 5b 3e db 51 0c 3f
       0.52135426 0.37395233 0.21440206 0.548124
000020 9a 4e db 3e 7e 13 60 3e 67 3d 12 3f 6f 54 ec 3e
       0.42833406 0.21882436 0.5712494 0.46158168
000030 48 e2 e8 3d ec 16 1d 3f 28 59 fa 3e 55 ed 19 bd
       0.11371285 0.613631 0.48896146 -0.037579853
000040 65 ef 20 3f f4 1e 01 3f 59 9e 24 be 4a c3 1d 3f
       0.6286529 0.50437856 -0.1607603 0.6162611
000050 62 ad 02 3f c6 15 9a bd 93 4a 1f 3f 1f 7a e5 3e
       0.5104581 -0.07523684 0.62223166 0.44819734
000060 ff e4 9c bc 46 14 22 3f 07 35 d6 3e 0d 2b df bb
       -0.019152163 0.63312185 0.41837332 -0.006810552
000070 3e 8b 23 3f fb 32 cd 3e 05 d2 b4 bc 24 89 23 3f
       0.6388434 0.40077958 -0.022072801 0.63881135
000080 17 2d d3 3e 27 d4 42 bd a2 d1 23 3f 13 99 da 3e
       0.41245338 -0.047565605 0.6399175 0.4269491
000090 4c 7a 5c bd f4 dc 26 3f b2 44 d1 3e 49 12 86 bd
       -0.05382757 0.651809 0.40872723 -0.06546456
0000a0 1f 07 20 3f 1f e0 bd 3d 57 69 9a bd 93 9d 07 3f
       0.62510866 0.09271263 -0.07539623 0.52974814
0000b0 4e 5f 02 bf 45 e2 87 bd 85 2f f0 3e 1b b0 12 bf
       -0.50926673 -0.06634954 0.46911255 -0.57299966
0000c0 28 80 89 bd 53 ea e4 3e 76 4e fa be e9 4d 85 bd
       -0.06713897 0.44710025 -0.48887986 -0.06509001
0000d0 30 cf e1 3e 5f 01 dc be d9 d3 82 bd d8 4b e1 3e
       0.44103384 -0.42969796 -0.06388063 0.44003177
0000e0 2d 22 d3 be 38 b5 7c bd 42 48 e1 3e 02 b3 d1 be
       -0.41237012 -0.06169626 0.4400044 -0.40956885
0000f0 5f 8d 6a bd 2c e8 e0 3e c6 6c d1 be b6 d8 67 bd
       -0.05726373 0.43927133 -0.409033 -0.056603156
000100 9e 03 e0 3e e7 0e d1 be 9a 5e 50 bd 36 91 de 3e
       0.4375276 -0.40831682 -0.05087147 0.43470162
000110 03 1d d1 be 3e 94 3b bd 39 14 de 3e 24 11 d1 be
       -0.40842447 -0.04579567 0.43374804 -0.4083339
000120 d9 8d 23 bd 30 f8 dd 3e 0a 11 d1 be e2 e3 17 bd
       -0.0399302 0.43353415 -0.40833312 -0.03708256
000130 97 e5 dd 3e 2e 19 d1 be 26 8e 11 bd f4 f2 dd 3e
       0.43339226 -0.40839523 -0.035535954 0.4334942
000140 11 1c d1 be c5 2c 0b bd cb f5 dd 3e ad 22 d1 be
       -0.40841725 -0.033978242 0.43351588 -0.40846768
000150 66 c2 08 bd 1f ec dd 3e bd 14 d1 be fa b2 06 bd
       -0.033388518 0.4334421 -0.40836135 -0.03288553
000160 f0 e7 dd 3e 4f 16 d1 be 7e 50 05 bd 77 e9 dd 3e
       0.43341017 -0.40837333 -0.032547466 0.43342182
000170 01 22 d1 be e7 a4 04 bd 41 f7 dd 3e bf 1a d1 be
       -0.40846255 -0.032383826 0.43352702 -0.40840718
000180 00 de 03 bd 47 e9 dd 3e 85 18 d1 be 4f 9e 03 bd
       -0.032194138 0.4334204 -0.4083902 -0.032133397
000190 0b f2 dd 3e 65 17 d1 be 74 71 03 bd bd f2 dd 3e
       0.43348727 -0.4083816 -0.03209062 0.43349257
0001a0 75 21 d1 be d5 db 03 bd 5a f2 dd 3e b1 1b d1 be
       -0.40845838 -0.03219207 0.43348962 -0.4084144
0001b0 7b c0 03 bd 45 e5 dd 3e 58 28 d1 be df 61 03 bd
       -0.032165986 0.4333898 -0.40851092 -0.03207576
0001c0 15 e4 dd 3e 6c 24 d1 be 8b b5 03 bd e2 f1 dd 3e
       0.43338075 -0.408481 -0.032155555 0.43348604
0001d0 9a 2f d1 be a4 c5 03 bd 9c f3 dd 3e 56 21 d1 be
       -0.4085663 -0.032170907 0.43349922 -0.40845746
0001e0 6d 4e 03 bd dc ec dd 3e f7 2c d1 be a8 48 03 bd
       -0.032057215 0.43344772 -0.40854618 -0.032051712
0001f0 16 f2 dd 3e ec 28 d1 be 15 b5 03 bd 2b f0 dd 3e
       0.4334876 -0.40851533 -0.032155115 0.43347296
000200 27 31 d1 be f0 c1 03 bd ba ed dd 3e c0 33 d1 be
       -0.40857813 -0.032167375 0.43345433 -0.40859795
000210 68 b8 03 bd 8b f1 dd 3e 72 28 d1 be 94 74 03 bd
       -0.032158285 0.43348345 -0.4085117 -0.0320936
000220 8c f1 dd 3e 21 2a d1 be 2c 80 03 bd 6f ea dd 3e
       0.43348348 -0.40852454 -0.032104656 0.4334292
000230 db 28 d1 be 5e 9e 03 bd a8 ee dd 3e 8f 2c d1 be
       -0.40851483 -0.032133453 0.43346143 -0.40854308
000240 8c 8a 03 bd 67 f3 dd 3e 15 38 d1 be 7e a5 03 bd
       -0.03211455 0.43349764 -0.408631 -0.032140248
000250 c0 e7 dd 3e 04 2d d1 be 81 30 aa bf f8 6c 51 be
       0.43340874 -0.40854657 -1.3296052 -0.20451725
000260 f6 e8 09 3f 31 43 1e 3f 2d cc c5 be 38 80 d6 3e
       0.53871095 0.61821276 -0.38632336 0.41894698
000270 f2 dd 39 3f 90 27 de be 24 d9 da bd bd 20 2d 3f
       0.72604287 -0.4338956 -0.106859475 0.6762808
000280 b6 7f e5 be 4b a7 e1 be de ae 13 3f 22 5c e9 be
       -0.44823998 -0.44072947 0.576887 -0.45578104
000290 cc 77 01 bf 1a 3f 01 3f 9e 6b ed be 61 4c fe be
       -0.5057342 0.5048691 -0.46371168 -0.49667647
0002a0 96 db 93 3e 41 09 f0 be 6a 83 e7 be 25 3d 89 bc
       0.28878468 -0.4688206 -0.45217448 -0.016752789
0002b0 86 16 ef be 1d cd c3 be 04 fb 70 be 91 03 e0 be
       -0.46696872 -0.38242427 -0.23533255 -0.4375272
0002c0 ec 85 8c be 8a b5 c9 be e2 6a d6 be 28 c0 07 be
       -0.27445924 -0.39396316 -0.4187842 -0.13256896
0002d0 5f c1 d7 be 04 10 cd be 30 ec 06 bd cb 62 bc be
       -0.42139718 -0.4005128 -0.03294009 -0.36794123
0002e0 37 72 9b be 28 7e d0 bd 33 56 77 be 06 54 81 be
       -0.30360577 -0.101803124 -0.24153976 -0.25259417
0002f0 30 51 78 bc 25 34 7d be 49 3c 7f be 64 3a 1a 3f
       -0.015156075 -0.24726923 -0.2492534 0.6024535
000300 6f bd 0b bf 57 52 79 be e2 3c 0a 3f ef 60 dd be
       -0.5458593 -0.24347816 0.5399915 -0.43238017
000310 df 98 71 be 95 e5 df 3e 9f 3c b9 be a9 9e 71 be
       -0.23593472 0.43729845 -0.36179063 -0.2359568
000320 d5 2b bf 3e 95 d8 ac be bb 9a 70 be f5 83 b7 3e
       0.3733813 -0.3375899 -0.23496525 0.35842863
000330 c0 60 a9 be f0 f7 6f be 66 15 b6 3e 6e be a8 be
       -0.33081627 -0.23434424 0.355632 -0.32957786
000340 cf 84 71 be 7d e8 b5 3e 4e bd a8 be e8 29 64 be
       -0.23585819 0.35528937 -0.32956928 -0.22281611
000350 4c 6e b5 3e 51 be a8 be 3e b0 5b be 9c 27 b4 3e
       0.35435712 -0.329577 -0.2145395 0.3518647
000360 d1 4a a8 be aa bb 56 be fb 5c b0 3e 99 42 a8 be
       -0.3286958 -0.20970026 0.34445938 -0.3286331
000370 1d df 51 be d1 46 af 3e 9d 4d a8 be 44 4b 4e be
       -0.20495267 0.34233716 -0.32871714 -0.20145899
000380 c5 12 af 3e 5b 48 a8 be 01 59 4c be fe 18 af 3e
       0.34194008 -0.32867703 -0.19955827 0.34198755
000390 f5 51 a8 be c6 bf 49 be bb 19 af 3e 7f 55 a8 be
       -0.32875028 -0.19702062 0.34199318 -0.32877728
0003a0 c1 5d 44 be c0 16 af 3e d2 43 a8 be 1e 42 41 be
       -0.1917639 0.34197044 -0.32864243 -0.18872878
0003b0 ee 15 af 3e 22 44 a8 be 99 fc 3f be a1 1c af 3e
       0.3419642 -0.3286448 -0.18748702 0.3420153
0003c0 11 50 a8 be a4 30 3f be fb 1d af 3e 33 47 a8 be
       -0.32873586 -0.18670899 0.3420256 -0.3286682
0003d0 df b9 3e be ee 10 af 3e 36 49 a8 be 27 60 3e be
       -0.18625592 0.34192604 -0.32868356 -0.18591367
0003e0 4f 10 af 3e ee 53 a8 be 66 4d 3e be 67 1b af 3e
       0.3419213 -0.32876533 -0.18584213 0.34200594
0003f0 5a 45 a8 be aa 49 3e be b0 15 af 3e c1 50 a8 be
       -0.3286541 -0.18582788 0.34196234 -0.3287411

fc_out.bias f4 [334]
000000 09 48 df 3e c5 4f af 3e a7 85 9d 3e 18 80 8e 3e
       0.43609646 0.34240547 0.3076603 0.27832103
000010 c3 1f 9b 3e f1 af 81 3e 53 6b 9c 3e 8b f4 c3 3e
       0.3029767 0.25329545 0.30550632 0.3827251
000020 b7 f1 15 3e 18 13 6a 3e b3 b8 62 3e 64 78 52 3e
       0.14642988 0.22858846 0.2214077 0.20553738
000030 5a 91 65 3e 38 8f fa 3d ee 89 3d 3e 77 b1 c6 3d
       0.22418728 0.12234348 0.18509647 0.097018175
000040 b1 da 93 3e bf 40 12 3f 6f 7f 07 3e 02 56 f9 3d
       0.28877786 0.57130045 0.13232206 0.12174608
000050 46 7f 10 3e 85 31 40 3e 5b 74 d1 3e 52 9e 52 3e
       0.14111051 0.1876889 0.40909085 0.20568207
000060 b4 1a 02 3e 13 97 98 3e 79 0d 49 3e 20 eb 13 3e
       0.12705499 0.2980276 0.19634046 0.14445162
000070 31 ba 86 3e 83 a3 35 3e 41 20 50 3e 0e 85 7d 3e
       0.26313928 0.17738156 0.20324804 0.24757788
000080 58 48 6c 3e e7 3c 2c 3e 31 12 63 3e 91 ad d5 3d
       0.23074472 0.16820107 0.22174908 0.10433496
000090 19 30 50 3e 67 d8 7f 3d 43 ed 29 3e c2 13 7c 3e
       0.20330848 0.062462237 0.16594414 0.24616912
0000a0 3d 61 f0 3e 81 ca ca 3e a1 7b bb 3d 1d bc e1 3d
       0.46949187 0.39607623 0.0915444 0.11022208
0000b0 93 5d 7e 3e 19 e2 ef 3d 8d 5b aa 3d dc 52 1f 3e
       0.24840383 0.117130466 0.08318243 0.15558952
0000c0 44 dc 7b 3e 4c ac 3f 3e a4 e7 64 3e 04 99 c3 3e
       0.24595743 0.1871807 0.22353989 0.3820268
0000d0 9d 06 c4 3e c9 28 5a 3d b2 2f 87 3e c9 ce 33 3d
       0.38286296 0.053261552 0.26403576 0.043898378
0000e0 57 8e 05 3e 62 f0 1b 3e 3d 51 f3 3d 5d 55 02 3e
       0.1304258 0.15228418 0.11880729 0.12727876
0000f0 28 fb bc 3d 2e 26 77 3d 90 c1 aa 3d e9 12 2a 3e
       0.09227592 0.060339145 0.083377 0.16608776
000100 34 28 0d 3e 6d 84 dc 3c 4a 19 b0 3d 9f f2 8f 3d
       0.13784868 0.026918614 0.085985735 0.07028698
000110 d6 c6 6b bd be ce c9 3d d6 92 9d 3d 38 f5 fb 3d
       -0.05756267 0.09853886 0.07694022 0.12302631
000120 ce 55 4b 3d 99 9b 03 3e 05 79 9c 3d 37 55 f6 3d
       0.049642377 0.12852325 0.0764027 0.12027972
000130 25 76 85 3d a7 80 aa 3d 8d 9b 5d 3d 25 34 02 3e
       0.06516675 0.0832532 0.054103423 0.12715204
000140 74 c7 08 3e 27 a3 21 3e 1b 4b b3 3c ca af 42 3d
       0.13357335 0.15784894 0.021886399 0.047530927
000150 cb 54 84 3d cd 1f 02 3d 71 12 af 3d 9c 95 bb 3d
       0.064614855 0.03176861 0.08548439 0.09159395
000160 64 14 c5 3d f1 cc 15 bd 42 98 1c bd f8 ab 1e bd
       0.0962303 -0.0365724 -0.038231142 -0.03873822
000170 b6 0a 64 3d c0 e9 38 3e 84 26 f6 3e f1 31 b7 3e
       0.055674277 0.18057919 0.4807626 0.3578029
000180 d6 0f 99 3b b5 67 59 3b 5e 3c d5 3e aa 65 4e 3e
       0.0046710772 0.0033173386 0.4164762 0.2015597
000190 90 dd ce 3d ac da cf bb de 7a eb 3b 78 93 f7 bd
       0.101008534 -0.0063432064 0.007186278 -0.12088674
0001a0 97 26 74 3d 0f 8d c0 bc de db a4 3d e5 8f 3e bd
       0.059607115 -0.023504762 0.08049749 -0.046523947
0001b0 14 e0 81 3d f2 b5 4c bd 6d 6f 79 3e 19 cc c6 3b
       0.06341568 -0.049978204 0.24358912 0.006066811
0001c0 ea e2 38 3e d4 e8 41 bd 51 09 a6 3d 96 18 7e bd
       0.18055311 -0.047341183 0.08107246 -0.062035166
0001d0 c3 4b 2c 3e 91 b4 76 bc 7e 71 ac 3d 39 06 64 bd
       0.16825776 -0.015057699 0.084200844 -0.055669997
0001e0 bb 1b f2 3d 6f 4b 01 be f5 40 a8 3d 11 53 89 3d
       0.118216954 -0.12626432 0.082155146 0.06705297
0001f0 15 3d b3 3d 9c ad a3 3b 04 0b d0 3d 15 2f c8 3b
       0.08751885 0.004995061 0.10158351 0.0061091282
000200 d0 8c 79 3e 2d 2b e9 bb 4b f2 c0 bd 02 83 a5 3c
       0.24370122 -0.0071157427 -0.09421214 0.020204071
000210 a8 4b 30 3e f6 d2 c3 3d a0 e2 2e bd 42 74 02 bd
       0.1721636 0.09561722 -0.042696595 -0.031849153
000220 67 7c ba 3d 50 18 23 3d 3d b4 0c 3d 0f 32 2f bd
       0.09105759 0.039818108 0.034351576 -0.04277235
000230 4c b3 a2 3d ea 1a c0 3c 35 63 6d 3d be 0f 0f 3e
       0.079443544 0.023450334 0.05795594 0.13970849
000240 d3 92 1b bc c4 cf 9a bc d1 8b a5 bd a9 15 48 3e
       -0.009495455 -0.018897898 -0.080833085 0.19539513
000250 68 60 21 3d ec 69 d9 3c 30 ad 08 3c 87 71 08 3e
       0.03939858 0.026539765 0.008342072 0.13324557
000260 6d 1d 9b bd 99 ae 15 3d 63 b1 6a bc 5d 5d 90 3d
       -0.07573972 0.036543462 -0.014324519 0.07049058
000270 f0 ed 2a 3d c7 e9 07 3e a7 a3 55 3d e1 90 29 3d
       0.04173082 0.13272773 0.052158024 0.041397933
000280 a2 2a 61 3d 54 5e 5e bd 86 85 0b 3e b6 50 df 3a
       0.0549723 -0.054289177 0.13625154 0.0017037604
000290 4d 45 89 bc 73 a4 52 bd 84 fb c7 bd 6f 92 dd 3d
       -0.016756678 -0.051426362 -0.0976477 0.108189456
0002a0 63 41 34 be 6b 2c 43 3d 3a 73 35 3d 2a 9a 1b bd
       -0.17603068 0.047649782 0.04429934 -0.03798882
0002b0 8e 42 39 3e 6b ac 16 be fc 32 54 3e 3b 75 5e be
       0.18091795 -0.1471421 0.20722574 -0.21724407
0002c0 d0 48 0d be 1c 0e 44 3d 0d f5 ca bd 57 c4 95 bd
       -0.13797307 0.04786502 -0.09910021 -0.073128395
0002d0 71 39 65 3d af 3e 43 be 2c bc 40 b9 29 25 e3 bd
       0.055962984 -0.1906688 -0.00018380646 -0.11091072
0002e0 20 ad a9 bd 6c e6 c8 bd c4 c2 82 3c 50 7b 78 bd
       -0.08284974 -0.098095745 0.015962012 -0.060664475
0002f0 9c 6b d2 bd 62 33 d0 bc b0 28 b2 3d 22 dd 0a be
       -0.10274431 -0.025415126 0.08699167 -0.13560918
000300 93 b4 2b bd 20 a1 11 bd 70 95 20 bd ed e6 e6 bd
       -0.041920256 -0.03555405 -0.039205015 -0.11274514
000310 18 24 af bd f2 32 09 be 6f d1 c0 bd 45 4e 46 bd
       -0.08551806 -0.1339834 -0.09414946 -0.048414487
000320 52 25 e6 bd 12 6d c2 3c 33 75 c6 bd c4 dc ca 3c
       -0.11237587 0.02373365 -0.09690323 0.024763472
000330 21 86 ff bc 96 18 d1 3d c4 43 39 bd d9 da 02 be
       -0.031191887 0.102097675 -0.045230642 -0.12778796
000340 7b 2c cd bc 02 58 2f bd ce c3 a4 3d d2 03 83 3d
       -0.025045624 -0.04280854 0.08045159 0.06397213
000350 1f 45 67 be fd 9a 5a 3d 71 58 9d 3d d8 20 38 3c
       -0.22584961 0.053370465 0.076828845 0.011238299
000360 8b ad 13 3d 0e 24 a9 bd 64 0a 61 bd 92 72 41 be
       0.036054175 -0.0825883 -0.05494155 -0.18891361
000370 f5 d6 de bd a0 cf 0c be 5d 09 52 bd 2b ae 26 be
       -0.108808435 -0.13751078 -0.05127846 -0.16277377
000380 63 77 0a bb 67 25 87 be 62 99 b1 bc b8 27 38 be
       -0.002112829 -0.26395723 -0.021679584 -0.17983902
000390 15 5b c6 3d 75 59 64 3d c6 f3 53 3d a6 c2 4d 3b
       0.09685341 0.055749375 0.051746152 0.0031396537
0003a0 e7 28 c1 3d 37 de ad 3c c5 81 45 3d 30 59 19 3d
       0.0943163 0.021224124 0.04821946 0.03743857
0003b0 05 8f a3 bd 43 a7 bb 3b 67 58 b2 bd 7a 7d 93 3d
       -0.07986263 0.0057267263 -0.08708268 0.07201667
0003c0 e2 38 01 be 65 52 b7 3c 12 1e 57 3d 5f 89 1e 3d
       -0.12619355 0.022378156 0.05251891 0.038705226
0003d0 8e 1f 7e bd ca 69 d8 bc 40 39 50 3d 03 09 b7 3d
       -0.06204181 -0.026417632 0.050835848 0.08937266
0003e0 21 94 09 3c f9 57 fc 3a 88 6a 0a be 5e ae 27 3c
       0.008397133 0.0019252292 -0.13517201 0.0102344435
0003f0 4a b6 6a bd b9 3c 16 3d 2b 0a a8 bd 3b 97 99 bd
       -0.05730275 0.036679003 -0.082050644 -0.07499548
