lstm/model_pt/lstm_traj_sf_lf_dm_5_fold_CV_1900.pt (torch, 210725 bytes, 6 tensors)

rnn.weight_ih_l0 f4 [12, 3]
-0.21689583 0.0555433 0.010376914 0.18562032 -0.041132078 -0.01603892 0.09721554 0.32909578
-0.019162863 -0.13041164 0.01831218 -0.0036697816 0.010198387 -0.04753614 0.016005982 -0.035309765
-0.05553607 -0.00019791366 0.112896055 -0.13461387 -0.0002033543 0.15934213 -0.06600583 -0.0029933103
0.05101706 0.19867685 -0.006098313 0.10399335 -0.4964601 0.0074339905 0.18423702 -0.10652845
0.006251764 0.11310285 0.31699422 0.007901443
00000000: f119 5ebe 5f81 633d ef03 2a3c 4113 3e3e
00000010: 1c7a 28bd 0e64 83bc f118 c73d 3e7f a83e
00000020: 70fb 9cbc a18a 05be 6d03 963c b880 70bb
00000030: 2317 273c 41b5 42bd fa1e 833c f9a0 10bd
00000040: ca79 63bd 0b87 4fb9 0c36 e73d 38d8 09be
00000050: 813b 55b9 952a 233e 112e 87bd 6a2b 44bb
00000060: 44f7 503d f271 4b3e 5bd4 c7bb 77fa d43d
00000070: 0530 febe d598 f33b a1a8 3c3e 972b dabd
00000080: 99db cc3b 78a2 e73d 114d a23e 0e75 013c

rnn.weight_hh_l0 f4 [12, 3]
1.6774981 0.36915863 0.3512473 -0.16895969 -1.4981459 -0.30386645 0.59916633 -0.5853355
-3.4837592 0.2838344 0.39443347 0.38721588 -0.2553768 -0.47552857 0.2139468 0.037610684
-0.23888047 0.5015342 -0.18702602 0.9370014 0.93702275 -1.1400826 -0.40736383 -0.1078385
0.18108071 0.7010121 -0.7874595 -0.47600585 0.5993886 1.2426958 -0.3207719 -2.1508472
-0.38104296 0.66673446 -0.5448643 -2.3861494
00000000: 42b8 d63f 5c02 bd3e b0d6 b33e c503 2dbe
00000010: 3fc3 bfbf 6294 9bbe f762 193f 8cd8 15bf
00000020: e9f5 5ec0 be52 913e 2ff3 c93e 2941 c63e
00000030: bfc0 82be 7b78 f3be df14 5b3e a90d 1a3d
00000040: 159d 74be 8c64 003f c083 3fbe 53df 6f3f
00000050: b9e0 6f3f 3aee 91bf fe91 d0be 6eda dcbd
00000060: 396d 393e 8775 333f f296 49bf 0ab7 f3be
00000070: 8871 193f a810 9f3f 373c a4be 7ba7 09c0
00000080: 1018 c3be 1caf 2a3f 3a7c 0bbf acb6 18c0

rnn.bias_ih_l0 f4 [12]
1.1637974 0.8007698 0.89457244 0.79937494 0.73981404 0.9072452 0.31504425 -0.25524575
-0.4396129 1.7546107 1.3986306 1.1951116
00000000: 50f7 943f 40ff 4c3f b302 653f d6a3 4c3f
00000010: 7464 3d3f 3941 683f 7b4d a13e 92af 82be
00000020: f114 e1be 1597 e03f 5406 b33f 6bf9 983f

rnn.bias_hh_l0 f4 [12]
1.1638147 0.79983014 0.89438003 0.7990741 0.7387985 0.90752554 0.3158523 -0.25577113
-0.44030848 1.754697 1.3989341 1.1947188
00000000: e1f7 943f abc1 4c3f 17f6 643f 1f90 4c3f
00000010: e621 3d3f 9853 683f 65b7 a13e 6ff4 82be
00000020: 1d70 e1be e999 e03f 4610 b33f 8cec 983f

fc_out.weight f4 [334, 155]
-0.55527484 -0.11114958 -0.3441063 -0.5468474 -0.12783597 -0.54288334 -0.3572582 -0.1506997
-0.5826521 -0.30171657 -0.16549183 -0.57593304 -0.30660483 -0.17604265 -0.56484634 -0.26837614
-0.18918578 -0.53070545 -0.16628674 -0.18633807 -0.5191551 -0.15531911 -0.19631287 -0.51852536
-0.14569561 -0.19412616 -0.50999683 -0.1573142 -0.20210572 -0.5203581 -0.14998628 -0.20313208
-0.5651381 -0.3311062 0.1613847 -0.3053099 -0.4722841 0.26243168 -0.14834058 -0.5313399
0.23233186 -0.021615248 -0.6056535 0.15152922 0.12593886 -0.65364325 0.006796633 0.0049952306
-0.7132617 -0.0011840098 0.00037904555 -0.7514853 -0.0015016254 0.00018205591 -0.7692383 -0.0014843484
0.00015509404 -0.5470197 -0.001590128 0.00014978889 -0.14205608 -0.0015359046 0.00013548834 -0.0016284117
-0.0013732336 0.00013841076 0.070285805 -0.0013959552 7.5669835e-05 0.18868744 -0.0013655438 -3.0999207e-05
0.28102648 -0.0014226536 8.813822e-05 0.40328553 -0.001376643 1.4202048e-05 0.47132137 -0.0013939312
2.6294898e-05 0.47429255 -0.0013839765 -8.090791e-05 0.46846125 -0.0013029551 9.620547e-05 0.46014795
-0.0013105787 7.491618e-05 0.45694402 -0.0014349325 -5.8185746e-05 0.45640188 -0.0013667217 1.1167749e-05
0.4562972 -0.0013997325 5.7958212e-05 0.45615909 -0.0014213366 -8.174566e-05 0.45624554 -0.0013176407
-4.345742e-05 0.45616868 -0.0013597579 -3.0165576e-05 0.4562429 -0.0012855468 5.809546e-05 0.456258
-0.0012672096 -8.1941085e-05 0.45632055 -0.001329418 2.0777372e-05 0.45628408 -0.0013285526 4.6618625e-05
0.45626038 -0.0012355034 -1.4490911e-05 0.45626315 -0.0012913499 -7.764523e-05 0.45632985 -0.001237127
-1.4019192e-05 0.45620582 -0.0012998561 7.2128525e-05 0.456195 -0.0012589551 -1.1366104e-06 0.4561676
-0.0012899368 7.489102e-06 0.45622662 -0.0013694107 1.083311e-06 0.45618072 -0.0013064105 -6.501712e-06
0.45626435 -0.0012568099 -2.7072701e-05 0.45619115 -0.0013156851 -8.4445746e-05 -1.5454609 0.79905057
-0.39113146 0.3677156 -0.0144663965 -0.32761502 -0.3944305 -0.3065767 -0.69738144 -0.45340377
-0.43855357 -0.8719938 -0.47718036 -0.44958603 -0.93700784 -0.48368225 -0.3331407 -0.8125669
-0.49339688 -0.18540312 -0.4488545 -0.50463945 0.09429487 0.012074265 -0.50247985 0.11802887
0.23328106 -0.49481136 0.07416814 0.37355644 -0.48850155 0.08029087 0.4181878 -0.4807499
-0.03058139 0.4997093 -0.4580642 -0.2172473 0.68398744 -0.47031993 -0.44672164 0.83369946
-0.6287512 -0.56655693 0.9356454 0.22137299 0.21913262 0.71765774 0.03892701 0.053869884
0.55504614 -0.0057772147 0.00978566 0.49673635 0.0044452236 0.009638182 0.47336954 0.004667306
0.008202942 0.45894188 0.0030242468 0.006360065 0.45271114 0.0018869942 0.0041641723 0.4504032
0.00092877704 0.0018935502 0.449368 -0.00071411644 0.0004662986 0.44860938 -0.0010390861 0.000113062466
0.44758508 -0.0009854978 -5.716151e-06 0.4470356 -0.0009720231 -4.996578e-05 0.44667208 -0.00096728385
1.216526e-06 0.4466806 -0.0011094774 8.390128e-05 0.44658816 -0.0010532528 7.198269e-05 0.44642898
-0.0009865353 8.861923e-05 0.4465218 -0.0010325516 2.078386e-06 0.44656232 -0.0009659867 8.553974e-05
0.44640154 -0.0010017642 -4.7565212e-05 0.44656426 -0.0010712066 -2.4141196e-05 0.4464054 -0.0010310186
00000000: 7e26 0ebf 64a2 e3bd b32e b0be 31fe 0bbf
00000010: 6fe7 02be 67fa 0abf 8cea b6be 0651 1abe
00000020: b028 15bf 987a 9abe b176 29be 5970 13bf
00000030: 4ffb 9cbe 8644 34be c599 10bf 9968 89be
00000040: ebb9 41be 50dc 07bf 1247 2abe 68cf 3ebe
00000050: 59e7 04bf f90b 1fbe 3e06 49be 14be 04bf
00000060: 3b31 15be 02c9 46be 278f 02bf f916 21be
00000070: cdf4 4ebe 3036 05bf 0196 19be db01 50be
00000080: e4ac 10bf c086 a9be 0842 253e 9451 9cbe
00000090: 39cf f1be 725d 863e 98e6 17be e405 08bf
000000a0: 67e8 6d3e 7612 b1bc 1c0c 1bbf 7a2a 1b3e
000000b0: 1ef6 003e 2a55 27bf 4ab6 de3b 08af a33b
000000c0: 5298 36bf c730 9bba a2ba c639 5761 40bf
000000d0: 30d2 c4ba 43e6 3e39 cdec 44bf 788e c2ba
000000e0: bda0 2239 7c09 0cbf d86b d0ba a610 1d39
000000f0: 2677 11be 6850 c9ba e011 0e39 6e70 d5ba
00000100: 13fe b3ba 5b22 1139 01f2 8f3d 7cf8 b6ba
00000110: efb0 9e38 4837 413e 0cfc b2ba 2505 02b8
00000120: b4e2 8f3e 5578 baba d9d6 b838 717b ce3e
00000130: 7970 b4ba 5545 6e37 0951 f13e 92b4 b6ba
00000140: dd93 dc37 79d6 f23e 8c66 b5ba 1aad a9b8
00000150: 27da ef3e ebc7 aaba ebc1 c938 8398 eb3e
00000160: b9c7 abba 511c 9d38 91f4 e93e 5814 bcba
00000170: 780c 74b8 82ad e93e 9223 b3ba 1e5d 3b37
00000180: c99f e93e 3b77 b7ba 2818 7338 af8d e93e
00000190: 244c baba de6e abb8 0499 e93e afb4 acba
000001a0: 0d46 36b8 f18e e93e e739 b2ba 150c fdb7
000001b0: ab98 e93e cb7f a8ba 86ab 7338 a69a e93e
000001c0: 8018 a6ba c9d7 abb8 d9a2 e93e de3f aeba
000001d0: 114b ae37 119e e93e d422 aeba 5e88 4338
000001e0: f69a e93e 9df0 a1ba fd1d 73b7 539b e93e
000001f0: 8342 a9ba 77d5 a2b8 11a4 e93e 1827 a2ba
00000200: f933 6bb7 cf93 e93e ef5f aaba b543 9738
00000210: 6492 e93e 8603 a5ba a38d 98b5 cd8e e93e
00000220: 1913 a9ba e54a fb36 8996 e93e cc7d b3ba
00000230: 4866 9135 8590 e93e dd3b abba 4829 dab6
00000240: 7b9b e93e 8bbb a4ba 2f1a e3b7 e391 e93e
00000250: 1173 acba 7718 b1b8 aad1 c5bf 948e 4c3f
00000260: 6242 c8be 3845 bc3e 7704 6dbc 28bd a7be
00000270: cbf2 c9be 9ff7 9cbe 9787 32bf 8a24 e8be
00000280: 188a e0be fc3a 5fbf fc50 f4be 2430 e6be
00000290: bfdf 6fbf 33a5 f7be 6b91 aabe 6204 50bf
000002a0: 849e fcbe 51da 3dbe 42d0 e5be 0d30 01bf
000002b0: ab1d c13d 23d3 453c 85a2 00bf 1fb9 f13d
000002c0: 3be1 6e3e ea57 fdbe 77e5 973d ca42 bf3e
000002d0: e01c fabe 8a6f a43d b61c d63e da24 f6be
000002e0: d385 fabc e6d9 ff3e 6487 eabe 1476 5ebe
000002f0: cd19 2f3f c6cd f0be b3b8 e4be 546d 553f
00000300: d7f5 20bf e009 11bf 7586 6f3f 9aaf 623e
00000310: 4d64 603e 6bb8 373f ee71 1f3d aba6 5c3d
00000320: 8117 0e3f ca4e bdbb 0854 203c 3a54 fe3e
00000330: 3da9 913b 77e9 1d3c 7e5d f23e 33f0 983b
00000340: a265 063c 6efa ea3e 7132 463b 1868 d03b
00000350: c1c9 e73e 0555 f73a 9c73 883b 409b e63e
00000360: 2c79 733a 0031 f83a 9013 e63e 8b33 3bba
00000370: 8a79 f439 21b0 e53e f231 88ba f31b ed38
00000380: df29 e53e d22b 81ba 5dcd bfb6 dae1 e43e
00000390: 5ecf 7eba 5992 51b8 34b2 e43e 5291 7dba
000003a0: 8447 a335 52b3 e43e e26b 91ba 28f4 af38
000003b0: 34a7 e43e 4d0d 8aba 6af5 9638 5792 e43e
000003c0: a24e 81ba 16d9 b938 819e e43e af56 87ba
000003d0: 667a 0b36 d1a3 e43e 453a 7dba cc63 b338
000003e0: be8e e43e a14d 83ba c280 47b8 12a4 e43e
000003f0: bb67 8cba d382 cab7 408f e43e 3e23 87ba

fc_out.bias f4 [334]
0.45627093 0.44638962 0.43718493 0.40708566 0.37611002 0.4334138 0.41229844 0.2604524
0.4082032 0.5074047 0.27121517 0.35686013 0.2850913 0.39632434 0.2668516 0.28424302
0.21173202 0.09217708 0.3704424 0.40619507 0.35236287 0.30716014 0.34117493 0.342769
0.36648706 0.40712795 0.46655738 0.17131123 0.19439088 0.27803436 0.21789558 0.22361588
0.23596343 0.26950735 0.2857616 0.1790087 0.13480568 0.24223956 0.24927889 0.23964107
0.1991174 0.041538518 0.08223096 0.19847192 0.31636047 0.19171703 0.2630811 0.21797542
0.06522184 0.23099764 0.23222284 0.20502527 0.13492464 0.25127816 0.18253484 0.1707135
0.10278078 0.20156373 0.3709555 0.41605994 0.17696936 0.10807552 0.0603845 0.15972495
0.093904205 0.16474459 0.071146056 0.017736688 0.12620138 0.019106923 0.11161065 0.065780036
0.2570902 0.20066273 0.028768547 0.1557312 0.17958547 0.114113756 0.15548743 0.09545077
0.11472231 0.07092697 0.20189773 0.08331582 0.11678143 0.06226803 0.14365305 0.08146405
0.06470964 0.22914289 0.17980628 0.049264833 0.023600688 0.14798948 0.124765486 0.104422286
0.051837105 0.045064367 0.2628339 0.11890583 0.007829521 -0.07718909 -0.010774898 -0.11391467
0.18725497 0.016486775 0.0486946 -0.11173603 0.1333065 -0.023563068 0.044285048 -0.022820009
0.2167968 0.011643905 0.22520234 0.10231484 0.2951727 0.18216541 0.116607994 0.03832948
0.20740575 -0.056022674 0.009885285 0.014977395 0.05577886 -0.04871007 -0.010684642 -0.023660343
0.26736054 0.037499316 -0.11891671 -0.03596213 -0.0044577653 0.13232799 -0.044406123 0.080910474
0.13463946 0.05173034 0.07679351 0.030742666 0.037223186 0.091701865 0.02909504 0.045917865
0.069711454 0.06493917 -0.07681469 0.17575644 -0.010977522 -0.028734388 0.006171607 0.029556198
0.0531434 0.13132747 -0.021078492 0.118986 0.07121764 0.09509864 0.17933543 -0.0032550439
0.013269205 0.080824174 0.07935777 0.041275315 0.037971362 0.03593722 -0.08283773 0.023374952
-0.0680878 0.032181967 0.051344834 0.06438906 0.08878468 -0.112531185 0.12463843 -0.0018337165
0.07536552 -0.06899531 -0.052810483 0.04240753 -0.08135729 -0.110105716 -0.01162265 -0.17849691
-0.18326402 -0.11759487 -0.03657378 0.04102144 0.04296377 0.012303106 0.063280225 -0.1857707
-0.13686685 -0.046525724 -0.04089474 -0.05243164 -0.11246306 0.03881533 0.05319634 -0.06375848
-0.10964156 -0.010328813 -0.07901561 0.038457595 0.024422452 0.032404356 -0.03112264 -0.0630261
-0.04872833 -0.12824152 0.01945789 0.0056092176 -0.11223854 0.063516386 0.02069815 0.059491508
-0.065939695 -0.10171589 -0.038348388 -0.0705103 0.015739527 -0.058759227 -0.08377733 -0.03012797
0.010943058 -0.08031077 -0.03926737 -0.061632738 0.0648441 0.015570611 0.009355877 -0.096885346
-0.029712213 0.0137624685 0.04483153 0.052845024 -0.03781504 -0.0389809 -0.085475415 0.015466344
-0.08601146 -0.07912429 -0.05196563 -0.075961 -0.08118327 -0.0037688045 -0.01911399 -0.022644415
-0.110403284 -0.16737518 -0.20618504 -0.14248739 -0.054427657 -0.23969325 -0.13656999 -0.062174506
00000000: 589c e93e 2e8d e43e b4d6 df3e 886d d03e
00000010: 7e91 c03e 6ae8 dd3e c818 d33e 045a 853e
00000020: 0300 d13e 46e5 013f b7dc 8a3e 5fb6 b63e
00000030: 7df7 913e 06eb ca3e c6a0 883e 4d88 913e
00000040: 47d0 583e 56c7 bc3d a0aa bd3e cdf8 cf3e
00000050: e868 b43e 1844 9d3e 7bae ae3e 6b7f af3e
00000060: 31a4 bb3e 1373 d03e 9ce0 ee3e 366c 2f3e
00000070: 670e 473e 855a 8e3e 0520 5f3e 90fb 643e
00000080: 66a0 713e defc 893e 584f 923e 0f4e 373e
00000090: 800a 0a3e a60d 783e f742 7f3e 7864 753e
000000a0: 6fe5 4b3e 4b24 2a3d b568 a83d 393c 4b3e
000000b0: 00fa a13e 7851 443e 91b2 863e f334 5f3e
000000c0: 0793 853d a58a 6c3e d3cb 6d3e 25f2 513e
000000d0: af29 0a3e 88a7 803e 6aea 3a3e 85cf 2e3e
000000e0: bb7e d23d b966 4e3e e1ed bd3e cf05 d53e
000000f0: 7537 353e b356 dd3d bd55 773d f08e 233e
00000100: d950 c03d ceb2 283e 06b5 913d 884c 913c
00000110: ef3a 013e 1f86 9c3c 2094 e43d afb7 863d
00000120: 54a1 833e 887a 4d3e 04ac eb3c 0078 1f3e
00000130: 41e5 373e 79b4 e93d 1938 1f3e b17b c33d
00000140: 88f3 ea3d 2942 913d 47be 4e3e 7ca1 aa3d
00000150: 1a2b ef3d c30c 7f3d c919 133e a0d6 a63d
00000160: 7d86 843d 6fa4 6a3e 231f 383e ecc9 493d
00000170: 3b56 c13c 8e8a 173e 0c85 ff3d 5adb d53d
00000180: 2553 543d 6a95 383d 2a92 863e e684 f33d
00000190: 6447 003c 5015 9ebd 3389 30bc 184c e9bd
000001a0: c4bf 3f3e 460f 873c fd73 473d dcd5 e4bd
000001b0: 8081 083e 5607 c1bc 3d64 353d 07f1 babc
000001c0: fbff 5d3e 14c6 3e3c 719b 663e 718a d13d
000001d0: e020 973e 9289 3a3e 2cd0 ee3d 5fff 1c3d
000001e0: 2c62 543e 0878 65bd e4f5 213c bf63 753c
000001f0: 6078 643d 3684 47bd a30e 2fbc 56d3 c1bc
00000200: 7be3 883e e298 193d 9b8a f3bd 074d 13bd
00000210: 7212 92bb fd80 073e 32e3 35bd 64b4 a53d
00000220: edde 093e 31e3 533d ea45 9d3d 0bd8 fb3c
00000230: 5777 183d 30ce bb3d b958 ee3c 5f14 3c3d
00000240: e1c4 8e3d d4fe 843d 0551 9dbd 7ff9 333e
00000250: 10db 33bc 6164 ebbc 313b ca3b d71f f23c
00000260: e5ac 593d b57a 063e cdac acbc efae f33d
00000270: 8eda 913d 13c3 c23d b5a3 373e 9352 55bb
00000280: 1467 593c 2587 a53d 5486 a23d 4e10 293d
00000290: dc87 1b3d e832 133d d4a6 a9bd d47c bf3c
000002a0: 9e71 8bbd 3dd1 033d f64e 523d 69de 833d
000002b0: bed4 b53d c076 e6bd 6f42 ff3d 5159 f0ba
000002c0: 3d59 9a3d 6a4d 8dbd ce4f 58bd 85b3 2d3d
000002d0: a79e a6bd 1b7f e1bd ed6c 3ebc e5c7 36be
000002e0: 90a9 3bbe 94d5 f0bd 63ce 15bd 1906 283d
000002f0: c7fa 2f3d f792 493c 1099 813d ad3a 3ebe
00000300: d326 0cbe c291 3ebd 3e81 27bd 8fc2 56bd
00000310: 0853 e6bd d3fc 1e3d 68e4 593d ce93 82bd
00000320: c18b e0bd 2f3a 29bc f0d2 a1bd b685 1d3d
00000330: 9811 c83c 6eba 043d e8f4 febc d413 81bd
00000340: 5b97 47bd bf51 03be 2766 9f3c 87cd b73b
00000350: 52dd e5bd e114 823d 2b8f a93c 5ead 733d
00000360: 640b 87bd 6c50 d0bd 3313 1dbd b467 90bd
00000370: 2ef0 803c 84ad 70bd 7393 abbd efce f6bc
00000380: 834a 333c f979 a4bd d2d6 20bd 9c72 7cbd
00000390: fccc 843d e01b 7f3c 6449 193c d36b c6bd
000003a0: 0767 f3bc fa7b 613c 44a1 373d 0674 583d
000003b0: f2e3 1abd 70aa 1fbd bc0d afbd 8c66 7d3c
000003c0: c726 b0bd ea0b a2bd ead9 54bd 7191 9bbd
000003d0: 6a43 a6bd 0cfe 76bb f194 9cbc c880 b9bc
000003e0: 1e1b e2bd 6664 2bbe 2c22 53be 37e8 11be
000003f0: 89ef 5ebd 2672 75be 01d9 0bbe b2aa 7ebd
