lstm/model_pt/lstm_full_3_fold_CV_600.pt (torch, 218675 bytes, 6 tensors)

rnn.weight_ih_l0 f4 [12, 3]
0	0x3e96a3c0	0.29421806
1	0x3cf47998	0.029843137
2	0x3bccfb2b	0.0062555275
3	0xbd73258b	-0.059361976
4	0x3d3f12d8	0.04664883
5	0x3f2136a4	0.62974
6	0x3e0a3f2b	0.13500659
7	0xbeb13f46	-0.34618586
8	0xbc70b3d7	-0.014691315
9	0xbd47952a	-0.04872624
10	0x3cbcb5b6	0.023035865
11	0x3cc2524c	0.023720883
12	0xbbda9546	-0.006670627
13	0xbd36be3f	-0.044615027
14	0xbcc5cb2f	-0.024144737
15	0xbd1482c0	-0.036257505
16	0x3d0e942a	0.03480927
17	0x3c924f7f	0.017860172
18	0x3dc26b9e	0.094931826
19	0x3e197850	0.14987302
20	0xba3cd730	-0.00072036963
21	0xbcc8b9ce	-0.024502661
22	0x3bab8bd2	0.0052351737
23	0xbe471d38	-0.1944474
24	0xbd9d6093	-0.07684436
25	0x3e295c33	0.16539077
26	0xbcbb513c	-0.022865884
27	0xbe8b6089	-0.27222088
28	0xbdc79aa1	-0.0974629
29	0xbd25d243	-0.040483724
30	0xbdc43766	-0.09580879
31	0xba306f2a	-0.0006730432
32	0x3f2df0d9	0.6794563
33	0x3e3e9c84	0.18614393
34	0xbe956416	-0.29177922
35	0x3cd01f54	0.025405563

rnn.weight_hh_l0 f4 [12, 3]
0	0xbfbb89be	-1.465141
1	0x3f1c81b7	0.6113543
2	0x3f578ddf	0.84200853
3	0xbf04a5b6	-0.51815355
4	0x3fd10bd0	1.633173
5	0xbebdfc44	-0.37106526
6	0x3f12dfb4	0.57372594
7	0x3f8581ad	1.0430199
8	0x40230eb8	2.5477734
9	0x3e68877a	0.2270793
10	0x3de514e1	0.11185623
11	0xbedbeebd	-0.4295558
12	0x3eb12e63	0.34605703
13	0xbe1406af	-0.14455675
14	0x3e5f3fe4	0.21801716
15	0xbe4b5604	-0.19857031
16	0x3dcff6d1	0.10154498
17	0xbf068224	-0.5254233
18	0xbf74e2f1	-0.95658785
19	0x3ea13d6e	0.3149218
20	0x3f1abc5e	0.60443676
21	0x3b46c3d3	0.0030329123
22	0xbeb32c42	-0.34994704
23	0xbe095104	-0.13409811
24	0xbebe7db7	-0.37205288
25	0xbefae716	-0.4900443
26	0xbf890021	-1.0703164
27	0x3f829f9d	1.020496
28	0xbf929129	-1.1450549
29	0xbf2a870b	-0.6661231
30	0x3ee49ace	0.44649357
31	0x3fa3c701	1.2795106
32	0xbeb448d1	-0.35211805
33	0x3eb62e9e	0.3558244
34	0x3f7128eb	0.9420306
35	0x402e7a60	2.7262192

rnn.bias_ih_l0 f4 [12]
0	0x3fc4ded0	1.5380497
1	0x3fa9030b	1.3204054
2	0x3f5a1639	0.8519016
3	0x3f7089d3	0.93960303
4	0x3f2e80e1	0.68165404
5	0x3f80a469	1.0050174
6	0x3df4c4b9	0.11951584
7	0x3f14eb67	0.58171695
8	0x3f209e6b	0.62741727
9	0x3fc322d8	1.5245008
10	0x3fa12155	1.2588297
11	0x3fa14390	1.2598743

rnn.bias_hh_l0 f4 [12]
0	0x3fc31ae9	1.5242587
1	0x3fa9f666	1.327832
2	0x3f52a212	0.8227855
3	0x3f6e8266	0.9316772
4	0x3f2ef158	0.6833701
5	0x3f7f3a05	0.99697906
6	0x3de78455	0.11304537
7	0x3f177b4e	0.59172523
8	0x3f228683	0.634865
9	0x3fc15c97	1.5106381
10	0x3fa1a5e2	1.2628748
11	0x3f9fcfdc	1.2485309

fc_out.weight f4 [334, 161]
0	0xbe3afb2a	-0.18259874
1	0x3f097fd5	0.5371068
2	0x3db9ea11	0.09077848
3	0xbe207064	-0.15667874
4	0x3f19d00c	0.6008308
5	0x3e16a6f3	0.14712124
6	0xbd8f5fb8	-0.07000679
7	0x3f20a5c6	0.6275295
8	0x3e83d356	0.25747174
9	0x3c68e34e	0.01421435
10	0x3f292092	0.66065323
11	0x3ea8e84c	0.32989728
12	0x3d61ba68	0.05510941
13	0x3f37b78f	0.71764463
14	0x3ebb6e4a	0.3660758
15	0x3cd7760d	0.026301408
16	0x3f3ed6c2	0.74546444
17	0x3ecd771f	0.40129945
18	0xbd1e57ae	-0.038657837
19	0x3f40d8c4	0.7533076
20	0x3edd6b94	0.43246138
21	0xbd6ee195	-0.0583206
22	0x3f3daee9	0.74095017
23	0x3eda9350	0.42690516
24	0xbdaef81a	-0.08543415
25	0x3f373531	0.7156554
26	0x3ede7b7e	0.43453592
27	0xbdaf9114	-0.08572593
28	0x3f3b349a	0.7312714
29	0x3ee39984	0.4445306
30	0xbde2925d	-0.11063073
31	0x3f3c2100	0.73487854
32	0x3ef5cfc2	0.4801007
33	0xbe13b2d7	-0.1442369
34	0x3f3582a8	0.7090249
35	0x3f199366	0.5999054
36	0xbdbe99b0	-0.09306657
37	0x3e82f465	0.25577083
38	0x3bab2351	0.005222716
39	0xbe088a2f	-0.13333963
40	0xbcbf682b	-0.0233651
41	0xbebd5944	-0.36982167
42	0xbde32230	-0.11090505
43	0xbe37832b	-0.1792113
44	0xbedaef33	-0.4276062
45	0xbde3a217	-0.111149006
46	0xbdc40578	-0.095713556
47	0xbed473f8	-0.41494727
48	0xbdde9d95	-0.108699
49	0xbc450ae7	-0.012026525
50	0xbeb4419e	-0.35206312
51	0xbde50554	-0.11182657
52	0xbc3643e8	-0.011124589
53	0xbeb061cb	-0.3444961
54	0xbdde2d32	-0.10848464
55	0xbc175733	-0.0092370985
56	0xbeaf0712	-0.34185082
57	0xbde1c550	-0.110239625
58	0xbbf607d9	-0.0075082597
59	0xbeaeb355	-0.34121194
60	0xbde0ad90	-0.109706044
61	0xbb4f109d	-0.0031595596
62	0xbeae847c	-0.34085453
63	0xbde4709c	-0.11154291
64	0xbb8db8ba	-0.0043249996
65	0xbea7cc69	-0.3277314
66	0xbdde3ef8	-0.10851854
67	0xba719554	-0.0009215672
68	0xbea9a444	-0.33133137
69	0xbde59823	-0.112106584
70	0x39ff4f39	0.00048696416
71	0xbea7c06b	-0.3276399
72	0xbde4ed57	-0.111780815
73	0x3aec643c	0.0018035243
74	0xbea7b5fd	-0.32756034
75	0xbde5fcbe	-0.11229847
76	0xba680c2c	-0.00088519114
77	0xbea88921	-0.3291712
78	0xbde4cfcf	-0.11172449
79	0x3b0c5f86	0.002141924
80	0xbea8c45e	-0.32962316
81	0xbdde32aa	-0.10849507
82	0x3b3a3041	0.002841011
83	0xbea9797a	-0.33100492
84	0xbde44a63	-0.11147001
85	0x3a182b86	0.00058048253
86	0xbea7bb74	-0.32760203
87	0xbde10a01	-0.10988236
88	0xb95f4c60	-0.00021295389
89	0xbea7d02c	-0.3277601
90	0xbdde0475	-0.10840694
91	0xb7dbee2d	-2.6217744e-05
92	0xbea90a79	-0.33015803
93	0xbde0acf0	-0.10970485
94	0x3b479673	0.0030454665
95	0xbea81036	-0.32824868
96	0xbddef3fd	-0.10886381
97	0xba095977	-0.00052394666
98	0xbea7b6f5	-0.32756773
99	0xbde0a8e7	-0.109697156
100	0x3aa5a49c	0.0012637558
101	0xbea78639	-0.3271959
102	0xbde05048	-0.109528124
103	0x3a9f7614	0.0012165927
104	0xbea8b620	-0.3295145
105	0xbde6f98e	-0.112780675
106	0x3a82eafb	0.0009988243
107	0xbea8167e	-0.3282966
108	0xbde59e53	-0.112118386
109	0xbaedc6e6	-0.0018140941
110	0xbea983b9	-0.3310831
111	0xbde05c73	-0.10955133
112	0xbb088936	-0.0020833737
113	0xbea90278	-0.33009696
114	0xbde50d94	-0.111842304
115	0x3a4a3524	0.0007713607
116	0xbeaa20b4	-0.33228076
117	0xbde5f606	-0.11228566
118	0x3a9afe70	0.0011825096
119	0xbea873cc	-0.32900846
120	0xbddf46f5	-0.10902206
121	0xb9e5bcad	-0.00043818858
122	0xbea9b467	-0.3314545
123	0xbddef262	-0.108860746
124	0x3a4e0ee1	0.00078604935
125	0xbea9274f	-0.33037803
126	0xbde502ab	-0.111821495
127	0x39a1dec8	0.00030874298
128	0xbea9ee45	-0.33189598
129	0xbde5b8a7	-0.1121686
130	0xb994a6c9	-0.00028353024
131	0xbeaa1dcf	-0.33225867
132	0xbde52d85	-0.11190323
133	0x3a2c1578	0.00065644784
134	0xbea8c77c	-0.32964694
135	0xbde15974	-0.1100339
136	0x3a2c2022	0.00065660675
137	0xbea8def3	-0.32982597
138	0xbde1fde4	-0.11034754
139	0xba7905a6	-0.0009499438
140	0xbea897dc	-0.3292836
141	0xbde3ae60	-0.11117244
142	0xb8aaf18c	-8.151223e-05
143	0xbea8ee69	-0.32994393
144	0xbde291bb	-0.11062952
145	0x3a9260b7	0.0011167739
146	0xbeaa10fa	-0.33216077
147	0xbde40cff	-0.11135291
148	0xbabe8a54	-0.0014537075
149	0xbea8c4a2	-0.3296252
150	0xbf89eb7a	-1.0774987
151	0x3eda196c	0.4259752
152	0xbf63f02d	-0.89038354
153	0x3f7bd0be	0.9836539
154	0x3efabc94	0.48972
155	0xbd55afa5	-0.05216946
156	0xbf5e3a0f	-0.8680734
157	0xbd6d5a42	-0.057947405
158	0xbeaaf752	-0.33391815
159	0x3f7f4e57	0.9972891
160	0xbe151ac2	-0.14560989
161	0xbd61c9ea	-0.0551242
162	0x3ee0cafa	0.4390486
163	0x3f84b146	1.03666
164	0xbeccbf1c	-0.39989555
165	0x3ed7aae6	0.42122573
166	0x3f8bc59d	1.0919682
167	0xbf041f6c	-0.51610446
168	0x3ec826af	0.39092013
169	0x3f74fb66	0.95696104
170	0xbf11a2d0	-0.5688906
171	0x3e85c28e	0.26124996
172	0x3f3e801a	0.7441422
173	0xbf1f1688	-0.62143755
174	0x3e1faac9	0.15592493
175	0x3f1cbb54	0.6122334
176	0xbf1fac5f	-0.6237239
177	0x3e3afe8d	0.18261166
178	0x3ebe7c39	0.3720415
179	0xbf25ba54	-0.6473744
180	0x3e42a76e	0.19009182
181	0x3d892719	0.066969104
182	0xbf297681	-0.6619645
183	0x3ea1128d	0.31459466
184	0xbe569d12	-0.20958355
185	0xbf27cb7a	-0.65544856
186	0x3ebfb6c6	0.37444133
187	0xbec726ac	-0.38896692
188	0xbf225e91	-0.63425547
189	0x3eca03ba	0.39455968
190	0xbecd4332	-0.40090328
191	0xbf1f7a4c	-0.62295985
192	0x3ec72133	0.38892516
193	0xbec1affc	-0.37829578
194	0xbf0ed11e	-0.5578784
195	0x3e7ae826	0.2450262
196	0xbebea6f8	-0.37236762
197	0xbeeda3d1	-0.46414044
198	0x3e9c37b8	0.3051126
199	0xbe9662ec	-0.29372346
200	0xbeb18cc7	-0.34677717
201	0xbec0f836	-0.3768937
202	0xbee399bb	-0.44453225
203	0xbeaa3a29	-0.33247498
204	0xbdde5f4f	-0.108580224
205	0xbe8b26c5	-0.27178016
206	0xbea84973	-0.32868537
207	0xbb842483	-0.004032673
208	0xbe74cc20	-0.23905993
209	0xbea9eada	-0.3318699
210	0xbb6edc04	-0.0036447058
211	0xbe7023de	-0.23451182
212	0xbeaa00e0	-0.33203793
213	0xbb97dc0f	-0.0046343873
214	0xbe7169bb	-0.23575489
215	0xbea9ae8d	-0.33140984
216	0xbbd9a016	-0.006641398
217	0xbe721978	-0.23642528
218	0xbea9a1bd	-0.3313121
219	0xbb53cec1	-0.003231928
220	0xbe718f7b	-0.2358989
221	0xbeaa1861	-0.33221725
222	0xbba59f64	-0.0050544012
223	0xbe72ac25	-0.2369848
224	0xbea9fe06	-0.33201617
225	0xbab254e6	-0.0013605624
226	0xbe7169f0	-0.23575568
227	0xbea8bbda	-0.3295582
228	0xbaa74d0f	-0.0012764054
229	0xbe72f88d	-0.23727627
230	0xbea8a139	-0.32935503
231	0xbac9c836	-0.001539475
232	0xbe73e218	-0.23816717
233	0xbea90c22	-0.3301707
234	0x3b30974c	0.0026945649
235	0xbe714808	-0.23562634
236	0xbea92ba8	-0.3304112
237	0x3b37a17b	0.0028019834
238	0xbe74f41a	-0.23921242
239	0xbea86bf7	-0.3289487
240	0x39c93bb8	0.00038382201
241	0xbe746d59	-0.23869838
242	0xbea84f3c	-0.3287295
243	0x3b1a59c8	0.002355205
244	0xbe74e8db	-0.23916952
245	0xbea9ea33	-0.33186492
246	0x3b01f795	0.0019831408
247	0xbe72037e	-0.23634145
248	0xbeaa07db	-0.33209118
249	0xb88d91d4	-6.7505665e-05
250	0xbe72aa51	-0.23697783
251	0xbea8b797	-0.32952568
252	0x3b3b91c5	0.002862082
253	0xbe731081	-0.23736764
254	0xbea95dfd	-0.3307952
255	0x3a0971f5	0.0005243116

fc_out.bias f4 [334]
0	0x3ec4ff00	0.384758
1	0x3e82b6a1	0.2552996
2	0x3ec47093	0.38367137
3	0x3f0c95bd	0.5491598
4	0x3e9e7a8c	0.3095287
5	0x3e95f609	0.29289272
6	0x3eec9ee8	0.46214986
7	0x3eb40280	0.35158157
8	0x3e174b23	0.14774756
9	0x3ea3516d	0.3189806
10	0x3e7eb6d4	0.24874431
11	0x3e7eeeae	0.24895737
12	0x3eb5b00a	0.3548587
13	0x3e3360ed	0.17517443
14	0x3ee8e336	0.45485848
15	0x3eb0cea3	0.3453265
16	0x3e75ee88	0.24016774
17	0x3e9cb561	0.3060713
18	0x3dc890ad	0.0979322
19	0x3e3d8794	0.1850875
20	0x3ea17739	0.31536272
21	0x3e8d5eb0	0.27611303
22	0x3eba3a43	0.36372575
23	0x3e456f9d	0.19280858
24	0x3dca4cbe	0.09877919
25	0x3e8740e9	0.2641671
26	0x3e7ee392	0.24891499
27	0x3df2272c	0.11823878
28	0x3e856430	0.26053
29	0x3e264e2b	0.16240756
30	0x3e830705	0.25591293
31	0x3e8c4929	0.27399567
32	0x3e92e330	0.28688955
33	0x3e28ba07	0.16477214
34	0x3e3ba4cd	0.18324585
35	0x3e8af050	0.2713647
36	0x3ea4c242	0.32179457
37	0x3ea4d646	0.32194728
38	0x3e8fbc89	0.28073528
39	0x3d78af89	0.06071428
40	0x3e3cec25	0.18449457
41	0x3e6d2568	0.231588
42	0x3e01b5a9	0.12666954
43	0x3e0db463	0.13838343
44	0x3e14c571	0.14528443
45	0x3d45ea05	0.04831888
46	0x3e51b591	0.20479418
47	0x3e9f35ea	0.3109582
48	0x3eaa7231	0.33290246
49	0x3e7ef62a	0.24898592
50	0x3ea7a453	0.32742557
51	0x3e6d1b48	0.23154938
52	0x3e64de02	0.22350314
53	0x3dcc7481	0.09983159
54	0x3e578df2	0.21050242
55	0xbc7b68ed	-0.0153448405
56	0x3c51d1cd	0.012806368
57	0x3de7ce07	0.113185935
58	0x3dc21ff2	0.09478749
59	0x3e8e0183	0.27735528
60	0x3cca1a2b	0.024670681
61	0x3d7a02f1	0.06103796
62	0x3da9023f	0.082523815
63	0x3e0c61e4	0.13709217
64	0x3e8219ba	0.25410253
65	0x3d8c5011	0.06851209
66	0x3db35b60	0.08757663
67	0x3e4e7a11	0.20163752
68	0x3e8ad01e	0.27111906
69	0x3dc39d0c	0.09551439
70	0x3e2311a3	0.15924697
71	0x3e1417cf	0.14462207
72	0x3e0a7c9c	0.13524097
73	0x3d86344e	0.06552945
74	0x3e030a34	0.12796861
75	0x3df19be6	0.117973134
76	0x3e18c43c	0.14918607
77	0x3d2365f8	0.039892167
78	0x3e864058	0.26220965
79	0x3e76c29b	0.24097674
80	0x3e0d8997	0.13822018
81	0x3eb34552	0.35013825
82	0x3e6cae88	0.23113453
83	0x3e0e3b23	0.13889746
84	0x3e8135dc	0.25236404
85	0x3df22a81	0.11824513
86	0x3d892271	0.06696022
87	0x3ba09844	0.004900964
88	0x3dd34863	0.10316541
89	0xbbd2f813	-0.006438264
90	0x3ea5cab8	0.32381225
91	0x3ddf3b56	0.10899989
92	0x3deeda97	0.116627865
93	0x3e8b01c1	0.27149776
94	0x3e877ecd	0.2646393
95	0x3e33727b	0.1752414
96	0x3e0a9686	0.13533983
97	0x3e3895ff	0.18025969
98	0x3dcd2e1e	0.10018562
99	0x3d3767f8	0.044776887
100	0x3d66ab92	0.056315966
101	0x3ca1eba0	0.019765675
102	0x3db4d218	0.08829135
103	0xbe2b6ceb	-0.16740768
104	0x3df14a03	0.11781695
105	0xbdb1a1f6	-0.0867347
106	0xbc6b1f48	-0.01435072
107	0xbdd68533	-0.104746245
108	0x3d33c062	0.043884642
109	0xbc476873	-0.012170899
110	0x3d939d01	0.072076805
111	0x3b49feea	0.0030822107
112	0x3dda0bc8	0.10646778
113	0xbbc21b3b	-0.0059236563
114	0x3dae9852	0.085251465
115	0xbc649722	-0.0139520485
116	0x3dde6738	0.10859531
117	0x3d5ff110	0.054673254
118	0x3cac12b5	0.021005014
119	0xbe146184	-0.14490324
120	0x3df19dc0	0.117976665
121	0xbd790abf	-0.060801264
122	0xbc88ee43	-0.016715175
123	0x3cb4e98f	0.022084026
124	0x3d3edc2e	0.0465967
125	0x3d9a0d61	0.07522083
126	0x3dba22b6	0.09088652
127	0x3e686f40	0.22698689
128	0x3dcc58b7	0.099778585
129	0x3d9d7e30	0.07690084
130	0xbde64e5d	-0.11245415
131	0x3cb8de21	0.022566857
132	0x3ddaa320	0.10675645
133	0x3e08ddfd	0.13365932
134	0x3e3e6479	0.18593015
135	0x3e9ee24a	0.3103202
136	0x3d661f86	0.056182407
137	0x3d6f1d72	0.05837769
138	0x3d8cf7a2	0.0688317
139	0xbd0d51f9	-0.034502003
140	0x3c6f9aff	0.014624356
141	0x3cebbd02	0.02877665
142	0x3ac03028	0.0014662789
143	0x3dbd353a	0.09238668
144	0xbb86499a	-0.0040981295
145	0xbce60738	-0.028079614
146	0xbbff8db6	-0.0077988757
147	0x3da184a4	0.07886627
148	0x3d09757d	0.03355931
149	0x3d8ccf1f	0.06875443
150	0x3bb85bd0	0.0056261793
151	0x3c1d3dfc	0.009597298
152	0xbce81d4d	-0.028334284
153	0x3b207885	0.0024485898
154	0x3e0efc7c	0.13963503
155	0x3e1398f3	0.14413814
156	0x3e75f825	0.24020441
157	0x3e2eeee9	0.17083324
158	0x3d723e62	0.059141524
159	0x3ded8f72	0.11599626
160	0x3e52b4d2	0.2057679
161	0x3eb2ad36	0.34897774
162	0x3dc2a2a9	0.09503681
163	0x3e26a47e	0.16273686
164	0x3e016d65	0.12639387
165	0x3d99cae9	0.07509405
166	0xbd25cd0c	-0.04047875
167	0x3d157f6e	0.03649848
168	0xbd93d4ac	-0.07218298
169	0x3ce95e80	0.028487444
170	0x3c21a539	0.009866052
171	0xbd4b16ab	-0.049582165
172	0x3d2f4b99	0.042796705
173	0xbd76aaea	-0.06022159
174	0x3da63e48	0.08117348
175	0xbd2b8ef4	-0.041884378
176	0xbcef4d03	-0.029211527
177	0xbc058d76	-0.008151403
178	0xbd9d5365	-0.07681922
179	0x3dc45027	0.095856
180	0xbd8110a9	-0.06302006
181	0xbd2b4a33	-0.04181881
182	0x3d0f7b04	0.035029426
183	0xbdf69a1d	-0.120411135
184	0xbddd52de	-0.10806821
185	0xbdac3fba	-0.084105924
186	0x3cfe0ba1	0.031011404
187	0x3c42aca3	0.01188198
188	0x3ce01240	0.027352452
189	0xbce5d256	-0.028054398
190	0x3cfdbde8	0.030974343
191	0xbe5bdf1d	-0.2147183
192	0xbe6c8d57	-0.23100792
193	0xbe5c4288	-0.21509755
194	0xbda716cf	-0.08158647
195	0xbe0c9f73	-0.137327
196	0xbc533b95	-0.012892623
197	0xbd311a72	-0.04323811
198	0xbd2366ec	-0.039893076
199	0xbdbac1c4	-0.09118989
200	0xbde7a701	-0.1131115
201	0xbc6c9f77	-0.014442316
202	0xbd87f913	-0.06639304
203	0xbc770a2a	-0.015078107
204	0xbcb0fe04	-0.0216055
205	0x3d59eafd	0.053202618
206	0xbd3b7239	-0.045763228
207	0xbdef8c20	-0.116966486
208	0xbda8405c	-0.082154006
209	0xbdc6bf39	-0.097044416
210	0xbce0f0b4	-0.027458526
211	0x3d11ad28	0.035565525
212	0xbe30646d	-0.1722581
213	0xbc3893ac	-0.0112656765
214	0x3c33a61c	0.0109648965
215	0xbca62bf6	-0.020284634
216	0x3cf16798	0.029468343
217	0x3af032e9	0.0018325719
218	0xbdc914ff	-0.09818458
219	0xbe0b4014	-0.13598663
220	0xbd85ec59	-0.0653922
221	0xbdcec5ab	-0.10096296
222	0xbd8126e1	-0.06306244
223	0xbe29fa2d	-0.1659934
224	0xbd56f755	-0.052481968
225	0xbe736982	-0.23770717
226	0x3b49c78b	0.0030789103
227	0xbdc4b7bc	-0.09605357
228	0x3af82a07	0.0018933424
229	0x3d4dd473	0.050251435
230	0xbc81fbda	-0.015867162
231	0xbdbb29f5	-0.09138862
232	0xbdb973a2	-0.09055258
233	0xbca4a996	-0.020100396
234	0xbdd6f4d0	-0.10495913
235	0xbbb5c765	-0.0055474513
236	0xbcc43a35	-0.023953537
237	0xbd5c99ab	-0.053857487
238	0xbda14598	-0.07874602
239	0xbaf56998	-0.0018723486
240	0xbd85e5f7	-0.06538003
241	0xbd71d7f2	-0.059043832
242	0xbd14c85f	-0.0363239
243	0xbce8ca28	-0.028416708
244	0xbd44217b	-0.047883492
245	0xbdaf269a	-0.085522845
246	0xbcd940b4	-0.02652011
247	0xbce6352e	-0.02810153
248	0xbde78bd1	-0.11305965
249	0xbd8f09f3	-0.069843195
250	0xbe0547f3	-0.13015728
251	0xbcc1914e	-0.023628857
252	0xbd43c209	-0.04779247
253	0xbd6cc95d	-0.057809222
254	0xbd2489f6	-0.040170632
255	0xbe0aebe6	-0.1356655
