lstm/model_pt/lstm_traj_sf_3_fold_CV_3000.pt (torch, 205319 bytes, 6 tensors)

rnn.weight_ih_l0 f4 [12, 3]
000000 da 63 44 3b ea 0f 5b bc 03 f4 6f 3c 04 e0 06 be
       0.0029966743 -0.013370493 0.014645579 -0.13171393
000010 ed 94 08 be a9 83 3b 3c af 44 bb 3d d1 c4 f5 bd
       -0.1333806 0.011444964 0.0914396 -0.120004304
000020 d7 c4 e1 3c ff 8c 85 3c 1d 9d 64 bc da 0d 65 bc
       0.02755968 0.016302584 -0.013953474 -0.013980353
000030 39 e2 8e bb e0 5f 20 bd 76 4f 01 bb 4a de 03 bd
       -0.004360464 -0.039153934 -0.00197312 -0.032194413
000040 a0 77 16 3d c6 ec ce bb 08 f5 3b 3d ab 54 33 3e
       0.036735177 -0.0063148467 0.045887977 0.17512767
000050 d1 25 ac bb 74 ea dd bd ab d3 81 bc 18 fa 16 3b
       -0.0052535315 -0.10835734 -0.015848001 0.002303725
000060 a6 24 ab bd d6 29 2a 3e b5 3c f7 b9 33 6a 29 be
       -0.083565995 0.16617522 -0.00047156741 -0.16544418
000070 46 2a a6 be 2c 0f 7d 3c f3 76 69 be 61 ba a0 3d
       -0.32454127 0.015445512 -0.22799282 0.07848049
000080 86 f6 9f 3c e9 32 12 3e 56 cb a3 be 4a e8 88 3c
       0.019526731 0.14277233 -0.3199107 0.016712327

rnn.weight_hh_l0 f4 [12, 3]
000000 a2 5c 8c 3e a7 24 bf be fa 50 a6 3e 02 3b 34 3f
       0.27414423 -0.3733265 0.32483655 0.7040254
000010 ea 56 56 bf 21 82 e9 be 28 87 28 3f bb 08 1c bf
       -0.8372637 -0.45607093 0.6583123 -0.6095082
000020 d6 3e fc 3e 6a df b3 3a f4 99 38 3d 22 40 47 3e
       0.4926669 0.0013723199 0.045068696 0.19458058
000030 ee 14 41 3e 28 da 74 be 7a 86 89 3b d4 56 af 3d
       0.1885564 -0.23911345 0.004196939 0.08561483
000040 41 24 21 be 53 b0 a1 be 6c c8 41 bf c6 ec f8 be
       -0.15736486 -0.31579837 -0.75696445 -0.48618144
000050 5e 67 8b be 8e 7f 12 3f 13 96 b4 bd 98 51 80 bf
       -0.272273 0.57225883 -0.08817687 -1.00249
000060 ee 47 21 bf 32 02 2d 3f 27 a5 80 be 41 65 f5 3f
       -0.6300038 0.67581475 -0.25126 1.9171525
000070 8f 39 33 bf 0a 25 bf 3e 06 77 28 3e 02 99 1e c0
       -0.700097 0.37332946 0.16451654 -2.4780889
000080 b2 94 2e bf 6c f5 36 3f 65 7d 64 3f e4 ed 26 40
       -0.6819564 0.71468234 0.89253837 2.6082697

rnn.bias_ih_l0 f4 [12]
000000 e9 05 66 40 5b fa 96 3f 3e 5d 6f 3f 24 49 30 3f
       3.5941107 1.1795152 0.9350165 0.68861604
000010 47 31 24 3f bc 60 25 3f 49 a0 aa 3e 1e f0 a6 be
       0.6413769 0.6460073 0.33325413 -0.3260507
000020 4e 51 ab 3e 79 3b a3 3f 4a 4c ae 3f 2f 2e 9a 3f
       0.33460468 1.2752525 1.3617032 1.2045344

rnn.bias_hh_l0 f4 [12]
000000 6a 02 66 40 1d ff 96 3f 05 38 6f 3f df 3e 30 3f
       3.5938973 1.1796604 0.93444854 0.68845934
000010 86 33 24 3f db 56 25 3f 0f 90 aa 3e 2b d7 a6 be
       0.6414112 0.64585656 0.33313033 -0.32586035
000020 b9 63 ab 3e cb 33 a3 3f 89 4f ae 3f e8 28 9a 3f
       0.3347452 1.2750181 1.3618022 1.2043734

fc_out.weight f4 [334, 151]
000000 7b 34 7b 3e 23 da d3 3e 19 8b 6a 3e db 7c 42 3e
       0.24531738 0.41377363 0.22904624 0.18992941
000010 9b 11 ff 3e 7d 6c ad 3e f6 46 4a 3e bf 99 09 3f
       0.4981812 0.33871832 0.19753632 0.5375022
000020 2e ae ca 3e 32 48 57 3e 43 30 11 3f 90 34 db 3e
       0.39586014 0.21023634 0.56714267 0.4281354
000030 ae ab f0 3d 0d c0 1a 3f d9 70 e6 3e e7 a1 c7 bc
       0.11751495 0.60449296 0.4500797 -0.024369193
000040 96 70 1f 3f 0a c5 ee 3e e8 ec 09 be 37 ba 1d 3f
       0.6228117 0.46634704 -0.13469279 0.61612266
000050 83 b3 f6 3e 80 b9 66 bd 97 44 1e 3f 56 f3 e0 3e
       0.48183832 -0.05632925 0.6182341 0.4393565
000060 fe be 8d ba dc 73 21 3f f1 d6 d9 3e 11 26 fa 3b
       -0.0010814366 0.6306741 0.425468 0.0076339324
000070 ba 0b 24 3f 87 b5 d6 3e a2 ef 00 bc f6 65 24 3f
       0.64080393 0.4193537 -0.007869633 0.6421808
000080 25 76 df 3e d9 73 11 bd 35 10 24 3f 7d d8 e7 3e
       0.43644825 -0.03551087 0.6408723 0.45282355
000090 eb 58 30 bd 83 02 23 3f 9a 5d ed 3e 8c 50 4e bd
       -0.04305355 0.6367571 0.46360475 -0.050369784
0000a0 50 0c 1d 3f 12 0a 81 3e 02 cc 77 bd 66 1f 07 3f
       0.6134691 0.25202996 -0.06049729 0.52782285
0000b0 c9 60 ac be 88 3d 65 bd 2a 94 f3 3e 0c 2a 0b bf
       -0.3366759 -0.055966884 0.47573978 -0.54361033
0000c0 8f 6c 67 bd bd 98 ea 3e fc b7 01 bf 0a a5 62 bd
       -0.056500014 0.45819655 -0.5067136 -0.055333175
0000d0 71 5c e8 3e 93 88 e9 be e3 ba 5f bd cc fc e7 3e
       0.45383027 -0.4561201 -0.05462159 0.45310056
0000e0 39 7a e0 be b6 9e 5a bd 90 f7 e7 3e 84 e5 de be
       -0.43843248 -0.053374015 0.45306063 -0.43534482
0000f0 1b 2b 52 bd c6 b9 e7 3e 4a a0 de be 4e c7 52 bd
       -0.05131064 0.4525892 -0.43481666 -0.051459603
000100 9d 12 e7 3e e1 5e de be 08 a5 45 bd f9 0e e6 3e
       0.45131388 -0.43431762 -0.04825309 0.44933298
000110 56 67 de be 17 14 3a bd bc b8 e5 3e 00 5f de be
       -0.43438214 -0.045429315 0.44867504 -0.43431854
000120 ee 94 2c bd 9d a2 e5 3e f5 5e de be ad 09 26 bd
       -0.042134218 0.44850627 -0.4343182 -0.04053657
000130 fa 95 e5 3e 62 64 de be 93 7c 22 bd 97 9d e5 3e
       0.44840986 -0.4343596 -0.039669584 0.44846794
000140 50 66 de be 73 e6 1e bd 1b 9f e5 3e 57 6a de be
       -0.43437433 -0.038793992 0.4484795 -0.43440506
000150 8a 8b 1d bd c9 99 e5 3e 5d 61 de be 4b 60 1c bd
       -0.038463153 0.4484389 -0.43433657 -0.03817777
000160 f8 96 e5 3e 90 62 de be af 9b 1b bd 03 98 e5 3e
       0.44841743 -0.43434572 -0.03799027 0.44842538
000170 1c 6a de be a4 39 1b bd e8 9f e5 3e ca 65 de be
       -0.4344033 -0.037896767 0.4484856 -0.43437034
000180 21 ca 1a bd e2 97 e5 3e 61 64 de be 08 a5 1a bd
       -0.03779042 0.4484244 -0.43435958 -0.037755042
000190 04 9d e5 3e b0 63 de be dd 8c 1a bd 63 9d e5 3e
       0.44846356 -0.4343543 -0.037731994 0.4484664
0001a0 0d 6a de be 2d c8 1a bd 30 9d e5 3e a4 66 de be
       -0.43440285 -0.03778856 0.44846487 -0.43437684
0001b0 e7 b7 1a bd 3c 95 e5 3e fa 6d de be 33 84 1a bd
       -0.03777304 0.4484042 -0.4344328 -0.03772373
0001c0 89 94 e5 3e f6 6b de be 7c b1 1a bd f0 9c e5 3e
       0.44839886 -0.43441743 -0.03776692 0.44846296
0001d0 d9 71 de be 82 ba 1a bd e5 9d e5 3e 63 6a de be
       -0.43446234 -0.037775524 0.44847026 -0.43440542
0001e0 fb 79 1a bd 3f 9a e5 3e ba 70 de be f9 76 1a bd
       -0.037713986 0.44844243 -0.4344538 -0.037711117
0001f0 0b 9d e5 3e b8 6e de be 07 b1 1a bd 0b 9c e5 3e
       0.44846377 -0.43443847 -0.037766483 0.44845614
000200 d8 72 de be 53 b8 1a bd cf 9a e5 3e 43 74 de be
       -0.43446994 -0.03777344 0.44844672 -0.43448076
000210 cb b2 1a bd c3 9c e5 3e ad 6e de be e7 8d 1a bd
       -0.037768167 0.44846162 -0.43443814 -0.037732985
000220 c4 9c e5 3e b4 6f de be ff 93 1a bd af 98 e5 3e
       0.44846165 -0.43444598 -0.037738796 0.4484305
000230 13 6f de be 2b a4 1a bd 65 9b e5 3e 01 71 de be
       -0.43444118 -0.03775422 0.4484512 -0.4344559
000240 8c 99 1a bd c4 9d e5 3e c6 76 de be 4c a8 1a bd
       -0.03774409 0.44846928 -0.43449992 -0.037758157
000250 da 96 e5 3e 5e 71 de be e7 c2 af bf 01 7b 38 be
       0.44841653 -0.43445867 -1.3731354 -0.18015672
000260 f6 8d f8 3e af 4b 13 3f c7 87 b4 be 83 f4 bd 3e
       0.48545808 0.5753736 -0.3525984 0.3710061
000270 86 84 32 3f 84 ad ca be cf 19 ff bd 2c eb 26 3f
       0.69733465 -0.39585507 -0.124560945 0.65202594
000280 da ec d1 be 5f e4 de be f4 25 0f 3f 37 45 d6 be
       -0.41001016 -0.43533608 0.55917287 -0.41849682
000290 24 04 fe be 6f db fa 3e 66 eb da be 39 ff f7 be
       -0.49612534 0.4899554 -0.4275772 -0.48436907
0002a0 62 48 90 3e 5b a6 de be 21 7f e3 be bd 61 41 bc
       0.28180224 -0.43486294 -0.4443293 -0.011803088
0002b0 6a 1e de be 2f 13 c5 be 91 52 63 be 36 27 cf be
       -0.4338258 -0.38491198 -0.22199465 -0.40459603
0002c0 2d 6b 8f be cf 48 bd be d6 68 c5 be 4d 95 05 be
       -0.28011456 -0.3696961 -0.38556546 -0.13045235
0002d0 66 1d d0 be a5 a9 bc be 1d c1 ce bc 21 bb b5 be
       -0.4064743 -0.36848179 -0.025238568 -0.3549433
0002e0 ed db 8e be 07 48 a6 bd e7 0f 5f be 6f 29 6d be
       -0.27902165 -0.08119207 -0.2178341 -0.23160337
0002f0 e9 f3 de bb ae c4 5c be be 7a 6f be c9 f0 12 3f
       -0.0068039787 -0.21559402 -0.23386666 0.5739866
000300 4e 94 0b bf 8e a3 6c be 72 85 06 3f b4 da e0 be
       -0.5452317 -0.23109266 0.5254737 -0.43916857
000310 28 3a 68 be 99 fb dc 3e c1 ff bf be cb 3d 68 be
       -0.22678435 0.43160704 -0.37499812 -0.22679822
000320 60 d6 c2 3e db e8 b6 be 9d ab 67 be 01 dc bc 3e
       0.3805418 -0.3572453 -0.22624059 0.368866
000330 b7 a4 b4 be d1 48 67 be fe ca bb 3e 69 3f b4 be
       -0.35281917 -0.22586371 0.36678308 -0.35204628
000340 43 2d 68 be ba a4 bb 3e 51 3d b4 be 72 ab 60 be
       -0.22673516 0.36649114 -0.3520303 -0.21940401
000350 8b 62 bb 3e 93 3d b4 be 21 ec 5b be 01 a7 ba 3e
       0.3659862 -0.35203227 -0.21476795 0.3645554
000360 59 02 b4 be 33 23 59 be 40 83 b8 3e a0 fd b3 be
       -0.3515804 -0.21204834 0.36037636 -0.35154438
000370 88 69 56 be a7 e8 b7 3e b5 03 b4 be ad 66 54 be
       -0.20938694 0.35919687 -0.35159078 -0.20742293
000380 1f cf b7 3e f3 00 b4 be e9 4f 53 be ed d2 b7 3e
       0.35900208 -0.35156974 -0.20635952 0.3590311
000390 d9 05 b4 be 43 d9 51 be 4e d3 b7 3e b0 07 b4 be
       -0.3516071 -0.20493035 0.359034 -0.35162115
0003a0 50 d3 4e be 9d d1 b7 3e 60 fe b3 be 5b 13 4d be
       -0.20197797 0.3590211 -0.3515501 -0.20026915
0003b0 22 d1 b7 3e 8d fe b3 be 5c 5e 4c be c5 d4 b7 3e
       0.35901743 -0.35155144 -0.1995787 0.35904518
0003c0 e6 04 b4 be 4b eb 4b be 59 d5 b7 3e 40 00 b4 be
       -0.35159987 -0.19913976 0.3590496 -0.3515644
0003d0 0d a7 4b be f2 cd b7 3e 82 01 b4 be fc 75 4b be
       -0.19887944 0.3589931 -0.351574 -0.19869226
0003e0 88 cd b7 3e dd 06 b4 be b7 6b 4b be 36 d4 b7 3e
       0.35898995 -0.35161486 -0.19865309 0.35904092
0003f0 31 ff b3 be 8f 69 4b be f8 d0 b7 3e 39 05 b4 be
       -0.35155633 -0.19864486 0.35901618 -0.35160235

fc_out.bias f4 [334]
000000 cf 5c e6 3e 4e ed b7 3e d4 62 9a 3e e8 92 90 3e
       0.44992682 0.35923237 0.30153525 0.2823708
000010 88 08 98 3e d1 9f 82 3e 68 88 9e 3e df f7 c2 3e
       0.2969401 0.25512555 0.30963445 0.38079736
000020 ec 07 1d 3e f2 7e 6d 3e 6c ad 69 3e 39 ac 56 3e
       0.15335053 0.23192957 0.22820061 0.20964135
000030 27 4e 65 3e 3b 93 fa 3d b4 d7 3e 3e 84 08 cb 3d
       0.22393094 0.12235113 0.18636972 0.099137336
000040 78 fa 92 3e 05 fa 11 3f e6 f7 00 3e ea 6a fa 3d
       0.28706717 0.57022125 0.12594566 0.122274235
000050 5c 94 11 3e 74 e0 3e 3e 95 15 d1 3e ff 3d 5c 3e
       0.14216751 0.1864031 0.40836778 0.21508025
000060 c6 6d 02 3e 2e c8 99 3e ce d7 46 3e 38 e7 19 3e
       0.12737188 0.30035537 0.1941826 0.15029609
000070 28 2f 88 3e 70 4d 33 3e 6a 43 54 3e df 11 7c 3e
       0.26598477 0.17510009 0.20728841 0.24616192
000080 14 b5 6d 3e d4 c6 29 3e 07 2d 64 3e 06 d3 e2 3d
       0.23213607 0.16579753 0.22282802 0.11075406
000090 d5 a2 54 3e 1d 29 82 3d f7 ba 27 3e 67 89 79 3e
       0.2076524 0.06355498 0.16379915 0.24368821
0000a0 c6 0b f1 3e db c7 c3 3e c7 f0 bf 3d 20 aa d8 3d
       0.47079295 0.38238415 0.093720965 0.10579324
0000b0 79 02 78 3e 95 ba ef 3d 00 8e ac 3d bc 43 13 3e
       0.24219693 0.117055096 0.08425522 0.14381307
0000c0 29 d6 70 3e 67 46 3a 3e d6 cb 62 3e b8 61 c1 3e
       0.23519196 0.18190919 0.2214807 0.37769866
0000d0 bf a0 c4 3e 34 08 5a 3d 31 8a 85 3e 5f b7 37 3d
       0.3840389 0.05323048 0.26081994 0.04485261
0000e0 88 b0 03 3e 51 cb 1b 3e 4c 60 ef 3d 56 0e 04 3e
       0.1286031 0.15214278 0.11688289 0.12896094
0000f0 e6 10 b5 3d f4 cf 7e 3d f9 97 b2 3d 8d 21 2b 3e
       0.08841114 0.06221004 0.08720393 0.16712017
000100 b2 10 08 3e 25 1b d0 3c e1 7a b3 3d aa 80 99 3d
       0.13287619 0.025403569 0.08763672 0.07495244
000110 1b 33 43 bd 4f 8d cc 3d d5 13 98 3d e8 5f 02 3e
       -0.04765616 0.0998789 0.07425658 0.12731898
000120 09 87 44 3d 7f 62 08 3e fe 1b 99 3d 90 d2 fd 3d
       0.047980342 0.13318823 0.07476042 0.12393677
000130 fd 20 85 3d fb 3f b8 3d 0c ea 5a 3d 0e 50 0b 3e
       0.06500433 0.08996578 0.05344586 0.13604757
000140 47 7d 0b 3e 0b 5f 23 3e 14 63 fe 3c b4 ea 45 3d
       0.13622008 0.15954225 0.031053104 0.048319533
000150 e2 30 78 3d 9b 0f d5 3c e4 0c bb 3d ae 76 b7 3d
       0.060593493 0.026008418 0.09133318 0.08958183
000160 35 d9 c3 3d ba e0 11 bd 2f 43 2d bd 3e 76 32 bd
       0.09562913 -0.035614707 -0.0423004 -0.043569796
000170 ed ee 3e 3d 80 03 36 3e 05 ac f5 3e 13 80 bb 3e
       0.046614576 0.17774773 0.47982803 0.3662115
000180 b5 36 d6 3b 2f e5 a1 3b 58 12 da 3e 08 3c 51 3e
       0.0065372833 0.004940651 0.4259212 0.20433056
000190 c4 95 c7 3d 9d e3 29 bc e8 e3 51 3b 5e 11 00 be
       0.097453624 -0.010369209 0.0032026712 -0.12506625
0001a0 4e 53 7c 3d 3d e0 cd bc a1 3f 9e 3d 1a e8 42 bd
       0.061602883 -0.02513134 0.0772698 -0.04758463
0001b0 71 17 84 3d 4b 61 4a bd a7 9b 7f 3e 83 2a 45 3c
       0.064497836 -0.049409192 0.2496172 0.012034061
0001c0 4d 0b 39 3e 2a 2b 3e bd a9 0c ac 3d 95 6f 74 bd
       0.18070717 -0.046427883 0.08400852 -0.059676725
0001d0 a4 0f 3a 3e 85 ea 93 bc 9e 1f ad 3d ae c3 61 bd
       0.18170029 -0.018056164 0.08453296 -0.055118255
0001e0 e3 36 f3 3d be 39 0f be 9a d0 ba 3d af 35 86 3d
       0.11875703 -0.1398687 0.09121819 0.06553208
0001f0 ee cb af 3d 46 22 f2 3a 0f 4b c8 3d 6b 46 13 3c
       0.085838184 0.0018473349 0.09779941 0.008988957
000200 da a4 78 3e 64 bd 48 bc 7a 69 ad bd 6f 21 9a 3c
       0.24281636 -0.0122521855 -0.08467384 0.01881477
000210 e4 e1 28 3e 32 91 b8 3d 16 c7 28 bd 5b af 06 bd
       0.1649242 0.09012069 -0.04120549 -0.032882076
000220 1a ca b3 3d 44 e0 0d 3d 04 7d df 3c 06 5b 44 bd
       0.08778782 0.034637704 0.027281292 -0.04793837
000230 f9 e6 a1 3d 07 ff 87 3c 0a 2c 80 3d ac 77 0c 3e
       0.07905383 0.016601099 0.062584 0.13717526
000240 b3 90 02 bc 35 e7 91 bc ed 4a 9b bd 8b dd 54 3e
       -0.007969069 -0.017810443 -0.0758265 0.20787637
000250 a6 d4 2a 3d aa 66 ea 3c f1 14 02 3c 7f 1d 12 3e
       0.041706704 0.028613407 0.007939563 0.14269064
000260 c7 ac 93 bd c1 e5 0f 3d 18 11 22 bc 36 23 83 3d
       -0.07210689 0.03513122 -0.009891771 0.064032
000270 4f c6 40 3d 94 a4 0f 3e 44 d3 70 3d 3a 45 3c 3d
       0.04706412 0.14027625 0.05879523 0.045964457
000280 cc ec 6a 3d b5 8f 5c bd a8 3c 0f 3e 8e 5d 90 3b
       0.057354733 -0.053847987 0.13987982 0.004405684
000290 05 d9 44 bc 4a e6 45 bd f4 53 c3 bd 10 6f d0 3d
       -0.012014632 -0.048315324 -0.09537497 0.101774335
0002a0 c7 9f 2f be d8 34 58 3d a4 d6 1a 3d a4 8a 09 bd
       -0.17150794 0.05278477 0.037802354 -0.033579484
0002b0 52 e1 38 3e 09 38 11 be 46 a1 5a 3e 98 30 62 be
       0.18054703 -0.14181532 0.21350583 -0.2208885
0002c0 58 b5 09 be 54 d0 63 3d 01 28 c2 bd 35 21 82 bd
       -0.13448083 0.0556186 -0.094802864 -0.0635399
0002d0 67 83 6a 3d 8d 0a 42 be b5 49 24 3b 35 3b ee bd
       0.05725422 -0.18949337 0.0025068347 -0.116323866
0002e0 38 03 ac bd 47 64 d6 bd 33 30 81 3c db 8a 8a bd
       -0.083990514 -0.10468345 0.015770053 -0.06764766
0002f0 11 3e cf bd 77 57 e7 bc 61 49 ba 3d 34 56 11 be
       -0.1011926 -0.028239949 0.09096027 -0.1419304
000300 75 09 29 bd eb 54 08 bd 5c 24 2c bd fa ef eb bd
       -0.041268785 -0.03328411 -0.042026863 -0.11520381
000310 ad 89 b0 bd 49 cf 03 be 14 74 b5 bd 90 d3 2b bd
       -0.086200096 -0.12872042 -0.08860031 -0.04194981
000320 48 9c e7 bd c8 0b d8 3c 38 d5 cd bd 40 2f f5 3c
       -0.11309105 0.026372805 -0.10050434 0.029929757
000330 35 52 fa bc f4 9a e3 3d 13 10 49 bd 2a fe f7 bd
       -0.030556777 0.11113539 -0.049087595 -0.12109025
000340 0a fb 9b bc cd b5 28 bd 75 52 a5 3d fb 57 80 3d
       -0.019040603 -0.041189004 0.08072368 0.06266781
000350 0c 88 6c be 31 89 5e 3d 57 2b 9e 3d 11 7d 2b 3b
       -0.23098773 0.054330055 0.0772311 0.0026167075
000360 1d be 09 3d c3 c1 b9 bd e7 44 53 bd 3c 4b 41 be
       0.03362857 -0.0907016 -0.051579382 -0.18876356
000370 52 ae de bd fa c6 06 be b3 53 4c bd 30 66 1e be
       -0.10873093 -0.13161841 -0.04988451 -0.15468669
000380 05 15 57 3b 5a d5 84 be 9d 3e 88 bc 8f ef 36 be
       0.0032818925 -0.25944024 -0.016631419 -0.17864822
000390 4d 3c c9 3d aa 1d 6f 3d 83 e5 57 3d 1c c5 d9 3b
       0.098259546 0.0583779 0.052709114 0.0066458117
0003a0 3d bf cd 3d d7 85 b7 3c f0 d3 47 3d 88 60 09 3d
       0.100462414 0.022402687 0.048786104 0.033539325
0003b0 fe bc a5 bd 7c 26 ea ba f9 7f b1 bd b8 66 9a 3d
       -0.08092688 -0.0017864252 -0.08666987 0.07539123
0003c0 15 dc fb bd d8 dc c6 3c d7 05 50 3d d7 88 19 3d
       -0.12297837 0.024275228 0.05078682 0.037484016
0003d0 a9 9b 86 bd 95 e5 c4 bc 5c 4f 42 3d c8 a5 be 3d
       -0.065726586 -0.024035254 0.047438964 0.09308964
0003e0 ce 88 5d 3a 36 6e 58 39 2b 24 0e be cd 4f 03 3c
       0.00084508664 0.00020640422 -0.13880984 0.008014631
0003f0 7b 94 72 bd 4a 32 0b 3d 53 41 ab bd e5 4a 97 bd
       -0.059223633 0.033983506 -0.08362069 -0.07387332
