lstm/model_pt/lstm_traj_sf_lf_5_fold_CV_800.pt (torch, 206673 bytes, 6 tensors)

rnn.weight_ih_l0 f4 [12, 3]
0	0xbe6fc7e3	-0.23416094
1	0x3d7885ff	0.060674664
2	0x3c59a4e5	0.013283943
3	0x3e4e2ff9	0.20135488
4	0xbd75664b	-0.059912007
5	0xbc02a256	-0.007973274
6	0x3db03d90	0.08605492
7	0x3ec51403	0.3849183
8	0xbc8b1580	-0.016978025
9	0xbe0765d0	-0.13222432
10	0x3b852612	0.004063376
11	0xba47f9b8	-0.00076284586
12	0xbc893c48	-0.016752377
13	0xbcd02cfb	-0.025412073
14	0x3c3c4573	0.011491167
15	0xbd433812	-0.047660895
16	0xbd06b70b	-0.032889407
17	0xbad51b6a	-0.001625878
18	0x3e0727e3	0.1319881
19	0xbe1b3ea1	-0.1516061
20	0x3b0db644	0.0021623531
21	0x3e43200e	0.19055197
22	0xbdb0f018	-0.08639544
23	0xbb6dd32b	-0.0036289196
24	0x3d1f972f	0.03896254
25	0x3e4d650e	0.2005808
26	0xbbbdaabd	-0.005788176
27	0x3dc4a9c8	0.09602696
28	0xbf02c0f2	-0.5107566
29	0x3c054485	0.008134012
30	0x3e52efdb	0.2059931
31	0xbdfedc9e	-0.12444423
32	0x3bb94c0d	0.005654818
33	0x3de0b0d2	0.10971226
34	0x3eb3f599	0.35148314
35	0x3ba692b6	0.0050834073

rnn.weight_hh_l0 f4 [12, 3]
0	0x3fe02053	1.7509865
1	0x3f23880b	0.6387946
2	0x3ea521b7	0.32252285
3	0xbb3924c5	-0.0028250676
4	0xbfdec4f5	-1.7403857
5	0xbe83fa2c	-0.25776803
6	0x3f5636fc	0.8367765
7	0xbe93c6aa	-0.28862506
8	0xc03d803a	-2.9609513
9	0x3e9c0ad1	0.30477002
10	0x3e984832	0.2974258
11	0x3e4ffc68	0.20311129
12	0xbe51f9df	-0.20505475
13	0xbe49f136	-0.19720921
14	0x3e632194	0.22180778
15	0x3eb3a85c	0.35089386
16	0x3da6e30b	0.08148774
17	0x3eb3bd8f	0.3510556
18	0xbe988f1f	-0.29796693
19	0x3f3468f0	0.7047262
20	0x3f42560a	0.75912535
21	0xbf955b55	-1.1668497
22	0xbf15b190	-0.58474064
23	0xbddcdf8a	-0.10784824
24	0x3efc0d83	0.4922906
25	0x3f3e0f59	0.7424217
26	0xbf525685	-0.8216327
27	0xbf1c222f	-0.6098966
28	0x3f633e43	0.8876688
29	0x3fb74f4a	1.4321072
30	0xbe8e7d1c	-0.27829826
31	0xc00dfa2c	-2.2183943
32	0xbebad1b1	-0.36488107
33	0x3f3aed03	0.730179
34	0xbee8cd4a	-0.45469123
35	0xc01b1e44	-2.4237223

rnn.bias_ih_l0 f4 [12]
0	0x3f9831ce	1.1890199
1	0x3f6bbffa	0.9208981
2	0x3fad0920	1.351841
3	0x3f3a2f40	0.7272835
4	0x3f499e9a	0.7875763
5	0x3f5568c2	0.8336297
6	0x3e994a36	0.2993943
7	0xbe86a408	-0.2629702
8	0xbee430dd	-0.4456853
9	0x3fdf7b28	1.7459459
10	0x3fbab8ee	1.4587686
11	0x3fa7f633	1.3122009

rnn.bias_hh_l0 f4 [12]
0	0x3f9837fb	1.1892084
1	0x3f6921ab	0.91067
2	0x3facd0e3	1.3501247
3	0x3f395f17	0.7241072
4	0x3f46da91	0.77677256
5	0x3f563053	0.83667487
6	0x3e9dceb1	0.30821756
7	0xbe898d7b	-0.26865754
8	0xbee80c5c	-0.4532193
9	0x3fdf980c	1.7468276
10	0x3fbb22b9	1.4619972
11	0x3fa7787d	1.3083645

fc_out.weight f4 [334, 152]
0	0xbf103d87	-0.56343883
1	0xbdc9663e	-0.09833954
2	0xbee8a3f5	-0.4543759
3	0xbeeb4cbf	-0.4595699
4	0xbd8d3242	-0.068943515
5	0xbf12e579	-0.573814
6	0xbe860624	-0.2617656
7	0xbd84e113	-0.06488242
8	0xbf0e8479	-0.5567089
9	0xbe7207a0	-0.23635721
10	0xbd5e66cd	-0.054297257
11	0xbf0763c9	-0.52886635
12	0xbe8f4978	-0.2798574
13	0xbd2d31c5	-0.042283792
14	0xbf023b4a	-0.5087172
15	0xbe943198	-0.28944087
16	0xbd131d00	-0.03591633
17	0xbef1cf5b	-0.47228512
18	0xbe57b94b	-0.21066777
19	0x3c8136b3	0.015773153
20	0xbef38a28	-0.47566342
21	0xbe2178af	-0.15768693
22	0x3d0eb2d4	0.034838513
23	0xbef1b2a3	-0.47206602
24	0xbe0b6445	-0.13612469
25	0x3d340b78	0.04395625
26	0xbeec724a	-0.46180946
27	0xbe13c967	-0.14432298
28	0x3cfd6624	0.030932494
29	0xbef4ebc8	-0.47836137
30	0xbe0f5d24	-0.14000374
31	0x3c74da61	0.014944644
32	0xbf05942b	-0.5217921
33	0xbe9990be	-0.29993242
34	0x3e41d025	0.18927057
35	0xbea50c00	-0.32235718
36	0xbee96ebb	-0.45592293
37	0x3e607a19	0.21921577
38	0xbe3b51a2	-0.18292859
39	0xbf18be00	-0.59664917
40	0x3e692968	0.22769701
41	0x3dfd0f9d	0.123564936
42	0xbf205dc6	-0.62643087
43	0x3e1da64b	0.15395467
44	0x3e5c7258	0.21527994
45	0xbf25c13b	-0.6474797
46	0xbcbe72ec	-0.023248158
47	0x3c2bdd14	0.010489721
48	0xbf312854	-0.6920216
49	0xbce95dec	-0.028487168
50	0x3b3b350f	0.002856556
51	0xbf39e7e7	-0.7261948
52	0xbce8ed29	-0.0284334
53	0x3b23dcbd	0.0025003396
54	0xbf401932	-0.75038445
55	0xbce6639b	-0.028123667
56	0x3aeb8781	0.001796946
57	0xbf2c0b87	-0.6720509
58	0xbceeb30a	-0.029138107
59	0x3af29594	0.0018507713
60	0xbeb5ad56	-0.35483807
61	0xbceb9d6d	-0.02876159
62	0x3ae61810	0.0017554779
63	0xbe4d9575	-0.20076545
64	0xbcddd6fb	-0.02708005
65	0x3ad307b1	0.0016100315
66	0xbe058033	-0.13037185
67	0xbce0107a	-0.027351607
68	0x3a6acff4	0.0008957379
69	0x3d6f9b7f	0.058497902
70	0xbcddf7dd	-0.02709573
71	0xb9b90293	-0.00035287868
72	0x3e93a613	0.28837642
73	0xbce3216a	-0.027725894
74	0x3a79f19b	0.0009534598
75	0x3ed303e9	0.4121392
76	0xbcdf173e	-0.027232762
77	0x39209fea	0.00015318362
78	0x3ef2bdfc	0.47410572
79	0xbce0af16	-0.027427237
80	0x3996ad84	0.0002873951
81	0x3ef20c45	0.47274986
82	0xbcdfe6b6	-0.027331691
83	0xba686cb9	-0.00088662986
84	0x3eed9a85	0.46406952
85	0xbcd8a505	-0.026445875
86	0x3a89a7b9	0.0010502256
87	0x3ee71ad8	0.45137668
88	0xbcd95cdf	-0.026533542
89	0x3a55d9c5	0.00081577554
90	0x3ee45f25	0.4460384
91	0xbce4be38	-0.027922735
92	0xba284075	-0.0006418296
93	0x3ee3e3bb	0.44509682
94	0xbcdec50d	-0.02719357
95	0x38f82641	0.00011832687
96	0x3ee3a8f2	0.44464833
97	0xbce1e68e	-0.027575757
98	0x3a25e2fc	0.0006328074
99	0x3ee2f488	0.44327188
100	0xbce40f7c	-0.027839415
101	0xba6afd73	-0.00089641585
102	0x3ee36d99	0.44419554
103	0xbcdae550	-0.026720673
104	0xb9fa893d	-0.00047785966
105	0x3ee305ba	0.44340307
106	0xbcdee653	-0.027209437
107	0xb9ade560	-0.0003316803
108	0x3ee369b7	0.44416592
109	0xbcd861c3	-0.026413804
110	0x3a263eb1	0.0006341739
111	0x3ee37e60	0.44432354
112	0xbcd6d920	-0.02622658
113	0xba6b053e	-0.000896532
114	0x3ee3da6c	0.4450258
115	0xbcdc754d	-0.026911402
116	0x396e59dd	0.00022730925
117	0x3ee3a465	0.4446136
118	0xbcdc6c26	-0.026907038
119	0x3a05dd91	0.00051065633
120	0x3ee381dc	0.44435012
121	0xbcd416a1	-0.025889697
122	0xb925e4c3	-0.00015820847
123	0x3ee385f6	0.44438142
124	0xbcd91d83	-0.02650333
125	0xba5eada1	-0.00084945007
126	0x3ee3e8c1	0.44513515
127	0xbcd44137	-0.025910003
128	0xb920b7b7	-0.00015327228
129	0x3ee335f3	0.44377097
130	0xbcd9e139	-0.026596652
131	0x3a4eec78	0.0007893513
132	0x3ee3293c	0.44367397
133	0xbcd637c0	-0.02614963
134	0xb75002d5	-1.23984255e-05
135	0x3ee30489	0.44339398
136	0xbcd8ff48	-0.026488915
137	0x38abf4a8	8.199486e-05
138	0x3ee35100	0.44397736
139	0xbce01f3c	-0.027358644
140	0x3747b04b	1.1902371e-05
141	0x3ee31645	0.44352928
142	0xbcda7998	-0.026669309
143	0xb895337b	-7.114463e-05
144	0x3ee3885c	0.4443997
145	0xbcd606cd	-0.02612629
146	0xb99b5033	-0.00029623657
147	0x3ee3247f	0.44363782
148	0xbcdb4dc9	-0.02677049
149	0xba723b52	-0.0009240407
150	0xbfc8d35b	-1.56895
151	0x3f5a6e39	0.85324436
152	0xbf0ab06b	-0.5417544
153	0xbec89de9	-0.39182976
154	0xbf0291c8	-0.51003695
155	0xbf6cc2b4	-0.92484593
156	0xbef60ba5	-0.4805576
157	0xbf235513	-0.6380169
158	0xbf7028c2	-0.9381219
159	0xbef73b2a	-0.48287326
160	0xbf29fec4	-0.66404366
161	0xbf5b13ee	-0.85577285
162	0xbef405a4	-0.47660553
163	0xbf09a9f7	-0.5377497
164	0xbf4b41a9	-0.79397064
165	0xbef19736	-0.47185677
166	0xbeb63031	-0.35583642
167	0xbe64b00e	-0.22332785
168	0xbee45de3	-0.4460288
169	0x3c20b9ae	0.0098098945
170	0x3e26b612	0.16280392
171	0xbedaf06d	-0.42761555
172	0x3de23b3c	0.11046454
173	0x3e9a9cf2	0.30197865
174	0xbed409b2	-0.41413647
175	0x3e210e35	0.15728076
176	0x3ed6a0d5	0.4191958
177	0xbecba09c	-0.39770973
178	0x3e34b8ae	0.17648575
179	0x3f0747f5	0.5284417
180	0xbebe55fc	-0.37174976
181	0x3da14d89	0.07876117
182	0x3f2a0b9d	0.6642397
183	0xbec1504c	-0.37756574
184	0xbe190c4d	-0.14946099
185	0x3f4c9c00	0.7992554
186	0xbede1bec	-0.43380678
187	0xbeca2c61	-0.39486983
188	0x3f5f81cd	0.87307435
189	0xbf1cd2c0	-0.6125908
190	0xbf0a9266	-0.54129636
191	0x3f670dbb	0.90255326
192	0x3e3aed9f	0.18254708
193	0x3e8a923c	0.27064693
194	0x3f2f11d8	0.683866
195	0x3ccb328e	0.02480438
196	0x3da98c9d	0.08278773
197	0x3f00ee81	0.5036393
198	0xbca9e3de	-0.020738538
199	0x3c36cfef	0.011157974
200	0x3ee2911a	0.4425133
201	0xbc8e25f0	-0.017352074
202	0x3c0a05f3	0.00842427
203	0x3ed5bdae	0.41746277
204	0xbc8bc2f1	-0.017060729
205	0x3c004ef9	0.007831329
206	0x3ecedbc3	0.4040204
207	0xbc91c60a	-0.017794628
208	0x3c01c907	0.007921464
209	0x3eccf393	0.40029582
210	0xbc9924ae	-0.018694248
211	0x3bd69622	0.006548659
212	0x3eccef79	0.40026453
213	0xbc96cf6f	-0.018409459
214	0x3b38ba86	0.0028187349
215	0x3ecc3d83	0.3989068
216	0xbc9eeda3	-0.019400423
217	0x3a59bd42	0.00083060947
218	0x3ecbdb00	0.3981552
219	0xbc9d0e60	-0.019171894
220	0x3a87b457	0.0010353428
221	0x3ecb92d4	0.39760458
222	0xbca34265	-0.01992912
223	0xb9bd949b	-0.0003615961
224	0x3ecb7b20	0.39742374
225	0xbc95c59f	-0.01828271
226	0xb993f07a	-0.00028217194
227	0x3ecc30d7	0.39881012
228	0xbc94bea4	-0.01815731
229	0xba3b2bec	-0.0007140029
230	0x3ecb7f98	0.39745784
231	0xbc94c00a	-0.018157978
232	0xb8caa4e7	-9.662826e-05
233	0x3ecc1d4d	0.39866105
234	0xbca16432	-0.019701097
235	0x3a5a8da3	0.00083371456
236	0x3ecc10e6	0.39856642
237	0xbc9c5142	-0.019081715
238	0x3a3b7e49	0.0007152302
239	0x3ecb672a	0.39727145
240	0xbc9670ff	-0.018364428
241	0x3a6fb9f6	0.0009144837
242	0x3ecbf821	0.39837745
243	0xbc9aac94	-0.01888112
244	0xb6d1800b	-6.2435915e-06
245	0x3ecc338e	0.39883083
246	0xbc94b0ae	-0.018150654
247	0x3a6cd0e4	0.00090338127
248	0x3ecb4cc1	0.39706996
249	0xbc982adb	-0.018575123
250	0xba0ec19a	-0.0005445719
251	0x3ecc3729	0.39885834
252	0xbc9e75dc	-0.01934331
253	0xb993f2e0	-0.0002821898
254	0x3ecb51e1	0.39710906
255	0xbc9aa040	-0.018875241

fc_out.bias f4 [334]
0	0x3ee3915d	0.4444684
1	0x3ecb3c42	0.3969441
2	0x3ecd22dd	0.4006566
3	0x3ebcaf0b	0.36852297
4	0x3ea2fa35	0.31831518
5	0x3ed3fe7e	0.414051
6	0x3ecb550f	0.39713332
7	0x3e8aa657	0.27080032
8	0x3ebb835c	0.36623657
9	0x3f036d2a	0.51338446
10	0x3e81f1ab	0.2537969
11	0x3eaeaec8	0.34117723
12	0x3e9999ee	0.30000252
13	0x3ec07a2f	0.3759322
14	0x3e511743	0.2041903
15	0x3e8bd536	0.27311105
16	0x3e623c16	0.22093233
17	0x3de685ed	0.11256013
18	0x3eafb617	0.3431861
19	0x3ecaa462	0.3957854
20	0x3ead03b8	0.337919
21	0x3e9be4ae	0.30447906
22	0x3ea9f33c	0.33193386
23	0x3e9f9d67	0.31174776
24	0x3e9d6a78	0.30745292
25	0x3ed0378c	0.4066738
26	0x3ecb1bc7	0.3966963
27	0x3e264d5c	0.16240448
28	0x3e277135	0.16351779
29	0x3e7a1164	0.24420696
30	0x3e318dfb	0.17339318
31	0x3e6ebd53	0.23314409
32	0x3e734469	0.23756565
33	0x3e85bbde	0.26119894
34	0x3e91b1ea	0.2845605
35	0x3e4b2930	0.1983993
36	0x3e00a4d3	0.12562875
37	0x3e38eea8	0.1805979
38	0x3e848864	0.25885308
39	0x3e893f50	0.26806116
40	0x3e0f9c81	0.14024545
41	0x3c0639d2	0.008192496
42	0x3d9baeb2	0.0760168
43	0x3e56b6e5	0.20968206
44	0x3e7334bf	0.2375059
45	0x3e3c4a1f	0.1838765
46	0x3e7c947d	0.24666019
47	0x3e40a547	0.18813048
48	0x3d3b6504	0.045750633
49	0x3e421cf8	0.18956363
50	0x3e53b087	0.20672809
51	0x3e40df81	0.1883526
52	0x3e1bc48c	0.15211695
53	0x3e5fc5c5	0.21852787
54	0x3e5bbbdd	0.21458383
55	0x3e48c60d	0.196068
56	0x3d9fc2b1	0.07800806
57	0x3e89b725	0.2689754
58	0x3ea56716	0.3230521
59	0x3ec42c19	0.38314894
60	0x3e19d124	0.15021187
61	0x3e0f16c1	0.13973524
62	0x3d1878a4	0.037224427
63	0x3e0b803a	0.13623133
64	0x3d86cb89	0.0658179
65	0x3e1206e4	0.14260441
66	0x3d410d4c	0.04713182
67	0x3cc16121	0.023605885
68	0x3db5331d	0.0884764
69	0x3cbd2532	0.023089025
70	0x3dd8a87a	0.10579009
71	0x3d170f66	0.03687992
72	0x3e815543	0.25260362
73	0x3e366f83	0.17815976
74	0xbc4344b6	-0.011918237
75	0x3e498147	0.19678222
76	0x3df6ea5e	0.12056421
77	0x3e212fc8	0.15740883
78	0x3de763b4	0.11298314
79	0x3d6b322d	0.0574209
80	0x3dc51920	0.09623933
81	0x3d730a38	0.059335917
82	0x3e45142c	0.19245976
83	0x3da4ff5a	0.08056517
84	0x3dbd04f9	0.09229464
85	0x3dd72d1d	0.105066516
86	0x3e0b981b	0.13632242
87	0x3e0ac209	0.13550581
88	0x3da12e36	0.07870142
89	0x3e722b7a	0.23649397
90	0x3e1d1c1e	0.15342757
91	0xbbdd028d	-0.006744689
92	0x3c3dfa2a	0.011595288
93	0x3dfc9536	0.12333147
94	0x3e6782f1	0.22608544
95	0x3d96de9c	0.07366678
96	0x3d7c6c0f	0.06162649
97	0x3d158dd1	0.0365122
98	0x3e857396	0.26064748
99	0x3de92537	0.11384051
100	0xbd3d962e	-0.0462858
101	0xbdddb15d	-0.10824845
102	0x3b60ef40	0.0034322292
103	0xbde915ca	-0.11381109
104	0x3e288ce6	0.16459998
105	0x3d541478	0.051777333
106	0x3ceb5b8f	0.028730182
107	0xbdf9ccde	-0.121972784
108	0x3e14e596	0.14540705
109	0xbcf6bdb1	-0.030119749
110	0x3cad97d5	0.021190563
111	0xbd4b1dab	-0.04958884
112	0x3e5ccbe6	0.21562156
113	0x3d20a67b	0.03922127
114	0x3e6e5eac	0.23278302
115	0x3dd0f8cc	0.10203704
116	0x3eb76618	0.3582008
117	0x3e203de2	0.15648606
118	0x3df90203	0.12158587
119	0x3cc2adc1	0.023764493
120	0x3e5ef091	0.21771456
121	0xbd23130a	-0.03981308
122	0xbabbe0e1	-0.0014333987
123	0x3c788919	0.015169405
124	0x3d59ce54	0.053175285
125	0xbd9b0a54	-0.07570329
126	0x3d79d32c	0.060992405
127	0xbd037f95	-0.032104094
128	0x3e7188c9	0.23587336
129	0x3b684912	0.0035443944
130	0xbe150b07	-0.14554988
131	0xbd2463f4	-0.040134385
132	0x3d01bb48	0.031672746
133	0x3daade10	0.08343136
134	0x3b635b27	0.0034691782
135	0x3d37c132	0.04486198
136	0x3deee1af	0.116641395
137	0x3d2a9d46	0.041653894
138	0x3dd09b82	0.10185911
139	0x3d4b7f7d	0.04968213
140	0x3cf73b44	0.030179627
141	0x3d6eb7f2	0.058280893
142	0x3cb954e5	0.022623489
143	0x3d9904db	0.07471629
144	0x3d90d89f	0.07072567
145	0x3d0b87d5	0.034065086
146	0xbdcad63c	-0.09904143
147	0x3e5fc202	0.21851352
148	0x3ce2c00a	0.027679462
149	0xbb02a52f	-0.0019934883
150	0x3cbd7f3e	0.023131963
151	0x3d5e0147	0.054200437
152	0x3dea8948	0.114519656
153	0x3e111f1c	0.14172024
154	0xbd94c8ee	-0.07264887
155	0x3dd7bc3e	0.10533951
156	0x3c4883da	0.012238467
157	0x3d782674	0.060583547
158	0x3e236cec	0.15959519
159	0xbd061bbc	-0.032741293
160	0x3c1b7a95	0.009489675
161	0x3d8305cb	0.06397589
162	0x3d1cfca7	0.038326886
163	0x3cd81946	0.026379239
164	0x3d7ce9d2	0.061746426
165	0x3cdb8f9f	0.026801882
166	0xbded2b10	-0.11580479
167	0x3c8fb27d	0.017541165
168	0xbd9f4338	-0.07776493
169	0xbac1bb62	-0.0014780576
170	0x3d9effd0	0.07763636
171	0x3d5b5581	0.05354834
172	0x3d70b8a5	0.05876984
173	0xbe00b6c5	-0.12569721
174	0x3df43482	0.119240776
175	0xbd1f4d63	-0.03889216
176	0x3d31d379	0.043414567
177	0xbd191e3c	-0.03738235
178	0xbd3179ab	-0.043328922
179	0x3d222607	0.039587047
180	0xbc463579	-0.01209771
181	0xbdf2cde6	-0.11855678
182	0xbd33db05	-0.043910045
183	0xbe4d0402	-0.2002106
184	0xbe090cd1	-0.13383795
185	0xbdd6a296	-0.104802296
186	0xbd3ae5b7	-0.04562923
187	0x3c62c842	0.0138416905
188	0x3c2d99ef	0.010595783
189	0x3c07e2ae	0.008293791
190	0x3cbdcf34	0.023170091
191	0xbe235ed4	-0.15954143
192	0xbde0052e	-0.10938488
193	0xbd8857cb	-0.0665737
194	0xbd3a3ed7	-0.045470085
195	0xbd88a86b	-0.06672748
196	0xbe14bad5	-0.14524396
197	0x3d38001b	0.044921976
198	0x3bdb25e2	0.0066878656
199	0xbda2d4aa	-0.07950719
200	0xbe1a1846	-0.15048322
201	0xbbc2c4ac	-0.0059438553
202	0xbd8ad4ea	-0.067788914
203	0x3d348d88	0.044080287
204	0x3c87c07f	0.016571281
205	0x3d1148f3	0.03546996
206	0xbcbf84ac	-0.023378693
207	0xbdb45a94	-0.08806339
208	0xbd85a2e3	-0.06525209
209	0xbe08b8f1	-0.133518
210	0x3cb47eff	0.022033213
211	0x3ad2c32f	0.0016079898
212	0xbd98d4fe	-0.074625
213	0x3d6b5e3f	0.057462927
214	0x3d88441e	0.06653617
215	0x3d168a07	0.036752727
216	0xbd6386d3	-0.0555485
217	0xbd5b9dbe	-0.05361723
218	0xbbc8fd75	-0.00613373
219	0xbc2aa51b	-0.010415341
220	0x3cd7b236	0.026330095
221	0xbd74ad81	-0.05973578
222	0xbd47db0a	-0.048792876
223	0xbcbd00a0	-0.023071587
224	0x3cd0308d	0.025413776
225	0xbdf30b20	-0.11867356
226	0xbdc0be30	-0.094112754
227	0xbd9e138c	-0.07718572
228	0x3d1cfe50	0.03832847
229	0x3d14e413	0.03635032
230	0x3ba26b2c	0.0049566235
231	0xbdd864aa	-0.10566075
232	0xbc23438c	-0.009964835
233	0x3b99f5bb	0.004698483
234	0x3cc5b5f0	0.024134606
235	0xbc946666	-0.018115234
236	0xbdb9d9b5	-0.090747274
237	0xbd3fb020	-0.046798825
238	0xbdadc225	-0.08484296
239	0xbc3ee569	-0.011651375
240	0xbdf54ee5	-0.119779386
241	0xbd968d43	-0.07351162
242	0xbd3faec5	-0.046797533
243	0xbd368da9	-0.04456869
244	0xbdfaadaa	-0.12240155
245	0xbc8f0bf4	-0.017461754
246	0x3c03d7b8	0.008047037
247	0xbdb5a5fd	-0.088695504
248	0xbe2ef6d4	-0.17086345
249	0xbe5b583a	-0.21420375
250	0xbe5f3969	-0.21799244
251	0xbde7c86c	-0.11317524
252	0xbd12037e	-0.03564786
253	0xbe2aec20	-0.16691637
254	0xbdb8a647	-0.0901609
255	0xbd846731	-0.06464995
