lstm/model_pt/lstm_traj_sf_lf_test_2000_wd01.pt (torch, 206678 bytes, 6 tensors)

rnn.weight_ih_l0 f4 [12, 3]
-0.10456035 0.3959378 0.0054442994 0.22526458 0.11924754 -0.007451168 -0.21025704 -0.12133765
0.026354603 -0.018694125 -0.01610196 -0.0043478273 -0.05247923 -0.032170866 0.019174682 -0.05401958
0.06403321 -0.008520524 0.14927351 -0.3272873 0.008527454 -0.19546033 -0.079196185 0.007847764
0.2139796 -0.059545953 -0.0006063046 -0.119365014 0.36014035 0.0042913444 0.21914679 0.08748633
0.00077576493 0.20273364 -0.47155726 0.024380643
00000000: bd23 d6bd 5cb8 ca3e 1866 b23b c2ab 663e
00000010: 0e38 f43d ed28 f4bb 9f4d 57be e07f f8bd
00000020: 9ce5 d73c 6c24 99bc 42e8 83bc 3878 8ebb
00000030: 76f4 56bd 99c5 03bd 3914 9d3c a343 5dbd
00000040: d823 833d ab99 0bbc 28db 183e 3392 a7be
00000050: bcb6 0b3c c126 48be 9c31 a2bd e893 003c
00000060: 781d 5b3e 75e6 73bd 6af0 1eba a575 f4bd
00000070: 5164 b83e 689e 8c3b 0468 603e 082c b33d
00000080: b45c 4b3a 6899 4f3e f46f f1be eab9 c73c

rnn.weight_hh_l0 f4 [12, 3]
2.4269614 0.055734146 0.8177729 0.31577986 2.737881 -0.8470656 0.35791832 -0.10555693
1.1232018 0.002993409 -0.9542263 0.31963393 -0.56080705 -0.38413793 -0.78294414 -0.08419391
-0.02598487 0.7071448 -2.0253267 0.17691524 -1.3897502 -0.8218548 -1.3306285 -0.21495296
-0.1985278 1.1355656 -0.92839235 2.5498989 0.1475506 0.37528446 0.2962837 2.5409956
-0.46606535 -0.93560857 1.580933 -1.1060641
00000000: 5653 1b40 7d49 643d 9159 513f e6ad a13e
00000010: 7139 2f40 4bd9 58bf 1241 b73e 3b2e d8bd
00000020: 14c5 8f3f 122d 443b 2d48 74bf 0fa7 a33e
00000030: 0d91 0fbf baad c4be 076f 48bf db6d acbd
00000040: 39de d4bc 7107 353f f49e 01c0 4529 353e
00000050: 56e3 b1bf 1465 52bf 0952 aabf a11c 5cbe
00000060: df4a 4bbe 375a 913f 1fab 6dbf 8b31 2340
00000070: 8117 173e 4925 c03e 7fb2 973e ac9f 2240
00000080: 1ea0 eebe 0b84 6fbf 035c ca3f 8293 8dbf

rnn.bias_ih_l0 f4 [12]
1.71554 0.6181269 1.2038014 0.9263247 1.2247213 0.5731391 0.37049213 0.7091972
0.2516987 1.7393084 1.3454702 2.5009446
00000000: d196 db3f 913d 1e3f 2a16 9a3f 9e23 6d3f
00000010: abc3 9c3f 3eb9 123f 25b1 bd3e f38d 353f
00000020: a7de 803e a8a1 de3f 5e38 ac3f 7a0f 2040

rnn.bias_hh_l0 f4 [12]
1.7151965 0.6207329 1.2011777 0.9283041 1.2221752 0.5733225 0.3720391 0.7085168
0.2535029 1.7406776 1.3443302 2.4982913
00000000: 8f8b db3f 5ae8 1e3f 31c0 993f 56a5 6d3f
00000010: 3d70 9c3f 43c5 123f e97b be3e 5b61 353f
00000020: 22cb 813e 86ce de3f 0313 ac3f 01e4 1f40

fc_out.weight f4 [334, 152]
-0.6888538 0.011857323 -0.63969195 -0.7223773 0.16040026 -0.72385085 -0.8649455 0.3078989
-0.70641303 -0.80968714 0.24325849 -0.7268332 -0.6333915 0.14817154 -0.74293584 -0.64154124
0.12971295 -0.7778538 -0.83222944 0.08946446 -0.7813929 -0.5065575 0.061979104 -0.8043341
-0.6943493 0.04260736 -0.84214604 -0.37454653 0.05565681 -0.8647189 -0.846941 0.18952404
-0.90086377 -0.31808302 -0.31914732 -0.87415403 -0.020875132 -0.380418 -0.7735834 0.25098023
-0.33905953 -0.56874716 0.08408289 -0.14554346 -0.54664165 0.00019335213 -0.004322674 -0.562961
0.0023151622 -0.00041865068 -0.5688086 0.002130409 -0.00027326102 -0.56948364 0.0016973169 0.00046799565
-0.5700636 0.0010605047 0.00019277165 -0.56997466 0.0015153461 0.00027259748 -0.56975573 0.0008208934
0.0002264418 -0.5701033 0.0007819799 0.00013375466 -0.5702107 0.001122685 -0.0004289517 -0.5699292
0.0007058402 -0.0004234612 -0.5703838 0.0007349081 0.00028128905 -0.56985337 0.0008076571 -0.00013106168
-0.56976444 0.0007094461 0.00028511422 -0.57047105 0.0007192344 0.00036045155 -0.5702508 0.00074982527
-0.00016321785 -0.57036096 0.0009618377 0.0003793195 -0.5700531 0.0006472954 0.00035159377 -0.5698074
0.00059505884 0.00033972145 -0.5704061 -2.876571e-05 0.00082795625 -0.570115 0.00039091613 0.00040338375
-0.56989026 2.9488476e-06 0.00043353537 -0.5695829 -0.00021799044 -0.00011392883 -0.56971776 -0.00026298861
4.2063955e-05 -0.56991285 9.487161e-05 0.00030164898 -0.5695663 -2.835074e-05 2.3802908e-05 -0.56988466
0.00012073107 -3.637674e-05 -0.5699804 0.00013050374 -0.00021611465 -0.5699186 -0.00019868427 -4.01335e-05
-0.5700293 -1.744269e-05 -0.00031117216 -0.5695107 -0.00022577266 -0.0002556078 -0.5694403 -0.00034002593
-0.00026927848 -0.56980217 -9.770183e-05 -6.415292e-05 -0.5697617 0.00026159824 0.00023127199 -0.56950474
-5.721692e-06 -0.00023683105 -0.56936663 -8.648242e-05 -7.208827e-05 -0.56965554 -1.8872341 0.84092873
-0.2650462 -0.09625917 -0.70841956 0.14869449 0.01180164 -0.80574507 0.3063601 0.1541574
-0.82157445 0.3534352 0.28873634 -0.7214704 0.40522215 0.38030374 -0.5374352 0.42164734
0.44538552 -0.33761764 0.4403858 0.47964445 -0.1619727 0.4745934 0.490247 0.026423195
0.5010915 0.49575615 0.18387641 0.5027473 0.4905114 0.19996275 0.5361585 0.4979282
0.24011153 0.3731568 0.3300578 0.012268038 0.117807455 0.09641708 -0.18798392 -0.27924663
-0.3088483 -0.6966093 -0.012047804 -0.015371345 -0.33568326 -7.391567e-05 0.0016833193 -0.3126102
0.000821019 0.00059378817 -0.31145015 0.0009195387 0.0008319201 -0.310894 0.0010772228 0.0005243358
-0.31141406 0.00088696665 0.00086650497 -0.31086898 0.0003929264 0.0006606373 -0.31049663 0.0004793036
0.0007578654 -0.31019896 0.00028093398 0.00029783318 -0.3105927 0.0006943308 0.00043876623 -0.3101387
0.00086423836 0.00018888952 -0.31007153 0.0005081538 0.000441511 -0.31021497 0.00079752074 0.00039369278
-0.31009814 0.00038202314 0.00022647779 -0.31017828 0.0008644001 0.0008285133 -0.31060258 0.0004399834
0.00062691426 -0.3104636 0.0003537148 0.00089192874 -0.31068572 0.00026674723 0.0008627154 -0.31025848
0.00031979108 0.0012043002 -0.3100836 -0.00024728893 0.0013567463 -0.31042385 -0.0005405109 0.0010125515
00000000: b958 30bf 3845 423c dac2 23bf b8ed 38bf
00000010: f73f 243e 4a4e 39bf 116d 5dbf eda4 9d3e
00000020: 7cd7 34bf a847 4fbf c118 793e be11 3abf
00000030: f225 22bf 48ba 173e 0b31 3ebf 0c3c 24bf
00000040: 79d3 043e 6d21 47bf fd0c 55bf 2539 b73d
00000050: 5d09 48bf c1ad 01bf cddd 7d3d d7e8 4dbf
00000060: e0c0 31bf 0e85 2e3d e296 57bf 90c4 bfbe
00000070: 65f8 633d 385e 5dbf 20d1 58bf 9712 423e
00000080: 029f 66bf c7db a2be 4767 a3be 8fc8 5fbf
00000090: 5302 abbc 26c6 c2be 9009 46bf 7b80 803e
000000a0: 3699 adbe 6a99 11bf a633 ac3d 5809 15be
000000b0: b5f0 0bbf 91be 4a39 38a5 8dbb 361e 10bf
000000c0: fab9 173b 587e dbb9 719d 11bf 559e 0b3b
000000d0: 7944 8fb9 aec9 11bf 8178 de3a 505d f539
000000e0: b0ef 11bf a200 8b3a bf22 4a39 dce9 11bf
000000f0: 949e c63a 6aeb 8e39 83db 11bf 3931 573a
00000100: 0271 6d39 4af2 11bf c8fd 4c3a 7e40 0c39
00000110: 54f9 11bf 0f27 933a ece4 e0b9 e1e6 11bf
00000120: 2208 393a 0004 deb9 ac04 12bf d9a6 403a
00000130: fa79 9339 e9e1 11bf f3b8 533a 9a6d 09b9
00000140: 15dc 11bf 1ffa 393a 627b 9539 640a 12bf
00000150: 018b 3c3a fdfa bc39 f5fb 11bf ec8f 443a
00000160: 7525 2bb9 2d03 12bf d623 7c3a 67df c639
00000170: 00ef 11bf 42af 293a 1e56 b839 e6de 11bf
00000180: b9fd 1b3a a41c b239 2206 12bf e44d f1b7
00000190: 340b 593a 0ef3 11bf e0f3 cc39 407d d339
000001a0: 54e4 11bf d1e4 4536 224c e339 2fd0 11bf
000001b0: 5d94 64b9 13ed eeb8 06d9 11bf bce1 89b9
000001c0: d46d 3038 cfe5 11bf cff5 c638 a426 9e39
000001d0: 19cf 11bf c0d2 edb7 5bac c737 f6e3 11bf
000001e0: 0031 fd38 3a93 18b8 3cea 11bf d5d7 0839
000001f0: d69c 62b9 2fe6 11bf e755 50b9 0455 28b8
00000200: 71ed 11bf e451 92b7 d224 a3b9 74cb 11bf
00000210: 63bd 6cb9 1903 86b9 d7c6 11bf 8245 b2b9
00000220: f22d 8db9 8ede 11bf 45e5 ccb8 d689 86b8
00000230: e7db 11bf 1f27 8939 9a81 7239 10cb 11bf
00000240: f6fc bfb6 da55 78b9 03c2 11bf e55d b5b8
00000250: 182e 97b8 f2d4 11bf e390 f1bf 1b47 573f
00000260: 23b4 87be 8723 c5bd fc5a 35bf 5e43 183e
00000270: aa5b 413c 4f45 4ebf 3bdb 9c3e 70db 1d3e
00000280: b452 52bf 75f5 b43e 40d5 933e 49b2 38bf
00000290: 4779 cf3e 2cb7 c23e 5a95 09bf 29e2 d73e
000002a0: 9209 e43e 38dc acbe 3f7a e13e f593 f53e
000002b0: 2cdc 25be e8fd f23e a801 fb3e 7575 d83c
000002c0: 8847 003f c0d3 fd3e 194a 3c3e 0cb4 003f
000002d0: 4f24 fb3e 09c3 4c3e af41 093f 72f0 fe3e
000002e0: ccdf 753e 680e bf3e 56fd a83e e1ff 483c
000002f0: 0945 f13d 5176 c53d db7e 40be 6af9 8ebe
00000300: 5d21 9ebe fd54 32bf 2764 45bc 18d8 7bbc
00000310: adde abbe 2c03 9bb8 d3a2 dc3a 720e a0be
00000320: a739 573a 73a8 1b3a 6576 9fbe 330d 713a
00000330: 3615 5a3a 802d 9fbe 9931 8d3a 9473 093a
00000340: aa71 9fbe 5383 683a 2a26 633a 382a 9fbe
00000350: b001 ce39 9e2e 2d3a 6af9 9ebe 0a4b fb39
00000360: 7cab 463a 66d2 9ebe 524a 9339 7e26 9c39
00000370: 0206 9fbe c003 363a 350a e639 80ca 9ebe
00000380: 0e8e 623a a510 4639 b2c1 9ebe a035 053a
00000390: 9a7a e739 7fd4 9ebe b610 513a 8d68 ce39
000003a0: 2fc5 9ebe 474a c839 ab7a 6d39 b0cf 9ebe
000003b0: e998 623a 9630 593a 4d07 9fbe 93ad e639
000003c0: 8157 243a 16f5 9ebe cc72 b939 53d0 693a
000003d0: 3312 9fbe 35da 8b39 da27 623a 33da 9ebe
000003e0: a2a9 a739 9cd9 9d3a 47c3 9ebe 8fa6 81b9
000003f0: dad4 b13a e0ef 9ebe 13b1 0dba 97b7 843a

fc_out.bias f4 [334]
0.6452654 0.38635552 0.43259653 0.42686993 0.368509 0.4498957 0.45707288 0.3270163
0.8132815 0.44391093 0.33733764 0.13955174 0.43475005 0.279533 0.30984843 0.12397361
0.34039274 0.41567972 0.3049397 0.2994443 0.30271584 0.2518481 0.4109127 0.45018777
0.3475932 0.3704318 0.24961697 0.20787735 0.15920253 0.27607647 0.27525434 0.3085976
0.2241307 0.28722996 0.21347624 0.20546256 0.13722895 0.08769707 0.2573439 0.3784178
0.44190207 0.38322356 0.11049461 0.14802715 0.23758851 0.14507958 0.28818956 0.24258886
0.24465035 0.26867968 0.26255745 0.33002344 0.3620889 0.4101709 0.25719863 0.29480922
0.12178045 0.3112075 0.17436782 0.1513685 0.060184196 0.1517389 0.16619569 0.16355765
0.09994739 0.12396125 0.0690476 -0.067256324 0.0496727 0.06987944 0.12563996 0.11074564
0.051263902 0.117364995 0.16206577 0.1339283 0.085489266 0.14030321 0.08331224 0.15297124
0.0338232 0.12279835 -0.035413675 0.20342493 0.06937803 -0.038487177 0.08466128 0.112461135
0.048687696 -0.041075896 -0.002392176 0.022412458 0.077213734 0.14218174 0.25535962 0.1862914
-0.01269478 -0.0065768147 0.3014646 0.16809292 0.04374723 0.0143968295 0.015353014 -0.035248607
0.17189722 0.22438523 0.020715326 -0.016231282 0.22871482 -0.030211221 0.044523537 0.0461942
0.13625027 0.025871135 0.10810759 -0.08710839 0.23462339 -0.017878776 -0.009985023 -0.09330044
0.10911214 0.0014902247 -0.09514316 0.052958135 0.047656387 -0.099922076 0.029182201 0.02524194
0.15982547 0.01565377 -0.025519025 -0.004843744 0.13931638 0.16008624 0.037373982 0.0051779486
0.15741815 0.073021986 0.023717986 0.0386461 0.13973844 0.0019464003 0.038643073 0.18496852
-0.00035685854 0.014863072 -0.0220233 0.18190116 0.025984371 0.050244063 -0.012949485 0.14332128
-0.024156693 0.09976198 1.7924553e-05 0.15902387 -0.024115926 0.043418057 0.14174236 0.014877625
0.07157216 -0.032306317 0.21571308 0.08553261 0.08623354 -0.041415147 -0.0042425008 0.07249606
-0.103419326 0.15630324 0.016495055 -0.06350586 0.10886434 -0.14705734 0.08827265 -0.1118971
0.07140823 -0.00084238633 -0.07033667 0.03221385 0.119001925 -0.18669517 -0.101630025 -0.14636968
-0.13820079 -0.1149376 -0.07596391 0.04710184 -0.041726705 0.012278362 0.06997409 -0.16914354
-0.089610696 -0.0012027827 -0.040343 -0.09606753 -0.28880346 -0.052085932 -0.1086109 -0.12824516
-0.13823085 -0.0768001 -0.15972626 -0.02256798 -0.062422495 -0.102282934 0.013732767 -0.21396516
-0.077158645 0.01725818 -0.02887653 -0.048311885 -0.1633668 0.07525596 -0.010835627 0.0057340865
-0.0007795194 -0.020904068 -0.0676682 -0.09951512 -0.031723417 -0.085498996 -0.0007071247 -0.07817843
-0.021684738 -0.18380599 -0.25717992 -0.0063142725 0.055347025 -0.025771584 -0.00089479116 -0.03476807
-0.07723477 -0.017295629 -0.010724487 -0.07254022 -0.080781266 -0.048554387 -0.094645366 -0.043313958
-0.07374329 -0.095804095 -0.026201423 0.065882355 -0.01934704 0.031989973 0.03601709 0.011564308
-0.004989953 -0.008588312 -0.1254342 -0.016150456 -0.101238504 0.0055862777 -0.11231381 -0.08281208
00000000: 1d30 253f 64d0 c53e 4b7d dd3e b28e da3e
00000010: 36ad bc3e bb58 e63e 7505 ea3e ae6e a73e
00000020: 3733 503f 4b48 e33e 85b7 ac3e a7e6 0e3e
00000030: 8f97 de3e f31e 8f3e 74a4 9e3e e0e5 fd3d
00000040: f547 ae3e f9d3 d43e 0e21 9c3e c350 993e
00000050: 92fd 9a3e 3cf2 803e 2663 d23e 037f e63e
00000060: bcf7 b13e 3da9 bd3e 979b 7f3e cddd 543e
00000070: fd05 233e e559 8d3e 23ee 8c3e 8100 9e3e
00000080: 8582 653e ce0f 933e 8499 5a3e c764 523e
00000090: bf85 0c3e 859a b33d 94c2 833e fabf c13e
000000a0: fd40 e23e e135 c43e 004b e23d 6e94 173e
000000b0: 674a 733e be8f 143e 958d 933e 3769 783e
000000c0: 9f85 7a3e 6290 893e ee6d 863e d5f8 a83e
000000d0: b763 b93e ec01 d23e 8aaf 833e 3cf1 963e
000000e0: 0768 f93d 9756 9f3e 7a8d 323e 5800 1b3e
000000f0: b483 763d 7161 1b3e 342f 2a3e a87b 273e
00000100: 38b1 cc3d 65df fd3d d468 8d3d afbd 89bd
00000110: 9a75 4b3d f41c 8f3d c3a7 003e 9cce e23d
00000120: 19fa 513d 0f5d f03d 92f4 253e 8024 093e
00000130: ff14 af3d a5ab 0f3e 9c9f aa3d 7ea4 1c3e
00000140: 328a 0a3d b47d fb3d ee0d 11bd a04e 503e
00000150: 1216 8e3d bba4 1dbd e562 ad3d 0652 e63d
00000160: c06c 473d 333f 28bd 0ec6 1cbb 559a b73c
00000170: 3c22 9e3d 1798 113e 7fbe 823e 2cc3 3e3e
00000180: c4fd 4fbc 5282 d7bb 9159 9a3e 8d20 2c3e
00000190: 4c30 333d aee0 6b3c 358b 7b3c d860 10bd
000001a0: d305 303e 3ec5 653e 30b3 a93c 77f7 84bc
000001b0: 3834 6a3e 867d f7bc 505e 363d 2136 3d3d
000001c0: 3185 0b3e b4ef d33c 8367 dd3d e265 b2bd
000001d0: 1d41 703e 8376 92bc 3998 23bc 4d14 bfbd
000001e0: 3076 df3d a553 c33a 6bda c2bd a1ea 583d
000001f0: 5833 433d f2a3 ccbd 830f ef3c 2fc8 ce3c
00000200: 4aa9 233e 563c 803c 460d d1bc 45b8 9ebb
00000210: f4a8 0e3e a6ed 233e 7615 193d c8ab a93b
00000220: 3932 213e 8d8c 953d 394c c23c 5f4b 1e3d
00000230: 9817 0f3e 5b1e ff3a 3348 1e3d 6368 3d3e
00000240: be18 bbb9 3e84 733c 356a b4bc 4c44 3a3e
00000250: 2ddd d43c b8cc 4d3d 142a 54bc d0c2 123e
00000260: 42e4 c5bc 0250 cc3d af5c 9637 27d7 223e
00000270: c38e c5bc 22d7 313d e924 113e 48c1 733c
00000280: 6d94 923d a153 04bd e4e3 5c3e b92b af3d
00000290: 369b b03d eea2 29bd ad04 8bbb d078 943d
000002a0: 83cd d3bd f50d 203e a320 873c 5c0f 82bd
000002b0: 44f4 de3d 3396 16be 4bc8 b43d 4f2a e5bd
000002c0: 7a3e 923d 97d3 5cba ac0c 90bd acf2 033d
000002d0: 48b7 f33d 052d 3fbe 6723 d0bd efe1 15be
000002e0: 8284 0dbe 6864 ebbd f792 9bbd dced 403d
000002f0: 9fe9 2abd 2f2b 493c 934e 8f3d f733 2dbe
00000300: d085 b7bd b1a6 9dba b43e 25bd 0ebf c4bd
00000310: 0cde 93be 0f58 55bd 646f debd b352 03be
00000320: 638c 0dbe 5f49 9dbd 488f 23be 7ce0 b8bc
00000330: bbae 7fbd b779 d1bd 66ff 603c af19 5bbe
00000340: 5a05 9ebd 0761 8d3c 798e ecbc afe2 45bd
00000350: a049 27be cc1f 9a3d ea87 31bc 01e5 bb3b
00000360: a958 4cba 023f abbc a095 8abd 95ce cbbd
00000370: 6af0 01bd 191a afbd 565e 39ba 031c a0bd
00000380: 31a4 b1bc a337 3cbe 16ad 83be f5e7 cebb
00000390: 90b3 623d ee1e d3bc 6b90 6aba f768 0ebd
000003a0: 432d 9ebd 90af 8dbc c2b5 2fbc f88f 94bd
000003b0: a670 a5bd f7e0 46bd 6ed5 c1bd fa69 31bd
000003c0: b906 97bd f034 c4bd 5ea4 d6bc 54ed 863d
000003d0: af7d 9ebc eb07 033d a886 133d 3978 3d3c
000003e0: c282 a3bb feb5 0cbc d371 00be f64d 84bc
000003f0: 2256 cfbd 180d b73b c804 e6bd 6199 a9bd
