lstm/model_pt/lstm_traj_sf_2_fold_CV_1900.pt (torch, 205319 bytes, 6 tensors)

rnn.weight_ih_l0 f4 [12, 3]
00000000: 4be0 f2be e92c 0e3e 649c e9bc 21cc eb3d
00000010: a324 3c3e 40f3 0bc0 0a9c d7be 4d50 4ebe
00000020: c5cb ba3e 2c0f 973e 813d f13e 5f78 9b3d
00000030: d4fe 37bd 6f65 ee3d a0e6 ac3f f982 1b3e
00000040: 541a 543e 673f 87be 264a 37bf 55c4 cc3e
00000050: f8e6 1d3c 3a82 fc3e ed3a b1bf be5a d03c
00000060: aafe 2b3f 425b 843e ea4b cbbb 129c a9bf
00000070: 12fe f7bd 880c e6be 2734 843e b67a 4cbf
00000080: 5a74 bc3f 3e71 08c0 6224 ffbe c9d2 823e
-0.47436747 0.1388432 -0.028516956 0.11513544 0.18373351 -2.1867218 -0.42111236 -0.2014782
0.3648359 0.29503763 0.47117236 0.07591318 -0.044920757 0.11640441 1.3507881 0.15186681
0.20713168 -0.2641556 -0.71597517 0.3999354 0.009637587 0.49318105 -1.3846108 0.025433894
0.6718546 0.25850874 -0.006204118 -1.3250754 -0.12109007 -0.44931436 0.2582104 -0.7987474
1.4723008 -2.1319118 -0.49832445 0.2555144

rnn.weight_hh_l0 f4 [12, 3]
00000000: be28 e6bf b78a 8e3f bdfa cabd 3c11 99be
00000010: c0f3 20bd 77de c23d d173 61bf c0b9 e9be
00000020: 9860 c03f d616 9e3e ee19 ae3e a6d4 5ebe
00000030: adaf ebbe 8e8f 853e a2f1 b1ba 6a7c 29bf
00000040: e0d7 87bd 03ec 9fbe 4bdb 30bd 919e 613e
00000050: f527 08bf 27a6 79be dd1f c0be 8e08 81bf
00000060: 21e9 073f 181a 823e 05b4 67bd 6bd1 11bd
00000070: 86f9 ba3d 080e 9c3e f763 253d 5074 47bd
00000080: 6ce0 71bd f664 50be 4d68 943f e774 50bd
-1.7981184 1.1136082 -0.09911106 -0.2989596 -0.039294958 0.09515088 -0.88067347 -0.45649529
1.5029478 0.30876797 0.34004158 -0.21760806 -0.46032467 0.26086086 -0.001357604 -0.66205466
-0.06632972 -0.3123475 -0.043177884 0.22033145 -0.5318597 -0.24379788 -0.3752431 -1.0080736
0.530901 0.25410533 -0.056568164 -0.035600107 0.09129624 0.30479455 0.040378537 -0.04869491
-0.059051916 -0.20351014 1.159433 -0.050892737

rnn.bias_ih_l0 f4 [12]
00000000: c416 623f 4ab3 923f ffa4 b23f d056 a63f
00000010: a23c b73f e0a9 be3f 3d5c 38be 78e8 c63d
00000020: 93c9 3ebb 8806 e63f c02b 0a40 7b6e ea3f
0.8831599 1.1460965 1.3956603 1.2995243 1.4315379 1.4895592 -0.18003936 0.09712309
-0.0029111847 1.7970743 2.1589203 1.8314966

rnn.bias_hh_l0 f4 [12]
00000000: 0da7 613f 1bca 923f dc63 b23f 33bc a53f
00000010: 5477 b73f 4f4b be3f 062f 39be 6ba9 cb3d
00000020: 077f acba cdcf e63f 5ec2 0940 101a eb3f
0.88145524 1.1467928 1.3936725 1.2948059 1.4333291 1.4866732 -0.18084344 0.09944423
-0.0013160416 1.8032166 2.1524882 1.8367329

fc_out.weight f4 [334, 151]
00000000: c40f 5ebe 911c 5f3e 83e1 bbbd a1ce 1e3e
00000010: 8836 babe d767 01be 4cce 7b3e 88c1 24bf
00000020: 85a4 07be 3a51 853e dc45 03bf 7ceb 36be
00000030: 72d2 843e 563d 58be 001e 68be d0d7 833e
00000040: dab4 77bd 210f 73be d737 823e 3959 2dbe
00000050: 197d 7abe 247b 803e ba9a 43be 1c38 81be
00000060: e1a0 7c3e 3198 7cbe a63d 7bbe 1a4c 783e
00000070: dab4 9ebe c416 7cbe f6dc 6f3e 8609 b9be
00000080: 9bbe 7cbe 2b4e ee3d eff9 b2bd b051 c3be
00000090: 6749 1e3d ad57 903f 946d 46bf 7857 1a3d
000000a0: bb7a 62be 4d14 3bbf 149b a93d dc7a 3abd
000000b0: bfa9 e3be 37b4 8c3d 9f40 623d 86b9 73be
000000c0: 700d aa3d 6e73 aa3d 0b39 4cbe f269 cf3d
000000d0: 2ba2 003e e543 5bbe 66ca f53d aae9 373e
000000e0: db55 65be d232 113e fd2c 453e 8319 5ebe
000000f0: 20da 1c3e fef3 463e 277d 4fbe d23e 293e
00000100: 6092 433e ad00 45be cb6a 333e 5cad 3c3e
00000110: 5eb4 40be 681a 433e 6cb4 363e 048a 39be
00000120: 5b8f 513e bc19 343e a0d3 38be e0b4 633e
00000130: 7195 363e 08e8 38be 98b3 713e 1101 3c3e
00000140: 6b74 3bbe 680b 7e3e 7adc 433e 7e6f 3cbe
00000150: 0049 823e a216 4d3e 9841 3dbe dcc7 833e
00000160: cb7b 553e 9a8b 3cbe 794e 853e bbf9 4e3e
00000170: 6b15 28be cc7a 843e 1495 3a3e 0211 0ebe
00000180: d4f0 823e 2376 1b3e ffa7 e6bd 4044 7c3e
00000190: c8a6 fb3d ae1b b2bd 9fae 6a3e 5e98 cc3d
000001a0: b324 82bd 2d84 533e b565 a23d 8f9d 39bd
000001b0: 6e21 3b3e 5be5 693d 2d63 10bd c445 243e
000001c0: 1b86 1f3d 0831 d8bc 762f 0a3e a819 a33c
000001d0: 72a3 cdbc b931 e73d 99b9 4d3b a5e1 1fbd
000001e0: 9d37 b93d 18e0 35bc 4576 aabd 70ea 933d
000001f0: 2ee2 b8bc adb6 41be dc9d 5b3d c2ca 14bd
00000200: 40ef f3be f91a 1d3d 4cc1 3ebd 56e1 f4bf
00000210: 9efe c23c d006 46bd f8a4 1bbf 8fbd 6c3c
00000220: 87c3 d3bc 4446 83bd 748c 0b3c 4a64 8c3d
00000230: 24da 6c3d 5f44 3f3c bffa de3e 5b07 a83d
00000240: aefc eb3c effe e13f 0724 a33d 389c 923d
00000250: 7602 0d3f ee7f 9f3d e0a6 28bf 7e05 6c3f
00000260: 2e48 47be d595 95be faab 8d3f 6cdf 463f
00000270: 45b2 63be 5651 883f 70cd 3b3f c129 81bd
00000280: 2ddb 4b3f c73c 303f 42bd 8e3d e9c8 0c3f
00000290: b377 1a3f 55ba 0c3e 1b9f c23e 79c4 ec3e
000002a0: 258c 413e a6d5 853e 84de c63e c3cc 6b3e
000002b0: 1c5e 143e 1265 af3e 64fd 853e f5e8 683c
000002c0: 177c 9b3e 5dad 873e 9841 17be f740 9b3e
000002d0: 8c0a 9f3e 1e7e a5be 554b ac3e 352c fd3e
000002e0: 6aea 853d 91ec 99bd 8af5 853f 0734 e33b
000002f0: a6b2 71be 8a38 403f 2f96 a03d 7b3d 36bd
00000300: b91d 04bf 1429 823e 596d 973c cc33 64bf
00000310: b1ec a83e eed4 2f3e ded5 01bf 560b a83e
00000320: c191 203e 8c85 a9be e69d a83e 09e9 1d3e
00000330: 487e 8fbe 8a0b ab3e 872b 283e 3228 83be
00000340: cd2f a83e 54f6 1d3e ac87 72be 031a a13e
00000350: 0eb2 043e 1174 5fbe 94c1 993e 339e dc3d
00000360: d0ce 51be 40dd 903e 1169 b73d efc8 45be
00000370: f199 853e d70e ac3d 35bb 39be 0d1a 793e
00000380: 13d0 b03d 2931 33be 6669 6a3e 951a c53d
00000390: a099 2ebe 1b86 603e 44a3 e03d a1eb 22be
000003a0: 3f64 573e cc62 f63d f510 14be 521b 4d3e
000003b0: 62d0 ff3d f830 05be 23f6 403e 5482 023e
000003c0: 1d24 f6bd 0cdf 353e 2f98 f83d dd71 dabd
000003d0: 4289 2a3e b319 d83d e1aa babd 9834 1e3e
000003e0: 224f bf3d 6750 a3bd 4c06 163e 12f2 a13d
000003f0: ddc4 8fbd 0fe5 083e 7c5d 823d 0605 60bd
-0.21685702 0.21788241 -0.09173872 0.1550851 -0.3636973 -0.12637268 0.24590415 -0.64357805
-0.13246353 0.26038533 -0.5127847 -0.17863268 0.25941807 -0.21117148 -0.22667694 0.2575059
-0.060475208 -0.2373624 0.25433227 -0.16928567 -0.24461783 0.2509395 -0.19101992 -0.2523812
0.24670745 -0.24667431 -0.24535236 0.2424778 -0.30997354 -0.2461806 0.23424134 -0.36140078
-0.24682085 0.11636003 -0.08739077 -0.3814826 0.03864422 1.1276757 -0.7751095 0.037681073
-0.2211713 -0.7307785 0.08281532 -0.045527324 -0.44465443 0.06870311 0.05523741 -0.2380124
0.08303344 0.08322798 -0.19943635 0.10127629 0.12561862 -0.21412618 0.12001495 0.1796023
-0.22396033 0.14179543 0.19255443 -0.2168942 0.15317583 0.19429013 -0.20262586 0.1652787
0.19098806 -0.19238539 0.17521207 0.18425506 -0.18818805 0.19053042 0.17842263 -0.18119055
0.20464842 0.17587942 -0.18049479 0.22236967 0.17830445 -0.18057263 0.23603666 0.18359782
-0.18306129 0.24809039 0.19127074 -0.18401906 0.2544632 0.20028165 -0.18482053 0.25738418
0.20848005 -0.18412629 0.26036432 0.20212452 -0.1641442 0.25874937 0.18220931 -0.13873675
0.25574362 0.15181784 -0.112625115 0.2463541 0.122876704 -0.08696686 0.22918175 0.09989999
-0.06354656 0.2065589 0.07929555 -0.045316275 0.18274471 0.057103496 -0.03525083 0.16042238
0.038946252 -0.026390567 0.13494667 0.019909695 -0.02510235 0.11288781 0.0031391142 -0.03903355
0.090438105 -0.011100791 -0.083233394 0.0722245 -0.022568788 -0.18917342 0.053617343 -0.036326177
-0.4764347 0.0383558 -0.04657106 -1.9131267 0.023803052 -0.04834634 -0.607986 0.014449491
-0.02585007 -0.064098865 0.008517373 0.06855066 0.057825223 0.011674016 0.4355068 0.08204528
0.02880701 1.7655925 0.07965856 0.071587026 0.5508188 0.077880725 -0.6587963 0.9219588
-0.19461128 -0.29215875 1.1068108 0.77684665 -0.22235973 1.0649822 0.7336035 -0.06306792
0.7963131 0.6884274 0.06969692 0.54994065 0.60338897 0.13742955 0.38012013 0.46243647
0.18901117 0.26139563 0.3884164 0.23027329 0.14489025 0.34256798 0.26169884 0.014215698
0.3036811 0.26499453 -0.14771116 0.30323002 0.31062734 -0.32322782 0.33651224 0.4944779
0.065388516 -0.075158246 1.0465558 0.0069336924 -0.23603305 0.7508627 0.07841145 -0.044492226
-0.51607853 0.25421965 0.018484758 -0.89141536 0.3299308 0.1717107 -0.5071696 0.3282115
0.156806 -0.331097 0.32932967 0.15420927 -0.28026032 0.3340724 0.16422854 -0.25616604
0.3284897 0.15425998 -0.23684567 0.31465158 0.12958547 -0.2182162 0.300305 0.107723616
-0.20489049 0.282938 0.08955587 -0.19314931 0.2609401 0.08401268 -0.1813782 0.24326344
0.08633437 -0.17499222 0.22891769 0.09624211 -0.17050791 0.21926157 0.109686404 -0.15910198
0.21034335 0.12030563 -0.14459594 0.20029953 0.12490918 -0.13006961 0.18843894 0.12745029
-0.12018607 0.17760867 0.12138402 -0.10666249 0.16653922 0.10551777 -0.09114624 0.1544975
0.09341265 -0.0797432 0.1465084 0.079074994 -0.070199706 0.13368629 0.06365487 -0.05469229

fc_out.bias f4 [334]
00000000: baa0 96bd efc9 a13b 4693 acb9 1d45 c3bc
00000010: eb8b f8be 8020 c73c 013d c53d a4e2 93be
00000020: 7095 80be 03b5 fdbd f330 48bd 30b6 efbd
00000030: 5538 9c3d e6ca 69bc c86b 67be a690 b43d
00000040: 7c08 50be 3392 a7bc 62f6 97be a57a 5fbe
00000050: a7db bd3c 1195 c5bc 333e 803a f2f3 c4bd
00000060: 6a03 d8bc 7fee 12bf 6ae9 0b3d 1c6a 093c
00000070: 7787 fabc 647d 1f3c 1141 b63c 8533 813d
00000080: b0a7 45be adfa a839 36a2 23be 5a65 61bd
00000090: 2336 4abe ae4b b7bd 4901 76bd 31a0 d13d
000000a0: 6520 19bc 4d5e 033b 08bc b1bd 6934 0b3d
000000b0: 48eb 9a3c 700f 633d 97c0 15be 9273 64bd
000000c0: d236 85be d000 213b 9206 823c 56b4 2f3d
000000d0: c602 fd3c ba5f 733c fee2 4f3d c964 d93c
000000e0: 978b 0aba 6fe6 21be 11a1 dbbd f478 373d
000000f0: db2d 293d 1bb9 edbb ec63 8d3d 160c 7abc
00000100: 24d4 73bd 4484 86bc 24a9 b2be 88d1 653d
00000110: 943a 6e3d 3f4b 1a3c bfec 60bc 77b4 06be
00000120: b7d5 183d 1709 c23d 17cd 71bd a3f8 6cbd
00000130: f268 d1bd 56b4 32bb cf29 793d e991 6abd
00000140: 9105 c7bd 2457 2bbd 52d0 b0bd b1a7 30be
00000150: f21f 81be 840c d8bc c910 933d 1a77 893d
00000160: ce1e a93b 8aa2 b1bd be18 adbb 3031 49be
00000170: 6511 13be 0850 f5bc 3c0e 903d 9e12 083d
00000180: ca5b f7bc 2169 f63c 4710 e93c d8ed d63c
00000190: 3016 2dbc 81e3 6bbd e00e a83c 091b 2fbd
000001a0: ae0c a33d 88df ef3b a5a3 313d dac6 07bd
000001b0: d5d1 903c db27 e7bd 7bd3 38be efdf bbbc
000001c0: 3c74 b0bd 52b4 a8bd adcd cebd 98fd 9abd
000001d0: e297 87bd 6268 b9bb cd56 debd 3a37 dabd
000001e0: 9c06 293c 99cf c6bd 57bd 803d ba68 a53d
000001f0: e229 43be 0ccd 82bd f625 c33c 3de4 9ebd
00000200: fe09 41be 7f2b f4bd acc1 2ebe 35b5 96be
00000210: d775 13bb a195 9cbd 69e1 6bbd 549d 16be
00000220: 8ebc be3d ffd6 3a3d 5808 efbc 5837 6fbd
00000230: 848a 15bd 428a 1e3d 22e2 a6bd f488 95be
00000240: a9b9 20bd 8a71 813d 7353 673c 1e63 203e
00000250: b1bf 1dbe a45f 84bd 08ad 16be 2a76 73bd
00000260: 296f 80bc 68d0 f33c df46 27be 6750 c2bd
00000270: 3e4d a4bd c0ac 90bc be60 94bd 72f3 45bd
00000280: dfa8 40bc 995f c5bd 7004 f3bb 15f0 aabd
00000290: 1229 56bd 73dc abbd d0e0 ecbc de8c 893d
000002a0: 44b2 b43d 27c4 083e 7207 e8bc 2fb6 ca3d
000002b0: a65f 673d 38d4 74bd 5626 2fbd f1f2 693c
000002c0: 98d4 18be 8f3b f0bd 5152 2cbe b243 a5bd
000002d0: 1060 eebc a222 19bd be52 ae3c d474 513d
000002e0: 5ddc d23b ff15 2ebd b79e 063d a5da 1d3d
000002f0: b256 1b3d 20f9 b53d 3af2 9c3d 970a f1bb
00000300: 3d6e 0b3d 489b 8c3c b2f8 803d 851b c63d
00000310: 55a6 dd3d d9cd 003d c71b 8bbc a612 73bc
00000320: e693 3bbd db37 c3bc 3baa 14be 3c5b d03d
00000330: 3205 9e3d d278 a83d d225 3f3e 9a2b 71bd
00000340: 4567 93bd 9b96 44bb a310 d33d cab3 863d
00000350: 6129 2a3d 574b ccbc 8222 aa3d 073b 233d
00000360: 5e5b dfbc 9c72 ebbd 8eef 2ebc 661e 283d
00000370: 8f7e ac3a 81ba 58bc 8b69 9ebc c6ca 28bd
00000380: 2ed9 f9bc b477 57be 037b a63d a93b d0bd
00000390: 4f31 cabc 9aa0 743d fdd1 f93c 2404 463d
000003a0: f1a4 ff3d e275 13bc ae38 bc3c 567f f73d
000003b0: a22f 19bd 7174 663d d1a0 8e3d 8b6a a63d
000003c0: 53be 85bc fbc6 7a3d e7ba 103d e8ba d73c
000003d0: eedd 2a3d bc41 99bd 4c30 033d 1ffc ab3d
000003e0: 2203 703d 14d2 0d3e f716 6e3d 9d34 09bc
000003f0: e567 213d 512f e2bd 35ac 85bd 36bb ecbc
-0.07354875 0.0049374024 -0.00032916124 -0.023836667 -0.4854425 0.02430749 0.09630776 -0.2888385
-0.25114012 -0.12388041 -0.048874807 -0.117046714 0.07627932 -0.014269566 -0.22599709 0.08816652
-0.20315737 -0.020455455 -0.29680163 -0.21824129 0.023176027 -0.024118932 0.0009784162 -0.096168414
-0.026368815 -0.57395166 0.034158148 0.008387115 -0.030582173 0.009734485 0.022247823 0.06308655
-0.19302249 0.00032230225 -0.15979847 -0.055028297 -0.19747214 -0.08949982 -0.06005982 0.10235632
-0.009346102 0.0020045221 -0.08678442 0.03398553 0.018911019 0.055434644 -0.14624248 -0.05577428
-0.26018387 0.0024567135 0.015872274 0.04289659 0.030885112 0.014854366 0.050753586 0.026537316
-0.0005285083 -0.1581056 -0.1072408 0.044793084 0.041303497 -0.0072547323 0.06903824 -0.015261671
-0.059528485 -0.016420491 -0.3489467 0.056108028 0.058161333 0.009417354 -0.01372832 -0.1315478
0.03731319 0.0947439 -0.05903348 -0.057854306 -0.10225095 -0.0027268133 0.060830887 -0.057268057
-0.097178586 -0.04183115 -0.08633484 -0.17251469 -0.25219685 -0.026373155 0.07180936 0.0671217
0.005161143 -0.0867358 -0.0052824905 -0.1964767 -0.14362104 -0.029945388 0.07033965 0.03322088
-0.030195136 0.030079426 0.028450144 0.02623646 -0.010564372 -0.05759001 0.020514905 -0.042750392
0.07961403 0.007320348 0.043368954 -0.033148624 0.01767818 -0.11286899 -0.18049423 -0.022933928
-0.0861592 -0.08237518 -0.10097823 -0.075679004 -0.06620766 -0.0056581954 -0.108564 -0.10655065
0.010316517 -0.09707565 0.06286114 0.08076616 -0.19058946 -0.06386766 0.023821812 -0.07758377
-0.18851468 -0.11922359 -0.17066067 -0.29435125 -0.0022500658 -0.07645727 -0.057588015 -0.14708453
0.09313308 0.045615193 -0.029178783 -0.05840239 -0.036509052 0.03870607 -0.081486 -0.2920605
-0.03923956 0.06320484 0.014119017 0.1566281 -0.15405156 -0.064635545 -0.14714444 -0.059438862
-0.015678005 0.029762462 -0.16335629 -0.09487992 -0.08022545 -0.017660499 -0.072450146 -0.04832787
-0.011759012 -0.096373744 -0.0074163005 -0.08346573 -0.05228526 -0.08391657 -0.028915793 0.067163214
0.08823064 0.13356076 -0.028323863 0.0989803 0.0564877 -0.0597727 -0.04276117 0.014279113
-0.14924848 -0.1173011 -0.16828276 -0.080695525 -0.02909854 -0.037386544 0.021279689 0.051136807
0.0064349608 -0.042501446 0.032866206 0.038538594 0.037924476 0.088854074 0.076633886 -0.0073559987
0.03404068 0.017163888 0.06297435 0.09673218 0.10822741 0.03144631 -0.016981019 -0.014835989
-0.045795344 -0.023830345 -0.14518063 0.101736516 0.07715835 0.0822617 0.18666771 -0.058879472
-0.071974315 -0.0029996994 0.103059076 0.06577261 0.04154337 -0.024938269 0.08307363 0.039851215
-0.027265247 -0.114964694 -0.0106772315 0.041044615 0.0013160276 -0.01322806 -0.019337436 -0.041209005
-0.030499067 -0.21041757 0.081289314 -0.10167629 -0.024681715 0.059723474 0.030495638 0.048343793
0.12482632 -0.009000273 0.022976246 0.12084834 -0.03739894 0.05626339 0.06964267 0.0812579
-0.016326105 0.06122492 0.035334494 0.026334241 0.041715555 -0.07483241 0.03202848 0.08397698
0.058596738 0.1384967 0.05812737 -0.00837436 0.039405722 -0.11044181 -0.065269865 -0.028897863
