lstm/model_pt/lstm_full_4_fold_CV_1100.pt (torch, 218680 bytes, 6 tensors)

rnn.weight_ih_l0 f4 [12, 3]
0	0xbe276ccb	-0.16350095
1	0xbdec6e73	-0.11544504
2	0x3c8d68e3	0.017261928
3	0xb99addc3	-0.00029538394
4	0xbca5be19	-0.020232247
5	0xbf267595	-0.65023166
6	0xbe87b3db	-0.26504406
7	0xbdbd9247	-0.09256416
8	0x3c2b7b89	0.010466465
9	0x3d9f39d5	0.077747025
10	0xbda9ddef	-0.082942836
11	0x3b016dea	0.0019749352
12	0xbc46a7ac	-0.012124937
13	0xbcb2a4c4	-0.021807082
14	0x3ee53f3b	0.44774804
15	0xbdfcc546	-0.123423144
16	0x3c109933	0.008825588
17	0xbbb10b9f	-0.0054029967
18	0xbe4fb233	-0.20282821
19	0x3cbcc6fb	0.0230441
20	0x3b8ff7e9	0.004393567
21	0x3adf0fb1	0.0017018226
22	0x39e90921	0.00044448025
23	0xbe25a367	-0.16175614
24	0xbd8e8e37	-0.06960719
25	0x3e53a0d0	0.20666814
26	0xbc24aa37	-0.010050348
27	0x3db9fb33	0.090811156
28	0xbf102a27	-0.5631432
29	0x3ce45ed1	0.027877243
30	0xbb1cf183	-0.0023947663
31	0xbd03c3b5	-0.032169063
32	0xbf24781a	-0.6424576
33	0xbea64fc5	-0.32482734
34	0x3ce710f2	0.028206322
35	0x3cbba4b1	0.02290568

rnn.weight_hh_l0 f4 [12, 3]
0	0xbf5bc816	-0.8585218
1	0xbe60e041	-0.21960546
2	0x3f47ae49	0.78000313
3	0xbc8e8718	-0.017398402
4	0xc02323b6	-2.5490546
5	0x3d89eb26	0.06734304
6	0xbfe3f9fd	-1.7810665
7	0xbecb9ba5	-0.39767185
8	0x3e2f93ab	0.17146175
9	0x3c115bbb	0.008871968
10	0x3ddcdb57	0.10784023
11	0x3f1b0305	0.6055148
12	0xbe9e1c0d	-0.30880776
13	0xbeaa1640	-0.332201
14	0x3e082da5	0.13298662
15	0xbf121d23	-0.5707571
16	0x3c8f1845	0.017467627
17	0xbdae6c14	-0.08516708
18	0xbf2845bb	-0.657314
19	0x3e350bd8	0.176803
20	0xbf1de76e	-0.6168126
21	0xbcc27f41	-0.02374232
22	0x3cbe62dc	0.0232405
23	0x3cf34226	0.029694628
24	0x3eb047e2	0.34429842
25	0xbe164b4d	-0.14677162
26	0xbf4f4f64	-0.80980515
27	0xbf03fa29	-0.5155359
28	0xbfb99ee1	-1.4501611
29	0x3f77c199	0.9677978
30	0x3b7d2538	0.003862692
31	0xbfe215a4	-1.7662854
32	0xbd066b42	-0.032817133
33	0xbf9200d3	-1.1406502
34	0xbf9dc0c6	-1.2324455
35	0xbf135f52	-0.5756732

rnn.bias_ih_l0 f4 [12]
0	0x3f5cda1f	0.86270326
1	0x3f98eece	1.1947877
2	0x3f665208	0.8996892
3	0x3f4198c2	0.75623715
4	0x3f14151f	0.5784473
5	0x3eeb4c21	0.4595652
6	0xbec7c27a	-0.3901556
7	0xbf1a6fd1	-0.6032687
8	0x3dc3228f	0.09528076
9	0x3fcd6592	1.6046622
10	0x3f9e224e	1.2354219
11	0x3fd4e183	1.6631321

rnn.bias_hh_l0 f4 [12]
0	0x3f5d7a4a	0.86514723
1	0x3f98a5f7	1.1925648
2	0x3f6586fa	0.8965908
3	0x3f41780b	0.75573796
4	0x3f13ec38	0.57782316
5	0x3eebc60f	0.46049544
6	0xbec990b2	-0.39368206
7	0xbf1a9304	-0.6038058
8	0x3dc1694c	0.09443912
9	0x3fcd4db4	1.6039338
10	0x3f9e010a	1.2344067
11	0x3fd47e41	1.660103

fc_out.weight f4 [334, 161]
0	0x3ea154e0	0.31510067
1	0xbdbf1ec7	-0.09332042
2	0x3e940dc1	0.28916743
3	0x3eb07da0	0.34470844
4	0xbe2cace9	-0.16862835
5	0x3eb97666	0.36223143
6	0x3eac101e	0.33606046
7	0xbe7335cd	-0.23750992
8	0x3ebc2347	0.36745664
9	0x3eb395c7	0.3507521
10	0xbe8f6a41	-0.28010753
11	0x3ebf2dd1	0.37339643
12	0x3eb3242a	0.34988528
13	0xbe8e31aa	-0.27772266
14	0x3ec62b89	0.3870509
15	0x3eaa2cba	0.3323725
16	0xbe705d53	-0.234731
17	0x3ec697a9	0.38787583
18	0x3eac7737	0.33684704
19	0xbe674325	-0.22584207
20	0x3ec50636	0.384813
21	0x3e935544	0.2877599
22	0xbe8202fa	-0.25392896
23	0x3ec69b3e	0.38790315
24	0x3e9e2e57	0.3089473
25	0xbe8c1256	-0.2735774
26	0x3ec71be7	0.38888475
27	0x3ea630e6	0.32459182
28	0xbe96dd0d	-0.29465523
29	0x3ec7e1b7	0.39039394
30	0x3eb017be	0.34393114
31	0xbe9b27c6	-0.30303782
32	0x3ec853ea	0.3912652
33	0x3ec65a28	0.3874066
34	0x3d07fbfe	0.033199303
35	0x3ec7dad6	0.39034146
36	0x3eded089	0.43518475
37	0x3e49ec60	0.19719076
38	0x3ec9e08a	0.39429122
39	0x3ee14125	0.43995014
40	0x3f074d5a	0.52852404
41	0x3ed3efa2	0.41393763
42	0x3eb926e9	0.361625
43	0x3ebc9fc0	0.3684063
44	0x3ee81abc	0.45332897
45	0x3e9f8dcd	0.31162873
46	0x3e61051c	0.21974605
47	0x3f002da2	0.5006963
48	0x3e9090ac	0.28235376
49	0x3e5ef1f7	0.2177199
50	0x3ee9d649	0.456713
51	0x3e8872d0	0.26650095
52	0x3e5ec6e2	0.21755555
53	0x3ea896ec	0.32927644
54	0x3e8583dd	0.26077166
55	0x3e5edacd	0.21763153
56	0x3e8a3169	0.26990822
57	0x3e84c75e	0.25933355
58	0x3e5ec6f7	0.21755587
59	0x3e433907	0.19064723
60	0x3e81b347	0.2533209
61	0x3e5233a6	0.20527515
62	0x3d9247e7	0.071426205
63	0x3e7dc5cd	0.24782486
64	0x3e4fc1da	0.20288792
65	0xbda43db2	-0.0801958
66	0x3e7bf6bc	0.2460584
67	0x3e4f85a1	0.20265819
68	0xbe391816	-0.18075594
69	0x3e7aa58f	0.24477218
70	0x3e4f4cfc	0.20244211
71	0xbe6e1069	-0.23248447
72	0x3e7ac935	0.24490817
73	0x3e4fb3c0	0.20283413
74	0xbe79d1cf	-0.24396442
75	0x3e7a41e7	0.24439202
76	0x3e4faac2	0.20279983
77	0xbe7b5fda	-0.24548283
78	0x3e7ad080	0.24493599
79	0x3e4f4b0d	0.20243473
80	0xbe7ba5e2	-0.24574998
81	0x3e7ad9c4	0.24497133
82	0x3e4f9cdc	0.20274681
83	0xbe7bc295	-0.24585946
84	0x3e7a265d	0.24428697
85	0x3e4fbee0	0.20287657
86	0xbe7b5a1f	-0.24546097
87	0x3e7a43fe	0.2444
88	0x3e500be3	0.20317034
89	0xbe7bb097	-0.24579082
90	0x3e7aa58c	0.24477214
91	0x3e4f583a	0.202485
92	0xbe7bc481	-0.24586679
93	0x3e7a28ba	0.24429598
94	0x3e4feb81	0.20304681
95	0xbe7b4af6	-0.24540314
96	0x3e7a69cd	0.24454422
97	0x3e4f72c2	0.2025862
98	0xbe7bb67a	-0.24581328
99	0x3e7a245d	0.24427934
100	0x3e4f5e42	0.202508
101	0xbe7b6645	-0.24550731
102	0x3e7a8e95	0.24468453
103	0x3e4fd0fd	0.20294566
104	0xbe7b1416	-0.24519381
105	0x3e7a79f3	0.24460582
106	0x3e4f43ef	0.20240758
107	0xbe7b8553	-0.24562578
108	0x3e7ad0d0	0.24493718
109	0x3e4f1a2b	0.20224826
110	0xbe7b9e26	-0.24572048
111	0x3e7ab8b8	0.24484527
112	0x3e4fb775	0.20284827
113	0xbe7b37c3	-0.2453299
114	0x3e7a933f	0.24470232
115	0x3e4f8118	0.20264089
116	0xbe7bb397	-0.24580227
117	0x3e7aba84	0.24485213
118	0x3e4f0701	0.20217516
119	0xbe7b5eab	-0.24547832
120	0x3e7a733d	0.24458022
121	0x3e4fa343	0.20277123
122	0xbe7af0fd	-0.24505992
123	0x3e7a3ae1	0.24436523
124	0x3e4f3b45	0.20237453
125	0xbe7b4dd6	-0.24541411
126	0x3e7a7125	0.24457224
127	0x3e4f7d77	0.20262705
128	0xbe7babf7	-0.24577318
129	0x3e7aa6b8	0.2447766
130	0x3e4f71aa	0.20258203
131	0xbe7b6085	-0.24548538
132	0x3e7ad4a2	0.24495175
133	0x3e4f55cd	0.20247574
134	0xbe7ae86f	-0.24502729
135	0x3e7a4da4	0.2444368
136	0x3e4f5115	0.20245774
137	0xbe7b47fb	-0.24539177
138	0x3e7aec88	0.24504292
139	0x3e4f9a83	0.20273785
140	0xbe7b696b	-0.24551933
141	0x3e7a9ec6	0.2447463
142	0x3e4eed31	0.20207669
143	0xbe7b6bc5	-0.2455283
144	0x3e7a44cb	0.24440305
145	0x3e4f0101	0.20215227
146	0xbe7b19a8	-0.24521506
147	0x3e7a2518	0.24428213
148	0x3e4ef280	0.20209694
149	0xbe7b44f9	-0.2453803
150	0xbfce7c8c	-1.6131759
151	0x3f0acaa2	0.54215443
152	0xbea975be	-0.33097643
153	0x3ea90cec	0.3301767
154	0x3d82770e	0.06370364
155	0x3dcba436	0.0994343
156	0xbec1b381	-0.37832263
157	0xbe0836c7	-0.13302146
158	0xbe101655	-0.14071019
159	0x3f065d2e	0.5248593
160	0xbc4fd5b3	-0.012685227
161	0x3ef3c8b2	0.47614056
162	0xbe1f822f	-0.15577005
163	0x3e8bf7ee	0.27337593
164	0x3efa3794	0.48870528
165	0xbe5f28bc	-0.21792883
166	0x3ec1148f	0.37710997
167	0x3eeec1a7	0.4663212
168	0xbe687fa6	-0.22704944
169	0x3e9056da	0.28191262
170	0x3ee2869f	0.44243333
171	0xbe4150a4	-0.18878418
172	0x3d6734fd	0.056447018
173	0x3ee05a8a	0.43819076
174	0xbdfacc87	-0.12246042
175	0xbe05464c	-0.13015097
176	0x3eda957a	0.42692167
177	0xbe35f6e5	-0.17769964
178	0xbe8df22e	-0.2772383
179	0x3ecf211d	0.4045495
180	0xbe638706	-0.22219476
181	0xbeb69d5a	-0.35666925
182	0x3eb95326	0.3619625
183	0xbe9fe634	-0.3123032
184	0xbed8f22b	-0.4237226
185	0x3ea86065	0.32886043
186	0xbeb8136d	-0.3595232
187	0xbeee0728	-0.46489835
188	0x3e9783e8	0.29592824
189	0xbeb9b618	-0.3627174
190	0xbef6d9a6	-0.48212928
191	0x3e804105	0.25049606
192	0xbebbdfe1	-0.36694244
193	0xbef6f6e0	-0.48235226
194	0x3e3ee716	0.1864284
195	0xbe8c3530	-0.2738433
196	0xbee9357c	-0.45548618
197	0x3e3f6819	0.18692054
198	0xbdd23597	-0.10264128
199	0xbee04251	-0.43800595
200	0x3ee0585f	0.43817422
201	0x3f336717	0.7007918
202	0xbee6b050	-0.4505639
203	0x3ecd1dab	0.40061697
204	0x3eb58031	0.35449365
205	0xbec939fa	-0.39302045
206	0x3ea8e12c	0.32984293
207	0x3e530338	0.20606697
208	0xbea18979	-0.31550196
209	0x3e8b6141	0.27222636
210	0x3e4dc8f3	0.20096187
211	0xbe8f6d9f	-0.28013322
212	0x3e80c80f	0.25152633
213	0x3e4d2a46	0.20035657
214	0xbe85f75e	-0.2616529
215	0x3e79c01a	0.24389687
216	0x3e4defa6	0.2011095
217	0xbe8270e0	-0.25476742
218	0x3e773299	0.24140395
219	0x3e4d6d28	0.20061171
220	0xbe7ef846	-0.24899396
221	0x3e7517f3	0.23934917
222	0x3e49fe54	0.19725925
223	0xbe78fb95	-0.24314721
224	0x3e73b332	0.23798826
225	0x3e49b656	0.19698462
226	0xbe750bfb	-0.23930351
227	0x3e72db8e	0.23716566
228	0x3e4947b6	0.19656262
229	0xbe73a01b	-0.23791544
230	0x3e72d0dd	0.23712488
231	0x3e48e435	0.19618304
232	0xbe7386d8	-0.23781908
233	0x3e727614	0.23677856
234	0x3e496e02	0.19670871
235	0xbe73114d	-0.23737068
236	0x3e72c8e0	0.2370944
237	0x3e49a256	0.19690832
238	0xbe73810c	-0.23779696
239	0x3e72de18	0.23717535
240	0x3e4979d9	0.19675387
241	0xbe73b7a5	-0.23800524
242	0x3e72fc1a	0.23728982
243	0x3e493884	0.19650465
244	0xbe732fde	-0.23748729
245	0x3e7286ef	0.23684286
246	0x3e48fd0a	0.19627777
247	0xbe7370e1	-0.23773529
248	0x3e7281db	0.23682348
249	0x3e49844c	0.19679374
250	0xbe731927	-0.23740064
251	0x3e72e33e	0.23719499
252	0x3e4996f4	0.1968649
253	0xbe735fc1	-0.23766996
254	0x3e72412f	0.23657678
255	0x3e4924e9	0.19642986

fc_out.bias f4 [334]
0	0x3e7aa0ab	0.24475352
1	0x3e72b6ff	0.2370262
2	0x3e840dbe	0.25791734
3	0x3e5c46cc	0.21511382
4	0x3e57b4e2	0.21065095
5	0x3e619d86	0.22032747
6	0x3e6f483b	0.23367397
7	0x3e574bc2	0.21024993
8	0x3e000d32	0.12505034
9	0x3e4dc709	0.20095457
10	0x3e49f282	0.19721416
11	0x3e1f8f6b	0.15582053
12	0x3e410be7	0.18852197
13	0x3e19cd7a	0.1501979
14	0x3df5d943	0.1200433
15	0x3e0e0009	0.13867201
16	0x3e5faadb	0.2184252
17	0x3e826db9	0.25474337
18	0x3e33b471	0.17549302
19	0x3da4a3ca	0.08039053
20	0x3e2fd181	0.17169763
21	0x3e35eafa	0.17765418
22	0x3e7af995	0.2450927
23	0x3e0571d3	0.13031702
24	0x3e09dbae	0.13462707
25	0x3e379583	0.17928128
26	0x3e5fbc91	0.21849276
27	0x3e20e7f4	0.15713483
28	0x3e20b676	0.15694603
29	0x3e12f47a	0.14351073
30	0x3e2b1c54	0.16710025
31	0x3e3b5b47	0.18296538
32	0x3e2031b7	0.15643965
33	0x3e232f09	0.15935911
34	0x3e384604	0.17995459
35	0x3d97970b	0.07401856
36	0x3de28bc0	0.110618114
37	0x3e32b537	0.1745194
38	0x3dd4112b	0.10354837
39	0x3da4d202	0.08047868
40	0x3ddc8c0d	0.107689
41	0x3df371b7	0.11886924
42	0x3e0269e5	0.12735708
43	0x3e056389	0.13026251
44	0x3dd580de	0.1042497
45	0x3cf52da9	0.029928999
46	0x3df98307	0.121831946
47	0x3e043a49	0.12912859
48	0x3e660923	0.22464423
49	0x3e3505a1	0.17677929
50	0x3e7143da	0.2356104
51	0x3e8321a9	0.25611618
52	0x3e55ed78	0.20891368
53	0x3da0ed1c	0.07857725
54	0x3ddae751	0.10688651
55	0x3d40c16d	0.047059465
56	0xbbf88345	-0.007584008
57	0x3e11f472	0.14253405
58	0x3dcee8ea	0.101030186
59	0x3e504404	0.20338446
60	0x3d7d003e	0.06176781
61	0x3dd36f63	0.1032398
62	0x3db4d08b	0.08828839
63	0x3dc22043	0.0947881
64	0x3dd6db67	0.104910664
65	0x3d858f18	0.065214336
66	0x3d0a92ef	0.033831533
67	0x3d79f7bc	0.061027274
68	0x3c9dbd24	0.019255228
69	0x3da45ea5	0.080258645
70	0x3db3f422	0.08786799
71	0x3dd6524c	0.10464916
72	0x3cf30eeb	0.0296702
73	0x3dd75f50	0.10516226
74	0x3d1945ae	0.037419967
75	0x3e2002c9	0.15626062
76	0x3debde14	0.115169674
77	0x3d4741c2	0.048646696
78	0x3db999cd	0.09062538
79	0x3d681fa4	0.0566708
80	0x3c9d0e63	0.0191719
81	0x3e13904e	0.14410517
82	0x3dc1a09e	0.094544634
83	0x3c837e09	0.01605131
84	0x3d770d70	0.06031555
85	0x3da74aab	0.08168539
86	0x3d893a4e	0.06700574
87	0x3c7be78e	0.015375031
88	0xbc75669a	-0.014978075
89	0xbb98dbbf	-0.0046648677
90	0x3d78b859	0.060722683
91	0x3d9c2b25	0.07625417
92	0x3da31d0f	0.07964527
93	0x3e3376b9	0.17525758
94	0x3eb08ba7	0.34481546
95	0x3e7eea87	0.24894153
96	0x3ce60749	0.028079646
97	0x3c41094f	0.0117820045
98	0x3e12d3b3	0.1433857
99	0x3e0f407b	0.13989441
100	0x3cda7d25	0.026671002
101	0xbc9ca990	-0.019123822
102	0xbbf41f62	-0.00745003
103	0xbda0b033	-0.07846107
104	0x3dcb326d	0.09921727
105	0xbd42587e	-0.047447674
106	0xbbd7d465	-0.0065865987
107	0xbd36efd5	-0.044662315
108	0x3d84e7da	0.06489535
109	0x3cea288c	0.028583787
110	0x3d768679	0.060186837
111	0x3c14ed69	0.009089806
112	0x3e1437c4	0.14474398
113	0x3d1c8187	0.038209464
114	0x3dd81ed6	0.105527565
115	0x3caaafaa	0.020835716
116	0x3e355eb8	0.17711914
117	0x3d6fd556	0.058553062
118	0x3d5b30be	0.05351328
119	0xbda7498e	-0.08168326
120	0x3e21e6be	0.15810677
121	0xbc9907ac	-0.018680416
122	0x3d6b08b7	0.057381358
123	0x3caba823	0.020954197
124	0x3c914671	0.017733784
125	0x3d212486	0.039341472
126	0x3cfeda17	0.031109853
127	0x3c0c47f4	0.008562077
128	0x3d0c7e93	0.034300398
129	0x3c2ecc76	0.0106688645
130	0xbcbe621c	-0.023240142
131	0xbc829a88	-0.015942827
132	0x3d92e041	0.07171679
133	0x3de08eb0	0.109647155
134	0x3c127416	0.00893881
135	0x3dc666c1	0.096875675
136	0x3cf20ea6	0.029548
137	0x3d003c21	0.031307343
138	0x3db1c721	0.08680559
139	0x3b21a81a	0.0024666847
140	0x3dcf35ab	0.10117658
141	0x3ca1641d	0.019701058
142	0x3c932eb7	0.017966611
143	0x3d81ccaf	0.063378684
144	0x3d789806	0.060691856
145	0x3d3e2542	0.04642225
146	0xbd02e45e	-0.03195607
147	0x3de16669	0.11005861
148	0x3d08892f	0.033333953
149	0x3d6e5afc	0.05819224
150	0xbacb4a48	-0.0015509808
151	0x3d6f5c67	0.05843773
152	0xbba0e98d	-0.004910654
153	0x3c7f89de	0.015596835
154	0xbc916daa	-0.017752487
155	0x3d9b8aaf	0.07594811
156	0x3d9c8c91	0.076439984
157	0x3b96632c	0.004589459
158	0x3c100ae1	0.008791656
159	0xbc3d168a	-0.011541018
160	0x3d849969	0.06474573
161	0x3c9e9769	0.019359307
162	0x3d7a95ad	0.0611779
163	0xbc97218c	-0.018448614
164	0x3c31b95d	0.010847417
165	0xbc556e03	-0.013026717
166	0xbcab792e	-0.020931806
167	0xbb20c79d	-0.0024533041
168	0xbd663c9f	-0.056210157
169	0x3db22a73	0.08699503
170	0x3c660756	0.014039835
171	0xbd00a840	-0.031410456
172	0xbc9ea086	-0.019363653
173	0xbd97e01a	-0.07415791
174	0xbb3a852b	-0.0028460722
175	0xbe0f12a7	-0.13971959
176	0x3cea7319	0.028619336
177	0xbcd03df4	-0.025420167
178	0xbdc36086	-0.09539895
179	0xbd15654d	-0.03647356
180	0x3cb4e320	0.022080958
181	0x3b93a680	0.0045059323
182	0x3c0dad2f	0.008647247
183	0xbda345e2	-0.079723135
184	0xbdbd8863	-0.09254529
185	0xbdc230db	-0.09481975
186	0xbb9c6994	-0.004773328
187	0x3d831166	0.06399803
188	0x3d89432b	0.067022644
189	0x3de45ebe	0.11150883
190	0x3df5b7ff	0.11997985
191	0xbdcdc0c9	-0.100465365
192	0xbd486d04	-0.04893209
193	0xbd23c477	-0.039982285
194	0x3c14a43e	0.0090723615
195	0xbd8d854b	-0.06910189
196	0xbc91f8ad	-0.017818773
197	0x3cfebfca	0.031097312
198	0xbb8f3a22	-0.0043709436
199	0xbd9f9429	-0.07791931
200	0xbdd3b3b3	-0.10337009
201	0x3cf36f97	0.029716296
202	0xbd112ed8	-0.035445064
203	0x3cc944fc	0.024569027
204	0x3cbe90f0	0.023262471
205	0x3d2a2250	0.04153663
206	0x3c111e5f	0.008857339
207	0xbddd1597	-0.107951336
208	0xbdb0579c	-0.0861046
209	0xbdb79b21	-0.08965135
210	0xbd185b6a	-0.037196554
211	0x3c085526	0.008321082
212	0xbd132bfb	-0.035930615
213	0x3da51b82	0.08061887
214	0x3d25347a	0.04033325
215	0x3d583b30	0.05279082
216	0xbdbae22e	-0.091251716
217	0xbd41ee7f	-0.04734659
218	0xbd387c6e	-0.04504054
219	0xbd85139e	-0.06497882
220	0xbcdadbc6	-0.026716124
221	0xbd1d757b	-0.038442116
222	0x3c119ea5	0.008887921
223	0xbd63b3da	-0.05559144
224	0x3ca8626f	0.02055475
225	0xbdb4501b	-0.088043414
226	0xbbf5a5da	-0.0074965777
227	0xbd55a66f	-0.052160677
228	0xbd07ba01	-0.03313637
229	0x3c11bdf9	0.008895391
230	0xbd7e085e	-0.0620197
231	0xbdddefdb	-0.108367644
232	0xbd0fdde4	-0.03512372
233	0x3d03f8b0	0.03221959
234	0xbcd7b86f	-0.026333062
235	0x3c3112fe	0.010807751
236	0xbd21ab24	-0.039469853
237	0xbdb118aa	-0.086472824
238	0xbde3c498	-0.11121482
239	0xbd628b4d	-0.05530863
240	0xbde56bd1	-0.11202205
241	0xbdff84a7	-0.12476473
242	0xbd8e0407	-0.06934362
243	0xbceb0d0d	-0.028692747
244	0xbcd99b9b	-0.026563456
245	0xbd264e45	-0.040601987
246	0xbca4ef20	-0.020133555
247	0xbd484b1a	-0.048899747
248	0xba5a6c1f	-0.00083321513
249	0xbcb44b8d	-0.022008682
250	0xbdc21410	-0.09476483
251	0xbe099869	-0.13437046
252	0x3b0414e2	0.0020154049
253	0xbd193244	-0.037401453
254	0xbc939e2a	-0.018019754
255	0xbcb3ef9b	-0.021964839
