lstm/model_pt/lstm_traj_sf_1_fold_CV_2000.pt (torch, 205319 bytes, 6 tensors)

rnn.weight_ih_l0 f4 [12, 3]
-0.17793788 -0.23358956 0.0069500078 -0.12336767 0.35455254 0.016729733 0.18663055 0.34900826
-0.02967562 -0.067612104 -0.031019816 0.0041607623 0.005350843 -0.09546682 5.6617537e-05 -0.02956623
-0.018776046 0.002688687 0.20448563 0.18612769 -0.008636045 0.108651035 -0.14075749 0.0046286103
-0.13316002 -0.2283419 0.011561705 0.22504298 -0.15891194 0.011455549 -0.21285374 0.2097198
0.002433201 0.17162539 0.3432297 -0.006738356
00000000: 5935 36be 1a32 6fbe e4bc e33b 30a8 fcbd
00000010: e987 b53e cb0c 893c 141c 3f3e 36b1 b23e
00000020: 491a f3bc 3778 8abd 451d febc 0157 883b
00000030: 2056 af3b 1c84 c3bd 9e78 6d38 e134 f2bc
00000040: 39d0 99bc af34 303b ae64 513e 4298 3e3e
00000050: 337e 0dbc 6f84 de3d bb22 10be 99ab 973b
00000060: 1a5b 08be 76d2 69be 4e6d 3d3c ab71 663e
00000070: d0b9 22be 0eb0 3b3c 55f6 59be cac0 563e
00000080: 5776 1f3b 91be 2f3e cebb af3e 6dcd dcbb

rnn.weight_hh_l0 f4 [12, 3]
1.1913762 0.19228734 -0.645741 0.54961157 2.0813055 0.9456894 -0.90305865 0.006005879
2.9410298 0.56060857 -0.26319388 -0.43361044 0.48358124 -0.32941633 -0.28786623 -0.29874894
-0.01849178 -0.25413522 -1.075126 0.9258438 0.7141169 -0.22455609 -0.90255326 -0.19327855
0.6300592 0.49404222 -0.9808633 -1.9232876 -0.42002162 -0.51948583 1.170423 2.402402
0.17891066 -0.45470396 0.12272987 2.4251895
00000000: 047f 983f f9e6 443e 484f 25bf 58b3 0c3f
00000010: 1c34 0540 b318 723f da2e 67bf f7cc c43b
00000020: d539 3c40 0b84 0f3f 59c1 86be 3002 debe
00000030: f697 f73e 42a9 a8be 3463 93be 9ff5 98be
00000040: 137c 97bc 031e 82be bb9d 89bf 1904 6d3f
00000050: 5dd0 363f 08f2 65be bb0d 67bf d0ea 45be
00000060: 8f4b 213f 1af3 fc3e db19 7bbf 4a2e f6bf
00000070: 130d d7be 06fd 04bf 6cd0 953f f4c0 1940
00000080: 5b34 373e f5ce e8be cc59 fb3d 4e36 1b40

rnn.bias_ih_l0 f4 [12]
1.3127487 1.7242442 1.6984788 0.64459246 0.8517082 0.7300603 0.06589617 0.33812132
0.17076345 2.0568964 0.98231626 1.7842451
00000000: 2608 a83f 09b4 dc3f c167 d93f 0304 253f
00000010: 8c09 5a3f 3be5 3a3f 92f4 863d 3d1e ad3e
00000020: 9ddc 2e3e 31a4 0340 1479 7b3f 2562 e43f

rnn.bias_hh_l0 f4 [12]
1.3118802 1.7238644 1.6983825 0.64482635 0.85179627 0.72907037 0.065860435 0.33770755
0.17107068 2.05682 0.9815606 1.7836552
00000000: b1eb a73f 97a7 dc3f 9964 d93f 5713 253f
00000010: 520f 5a3f 5ba4 3a3f d6e1 863d 01e8 ac3e
00000020: 272d 2f3e f0a2 0340 8e47 7b3f d04e e43f

fc_out.weight f4 [334, 151]
-0.37504342 -0.3868787 0.34014475 -0.49797717 -0.50106126 0.5237885 -0.51071894 -0.53774285
0.47970605 -0.49797505 -0.5606198 0.48998895 -0.45124364 -0.57355225 0.56803966 -0.4284237
-0.57759523 0.58077717 -0.37614977 -0.58564013 0.59714854 -0.3108623 -0.5845167 0.6168001
-0.26530087 -0.57226366 0.6159774 -0.24758716 -0.55855566 0.64778864 -0.27054867 -0.549001
0.68963885 -0.24067992 -0.5410158 0.62937313 -0.09284229 -0.5426518 0.3609103 0.24176718
-0.5610233 -0.07134127 0.15257634 -0.55557597 -0.10883694 0.07832514 -0.5513263 -0.047347687
0.0007123555 -0.54537266 0.00015643045 0.00072061346 -0.54534835 8.9192596e-05 0.00078314275 -0.54536706
0.000121559475 0.0007079476 -0.54538083 0.0001438807 0.00052849005 -0.5453971 0.00018923345 0.00022005706
-0.5453345 0.00014635856 -4.703055e-05 -0.54533833 0.000100887395 -4.6367455e-05 -0.54537874 9.5038326e-05
5.1189716e-07 -0.5453312 4.3337375e-05 -7.882298e-05 -0.54536223 0.0001400262 -8.0252925e-05 -0.5453482
3.6152658e-05 -2.096851e-05 -0.545353 4.4247743e-05 -8.182709e-05 -0.54539114 6.858673e-05 -7.6568955e-05
-0.5453988 2.347083e-05 -0.00012977197 -0.5453698 0.00013820731 -5.2295654e-05 -0.54528415 8.320776e-05
-8.7458764e-05 -0.5453838 1.5887752e-05 -0.00012668478 -0.54530925 8.1652535e-05 -6.439353e-05 -0.54527605
2.4812594e-05 -0.000115893534 -0.54527307 1.0409856e-05 -3.0646286e-05 -0.5453389 0.00010636298 -1.89843e-05
-0.54527485 5.4416425e-05 1.34158145e-05 -0.54539573 3.735809e-05 -2.2414646e-05 -0.5453389 1.51174745e-05
-7.0618785e-06 -0.54531133 2.0429146e-05 -9.727396e-05 -0.54539466 0.00013445738 -0.00012340708 -0.5452728
9.483271e-05 -6.542192e-05 -0.5452778 3.1990796e-05 -8.702042e-05 -0.5453333 5.9676688e-05 -9.202024e-05
-0.5453464 3.3248693e-06 -2.7645285e-06 -0.54530543 -1.4309994e-05 6.047227e-05 -0.5453692 2.4413783e-05
1.6823473e-05 -0.5453465 -7.365755e-05 -3.1125805e-05 -0.54536545 -2.8309123e-06 -1.353327 -0.36924058
-0.26135936 0.1631615 -0.5358006 -0.21353413 0.3239655 -0.5744598 -0.09221304 0.433569
-0.58781606 0.05261218 0.43134135 -0.59908915 0.21319322 0.3798391 -0.60578895 0.3346686
0.3188051 -0.60625416 0.41105872 0.26310632 -0.6159545 0.4649278 0.18041229 -0.6217065
0.4851337 0.13964649 -0.63171375 0.49821845 0.13033465 -0.62655246 0.5057329 0.22525127
-0.5206136 0.5322706 0.283944 -0.2335144 0.559639 0.16575265 0.23421088 0.61187774
-0.3014918 0.028710146 0.5616239 -0.092674896 -0.00015317829 0.5531674 0.00031762308 -0.000102291946
0.55323964 0.00020786162 -0.00010987163 0.5532032 0.00025763086 -0.00011594475 0.55328035 0.00023273942
1.2862398e-05 0.55327326 0.00028748298 -7.380641e-05 0.5532537 0.000117846146 -3.0123447e-05 0.55324215
0.00018004295 -9.349675e-05 0.5532327 7.289083e-05 -5.6400248e-05 0.5532055 0.00012945844 -6.1294944e-05
0.5532481 5.4011183e-05 9.594852e-06 0.5532574 -3.362311e-05 -6.362964e-05 0.5532141 6.824129e-05
-1.2498562e-05 0.5531994 7.677078e-05 3.1108942e-05 0.55318683 7.312258e-05 4.0389048e-05 0.5531869
-3.838935e-05 -8.537457e-05 0.5532549 0.00011568866 -9.5964264e-05 0.55326074 9.253265e-05 7.2432817e-06
0.5532376 -2.764106e-05 5.131984e-06 0.55322266 3.6222646e-05 -8.905837e-05 0.5532014 2.7506121e-05
00000000: b105 c0be f714 c6be 7427 ae3e ddf6 febe
00000010: 8d45 00bf 0117 063f 7abe 02bf 84a9 09bf
00000020: 089c f53e 96f6 febe c784 0fbf d5df fa3e
00000030: 6809 e7be 52d4 12bf 0c6b 113f 5a5a dbbe
00000040: 48dd 13bf d0ad 143f b496 c0be 83ec 15bf
00000050: bade 183f 5829 9fbe e3a2 15bf 9de6 1d3f
00000060: 84d5 87be df7f 12bf b2b0 1d3f 7d87 7dbe
00000070: 81fd 0ebf 7ad5 253f 5b85 8abe 548b 0cbf
00000080: 2c8c 303f cc74 76be 0380 0abf 991e 213f
00000090: 1924 bebd 3aeb 0abf 3cc9 b83e d191 773e
000000a0: 399f 0fbf 5f1b 92bd f93c 1c3e 3a3a 0ebf
000000b0: e7e5 debd ee68 a03d b823 0dbf a6ef 41bd
000000c0: 5ebd 3a3a 8b9d 0bbf 7b07 2439 8de7 3c3a
000000d0: f39b 0bbf e90c bb38 d24b 4d3a 2d9d 0bbf
000000e0: bfed fe38 8f95 393a 149e 0bbf aede 1639
000000f0: 5e8a 0a3a 259f 0bbf f86c 4639 1ebf 6639
00000100: 0b9b 0bbf d477 1939 ab42 45b8 4b9b 0bbf
00000110: 8293 d338 ad7a 42b8 f19d 0bbf 504f c738
00000120: 4e69 0935 d39a 0bbf 27c5 3538 c44d a5b8
00000130: dc9c 0bbf ffd3 1239 764d a8b8 f19b 0bbf
00000140: 9fa2 1738 88e5 afb7 419c 0bbf a796 3938
00000150: 969a abb8 c19e 0bbf 38d6 8f38 a593 a0b8
00000160: 419f 0bbf 39e3 c437 6613 08b9 5b9d 0bbf
00000170: beeb 1039 0858 5bb8 be97 0bbf d37f ae38
00000180: 116a b7b8 469e 0bbf b046 8537 b0d6 04b9
00000190: 6399 0bbf df3c ab38 030b 87b8 3697 0bbf
000001a0: a424 d037 de0b f3b8 0497 0bbf fea5 2e37
000001b0: 338a 00b8 559b 0bbf 310f df38 7940 9fb7
000001c0: 2297 0bbf 313d 6438 7c14 6137 0e9f 0bbf
000001d0: f2b0 1c38 1607 bcb7 559b 0bbf 0fa1 7d37
000001e0: 13f5 ecb6 8699 0bbf 425f ab37 8fff cbb8
000001f0: fc9e 0bbf 21fd 0c39 d666 01b9 0097 0bbf
00000200: ece0 c638 2033 89b8 5397 0bbf db2d 0638
00000210: bb7e b6b8 f79a 0bbf 5b4d 7a38 fdfa c0b8
00000220: d29b 0bbf d220 5f36 3d86 39b6 2399 0bbf
00000230: f514 70b7 9ba3 7d38 519d 0bbf 33cc cc37
00000240: 2220 8d37 d49b 0bbf 9978 9ab8 148d 02b8
00000250: 129d 0bbf b4fa 3db6 d239 adbf 1a0d bdbe
00000260: e5d0 85be cf13 273e 3a2a 09bf b1a8 5abe
00000270: cede a53e cc0f 13bf 31da bcbd c2fc dd3e
00000280: 1d7b 16bf df7f 573d c6d8 dc3e e85d 19bf
00000290: 534f 5a3e 457a c23e fc14 1bbf af59 ab3e
000002a0: 6c3a a33e 7933 1bbf 4a76 d23e dfb5 863e
000002b0: 32af 1dbf 040b ee3e 00be 383e 2828 1fbf
000002c0: 7263 f83e 7dff 0e3e feb7 21bf 7d16 ff3e
000002d0: 7276 053e be65 20bf b677 013f 45a8 663e
000002e0: ef46 05bf e342 083f 1c61 913e 661e 6fbe
000002f0: 8044 0f3f 10bb 293e fad4 6f3e 05a4 1c3f
00000300: 225d 9abe 8a31 eb3c 95c6 0f3f 56cc bdbd
00000310: 7c9e 20b9 619c 0d3f a686 a639 9285 d6b8
00000320: 1da1 0d3f 6ef5 5939 e26a e6b8 ba9e 0d3f
00000330: a112 8739 5d27 f3b8 c8a3 0d3f 830b 7439
00000340: 94cb 5737 51a3 0d3f 50b9 9639 84c8 9ab8
00000350: 09a2 0d3f 2b24 f738 9cb1 fcb7 47a1 0d3f
00000360: e9c9 3c39 af13 c4b8 a9a0 0d3f f7dc 9838
00000370: 4e8f 6cb8 e09e 0d3f 3cbf 0739 798b 80b8
00000380: aba1 0d3f 118a 6238 93f9 2037 47a2 0d3f
00000390: 8a06 0db8 e770 85b8 709f 0d3f c31c 8f38
000003a0: eab0 51b7 7a9e 0d3f 0000 a138 f97a 0238
000003b0: a79d 0d3f 6359 9938 6967 2938 a89d 0d3f
000003c0: 4004 21b8 200b b3b8 1da2 0d3f e09d f238
000003d0: 6c40 c9b8 7fa2 0d3f 170e c238 510b f336
000003e0: fba0 0d3f b9de e7b7 6833 ac36 00a0 0d3f
000003f0: c5ed 1738 d9c4 bab8 9b9e 0d3f f2bc e637

fc_out.bias f4 [334]
0.52095205 0.55083704 0.7259738 0.49862438 0.7014432 1.0273807 0.38315576 0.5403599
0.39690822 0.30873826 0.3181743 0.16390711 0.8522046 0.26766837 0.33444408 0.119963266
0.5112452 0.27161986 0.34999058 0.80892 0.28645125 0.3794638 0.5912714 0.17547573
0.5791624 0.3624451 0.26002124 0.46238062 0.10604073 0.29382226 0.31937376 0.34398648
1.2709155 0.34926808 0.49293634 0.3181317 0.03095027 0.23278987 0.23341282 0.5394954
0.49888802 0.087537326 0.20622547 0.13516508 0.3353979 1.4351982 0.07743947 0.3244747
0.20587118 0.31027177 0.33192304 0.50031877 0.3565625 0.27355945 0.15436146 0.36333436
0.095999084 0.23931304 0.17966536 0.13764086 0.07507844 0.36713344 0.10630881 0.13386351
0.011608983 0.1496638 0.072993584 -0.108768575 -0.040444076 0.11822738 0.12123089 0.19915873
1.1954732 0.22463474 0.0013083623 0.21443954 0.31459758 0.32183924 0.11069302 0.12221933
0.14082354 0.16741885 0.039511837 0.14461122 0.10878758 -0.12083537 0.36570838 0.09220087
0.5226182 0.21661176 -0.08227213 -0.2684048 0.034019977 0.098342344 0.34173885 0.25571626
0.038378697 -0.1484247 0.4576586 0.20274305 0.062455695 -0.12114583 -0.028397666 -0.13734925
0.18569534 0.13684739 0.1042112 -0.1375641 0.24531572 0.013366399 0.25175565 0.043601107
0.25838193 -0.014274907 0.20969293 -0.2014316 0.2466974 -0.03896446 -0.01323095 0.110772826
0.3204572 0.009852206 0.055914305 0.28405795 0.16961329 -0.16291378 0.0727426 -0.040064786
0.34814975 -0.014892719 -0.29836768 -0.031494584 0.21231239 0.29297167 0.041833207 0.078215234
0.02071983 0.050930116 0.025373988 0.092816874 0.20680428 0.26785174 0.2525112 0.22802082
-0.04498071 0.03670082 -0.22869325 0.17061028 -0.06103969 0.056373727 0.06802054 0.27844378
-0.03907353 0.1191295 -0.11452574 0.11506883 -0.016712064 0.08307758 0.18693611 -0.01553771
0.009534131 -0.037080687 0.23259813 0.024282435 0.047456313 0.044051502 -0.36931425 0.18518128
-0.0016667015 0.35337487 0.11088123 0.096446015 0.28990534 -0.4098856 0.46957332 -0.15943351
-0.036408782 -0.12898636 -0.2547368 -0.019889448 -0.0042186873 -0.25728625 -0.09467497 -0.12034373
-0.18806578 -0.2455545 -0.08505698 -0.030770615 -0.025973896 0.06576534 0.16673514 -0.22610992
-0.13501696 -0.06987756 -0.029984633 -0.15465967 -0.0805255 -0.09649111 0.021131111 -0.051653218
-0.12657443 0.027675265 -0.21424532 -0.0063583814 -0.050897464 -0.081719436 -0.07382864 -0.09956279
-0.048334822 -0.06114052 0.015902756 0.047068387 -0.31679595 0.0021391003 0.09821783 0.028604642
-0.057633657 -0.03071475 -0.18016909 -0.1628941 -0.023712646 -0.088175915 -0.1503311 -0.09703135
-0.01446996 -0.17174976 -0.016040213 -0.062372558 0.1431955 -0.025649909 -0.031967033 0.024788681
0.12973393 0.049052022 0.031540837 0.0579531 -0.15759842 -0.05963227 -0.19195001 -0.06326455
-0.08210412 -0.06743494 -0.026292358 0.1027275 -0.112760656 0.010832623 0.018394614 -0.09374433
-0.04716847 -0.05356767 -0.21282421 -0.034455523 -0.22699538 -0.072560705 -0.14835326 -0.042037107
00000000: 1d5d 053f a803 0d3f 6bd9 393f b24b ff3e
00000010: c891 333f 3681 833f fe2c c43e 0755 0a3f
00000020: 8e37 cb3e f112 9e3e bee7 a23e 44d7 273e
00000030: 152a 5a3f d40b 893e 413c ab3e 4daf f53d
00000040: f7e0 023f c211 8b3e f731 b33e 6215 4f3f
00000050: bda9 923e 1449 c23e 905d 173f e9af 333e
00000060: fd43 143f 6792 b93e 8121 853e 27bd ec3e
00000070: e22b d93d df6f 963e f584 a33e ff1e b03e
00000080: 5cad a23f 44d3 b23e 2762 fc3e 28e2 a23e
00000090: 6c8b fd3c 7860 6e3e c503 6f3e 5f1c 0a3f
000000a0: 406e ff3e c546 b33d c52c 533e b768 0a3e
000000b0: 46b9 ab3e 93b4 b73f 9698 9e3d 8c21 a63e
000000c0: e5cf 523e f1db 9e3e d1f1 a93e e414 003f
000000d0: 5c8f b63e fc0f 8c3e ee10 1e3e f606 ba3e
000000e0: 2b9b c43d 7a0e 753e 32fa 373e baf1 0c3e
000000f0: bac2 993d eaf8 bb3e 6fb8 d93d 8413 093e
00000100: 9b33 3e3c 7841 193e a97d 953d 0fc2 debd
00000110: b0a8 25bd 3221 f23d e747 f83d 44f0 4b3e
00000120: 4405 993f a606 663e 5b7d ab3a 0a96 5b3e
00000130: ef12 a13e 1dc8 a43e 06b3 e23d 214e fa3d
00000140: 0c34 103e d96f 2b3e 2ad7 213d f714 143e
00000150: 06cc de3d 8978 f7bd 213e bb3e cfd3 bc3d
00000160: 4eca 053f 79cf 5d3e 4a7e a8bd 5b6c 89be
00000170: 8858 0b3d b667 c93d 65f8 ae3e 3eed 823e
00000180: fb32 1d3d a5fc 17be 3a52 ea3e e09b 4f3e
00000190: 8bd1 7f3d 4e1b f8bd 39a2 e8bc 48a5 0cbe
000001a0: eb26 3e3e b921 0c3e ae6c d53d 9add 0cbe
000001b0: 0b34 7b3e befe 5a3c 1ee6 803e 1397 323d
000001c0: a34a 843e 4de1 69bc beb9 563e 1644 4ebe
000001d0: 3e9e 7c3e 3399 1fbd a0c6 58bc dddc e23d
000001e0: f712 a43e 266b 213c 6606 653d 0b70 913e
000001f0: 1baf 2d3e dfd2 26be 13fa 943d f91a 24bd
00000200: af40 b23e 9700 74bc a6c3 98be 7700 01bd
00000210: 6b68 593e 6200 963e 4c59 2b3d 4f2f a03d
00000220: a2bc a93c 199c 503d 1cdd cf3c c616 be3d
00000230: 80c4 533e dd23 893e 2649 813e 4a7e 693e
00000240: b13d 38bd 9953 163d 902e 6abe 76b4 2e3e
00000250: c104 7abd 23e8 663d 5a4e 8b3d 2f90 8e3e
00000260: 910b 20bd 2bfa f33d 798c eabd 35a9 eb3d
00000270: bde7 88bc 9424 aa3d 2e6c 3f3e e191 7ebc
00000280: 0b35 1c3c ebe1 17bd 342e 6e3e f5eb c63c
00000290: 8d61 423d 596f 343d c216 bdbe 29a0 3d3e
000002a0: 3975 daba 8ded b43e b315 e33d 7d85 c53d
000002b0: 796e 943e 86dc d1be ea6b f03e 8a42 23be
000002c0: 6021 15bd 0015 04be dd6c 82be 32ef a2bc
000002d0: ea3c 8abb 06bb 83be f3e4 c1bd c676 f6bd
000002e0: 5194 40be a472 7bbe 5b32 aebd a812 fcbc
000002f0: 35c7 d4bc fbaf 863d 9ebc 2a3e 5c89 67be
00000300: e341 0abe f71b 8fbd 55a2 f5bc 1b5f 1ebe
00000310: 8eea a4bd 229d c5bd 271b ad3c 5392 53bd
00000320: ba9c 01be 3db7 e23c 2063 5bbe f859 d0bb
00000330: dc79 50bd 855c a7bd 7833 97bd 93e7 cbbd
00000340: bcfa 45bd 7b6e 7abd 7f46 823c c8ca 403d
00000350: 1433 a2be 2630 0c3b 6e26 c93d 4854 ea3c
00000360: 4511 6cbd 809d fbbc 3f7e 38be b6cd 26be
00000370: 0641 c2bc 9395 b4bd 65f0 19be 5fb8 c6bd
00000380: 6913 6dbc 2bdf 2fbe c466 83bc 5e7a 7fbd
00000390: d7a1 123e c21f d2bc ddef 02bd a211 cb3c
000003a0: f9d8 043e c6ea 483d f730 013d 3b60 6d3d
000003b0: 7b61 21be f840 74bd 8b8e 44be d890 81bd
000003c0: 3426 a8bd 541b 8abd 1263 d7bc cc62 d23d
000003d0: 0fef e6bd 507b 313c 4db0 963c 07fd bfbd
000003e0: ba33 41bd c669 5bbd 97ee 59be 3c21 0dbd
000003f0: 7a71 68be b59a 94bd ebe9 17be 1a2f 2cbd
