lstm/model_pt/lstm_traj_sf_lf_dm_3_fold_CV_1800.pt (torch, 210725 bytes, 6 tensors)

rnn.weight_ih_l0 f4 [12, 3]
000000 56 7d e1 3d a5 36 1d bf b6 78 30 bf c0 33 2f bf
       0.11010234 -0.61411506 -0.6893419 -0.6843834
000010 78 b6 28 bd 90 31 d1 bf 39 23 a2 bd e1 2a 6a 3e
       -0.04118964 -1.634325 -0.079168744 0.2286792
000020 c3 af 90 bf a5 ff 6b bd a6 5d 26 3d 48 89 33 3f
       -1.1303638 -0.05761685 0.040616654 0.7013135
000030 f2 9e cb 3d 39 e7 bd 3e 30 28 59 3f a0 e0 e8 3e
       0.09942426 0.3709047 0.84826946 0.45483875
000040 c6 45 a6 3e 1c c1 a2 3e 1f fb 51 3e 68 fe 84 3f
       0.32475108 0.31787956 0.20505951 1.0390139
000050 ab 10 36 bc df b3 95 bf 6e c5 37 3b f4 8e 76 3c
       -0.011112372 -1.1695517 0.0028041261 0.015048731
000060 85 87 b4 be 09 0c 54 3e 97 7f 9e 3c 0e 2e 98 bf
       -0.35259643 0.20707716 0.019347949 -1.1889055
000070 59 40 3e c0 34 d6 11 3e 89 05 a2 bd 07 e3 4d bf
       -2.9726775 0.14241868 -0.07911212 -0.8042454
000080 b2 46 b1 3f 75 c5 32 bf b1 0d b1 3c 81 bd ed 3f
       1.38497 -0.69832546 0.021612974 1.8573457

rnn.weight_hh_l0 f4 [12, 3]
000000 64 96 98 3f 59 d7 e3 3e 91 f9 a7 bb 90 49 b0 3d
       1.1920896 0.44500235 -0.005126186 0.08607781
000010 67 81 b4 bf bc 02 24 3e 08 30 8f 3d a3 19 ca be
       -1.410199 0.16016668 0.06991583 -0.39472684
000020 bf 05 f4 3e be 26 2b be d2 54 de bd 40 b4 3c be
       0.47660634 -0.16713998 -0.10856022 -0.18428135
000030 d1 8b b9 be 9e 85 53 3d 51 79 54 bb 2d 83 b5 3d
       -0.36239484 0.0516411 -0.0032420943 0.088629104
000040 42 6d c4 be 80 9f f5 bd 65 e6 95 be 0b 49 a5 be
       -0.38364607 -0.11993313 -0.2927734 -0.3228229
000050 1d 60 ff be ca ec a8 3d 02 8a c0 3d 68 a0 19 3f
       -0.49878016 0.08248289 0.09401323 0.60010386
000060 8c f1 f5 3b 4b 90 fc be ad d2 a6 3e 8b 53 2e 3f
       0.0075056013 -0.49328837 0.32582608 0.68096226
000070 5b 64 2f 3d e5 c8 b1 3e af 37 e2 3e 12 9c dc be
       0.042820316 0.34723583 0.44183108 -0.43087822
000080 ea 07 04 be f4 a9 83 3e cc c8 19 bf 0f a6 b2 3e
       -0.12893644 0.257156 -0.60072017 0.34892318

rnn.bias_ih_l0 f4 [12]
000000 d6 91 91 3f 47 a4 38 3f 60 0a 8d 3f c3 bd eb 3f
       1.1372631 0.7212567 1.1018791 1.8417286
000010 e7 e7 56 3f 39 a3 88 3f 90 50 34 3d b0 b5 00 be
       0.83947605 1.0674812 0.044022143 -0.12569308
000020 bd 5a 9f bc a6 4f 02 40 b3 de b9 3f d6 f3 cb 3f
       -0.019452447 2.0361114 1.4521087 1.5933788

rnn.bias_hh_l0 f4 [12]
000000 13 ce 90 3f 31 76 39 3f b5 6c 8b 3f 11 4f eb 3f
       1.1312889 0.7244597 1.089255 1.8383504
000010 b1 17 57 3f 5a 31 88 3f 94 d4 28 3d 01 8c f8 bd
       0.84020525 1.0640061 0.041218355 -0.121360786
000020 6b ef 84 bc 39 ea 01 40 ad 18 ba 3f e3 52 cb 3f
       -0.016227445 2.0299208 1.453878 1.588467

fc_out.weight f4 [334, 155]
000000 14 92 4f bf 6b 1d d4 3d bf 52 94 be 52 a2 76 3e
       -0.8108227 0.103571735 -0.2896938 0.24085358
000010 24 b9 c6 3e e2 b0 fa bb 58 4c c7 3e ef 55 e1 3e
       0.38813126 -0.0076504806 0.38925433 0.44010875
000020 f5 27 96 3d 46 ee b5 3e d0 be f2 3e fb 85 17 3e
       0.0733184 0.3553335 0.47411203 0.14797203
000030 07 27 45 3e b7 29 06 3f ed b1 81 3e a7 8c 2c be
       0.19253169 0.524074 0.2533106 -0.1685053
000040 27 75 0b 3f ee d0 b5 3e 99 5e 1a bf c8 f4 19 3f
       0.54475635 0.35510963 -0.60300595 0.6013913
000050 66 cf e3 3e 26 c6 1d bf d5 d2 0c 3f c0 4f 05 3f
       0.4449417 -0.61630476 0.55009204 0.52074814
000060 e1 18 1c bf 22 00 0b 3f f4 e3 1a 3f 1f 7a 09 bf
       -0.6097546 0.5429708 0.6050408 -0.53701967
000070 8e 8a f9 3e e8 c5 39 3f c2 c7 1e bf 27 b0 b7 3e
       0.4873852 0.72567606 -0.62023556 0.3587658
000080 f6 6b 4a 3f df 44 02 bf 92 16 ee 3e c8 3f 5b 3f
       0.79070985 -0.5088634 0.46501595 0.856442
000090 45 59 a1 be 60 d0 04 be 51 81 f0 3c bf c4 12 be
       -0.3151342 -0.12970114 0.029358538 -0.14332865
0000a0 63 02 f8 be b2 a3 f8 3e 86 94 9b be 49 a5 ea be
       -0.4843932 0.4856239 -0.30386752 -0.45829228
0000b0 d7 ce c7 3e 0d a2 cc be 4e 1f 64 bd 37 79 32 3f
       0.39024994 -0.39967385 -0.055693917 0.6971621
0000c0 c8 fc 0b bf 9e 22 20 3d 85 ed 51 3f 1f 4e 42 bf
       -0.5468259 0.039095514 0.8200305 -0.75900453
0000d0 28 71 39 3e 43 ff 71 3f b8 be 80 bf 63 b3 c8 3e
       0.18109572 0.94530123 -1.0058203 0.3919936
0000e0 42 6a 8b 3f 0a 83 12 bf 1b 93 e4 3e 78 0a 87 3f
       1.0891802 -0.572312 0.44643483 1.055007
0000f0 e7 30 eb be be d2 07 3f e6 90 e6 3e ff e9 cf be
       -0.45935747 0.5305594 0.45032424 -0.40608212
000100 a6 2d eb 3e 55 1f 46 be eb 7e ca be 0c 74 f1 3e
       0.45933264 -0.1934789 -0.39549956 0.4715885
000110 f8 ba bc be 49 6a ad be 63 40 a7 3e 02 bc e7 be
       -0.36861396 -0.33870152 0.3266631 -0.45260626
000120 cb ea 87 be 9d 96 7d 3e 9d 75 8e be 4c 22 55 be
       -0.2654632 0.24764486 -0.27824107 -0.20813864
000130 07 03 56 3e 51 e1 2e be 4e 87 28 be 00 99 39 3e
       0.20899592 -0.17078139 -0.16457865 0.18124771
000140 3c 61 e2 bd e0 94 01 be f4 f3 0e 3e bd 62 97 bd
       -0.11053702 -0.12654448 0.13960248 -0.0739188
000150 c9 98 c9 bd a4 18 f7 3d 8e c3 3e bd de f0 a8 bd
       -0.098435946 0.12065247 -0.046573214 -0.08249067
000160 97 57 e6 3d 7c 1b dc bc fc 83 8e bd bf a6 d5 3d
       0.11247175 -0.026868574 -0.06958768 0.10432195
000170 4e 60 52 bc 88 84 6f bd 04 ee be 3d 61 5a bd 39
       -0.012840344 -0.058476 0.09322742 0.00036116227
000180 c1 80 53 bd 00 8b a0 3d b0 f4 0f 3c 38 cd 2f bd
       -0.05163646 0.07839012 0.008786365 -0.04292032
000190 bd 73 86 3d 43 cc 70 3c b8 96 e9 bc 07 7b 51 3d
       0.06565044 0.014697137 -0.028514251 0.05114272
0001a0 a6 5b 8a 3c 01 62 a5 bc 77 e6 22 3d 3c 80 a3 3c
       0.016889405 -0.020188333 0.03977057 0.019958608
0001b0 f0 3b b5 bc 60 0e f2 3c 0a 1e a7 3c 5a 70 92 bc
       -0.022123307 0.02954787 0.020400066 -0.017875839
0001c0 4b ce a0 3c d8 40 b3 3c ed ff 99 bc 1a f1 18 3c
       0.019629618 0.021881506 -0.018798793 0.009334827
0001d0 fe 23 ab 3c 46 d0 94 bc 5d 6b 21 bd b8 80 b4 3c
       0.020891186 -0.018165719 -0.03940903 0.022034034
0001e0 41 22 5c bc 33 2f dc 3b f0 9e aa 3c 97 73 b0 bc
       -0.013435901 0.006719494 0.02082774 -0.021539493
0001f0 a6 9a dd 3c 9a 1e a9 3c 33 5c b8 bc ec 20 d4 3c
       0.027051281 0.020644475 -0.022504902 0.025894605
000200 a5 48 a5 3c 56 b1 d8 bc 51 b2 cd 3c b3 ce a8 3c
       0.020176241 -0.026451748 0.025109442 0.020606374
000210 68 c9 04 bd 53 87 e4 3c 0e 25 bd 3c 85 4d 25 bd
       -0.03241864 0.027896559 0.023088958 -0.04035713
000220 97 bd fc 3c ce af cd 3c dc f4 68 bd 90 a6 08 3d
       0.030852122 0.025108244 -0.05687414 0.03336197
000230 0b 10 ea 3c ba d1 b6 bd 94 c2 19 3d 07 26 21 3d
       0.028572103 -0.08926721 0.03753908 0.039342906
000240 9f 14 12 be 26 9a 2d 3d ef f7 66 3c 86 8d 58 be
       -0.14265679 0.042383336 0.014097198 -0.21147737
000250 6d 07 3a 3d 81 a9 0e bd ab 70 62 bf 24 75 0e bf
       0.045417238 -0.03482962 -0.8845317 -0.5564749
000260 79 aa 82 bf bd 5c a9 3f 58 0d b6 3c 71 e1 53 3f
       -1.0208274 1.3231426 0.02222316 0.8276587
000270 c4 27 95 3f a7 e9 13 40 b1 99 09 3e 05 81 a4 3f
       1.165276 2.311136 0.13437535 1.2851874
000280 32 8a 00 40 8a ac 49 bd ad ae a4 3f c3 75 1b 3f
       2.0084348 -0.04923681 1.2865807 0.60726565
000290 2a 9f 02 be 1d d9 92 3f b5 3d b4 be 2b b5 1a be
       -0.12756029 1.1472508 -0.3520333 -0.15108173
0002a0 15 f9 80 3f d3 b7 2b bf bf 6e 18 be b6 e0 77 3f
       1.0076014 -0.6707737 -0.14885996 0.96827257
0002b0 1d 8b 64 bf 84 0e 18 be de 4f 5a 3f b7 d2 73 bf
       -0.8927477 -0.14849287 0.8527812 -0.952434
0002c0 73 41 16 be b2 8b 22 3f a9 8d 8a bf 63 b5 18 be
       -0.14673404 0.6349441 -1.0824481 -0.14912944
0002d0 37 6d 92 3e 9d 80 97 bf ca 90 1d be f8 55 c3 3c
       0.2859895 -1.1836125 -0.15387264 0.023844704
0002e0 f6 0a 9c bf a2 31 1f be 9a 49 bc be 8d 69 9c bf
       -1.2190845 -0.15546277 -0.36774904 -1.2219712
0002f0 06 30 1d be bb 11 40 bf 51 fb 1f bf bc ec 84 bd
       -0.1535035 -0.75027055 -0.62492853 -0.06490466
000300 cf 79 17 3e 43 d8 88 3e b9 fa 46 be f7 c5 a3 3f
       0.1479256 0.26727495 -0.1943158 1.2794789
000310 f9 e3 61 3f f7 87 5a be e2 2e d5 3e fd 49 c1 3f
       0.88238484 -0.21340929 0.4163733 1.5100704
000320 5b ae 8c be 3e 2a 35 3f d7 e2 82 3f e3 55 a2 be
       -0.27476773 0.7076758 1.0225476 -0.3170615
000330 a2 6e 61 3f 73 8a 46 3f c3 70 b8 be 7d 8f 87 3f
       0.8805944 0.77555007 -0.3602353 1.0590664
000340 26 d3 2e 3f 7e e1 d8 be a2 f5 96 3f 64 12 28 3f
       0.68290937 -0.42359537 1.1793711 0.6565306
000350 45 79 ca be d8 67 71 3f 86 81 4d 3f 08 22 a3 be
       -0.39545646 0.9429908 0.8027576 -0.318619
000360 ec ac 0a 3f 8c fb 87 3e 74 a1 8f be ff 4c cd 3e
       0.5417011 0.26559103 -0.28052866 0.40097806
000370 c1 8b eb 3e 12 93 83 be 64 74 a1 3e 92 86 e3 3e
       0.4600506 -0.25698143 0.31534111 0.44438607
000380 9f 69 62 be 83 d4 75 3e 19 34 dd bd 48 55 49 be
       -0.22110604 0.24006848 -0.108009525 -0.19661438
000390 c0 fd 4a 3e fd da 4f be 91 62 2b be 9b e8 29 3e
       0.1982336 -0.20298381 -0.16736819 0.16592638
0003a0 e7 84 39 be e0 31 0b be d1 60 02 3e d7 97 18 be
       -0.18117104 -0.13593245 0.12732245 -0.14901672
0003b0 c7 ef e5 bd df e9 d4 3d 81 2d 0f be ca 4c bf bd
       -0.112273745 0.1039617 -0.13982202 -0.09340818
0003c0 a9 8d 9f 3d d2 4e fe bd f9 3f 9a bd 41 41 85 3d
       0.077906914 -0.124173775 -0.07531733 0.06506587
0003d0 53 14 cd bd d2 f4 78 bd 78 31 6a 3d b0 91 9f bd
       -0.10013642 -0.060780354 0.057176083 -0.077914596
0003e0 b0 0f 50 bd ab 13 55 3d b7 08 85 bd ab 1a 2d bd
       -0.05079621 0.05202071 -0.06495803 -0.04226176
0003f0 95 98 50 3d 90 fa 69 bd 7d fe 1a bd 94 f0 3f 3d
       0.050926764 -0.05712372 -0.037840355 0.046860293

fc_out.bias f4 [334]
000000 98 5a f6 bd fb 0f 08 bc e5 6e 9d bd 74 14 40 3d
       -0.12028998 -0.008304591 -0.07687167 0.046894506
000010 a5 5a 51 3b 47 92 92 3d 42 30 08 bf d9 89 4e 3d
       0.0031944897 0.071568064 -0.53198636 0.05042443
000020 03 37 78 be 5a 0c 04 be 31 64 e6 3d 9e d0 e6 3d
       -0.24239735 -0.12895337 0.11249579 0.11270259
000030 13 15 a0 3d 5e 06 2f 3d e3 f2 26 be 7c 2d 5c bf
       0.078165196 0.04273068 -0.16303591 -0.86006904
000040 14 1f 31 bd 49 85 ab bd f5 17 c2 3d fa 70 96 be
       -0.04324253 -0.083750315 0.09477226 -0.2938307
000050 ec 0c 64 3d af a3 e2 3d da 20 d6 bc 02 09 1e 3d
       0.055676386 0.110663764 -0.026138712 0.03858281
000060 8a 2a fd ba 2b 78 74 3d dc 45 26 3d 90 11 af 3d
       -0.0019315046 0.059684914 0.040593967 0.08548272
000070 c7 ed b7 bc 3c ed 72 3d 89 57 89 3d c3 9d 85 3d
       -0.022452248 0.059308276 0.06706149 0.06524231
000080 d8 48 13 3e c3 d5 5a 3d 22 82 c8 3b dd 02 1c bc
       0.14383256 0.053426515 0.0061190287 -0.009522167
000090 aa 9c cb bc b8 b8 41 3d a1 4f 35 3d 1a 71 fc bc
       -0.024854977 0.047295302 0.044265393 -0.03081565
0000a0 97 f5 ac 3d fb d2 e4 bd d0 a0 67 be 48 e9 72 3d
       0.0844528 -0.11173054 -0.22619939 0.059304506
0000b0 16 26 6d 3d 0a 15 30 bc 8c e3 8f 3c 33 aa 47 bd
       0.05789765 -0.010747204 0.017564557 -0.0487463
0000c0 08 7f 8d be f4 5d 91 3d 4c 1e cb ba 97 da 05 3d
       -0.2763598 0.07097998 -0.00154967 0.032679167
0000d0 8a f2 ed 3c c9 87 31 3d 80 6c 60 bd f0 51 8c 3d
       0.029046316 0.043342385 -0.054790974 0.06851566
0000e0 dc c5 47 be f8 08 dc bd 45 ed 8e bd 23 22 d3 3a
       -0.19509071 -0.10743898 -0.06978849 0.0016108196
0000f0 46 5c 17 3d 3b ba 36 3d f4 ad 7e 3c b7 49 82 3d
       0.036953233 0.044611197 0.015544403 0.06361716
000100 17 bd 99 3d 1e 09 4a 3d 2d ed d6 bc 3f ed aa 3d
       0.07506769 0.0493251 -0.026236141 0.08346032
000110 05 6a 8d 3d 0b 3e 14 bd 82 34 ef 3c e1 38 65 bd
       0.06904987 -0.03619198 0.029199842 -0.055962447
000120 8a 72 00 3e 31 39 46 3d 45 2a aa bc f9 b8 86 bd
       0.12543693 0.048394386 -0.020772109 -0.065782495
000130 57 f1 5c be b5 1d 8d be 5d 8e ad 3d 5c b7 06 be
       -0.21576439 -0.27561727 0.08474419 -0.13155884
000140 8d f9 71 be 3e e2 7d 3d 02 30 34 bd e3 ee 26 be
       -0.23630352 0.06198334 -0.043991096 -0.16302066
000150 d2 72 45 bd 6b a2 e7 3b 4a 8f 4f bd cc 48 30 bc
       -0.048205204 0.0070689223 -0.05067376 -0.010759544
000160 64 71 8f 3d 36 d6 b6 3d 0a 01 20 be bd 71 cc be
       0.070040494 0.08927576 -0.15625396 -0.39930525
000170 91 a6 f0 3d 62 be 02 bd a7 f2 8d 3d d3 6a 69 3d
       0.1175052 -0.031919844 0.06931048 0.05698664
000180 e4 23 03 bd 54 d6 63 3d 84 2a 90 bb 53 d3 45 3c
       -0.03201665 0.05562432 -0.0043995995 0.012074309
000190 b2 f1 c8 bb 09 8f b1 bc eb fc 04 bd eb ba 11 bc
       -0.006132328 -0.02167465 -0.032467764 -0.008894662
0001a0 0c 81 51 3d bb 43 0f bd d1 40 e9 3c 88 49 a1 bd
       0.05114846 -0.034976702 0.02847329 -0.07875353
0001b0 8f a4 25 3d 83 38 c2 bb 79 1a ba bd fb eb bd bd
       0.04044014 -0.005927147 -0.090870805 -0.09273525
0001c0 fa 22 f1 3c bf f0 b1 3c ff 91 d1 bd fb d6 d2 3c
       0.029435623 0.021721242 -0.10232925 0.025737276
0001d0 26 42 40 bd 02 3d af 3c c5 91 32 be 73 ad 4e be
       -0.046938084 0.021391395 -0.17438419 -0.20183353
0001e0 79 65 58 3d 3a ee 1f 3d 3a f7 36 bd c7 a7 6e bc
       0.052831147 0.03904555 -0.044669367 -0.014566368
0001f0 8a 58 8d bd db 2f 81 3c 16 50 3b bd 65 2e 46 be
       -0.06901653 0.01576989 -0.045730673 -0.19353636
000200 b5 78 fe 38 86 94 11 bd 8a 58 23 be 2f 10 ba bd
       0.00012134147 -0.035542034 -0.15951744 -0.09085118
000210 f7 5c b6 ba f3 05 c3 bc 2c 9f 17 be b5 60 fd bd
       -0.0013913204 -0.023806548 -0.14806813 -0.12371961
000220 12 a4 58 bc 39 fb e6 bd 37 c1 87 3c 16 04 2c 3c
       -0.013222711 -0.11278386 0.016571624 0.010499021
000230 20 48 29 be c9 05 04 3e 8a f3 d3 bd 88 a8 4e bc
       -0.1653142 0.12892832 -0.10349186 -0.012613423
000240 1b 23 8a 3c 5a 24 dd bd f0 67 6a 3d a1 31 5d bd
       0.016862443 -0.10797949 0.05722803 -0.054002408
000250 f0 34 6e 3d 10 d2 9d be 3e 00 59 be 79 f0 0c 3c
       0.058155954 -0.30824327 -0.21191499 0.008602255
000260 64 43 46 be 89 e0 4a bc e8 3b 12 be 9b c2 bc bd
       -0.19361645 -0.012382635 -0.14280665 -0.092168055
000270 93 a6 f3 b9 25 68 8a bb 28 8b c0 bd 67 a1 97 3b
       -0.0004647268 -0.004223841 -0.09401542 0.004627395
000280 62 a7 83 3c 69 0f 52 bd a7 b6 82 bd 0d c6 42 bd
       0.016071025 -0.051284228 -0.063824944 -0.047552157
000290 61 f5 7c bd 63 a0 b1 3d b9 54 6f 3c d3 f5 d9 3d
       -0.06175745 0.086731695 0.014607602 0.106425904
0002a0 37 5b 5e bc fd cb e9 3d ca f7 ff bd bd 7f b9 ba
       -0.013571552 0.11415861 -0.12498434 -0.0014152449
0002b0 8d 4b 5a 3d 3c cc 2c bd 03 43 d1 bc 48 1d cd 3d
       0.053294707 -0.04218696 -0.025544649 0.100153506
0002c0 77 ce 16 bc 34 2f 79 3c 85 93 4f bd 67 ac 36 be
       -0.0092044985 0.015209008 -0.050677795 -0.17839204
0002d0 a1 9f 97 bd ca 59 9b bd d7 d6 e5 3c f3 4b 0f 3d
       -0.07403494 -0.07585485 0.028056545 0.03498454
0002e0 46 7d 01 3d 22 a2 2b be ab 47 18 3c f8 5c 3a 3d
       0.03161361 -0.16761068 0.009294431 0.04549882
0002f0 98 b8 bf 3a 78 0b f9 3c 4f 96 88 3d ef b5 17 bd
       0.0014627157 0.030400977 0.06669294 -0.03703874
000300 6f 74 32 bd 23 33 89 bd a7 ad 92 3c 5e 5c e8 3c
       -0.04356807 -0.06699207 0.01790507 0.028364357
000310 b3 c0 93 3d 67 45 78 3d 0d 93 7e 3d 3f 9a 05 3d
       0.07214489 0.060613062 0.062151957 0.032617804
000320 2f ea 59 3c 7b f5 1a bd 36 75 f0 bd 2e be 33 3b
       0.013300463 -0.037831765 -0.11741106 0.0027426588
000330 9c 2c 32 3c 9a df 0d bb 0f 98 97 3c af 30 98 bd
       0.0108748935 -0.002164817 0.018505124 -0.07431161
000340 0d 8f 03 be f4 b6 8a 3d 19 1f 9f 3d 99 3b d3 3d
       -0.12847538 0.06773177 0.07769603 0.10314102
000350 c3 67 8f 3c fd d8 33 3d 6c 52 94 3d c5 0e 9d 3d
       0.017505532 0.043908108 0.07242283 0.07668833
000360 22 3f 66 bc 0b c7 11 bd f0 54 27 3d d6 cf f3 3b
       -0.014053138 -0.035590213 0.040852487 0.0074405475
000370 d7 83 de 3d 93 66 80 bc 6b b4 09 bc e5 56 b5 bc
       0.1086499 -0.015673911 -0.008404831 -0.022136161
000380 8f af 4a bd 37 4a 80 be bf 76 a9 3d 6d 1f 32 3c
       -0.049483832 -0.2505662 0.08274602 0.01087175
000390 6b d1 c8 bc 8e 2b 99 bb 22 d3 02 3c ed 1c 05 bc
       -0.02451392 -0.0046743816 0.007984908 -0.008124572
0003a0 7a a4 c3 3d 9e 99 d3 bc af 8f 91 bd b0 ac a5 3d
       0.09552856 -0.025830086 -0.071074836 0.08089578
0003b0 79 87 ad 3d 30 9c 09 3d b3 6c 9a 3b ea 7b 4f 3d
       0.08473105 0.033596218 0.004712665 0.050655283
0003c0 bd 37 03 be f1 ba 21 bd 24 e5 b1 bd aa c2 66 bc
       -0.12814231 -0.03948492 -0.08686283 -0.0140844975
0003d0 43 b2 ec 3d db fc 15 3c f1 99 9e bc f6 ed 84 bc
       0.11557438 0.009154524 -0.019360514 -0.01622675
0003e0 23 1d 1a bc d7 07 94 3d 45 ca 13 3e 44 df 23 3e
       -0.009406361 0.07228058 0.14432628 0.16003138
0003f0 4c d9 2e bd a7 ac 99 3c d9 38 97 3c 1e 0d 3b bd
       -0.0426877 0.018759085 0.018459724 -0.045666806
