lstm/model_pt/lstm_traj_5_fold_CV_300.pt (torch, 203955 bytes, 6 tensors)

rnn.weight_ih_l0 f4 [12, 3]
000000 15 73 99 be 9d 73 18 bd 84 05 ec 3b 38 f4 45 3e
       -0.29970613 -0.037219632 0.007202806 0.19331443
000010 3b b9 f3 bd b4 be 24 3c 5e a6 29 be 10 93 0b 3e
       -0.11900564 0.010055233 -0.1656737 0.13630319
000020 8d 55 4b 3d ed 53 1b be c4 55 1c bd 43 43 97 3b
       0.049642134 -0.15168734 -0.03816773 0.0046161725
000030 95 85 4e bc 5f 3f ca bd 77 d1 8a ba d1 a9 a6 bc
       -0.012605091 -0.09875368 -0.001059099 -0.020344647
000040 7a 5e 5c bd a1 d7 de 39 67 09 27 3e dd 63 27 be
       -0.053801037 0.00042503796 0.1631218 -0.16346689
000050 2d 73 a7 bb 61 01 40 3e f0 78 00 be 25 fb 06 bb
       -0.0051101656 0.18750526 -0.12546134 -0.002059647
000060 7d ae 75 b9 79 cd 3e 3e 66 23 a1 bb f8 a3 7f bd
       -0.00023430023 0.18633069 -0.00491755 -0.062412232
000070 ce 10 7c bf f0 e7 9c 3c 72 f6 6a 3e 94 f1 35 be
       -0.9846314 0.019153565 0.22945574 -0.17767936
000080 e0 87 22 3b b1 89 ec 3d ec 12 c0 3e 7a 89 c5 3b
       0.0024800226 0.115497 0.37514436 0.0060283514

rnn.weight_hh_l0 f4 [12, 3]
000000 75 45 7c 3f 3e 24 33 3f 99 ec 53 bf 53 21 d1 3e
       0.98543483 0.69977176 -0.82782894 0.40845737
000010 ad 52 d1 bf 22 79 3b bd 14 d4 5e 40 f3 24 64 3f
       -1.6353356 -0.045769818 3.4816942 0.8911888
000020 f0 40 23 bf 17 82 6b be d7 62 36 3e 3f a7 83 3d
       -0.6377096 -0.22998844 0.17811142 0.06428384
000030 c3 4a 71 bc 63 75 91 be 94 e1 4f 3f 59 8d 01 3f
       -0.014727297 -0.2840987 0.8120358 0.50606304
000040 55 4d 3f be 75 12 16 3f e7 51 31 be 64 b7 9a 3e
       -0.18681844 0.58621913 -0.173164 0.3021804
000050 2b 47 1f 3e 1a 81 94 be 7a 78 80 bf e9 f1 33 3e
       0.15554492 -0.29004747 -1.0036767 0.1757275
000060 a6 1d 3a bc 38 fb 12 3f c1 41 41 bf dc 5e 54 bf
       -0.011359608 0.5741458 -0.7549096 -0.82957244
000070 ba c5 d4 3f e7 71 98 3f 31 11 30 3e b8 8d 06 c0
       1.6622841 1.190976 0.17194058 -2.1023998
000080 a4 c2 8c 3d 08 47 cc 3e d3 e7 1f bf 51 00 16 c0
       0.06873062 0.39897943 -0.6246311 -2.3437693

rnn.bias_ih_l0 f4 [12]
000000 93 2e 82 3f 3d 45 9b 3f 98 34 cc 3f 77 0a 39 3f
       1.0170463 1.2130505 1.595355 0.72281593
000010 48 8a 60 3f 1b c3 72 3f e2 95 95 3e 6c a6 b6 be
       0.87711 0.9482896 0.29215914 -0.35673845
000020 23 d3 fb be 36 34 a2 3d aa 67 bf 3f 1c 57 c4 3f
       -0.49184522 0.07920115 1.4953511 1.5339084

rnn.bias_hh_l0 f4 [12]
000000 77 6e 82 3f 1d fa 8d 3f 82 f5 c9 3f 86 c6 30 3f
       1.0189961 1.1091954 1.5778048 0.6905292
000010 fd 72 44 3f 19 b1 7a 3f fc 75 c3 3e bd 38 d4 be
       0.7673796 0.9792648 0.38175952 -0.41449538
000020 41 81 11 bf d6 56 b4 3d 79 a1 c3 3f e4 5b bf 3f
       -0.5683785 0.08805625 1.5283653 1.4949918

fc_out.weight f4 [334, 150]
000000 fb 71 98 bf 56 69 37 bf e1 91 7c bf 92 af c5 be
       -1.1909784 -0.71645105 -0.98660094 -0.38610512
000010 6b 8a 95 be e3 c6 4c bf ad 4d bb 3e 13 c4 43 be
       -0.29207167 -0.7999098 0.365827 -0.19117765
000020 7c 9d 00 bf 6e b2 4f 3e 3d 21 ee bd 6a f5 9c be
       -0.502403 0.2028291 -0.116274334 -0.30655986
000030 da e3 3f be 7a c7 f9 bd 79 58 72 be a9 c7 22 be
       -0.18739262 -0.1219625 -0.23666562 -0.15896477
000040 50 a0 b3 bd 1e fe 92 be 19 87 22 3d 5a d5 50 3e
       -0.087708116 -0.287095 0.03967962 0.20393887
000050 29 de e6 be 1a d9 dc 3c 76 12 b7 3e 20 f1 ab be
       -0.4509137 0.02695899 0.35756272 -0.335824
000060 12 1d d9 3b 82 39 05 3f ba 4e 9c be bb 2d 20 3d
       0.00662578 0.52040875 -0.30528814 0.039106112
000070 b1 8d 21 3f a7 64 db be 40 6a 09 3e 80 7d 33 3f
       0.6310683 -0.4285023 0.13419437 0.7011337
000080 af 68 14 bf ea d0 73 be b7 92 f5 3e bb ea cc be
       -0.57972234 -0.23810163 0.47963497 -0.40022835
000090 a8 34 20 bf 51 58 e2 3e 31 3e d4 be f0 44 70 bf
       -0.6258035 0.44208005 -0.41453698 -0.9385519
0000a0 90 3b 85 3e 22 28 2d 3e 76 21 68 bf d1 9d 10 bc
       0.26022005 0.1690984 -0.9067606 -0.008826689
0000b0 0f 72 e5 3f 57 4c 62 bf 7d c5 99 bd 25 3f 62 3f
       1.7925433 -0.88397735 -0.07508371 0.883776
0000c0 32 3b 61 bf d4 bf 99 bd ff 46 35 3f 0f 21 5f bf
       -0.8798095 -0.075072914 0.70811456 -0.8715982
0000d0 57 08 99 bd 47 1b 29 3f 91 a7 5c bf 84 d2 39 bd
       -0.07472294 0.66057247 -0.86193186 -0.04536678
0000e0 6d 5c 2d 3f 61 04 5a bf 8f c6 d7 bc 19 3e 3b 3f
       0.67719156 -0.8516293 -0.026339797 0.7314163
0000f0 43 0b 3f bf af 5f dc bc 09 69 0a 3f ab 15 ab be
       -0.7462656 -0.026901094 0.5406652 -0.3341497
000100 19 fa 40 be c7 25 0a 3f 6f 2d 32 be 0a 31 c2 bd
       -0.18845405 0.53963894 -0.17400144 -0.0948201
000110 7b ba b1 3e b0 4b aa bd 18 e7 b7 bd 1f c2 aa 3e
       0.34712586 -0.083152175 -0.089796245 0.33351228
000120 c4 3f c7 3d a3 4d ad bd 9d 49 8f 3e e2 e1 9a 3e
       0.09728959 -0.08462074 0.2798585 0.3025046
000130 eb ca 85 bd e5 96 2c 3d a4 b3 e4 3e 0d 0c 4d bd
       -0.06532844 0.04213609 0.44668305 -0.05006032
000140 d9 34 2b 3d e5 4f ed 3e 04 1f e9 bd 71 ec c5 bd
       0.041798446 0.46350017 -0.11382869 -0.09664238
000150 61 9c c4 3e 7a 05 2c 3c 1c 15 b2 3d 0e d6 90 3e
       0.38400558 0.010499353 0.086954325 0.2828831
000160 f8 8d 7a bd a7 03 40 3d d2 2e 65 3e 31 89 3c bd
       -0.06117055 0.046878483 0.22381142 -0.046029273
000170 bd f8 82 3d 01 70 46 3e 63 5c 2c ba 8f 2a da 3d
       0.06395099 0.19378664 -0.0006575046 0.10652649
000180 34 61 22 3e 2e f5 98 3d cd a4 2f 3e 3d cd 03 3e
       0.15857393 0.07468639 0.1715271 0.12871261
000190 78 22 c2 3d 58 b4 b5 3e 36 e5 02 3e 21 7c bc 3d
       0.09479231 0.35489154 0.1278275 0.09203363
0001a0 82 dd 7a 3c b2 86 e3 3d 5f 06 d9 3d f7 c3 aa 3c
       0.015311601 0.111096755 0.10596918 0.020845396
0001b0 53 16 e6 3d 62 f2 08 3e f8 d3 43 bd 98 6d d5 3d
       0.11234727 0.13373712 -0.04780957 0.10421294
0001c0 be 41 21 3e b5 47 38 3e f7 ee d3 3d 23 b5 2b 3e
       0.15747735 0.17996104 0.10348313 0.16768317
0001d0 01 c7 50 3e 60 4d b7 3d a3 e4 3a 3e 74 08 44 3e
       0.20388414 0.08950305 0.1825128 0.1914385
0001e0 41 c1 a7 3d 5a 09 d9 bd a0 eb 84 be fb a1 a0 3d
       0.08191157 -0.10597487 -0.25961018 0.07843395
0001f0 9e 87 99 bd af b9 cd bd d5 9c a8 3d 40 35 48 bd
       -0.0749657 -0.10045182 0.08233038 -0.04887891
000200 e3 ac 3c 3e 3c 39 88 3d d3 6b 24 bd 1f 1e 8c 3d
       0.18425326 0.066515416 -0.04014189 0.06841683
000210 fe 23 83 3d 17 bb e2 bc 10 c9 35 3d aa f8 73 3d
       0.06403349 -0.027677102 0.0443812 0.059563316
000220 6d 48 d0 bc 3e de dc bb c5 1f 83 3d 14 2b f7 bc
       -0.02542516 -0.0067403605 0.06402544 -0.030171908
000230 ad 4c d8 3a 5f 20 6e 3d 7f 7e ad bc 27 59 d1 bb
       0.0016502343 0.05813634 -0.021178482 -0.0063888016
000240 0d d7 86 3d e4 65 64 bc 28 59 3c bc a5 fb 69 3d
       0.065839864 -0.013940308 -0.011495866 0.057124753
000250 ca a4 a4 bc dc b8 84 bc a0 93 d6 bf 57 94 28 bf
       -0.020098109 -0.01620143 -1.6763802 -0.6585135
000260 b0 e6 12 bf 94 0f d4 bf d9 63 29 bf a6 3a e8 be
       -0.5738325 -1.6567254 -0.6616798 -0.45357245
000270 0b 9f bf bf a7 a2 2d bf ba 40 ea be 73 df 8d bf
       -1.4970411 -0.6782631 -0.45752507 -1.1083816
000280 53 e6 36 bf e0 8c cb be 85 f4 62 bf d5 09 3c bf
       -0.71445197 -0.39755917 -0.8865436 -0.734525
000290 71 92 9d be 07 d4 1d bf 3d 7c 36 bf 62 c5 35 be
       -0.30775788 -0.61651653 -0.7128332 -0.17751077
0002a0 fd 25 af be 7c 40 30 bf 3b 12 fa bd 7d 5c b7 bd
       -0.3420867 -0.68848395 -0.122105084 -0.089531876
0002b0 11 fe 1d bf e4 63 07 bd 56 2e fc 3d 67 25 fa be
       -0.617158 -0.033054247 0.123135254 -0.4885666
0002c0 99 dd 4a 3d 95 83 8b 3e 2b a6 bc be 41 77 68 bc
       0.04952774 0.27248827 -0.36845526 -0.014188589
0002d0 54 0c e9 3e 2c 36 7e be 80 e0 85 be e2 32 2c 3f
       0.45517218 -0.24825352 -0.26147842 0.6726514
0002e0 bc 54 bf 3a 32 28 fe be c5 95 57 3f 43 ba 6b be
       0.0014597396 -0.49640042 0.84212905 -0.23020272
0002f0 88 39 15 bf cb 8d 48 3f 0a 6e cb 3e 20 3a 64 3f
       -0.5829091 0.7834136 0.3973239 0.8915119
000300 4b 7a 13 3f 70 ee 1e 3f 8e 4f 9c 3f a5 16 d0 3e
       0.5760848 0.62082577 1.2211778 0.40642276
000310 53 56 00 3f 67 68 51 3f da 50 8c 3e bb 8f f4 3e
       0.5013172 0.8179993 0.27405435 0.47765908
000320 54 de 26 3f e9 62 6c 3e 72 7a db 3e 9b 64 1d 3f
       0.65182996 0.23084606 0.42866856 0.61481637
000330 42 94 64 3e 8f d2 c0 3e 29 22 1a 3f 74 2a 55 3e
       0.22322181 0.37660643 0.60208374 0.20816976
000340 fa ec b5 3e 22 12 ef 3e a1 ef 48 3e 6b 49 a4 3e
       0.3553236 0.46693522 0.19622661 0.32087263
000350 c1 35 c3 3e 92 14 3d 3e 90 e4 4b 3e d5 86 8d 3e
       0.38126948 0.18464878 0.19911408 0.2764193
000360 cd f1 19 3e d8 6f 73 3e 8c fc 91 3e 56 c0 0f 3e
       0.15033646 0.23773134 0.2851299 0.14038214
000370 29 c8 68 3e d1 bf 8d 3e b7 7e 01 3e 81 1f 48 3e
       0.22732605 0.27685407 0.12645994 0.19543268
000380 46 38 65 3e 7e a2 06 3e 6f cc 4e 3e c0 85 85 3e
       0.22384748 0.13147923 0.20195173 0.26078606
000390 2e 69 f6 3d c2 c6 fd 3d 51 03 1d 3e 98 a9 d8 3d
       0.1203178 0.12391426 0.15333296 0.105792224
0003a0 d3 4d ca 3d fb c0 0a 3e 2d f6 a0 3d 62 2f ed 3d
       0.09878125 0.13550179 0.07859454 0.11581303
0003b0 c9 f6 a9 3d dd e5 8d 3d 4d 5f 14 3e 21 9a f8 3d
       0.08299024 0.069286086 0.1448948 0.12138773
0003c0 38 d5 84 3d d3 10 1a 3e d9 fe 56 3e db 71 4e 3d
       0.06485981 0.1504548 0.20995654 0.05040155
0003d0 58 99 01 3e 9e d3 6d 3e 86 6a 43 3d 5a bb e7 3d
       0.12656152 0.23225257 0.04770901 0.11315031
0003e0 c6 43 21 3e 53 23 e8 3c 26 21 be 3d ef a2 2e 3e
       0.1574851 0.028337156 0.09283666 0.17054342
0003f0 b1 9d 2d 3c 92 ae 8a 3d df 29 4e 3d d4 6b 45 3b
       0.010596679 0.06771578 0.0503329 0.0030124085

fc_out.bias f4 [334]
000000 af c6 70 3e 27 ff 0b 3d be c0 29 3e 73 ce af bd
       0.23513292 0.03417888 0.16577432 -0.08584299
000010 10 82 3d 3c 60 7f 56 3e f1 72 f9 3d b6 6f 4a 3d
       0.011566654 0.20947027 0.121801265 0.049422942
000020 6a 61 d2 be d5 50 54 3e 37 31 cb bd 97 9d 51 be
       -0.41089946 0.2073396 -0.09921496 -0.20470272
000030 bc 69 fc 3c ec 11 5a 3e b0 e2 7e be 5b 93 3e 3e
       0.030812137 0.21295899 -0.24891162 0.18610899
000040 bc f3 31 3c 2f 4a a8 bc 59 8b 78 3e b1 9f 8e 3e
       0.010861333 -0.020543186 0.24271907 0.2785621
000050 31 83 0f 3e 76 66 f5 bc a5 0d e2 3c 4c 93 6b be
       0.1401489 -0.029956084 0.027594397 -0.23005408
000060 1e 64 c8 3d 2e 78 d7 3d 40 27 65 3e f2 45 a1 3c
       0.09784721 0.10520969 0.22378254 0.019686673
000070 4e a0 5e be ea eb 01 bd 72 60 51 bd 76 7a 8e 3c
       -0.21740839 -0.031719126 -0.051117368 0.017392378
000080 3f 6c c8 bc b8 d5 12 3e 82 45 74 3e 5b 68 07 be
       -0.024465678 0.1433934 0.2385464 -0.13223402
000090 94 17 ec bc ab 8a 17 3e c2 c8 e7 3d d4 95 35 3e
       -0.028819837 0.14798991 0.113175884 0.17732936
0000a0 3c c2 8e bd a9 f5 e8 3e 03 4f 8f 3d 86 48 8c 3e
       -0.06970641 0.45499924 0.06997492 0.2739908
0000b0 d7 82 15 3e 55 a1 cb 3d ec 21 57 3e fb 4f 85 3c
       0.14600693 0.09942881 0.21009034 0.01627349
0000c0 4c 61 82 3e e2 4c 28 bb 01 34 eb 3d 02 87 e3 bd
       0.25464857 -0.0025680591 0.11484528 -0.11109735
0000d0 a3 d1 81 3d 4c e0 e6 bd 13 01 bf 3d 31 ab ef 3d
       0.06338813 -0.1127325 0.09326377 0.11702574
0000e0 e3 7c 8b bd c5 4e 0f 3e 80 9b bf 3d aa 7d ad 3e
       -0.068109296 0.13994892 0.09355831 0.33884937
0000f0 90 8e e5 3c 27 e1 94 3d 61 c4 76 bd 7d c8 02 bd
       0.02802208 0.07269507 -0.060245875 -0.03192948
000100 68 c0 94 bd 8f d9 3f 3d bb 22 f2 bd be c8 7f bc
       -0.07263261 0.04683834 -0.118230306 -0.0156118255
000110 ba 02 8a bd 8e 35 31 be 55 27 1e 3e d5 0b d7 bd
       -0.06738801 -0.17305586 0.15444691 -0.10500304
000120 17 93 da 3d 05 2f 0f 3e ec 75 eb bd 6a c7 5c 3e
       0.106725864 0.1398278 -0.11497101 0.21560445
000130 95 8c 3e bb 99 40 8c bd 06 27 ac bd d5 a1 50 3c
       -0.0029075493 -0.068482585 -0.08405881 0.012733896
000140 09 9d 09 3d 15 57 9b bb ff 53 a4 3d e4 bf d8 3c
       0.033597026 -0.0047406056 0.080238335 0.026458688
000150 c9 0a 1c 3e 0f 67 68 3e ba fc 3d 3e a0 00 49 3e
       0.15238489 0.22695564 0.18553439 0.19629145
000160 67 32 dc bd f0 c9 8a 3e ac d5 6f bc fb 7f 3a 3e
       -0.10751801 0.2710719 -0.014638346 0.18212883
000170 24 84 5a 3c 60 60 43 bd 95 f9 af 3d b2 c0 c9 bd
       0.013337169 -0.047699332 0.08592526 -0.09851207
000180 cd c0 8d bd 19 77 d9 3d 77 3f b6 3d 02 86 80 3c
       -0.069215395 0.10618419 0.08898824 0.0156889
000190 4c ae be 3e 07 99 d5 ba da 55 d0 bd d1 68 db bd
       0.37242353 -0.0016296216 -0.10172625 -0.107133515
0001a0 8b 9d 07 3c 7a 99 84 3b be d9 f7 bd 8c c8 ff bd
       0.008277307 0.004046616 -0.12102078 -0.12489423
0001b0 e8 36 9d bc 2b 55 18 bd 9b 81 56 be e9 d5 04 be
       -0.01919122 -0.037190598 -0.20947878 -0.12972225
0001c0 6e ef 1d 3e 4c e4 7d 3e 7b be 66 3e dc db 81 3e
       0.15423366 0.2479412 0.225336 0.25363052
0001d0 1c f6 68 3e 3d 01 a7 3e 04 e5 0a 3e 88 90 c6 3d
       0.22750133 0.32618132 0.13563925 0.09695536
0001e0 f3 0e 73 3d 06 36 7c 3d fa 05 81 be 13 0c 01 be
       0.05934043 0.06157496 -0.25199872 -0.12602262
0001f0 4c 23 cb bc ba 49 5f bc 84 02 f0 3c 27 f0 cb bd
       -0.024797104 -0.013628418 0.029298075 -0.09957915
000200 79 8d ab bc 92 79 ce bc e7 10 12 be 7e 7c c5 bd
       -0.020941483 -0.025204454 -0.1426426 -0.096428856
000210 18 ee 14 be 40 3e e1 3c 44 b8 1f be 43 85 50 be
       -0.1454395 0.027495503 -0.15597636 -0.20363335
000220 6a e5 0a bd 69 6e 9c bd a6 df e9 3d 61 43 e4 3c
       -0.033910193 -0.076382466 0.11419611 0.02786416
000230 60 df 06 bd 4f 13 95 bd 8f 62 87 bd e7 a9 1b 3e
       -0.03292787 -0.072790734 -0.066105954 0.15201531
000240 8b 58 ae bc 45 19 98 3d 8e 86 23 bd fc e7 3e 3d
       -0.021282455 0.07426695 -0.039923243 0.046607956
000250 93 49 07 3e 67 9c 9b bb d3 08 90 3d 96 62 5f bd
       0.1321166 -0.004748869 0.07032933 -0.05453738
000260 a4 3a 4d bd aa 7e a3 bd 25 01 e3 bd 7a b9 1c bd
       -0.050104752 -0.07983144 -0.11084203 -0.03826282
000270 91 8d 16 3c 59 e1 8a bd 4a 5e 82 bd 42 f4 b1 bc
       0.0091890255 -0.06781263 -0.063656405 -0.021722917
000280 6c dc fe bc cb dc 32 3c f7 31 e3 bc b1 97 db 3c
       -0.031110965 0.010916899 -0.027733786 0.02680573
000290 ec 0a ca 3d 35 d1 5e 3c ec e1 fe 3c 7d 2f 91 bd
       0.098653644 0.0135996835 0.031113587 -0.07089136
0002a0 dd 90 5f 3e dc ef 57 3e cc 5b 26 3e f4 40 43 bc
       0.21832605 0.21087593 0.16245955 -0.0119173415
0002b0 2e 0f 4a 3e 1c 9a 22 be 5a d0 10 be 39 38 1a 3d
       0.19732353 -0.158791 -0.1414198 0.037651274
0002c0 9c 39 8f 3e 7b 7f 8f be 94 c5 78 bd 22 84 a4 bd
       0.2797364 -0.28026947 -0.0607353 -0.08033015
0002d0 76 6f 1f be 7f cf bf 3d 85 e8 08 3d 4f 17 ed 3d
       -0.15569863 0.093657486 0.033424873 0.115767114
0002e0 dd fb 2a 3d 73 94 0e be 49 d8 b1 3d a7 91 50 3d
       0.0417441 -0.13923816 0.08683831 0.050920155
0002f0 74 d1 85 3c dd 88 c5 3c f8 d0 c2 3d 4a 45 77 3c
       0.016335227 0.024113113 0.09512514 0.015092203
000300 27 30 cc 3d cb e4 0f 3d df 8d ac 3d ad 11 86 3e
       0.09970122 0.035130303 0.08425497 0.2618536
000310 82 3a 48 bd 67 c2 52 3d 73 f1 fe 3c b1 d0 c9 3a
       -0.048883922 0.051454928 0.031120991 0.0015397278
000320 80 66 ef bd be 51 52 bd 13 6b 68 bd b3 a3 78 3e
       -0.11689472 -0.051347487 -0.05674274 0.24281196
000330 a5 18 8b 3e e7 a6 7f bd a1 17 3a 3d 5c 7d 01 be
       0.2716724 -0.06241503 0.04543269 -0.12645477
000340 f1 9f 66 be 81 b3 82 be 52 3d 33 3e 77 0a c4 3e
       -0.2252195 -0.25527576 0.1750386 0.38289234
000350 a9 06 23 3e 61 d3 ce 3e c1 a8 b6 3e 2b 79 a6 3e
       0.1592051 0.40395644 0.35675624 0.3251432
000360 74 c4 39 3d 1f 7b 6a 3d b9 95 f4 3e 94 c0 e7 bd
       0.045353368 0.057246324 0.4777048 -0.11316028
000370 44 55 56 3e 35 6d 7c 3e f3 b1 39 bc b3 14 e4 3d
       0.20930964 0.24651034 -0.01133393 0.111367606
000380 be 0e 4f 3d 58 5a 27 3c f7 f8 82 3d 3a c6 09 3d
       0.05055117 0.010214411 0.063951425 0.03363631
000390 4e 3a 72 bd 66 1e e8 bd 63 60 88 be 67 58 b8 be
       -0.059137635 -0.11333923 -0.26636037 -0.36004946
0003a0 4c e6 8a be 45 ff 1e be b1 42 cd bd 32 fb 84 bd
       -0.27128828 -0.15527065 -0.10022486 -0.06493224
0003b0 52 d5 19 bd e7 01 db bd 2d 3d 02 bd 45 44 85 3c
       -0.037556954 -0.10693722 -0.031796623 0.016267905
0003c0 18 fe 32 bc 47 d3 20 be 82 ba 8e be d0 e7 2b be
       -0.0109248385 -0.15705596 -0.2787667 -0.16787648
0003d0 15 00 63 be 2b 5e 1b 3c 47 be 41 be 15 57 90 be
       -0.22168 0.009482901 -0.18920241 -0.28191438
0003e0 19 3e 16 be 69 5a 01 bd 1c ec 9f 3e c4 fd 03 3f
       -0.14672126 -0.031580362 0.31234825 0.5155909
0003f0 8a 69 97 3e 91 5a 60 be ea 46 6c be 92 28 67 be
       0.29572707 -0.21909548 -0.23073927 -0.2257407
