mlp/model_pt/mlp_trajectory_4_fold_CV_3000.pt (torch, 592647 bytes, 6 tensors)

fc1.weight f4 [200, 200]
000000 6a 39 42 3e 2b 3d 33 3c d1 f6 44 3d 72 80 cb bd
       0.18967214 0.010939877 0.048086945 -0.099366084
000010 6a 39 42 3e d4 82 a8 3d 44 57 56 3d 8f ea f6 ba
       0.18967214 0.082280785 0.052329317 -0.0018838214
000020 6a 39 42 3e a5 e2 b3 3d d9 34 e4 3b 50 4b 20 bc
       0.18967214 0.087834634 0.0069643077 -0.009783581
000030 6b 39 42 3e 67 3e af 3d 96 55 ea 3c ba 1b f3 bc
       0.18967216 0.08556824 0.028605264 -0.029676307
000040 69 39 42 3e 06 12 aa 3d 70 cb 64 3c 01 c3 f4 3c
       0.18967213 0.08304219 0.013964519 0.029878141
000050 6a 39 42 3e c4 43 df 3d df 52 73 b8 34 02 9d 3c
       0.18967214 0.10901597 -5.8012894e-05 0.01916609
000060 69 39 42 3e 05 1f 57 3d b9 ed ba bb bd d0 54 3c
       0.18967213 0.052519817 -0.0057046083 0.01298922
000070 6a 39 42 3e c7 f9 8c bc 9e a6 51 39 85 69 28 3c
       0.18967214 -0.017208947 0.00019993863 0.010279064
000080 6b 39 42 3e f6 7a 96 bd 83 a8 89 bc 7c e0 4d 3c
       0.18967216 -0.07347672 -0.016803985 0.012565728
000090 69 39 42 3e e8 15 0d be 13 5a 60 bd 96 11 ea 3c
       0.18967213 -0.13777888 -0.0547734 0.028572839
0000a0 6a 39 42 3e bc a5 4b be 02 1a 06 be c5 e9 0e 3c
       0.18967214 -0.19887441 -0.13095859 0.008722727
0000b0 ae 1f 8e 3d 01 32 8f bd fd 2f 08 bd 39 c4 bc bb
       0.06939636 -0.06991959 -0.03324889 -0.0057606963
0000c0 6a b2 94 3d 52 8d 0d 3c 4a 64 d6 3c 1d b6 2a 3d
       0.07260592 0.00863965 0.026170868 0.041677583
0000d0 d2 48 85 bc 4e 68 0a bd 5c 9f eb bc 9b 1e ba bc
       -0.016270075 -0.03379088 -0.028762512 -0.022719672
0000e0 7c 9a be 3c 67 e9 37 3c da 84 72 3c 27 21 a1 3c
       0.023267023 0.011225081 0.014802182 0.019669129
0000f0 3f ee 7f 3c 30 82 a1 3b 81 b6 06 3c 06 c8 51 3c
       0.015620767 0.0049288496 0.008222223 0.012804037
000100 4a cf a3 bc 1b 41 01 bd 55 66 e5 bc 9c 78 bd bc
       -0.019996304 -0.03155623 -0.028002897 -0.0231288
000110 f4 4a bc bc df b3 11 bd 61 32 00 bd 64 33 d4 bc
       -0.02298496 -0.03557193 -0.031298045 -0.025903411
000120 1e 4f 6d bd 02 bf 92 bd 40 29 89 bd 3f 5a 7c bd
       -0.05793678 -0.07165338 -0.06697321 -0.061609503
000130 02 06 11 3c 46 65 23 bb d8 ab e8 3a fe 9b e0 3b
       0.00885153 -0.002493219 0.0017751409 0.006854533
000140 71 86 89 bc 2b 35 d7 bc da a2 b0 bc 81 59 98 bc
       -0.01678774 -0.02627047 -0.021562029 -0.018597366
000150 91 0c f5 bd ea d4 04 be f2 56 ff bd 20 7f fa bd
       -0.119652875 -0.12971845 -0.124677554 -0.122312784
000160 ff 5c b6 bd 3f ae c9 bd cb c1 bf bd 9c 63 ba bd
       -0.08904456 -0.09847688 -0.09363135 -0.0910103
000170 94 ea 93 bd 11 19 a6 bd 48 a4 9c bd 45 6c 97 bd
       -0.072224766 -0.0811025 -0.07648522 -0.07393698
000180 8c 66 00 bc ec 0c 83 bc 12 33 39 bc 64 4f 15 bc
       -0.007836949 -0.015997373 -0.01130368 -0.0091131665
000190 5b 1d 04 3c a0 d1 e2 39 1f 97 a2 3b 5b b5 df 3b
       0.0080636395 0.00043262262 0.0049618627 0.006827039
0001a0 b2 74 69 b9 39 a3 d9 bb 3f 19 2e bb 7f 20 5f ba
       -0.00022264084 -0.006641772 -0.002656534 -0.0008511617
0001b0 fd 01 f7 bb f3 4a 55 bc eb 58 17 bc f7 3f 04 bc
       -0.007538079 -0.013018358 -0.009237508 -0.008071891
0001c0 65 2e e7 bc 92 5b 08 bd f8 f3 f1 bc e6 67 ec bc
       -0.028220365 -0.033290453 -0.029535279 -0.028858136
0001d0 22 63 d5 bd 62 5d e0 bd d0 55 d8 bd 7f 56 d7 bd
       -0.10419299 -0.10955311 -0.105632424 -0.10514545
0001e0 5e 5c 4a bd 26 38 60 bd 29 bc 4f bd c9 ae 4d bd
       -0.049404494 -0.054741047 -0.050716553 -0.050215516
0001f0 5c 48 da bc c8 63 02 bd d4 55 e3 bc ac 58 e1 bc
       -0.026645832 -0.03183344 -0.027750887 -0.027508102
000200 f7 f7 86 bb 8c 67 15 bc 71 25 aa bb 37 dd a3 bb
       -0.004118915 -0.009118926 -0.0051924516 -0.005000736
000210 ff 15 a8 bc db e1 cd bc 4b 81 b0 bc 2c d5 af bc
       -0.020518301 -0.02513211 -0.021546027 -0.021463953
000220 5c 84 27 bb 59 a6 e6 bb 59 ee 5a bb af 85 66 bb
       -0.002556107 -0.007038873 -0.0033406226 -0.0035174896
000230 52 65 d2 bb c3 4e 2e bc 2f 68 ef bb ab 5d f3 bb
       -0.0064207697 -0.010638895 -0.007306121 -0.0074269376
000240 be a0 56 bc f6 90 8c bc 1e 88 66 bc 85 84 63 bc
       -0.013099847 -0.017158967 -0.014070539 -0.013886576
000250 79 0f 47 bc 73 5f 7e bc d5 82 55 bc 61 08 50 bc
       -0.012149685 -0.015525687 -0.013031681 -0.01269731
000260 04 e6 f1 3b 0f cb 92 3b 7f 16 d4 3b 80 a4 de 3b
       0.0073821563 0.004479773 0.0064724083 0.0067945123
000270 60 2e 7f 3b b6 02 a5 3a 5c 52 48 3b 76 e9 68 3b
       0.0038937554 0.0012589309 0.0030566668 0.0035539544
000280 23 2b 04 bc 45 d8 26 bc 2d e3 0c bc af a0 07 bc
       -0.008066925 -0.010183399 -0.008599085 -0.008278056
000290 2b 0f db 3b 03 12 a8 3b 00 81 ce 3b be 57 cf 3b
       0.006685158 0.0051291003 0.006301999 0.0063275984
0002a0 65 66 33 3c 66 0b 21 3c 0f 6b 2b 3c 75 bd 2e 3c
       0.010949706 0.009829378 0.0104625365 0.010665287
0002b0 11 b9 85 bb b1 21 a0 bb 08 75 8e bb 9a 92 89 bb
       -0.0040808995 -0.004886829 -0.0043474473 -0.0041983845
0002c0 09 bf 33 bc 3f ec 3d bc 45 8f 37 bc f5 6e 36 bc
       -0.010970839 -0.01159197 -0.011203592 -0.011134853
0002d0 2a c2 71 bc 56 be 79 bc 3b 17 76 bc dd c8 77 bc
       -0.014755765 -0.0152431335 -0.015020187 -0.015123573
0002e0 96 98 28 bc 18 b1 2d bc be 83 2a bc 05 28 2b bc
       -0.010290286 -0.0106013045 -0.010407386 -0.010446553
0002f0 31 87 5f bc 7f f6 62 bc 16 20 61 bc 51 5d 61 bc
       -0.013643072 -0.013852715 -0.01374056 -0.0137551585
000300 e7 64 24 bc ed 06 27 bc 6f 51 25 bc 77 af 25 bc
       -0.010033823 -0.010194522 -0.010090216 -0.010112635
000310 21 65 01 3e 22 65 01 3e 22 65 01 3e 21 65 01 3e
       0.12636234 0.12636235 0.12636235 0.12636234
000320 7c 6e 1f 3b 6f a2 1d 3f c5 cb 3a 3d 6d a3 43 bc
       0.0024327328 0.6157598 0.045604486 -0.011940819
000330 9a 6e 1f 3b 7a 24 6d 3e 1d a6 ad bc a3 50 13 bd
       0.0024327398 0.23158446 -0.021197373 -0.035965573
000340 92 6e 1f 3b f7 78 01 3e a9 1e d4 bb 40 59 3d 3c
       0.002432738 0.126438 -0.0064733815 0.011556923
000350 6c 6e 1f 3b 29 45 c9 bc e2 1c 99 3b 67 26 a5 3c
       0.0024327291 -0.024569111 0.0046726326 0.020159913
000360 92 6e 1f 3b 5e 00 1b be dd 1e 1b bd 42 c0 b8 3c
       0.002432738 -0.15136859 -0.03787123 0.022552613
000370 6c 6e 1f 3b 6c a1 44 be cf 1c 92 ba 3c 40 e3 3c
       0.0024327291 -0.19202203 -0.0011147502 0.02774059
000380 80 6e 1f 3b b4 f2 24 be 13 f4 4b 3b f2 58 b3 3b
       0.0024327338 -0.16108209 0.0031120821 0.0054732496
000390 78 6e 1f 3b ae 90 13 be 01 ef 38 3c 3b 11 2e bc
       0.002432732 -0.1441066 0.011287452 -0.010624225
0003a0 8e 6e 1f 3b b3 dd e8 bd 46 83 cb bb 34 8b 91 bb
       0.002432737 -0.11370411 -0.0062107174 -0.004441643
0003b0 9a 6e 1f 3b 35 bd c3 bd 10 a9 9a 3c de 07 47 bc
       0.0024327398 -0.09557573 0.018879443 -0.012147872
0003c0 7c 6e 1f 3b 0a 15 c5 bd 95 f3 28 3c be f9 b1 bc
       0.0024327328 -0.096231535 0.010311981 -0.021725532
0003d0 64 e8 90 3c 54 1f 89 bc f3 ff a1 3c 70 cb 2a bb
       0.017688937 -0.016738571 0.019775366 -0.00260612
0003e0 fc e9 f3 3c f9 7a 9c 3c 27 e6 fd 3c a2 6b c0 3c
       0.029774658 0.019101607 0.030993534 0.023488823
0003f0 72 1c 01 3d c2 d9 cc 3c 1f 85 04 3d 59 52 ce 3c
       0.03152127 0.025006179 0.032353517 0.02518575

fc1.bias f4 [200]
000000 51 f2 50 be 7a 29 8f bd 4e 48 17 be dd 45 12 be
       -0.20404936 -0.06990333 -0.14773676 -0.14284463
000010 12 44 46 be cd 58 a4 bd 42 b3 14 be 9d 41 be be
       -0.19361904 -0.0802475 -0.14521506 -0.37159434
000020 10 ee 82 be 5b 0d e6 b9 38 69 d0 bd b2 25 05 be
       -0.25572252 -0.0004387897 -0.10176319 -0.13002661
000030 95 48 a2 be 8e 54 23 bf c6 9d b9 ba 11 6a 95 be
       -0.31696 -0.63800895 -0.00141614 -0.29182485
000040 1c 0c 5e be 10 94 00 bb a2 35 64 be 98 ea 29 bf
       -0.21684307 -0.0019619502 -0.22286084 -0.66373587
000050 1a ef 80 be 18 a6 21 b6 46 d0 3f b9 7d b7 90 be
       -0.2518242 -2.4087549e-06 -0.00018292767 -0.2826499
000060 5a 6c 99 be 20 04 14 bf 63 e6 08 bf 88 ee b0 be
       -0.29965478 -0.57818794 -0.5347654 -0.34556985
000070 69 0d b0 be 76 2e 88 b7 5c c0 f5 be 4c b5 d5 bd
       -0.3438523 -1.6234098e-05 -0.4799832 -0.1043497
000080 dd bb 29 be 60 4c 4b b7 95 80 df bd 6c d7 53 bf
       -0.1657557 -1.2117525e-05 -0.10913197 -0.8275058
000090 30 7c 6e be 5c d8 ae be 40 3e 31 be 53 74 d2 bd
       -0.23289561 -0.34149444 -0.17308903 -0.10276093
0000a0 0b 61 82 be 46 1b a6 b7 60 09 23 bb 15 8c 42 bf
       -0.25464663 -1.9801442e-05 -0.0024877414 -0.75995
0000b0 3e a8 da be cd 13 af 3d 46 d7 2f bf 57 07 43 be
       -0.42706484 0.085486986 -0.68687856 -0.19045769
0000c0 c3 04 55 be a0 0f 1c 3d 45 fb 40 bf 31 92 92 3d
       -0.20802598 0.03810084 -0.75383407 0.0715679
0000d0 2f b9 99 3c d8 3a 1e 3e e1 10 37 be cf 49 4a bf
       0.01876506 0.15452135 -0.17877533 -0.7901887
0000e0 79 18 6c 3d ae ab 86 3e 5a 86 93 3d fa ae a5 be
       0.057640526 0.26302856 0.0720336 -0.3236006
0000f0 66 bc 8c be 0d af 20 bf c0 b1 92 be 51 9c 14 3e
       -0.27487487 -0.62767106 -0.28651237 0.14512755
000100 03 71 14 3d 7c 5f c2 be 0c ef 17 3e d6 c3 de bd
       0.03624059 -0.37963474 0.14837283 -0.108771965
000110 d2 8c a5 bc 59 b3 68 3e ad 0c 19 bf 2b 02 77 3d
       -0.02020875 0.22724666 -0.59784967 0.060304802
000120 21 2f 30 bf 1c 32 61 3c 23 fa 19 be 52 4f 2a bf
       -0.68821913 0.013744857 -0.15036826 -0.66527283
000130 12 c6 16 be 89 5b e0 be f9 84 e5 be 89 48 2c bf
       -0.14723995 -0.43819836 -0.44828013 -0.6729818
000140 a5 bf fe be 1d 32 c7 be 34 5b 9b 3d 1a 02 61 3d
       -0.49755588 -0.3890542 0.07585755 0.054933645
000150 8b 5c ee 3c 01 be 3c 3d 38 87 e0 bd 5c 40 59 3d
       0.029096862 0.04607964 -0.10963291 0.053039894
000160 23 a4 96 bd 56 3d cd 3c b1 87 99 be c2 b1 f3 bd
       -0.07355525 0.025053661 -0.29986337 -0.11899139
000170 fd 8b 1b 3d 5e ec 94 bd 9d 71 b8 bd c2 31 47 3d
       0.0379753 -0.07271646 -0.09006045 0.048631437
000180 06 06 2d be 8f 57 9b bf 94 9e 69 3d 0b f6 f3 be
       -0.16896829 -1.2136096 0.057035998 -0.47648653
000190 9a b5 84 3c 4e 2a 83 bd 2c aa 47 3b c3 1b 45 bf
       0.016199876 -0.06404553 0.003046642 -0.76995486
0001a0 f4 c0 08 bf c9 8d c0 3c f1 1f d9 bd 26 00 2f be
       -0.53419423 0.023505108 -0.106017955 -0.170899
0001b0 92 f8 0a be d5 d5 ec 3c 92 c5 6e bf e6 66 27 be
       -0.13571385 0.028910557 -0.9327022 -0.16347846
0001c0 2c 97 81 be dc 43 c3 3c 0a c6 a1 3c 17 5d e9 be
       -0.25310647 0.023836069 0.019747753 -0.45578834
0001d0 e2 2d 1b bf cc 68 61 3d c3 96 b0 3d f9 de d1 be
       -0.60616887 0.055031583 0.086225055 -0.40990427
0001e0 40 ad 28 3d 9a 60 93 3c 28 86 26 3d 39 bb 29 3d
       0.04118085 0.0179904 0.040655285 0.041438315
0001f0 1e ed 06 bf bd 89 69 bd 94 68 53 be 90 46 04 be
       -0.5270556 -0.057016123 -0.20645362 -0.12917542
000200 e2 6e 53 be 6f 39 43 bf f9 bf 1c bf 46 23 da bd
       -0.20647767 -0.7625951 -0.6123043 -0.10651259
000210 77 7d 8a be 95 64 1a bd 0d 9c 2a 3d 6b 90 e6 bd
       -0.27048847 -0.03769358 0.041652728 -0.11258014
000220 e9 a4 bb be 84 77 f9 be 03 e2 2a bf ec 49 d0 be
       -0.36649254 -0.48723996 -0.66751117 -0.40681398
000230 06 3a 8a be 29 10 d0 be bd 4c 92 be ec d9 ea be
       -0.26997393 -0.4063733 -0.28574172 -0.45869386
000240 be 72 2c bf 62 c6 cb be f3 83 d0 be 58 d1 bc be
       -0.6736258 -0.39799792 -0.4072567 -0.36878467
000250 7b 0a bc be 8a cf e5 be 15 0f a3 be 44 9e a5 be
       -0.36726746 -0.44884902 -0.31847444 -0.3234731
000260 b6 1b 03 be ef 36 3b 3c d8 16 bc be 13 40 91 be
       -0.1280354 0.011426671 -0.36736178 -0.28369197
000270 fa f4 13 bf a5 ea aa be d2 b9 2b be 5c 02 4a bf
       -0.5779568 -0.33382145 -0.16770104 -0.7890985
000280 ad 26 3d bf d1 35 6a 3d 5a ba 28 be 32 17 a5 be
       -0.7388714 0.05718023 -0.16477337 -0.3224426
000290 89 7d 0e bf 66 ff 42 be 37 d4 2a be 03 9f 58 be
       -0.556603 -0.1904274 -0.16682516 -0.21154408
0002a0 2b e7 74 3d 8e 1e 57 3d eb 17 ce 3d 61 8c b2 3d
       0.05979077 0.052519374 0.10063156 0.087181814
0002b0 e9 03 96 3e 70 44 43 3e 7a d1 0a bf 29 87 33 bf
       0.29299858 0.19069076 -0.54225886 -0.70128113
0002c0 0b 9d e7 3d 41 8c e0 3d af 5e 93 3d a6 93 cd 3c
       0.113092504 0.10964251 0.07195794 0.025094818
0002d0 15 4d 11 3d 17 48 c0 bd fa d4 32 bf 13 5f e2 be
       0.0354739 -0.0938875 -0.69856226 -0.4421316
0002e0 97 af 5d 3e f1 60 3b bf e5 a1 8f 3c 62 01 83 3e
       0.21649013 -0.73194796 0.017533252 0.25586993
0002f0 09 34 3e 3e ce b9 1b 3e 6b d8 39 3d 33 a7 e9 3d
       0.18574537 0.15207598 0.045372408 0.11408844
000300 6e 51 ee be 05 41 23 3e f1 4b 0d bf 0a fb f0 3d
       -0.465465 0.15942772 -0.55194 0.11766632
000310 90 50 4b 3d b8 9e 38 bc 71 a0 67 3d 48 3f 82 bd
       0.049637377 -0.01126831 0.056549493 -0.06359726

fc2.weight f4 [200, 200]
000000 d7 12 9c 3e 7c 38 2f 3e c1 8b 8e 3d f2 39 f3 bd
       0.30483124 0.17111391 0.0696025 -0.118762866
000010 80 1e 4e 3e 61 3e 6d 3e d0 7f 67 3d b3 4b a6 bd
       0.20128822 0.23168327 0.056518376 -0.08119907
000020 a2 01 75 3e ba cb 3a 3e 18 cb b8 3d 2b 9e 56 bd
       0.23926404 0.18241778 0.09023112 -0.052396934
000030 d3 7c 89 3e 09 be 0b 3e 93 b6 d9 3d 9a 87 5c 3c
       0.26853046 0.13646711 0.106305264 0.013460064
000040 5c 75 a6 3e cc bc ef 3d b6 fe d3 3d 59 4b b9 3c
       0.32511413 0.11705932 0.10351317 0.022618936
000050 aa ce 1b 3e d9 82 b6 3d dd 39 5d 3d 30 90 49 3d
       0.15215555 0.08911676 0.05401026 0.049209774
000060 1a 62 5d 3c 11 7e f8 3c 74 cc c7 3c d6 80 39 3d
       0.013512159 0.03033355 0.024389483 0.045288883
000070 ae fb 89 3e 4e 73 93 bd fc 43 5b bd ab 66 91 bc
       0.2694983 -0.07199727 -0.05353163 -0.017749151
000080 fb ea 8c 3e 95 f7 1f be 01 6e 1b be 91 f7 2b 3c
       0.27523026 -0.15621789 -0.15178682 0.010496036
000090 1f fe a4 3e c8 00 7c be fd 55 45 be 2c 0d 3c 3d
       0.3222513 -0.24609673 -0.19271083 0.045911
0000a0 2e 4d 3c 3e 70 09 b9 be 43 55 9a be 00 e5 ae bc
       0.18388817 -0.36140013 -0.30143175 -0.02134943
0000b0 d2 15 ab 3d 7d e1 88 3a e8 90 b6 bc e0 04 ac bc
       0.08353771 0.0010443177 -0.022285894 -0.020998418
0000c0 ec 60 47 3c 8a 15 4f be 4b f6 e9 bc df ed d8 bc
       0.012169104 -0.2022306 -0.028559824 -0.026480613
0000d0 ae 54 6d 3d 28 30 99 3b 36 54 79 3d 93 99 27 3c
       0.057942085 0.00467493 0.060871325 0.010229486
0000e0 23 22 9c bd d5 08 04 3b 83 94 ac 3c 48 69 55 3c
       -0.076236986 0.0020146866 0.02106691 0.013025589
0000f0 24 e8 35 3d fe 63 db 3b e9 1b 1a 3d 2d ca 8b 3b
       0.04441084 0.0066952696 0.037624273 0.0042660446
000100 f4 a7 16 3d 1d b4 87 bb db 83 86 bc 25 4e 6b 3d
       0.036781266 -0.004141344 -0.016420295 0.05744757
000110 ab 18 dd 3d 88 ce 9a bc de 79 ff 3c 89 43 17 3e
       0.10795721 -0.01889731 0.03118604 0.14771856
000120 0b ec 3b bd 16 3c 43 be 65 df 9a bb 1b 3a 67 3d
       -0.045879405 -0.1906589 -0.0047263377 0.056451898
000130 71 a1 64 3d c6 32 de 3b fd 1c c4 bc f9 d2 75 3c
       0.055818025 0.006780955 -0.023939604 0.015003913
000140 27 ea 0b 3c 40 11 e5 bb 92 ec 91 bd 4a bb 0e bc
       0.008539713 -0.0069905818 -0.071252 -0.008711645
000150 21 0a bb be 2a 04 b6 be 21 20 ad bd af 21 af be
       -0.36531165 -0.35550052 -0.08453394 -0.34205386
000160 fc 02 c3 bd fa 32 24 3c d0 41 35 bd 92 9d 58 bc
       -0.095220536 0.010021919 -0.044252217 -0.013221161
000170 01 37 4a be f4 e1 ad 3b 03 56 12 be 2b f2 fb 3d
       -0.19747545 0.0053064767 -0.14290623 0.12302049
000180 c4 bb 6d 3d 98 06 ee 38 10 d4 3b 3e de 3b d6 bb
       0.058040395 0.000113499525 0.18342614 -0.0065378984
000190 e9 ab 26 3e 29 75 d1 bd cb e5 fc bd 81 37 9b bc
       0.16276516 -0.10227425 -0.12348517 -0.018947365
0001a0 af 78 0a 3e e4 0f d2 3d a9 c1 95 3d 63 76 37 3c
       0.135226 0.10256937 0.07312328 0.011197659
0001b0 30 c7 11 3c 81 9c cd 3c 94 2a ac 3c 34 c8 8c bb
       0.008897588 0.025099041 0.021016397 -0.004296327
0001c0 6f 27 e0 3c 76 34 75 bd c7 35 8f bd 07 2a 62 3d
       0.027362553 -0.059864484 -0.06992679 0.05521586
0001d0 fc cf 8f bc 38 12 ce 3d 33 c8 26 3d 93 c4 c4 3d
       -0.01755523 0.10062069 0.04071827 0.09607806
0001e0 22 4c 1c be 7a 91 f5 bd 5d 83 1f 3e 18 69 04 3e
       -0.15263417 -0.11990638 0.15577455 0.12930715
0001f0 a7 78 96 ba c7 db e6 bd 17 b4 eb bd ea fb 71 bd
       -0.0011480049 -0.11272388 -0.11508959 -0.059078135
000200 34 12 37 ba cc d9 0c bd 56 ed 43 bd 3e b7 83 be
       -0.00069836085 -0.034387395 -0.047833763 -0.2572574
000210 e0 fd 15 bd 99 b4 0f be 82 80 b4 be 9f 86 70 be
       -0.036619067 -0.14033736 -0.35254294 -0.23488854
000220 cb 45 9a bb 05 52 35 bd e9 66 cc bc d4 90 3a 3d
       -0.004708027 -0.044267673 -0.024951415 0.045548275
000230 5b b4 74 3c 67 4b 08 3d 8f 7e 99 3c 67 f2 e4 bc
       0.014935578 0.033275034 0.018737106 -0.027947618
000240 ab 44 17 bd ba 50 01 be 0d ba aa bd e9 f3 d3 bd
       -0.03693072 -0.12628451 -0.083362676 -0.103492565
000250 ef 0d 53 ba fc 97 05 bc c2 ad 46 bc 7e 52 83 bc
       -0.00080510875 -0.008153912 -0.012126388 -0.016030546
000260 7b ae fa 3b 64 d5 23 3b e7 41 31 3d 1e b4 ea 3d
       0.007650194 0.0024999017 0.04327574 0.11460136
000270 da 4a c6 3c e3 bc 00 3d 81 d1 31 bc bb 97 01 3d
       0.024205614 0.031430136 -0.010853172 0.031638842
000280 39 f1 b4 3d bd 53 05 bc fa ef 0f bb 97 0b ff bc
       0.08835072 -0.008137641 -0.0021963106 -0.031133456
000290 23 87 89 3c c2 9b ae bb e5 a9 5b 3c 5f 8b 49 bc
       0.016788071 -0.0053286264 0.013407205 -0.012301295
0002a0 c6 52 60 3c 13 35 b4 bc 01 74 25 3c c2 94 b2 bb
       0.01369161 -0.021997964 0.010098458 -0.005449862
0002b0 55 a9 99 3c cf 23 20 3b 8d 7b 6e 3c 71 59 2d bb
       0.018757502 0.0024435406 0.014555824 -0.0026451016
0002c0 53 e3 f6 3b f0 8c 90 3b 6d 69 15 bd bc c4 6e bc
       0.0075344234 0.0044113323 -0.036477495 -0.014573272
0002d0 2e 06 a3 ba 25 d7 85 3c f6 6a f4 3c f8 f9 aa bc
       -0.0012437755 0.01633794 0.02983616 -0.020871148
0002e0 1e 9f 3a bb db 48 5c bc 2a 09 52 bc 34 f1 d4 bc
       -0.002847619 -0.0134451045 -0.012819568 -0.02599392
0002f0 e3 47 6f bc 90 05 93 3c 06 be 12 bd 0c 07 1d bc
       -0.0146045415 0.017946988 -0.03582575 -0.0095842
000300 49 08 6c bd 37 e6 62 bc bb e9 27 3c df d6 68 3c
       -0.05762509 -0.013848833 0.010248597 0.0142113855
000310 17 cb 45 bd b0 96 02 bd 6f 9e c2 3c 07 22 bc 3c
       -0.048289385 -0.031881988 0.023757188 0.022965444
000320 0f d8 0f bd b0 6f 85 3f d2 b5 b1 3d c7 19 0a bd
       -0.03511816 1.0424709 0.086772576 -0.03371599
000330 30 d8 64 bb e5 55 d3 3e 0c 8e d2 bc c3 ee 59 bc
       -0.0034918897 0.4127647 -0.025702499 -0.013301554
000340 1f e3 1d bc 98 18 16 3e a3 0f 06 bd ef 78 92 bb
       -0.009636669 0.1465782 -0.032729756 -0.004469983
000350 4d 7a a3 bb 21 1c ba bd af 4c 0e bd 70 6a 09 3d
       -0.0049889446 -0.090873964 -0.0347411 0.033548772
000360 d3 e3 ae bc 4d 7f a1 be f0 95 aa bd e7 11 c4 3c
       -0.02134887 -0.31542435 -0.083293796 0.023934318
000370 ab 2d a8 bc bb 91 c2 be 9b 67 25 bd 25 7a cb 3c
       -0.020529589 -0.3800181 -0.04038201 0.024838516
000380 d6 a5 50 bc 86 3e 65 be 82 fa f7 bb cc 38 05 3c
       -0.012734851 -0.22387132 -0.0075677047 0.008131217
000390 40 50 4b bc 73 be 61 be 42 f8 3e bb c3 4c bd bb
       -0.01240927 -0.22045307 -0.0029139672 -0.005776973
0003a0 5e bd c1 bc 64 8b 1a be cb bd fa 3a 61 a4 55 3c
       -0.023649868 -0.15092236 0.0019130049 0.013039679
0003b0 20 64 4e bc f2 30 eb bd 8e 63 e5 3c 09 bc 11 bb
       -0.012597114 -0.11483945 0.028001573 -0.0022237322
0003c0 bf 88 6f bc fd 6f aa bd df 4a a9 3c a6 c1 d7 3c
       -0.014620005 -0.08322141 0.020665584 0.026337456
0003d0 36 e5 a1 3c c7 39 43 bc f1 73 81 bc 1b 45 e2 3c
       0.019762617 -0.011915631 -0.015802355 0.027620843
0003e0 29 67 ea bb 6a 24 59 3c 0c 22 bd 3b 24 cc 02 3d
       -0.007153411 0.013253311 0.005771881 0.031932965
0003f0 cf ca 05 3d 26 8d 98 3c ae 2e ae 3c 56 6e 92 bc
       0.032664116 0.018621992 0.021262493 -0.017874878

fc2.bias f4 [200]
000000 c7 ee e7 3c c4 f0 ff 3d 59 88 fa 3d 70 b1 82 be
       0.0283121 0.12497094 0.122330375 -0.25526
000010 51 1c 8f bd 37 03 07 3e ce 35 15 3e c4 b1 95 be
       -0.06987823 0.1318482 0.14571306 -0.29237187
000020 2b ac 46 bd e3 e3 b5 be 4b d8 01 3e 44 55 ad be
       -0.048504036 -0.35525426 0.12680165 -0.33854115
000030 8d 53 22 be 25 cb 1a be 0f c2 85 be ff 30 cc bd
       -0.15852185 -0.15116556 -0.26124617 -0.09970283
000040 a3 ea 27 bd 6e c4 74 bd 6f 8f 90 be cd 45 a8 be
       -0.04099525 -0.059757642 -0.2823443 -0.32865754
000050 65 54 e1 3c ef 03 97 bd 24 47 f6 bd 2f d2 de bd
       0.027506063 -0.07373797 -0.12025288 -0.10879933
000060 98 c3 9b be fb 85 53 be 82 01 bf be 8f 55 1c be
       -0.30422664 -0.20656578 -0.37305838 -0.15267013
000070 8d 25 2a be 10 29 ba be a4 56 82 bd 2f bf 6b 3e
       -0.16615887 -0.36359453 -0.06364182 0.2302215
000080 45 d6 6f 3d 15 4a d3 bd 51 14 0c 3e 7c 44 80 be
       0.058553953 -0.103168644 0.13679625 -0.2505225
000090 cf 6c 46 bc 92 c6 07 3e 40 9a b5 3d bb 49 75 3e
       -0.012110903 0.13259342 0.088673115 0.23953907
0000a0 38 11 50 3d ed 3b 79 bd aa 2f cd 3d b7 06 9c be
       0.05079767 -0.060848165 0.10018857 -0.30473873
0000b0 e2 1a f8 bd d3 46 87 3e 4f ff 8e be a4 52 c5 bc
       -0.121145025 0.26421222 -0.2792916 -0.024087258
0000c0 06 c0 8e bd c7 71 f0 bc 45 99 9a be 09 ec 37 3e
       -0.06970219 -0.029351128 -0.3019506 0.17961134
0000d0 fd 92 10 3e a0 07 37 3e f2 67 c5 bd 91 73 8f be
       0.14118572 0.17874002 -0.096389666 -0.28017858
0000e0 52 eb 3f 3e 8b 37 04 3e 5c f1 a7 3e c9 4b 19 be
       0.18742111 0.12911813 0.3280133 -0.14970316
0000f0 96 01 31 be d6 42 28 be 8d a3 38 be a0 0a a7 3d
       -0.17285761 -0.16431746 -0.1803114 0.081563234
000100 6f 17 5e 3e 05 1b af be 5a 40 0e 3e 63 d9 3c 3e
       0.21688627 -0.34200302 0.13891736 0.18442301
000110 68 50 64 be 51 ec 36 be ae 71 67 be a2 3b 65 3e
       -0.22296298 -0.17863585 -0.22601959 0.2238603
000120 65 0e 34 be 86 2d 1d 3e 05 9e d3 bd f5 e3 49 be
       -0.17583616 0.15349397 -0.10332874 -0.19715865
000130 85 e1 e1 bd cc 20 19 be 66 5b 74 be 95 1e 7c be
       -0.110293426 -0.14953917 -0.2386299 -0.24621041
000140 59 f0 a9 be d5 59 06 be 67 82 73 3e 0e 40 11 3e
       -0.33191183 -0.13120206 0.23780213 0.14184591
000150 f9 28 24 bc 45 47 2c 3e 26 5d 53 3d 51 3d 53 3e
       -0.010019534 0.16824062 0.051602505 0.20628859
000160 ae 67 9c 3e a5 9b 34 be 8a 99 aa bd e9 7d 64 bd
       0.3054785 -0.17637499 -0.083300665 -0.05578414
000170 b4 e3 ff be 81 1a 2c be 82 c1 80 3e 59 f7 31 3e
       -0.4997841 -0.16806985 0.25147635 0.17379512
000180 62 57 38 3e 13 3a 00 bf 17 df 8c 3e 24 14 d9 bd
       0.18002084 -0.50088614 0.27513954 -0.10599545
000190 3d 5c 90 3e 38 da f8 3b 92 96 b7 be bf 67 e1 be
       0.28195372 0.007594373 -0.35857064 -0.44024464
0001a0 ca 13 34 be aa 63 6d 3e 41 ad 7f 3e 01 38 a4 bd
       -0.17585674 0.2318255 0.24968435 -0.080184944
0001b0 10 77 24 bc 38 ea 43 3e 12 56 18 bf 0c ca 08 be
       -0.010038152 0.19132316 -0.5950633 -0.13358325
0001c0 dc ef 83 bd 05 d2 de 3d 49 c5 a2 3e 44 f2 48 be
       -0.06442234 0.10879902 0.31791142 -0.19623667
0001d0 af 89 4d be 89 19 7c 3e b2 52 2a 3e d9 82 d3 be
       -0.20072053 0.24619116 0.16633108 -0.41310766
0001e0 05 c2 50 3e 64 11 50 bd 90 a9 2d 3e a2 ab a8 3d
       0.20386513 -0.050797835 0.16959214 0.08235861
0001f0 3a d8 68 be 72 67 e3 bb fa 17 97 be e9 4d 8c 3d
       -0.22738734 -0.006939822 -0.2951048 0.06850798
000200 34 dc 08 bc 6e 01 f2 be 56 52 9c be 63 05 58 bd
       -0.008353282 -0.47266716 -0.30531567 -0.052739512
000210 4b 72 0d be 33 55 b4 be 1d 23 e1 3d 6b 20 81 be
       -0.1381313 -0.35221252 0.109930255 -0.25220045
000220 23 b3 c9 bd e0 37 a3 be 0f 8d aa be f0 b2 a4 be
       -0.09848621 -0.31878567 -0.33310744 -0.32167768
000230 53 ac b0 bd ea 22 0e be bd 28 93 bd d8 36 bb bd
       -0.08626618 -0.13880506 -0.071855046 -0.0914132
000240 7c ff 9c be 07 e2 09 bf b7 b6 c4 bd 23 52 ef bd
       -0.3066367 -0.53860515 -0.096051626 -0.11685588
000250 d0 2a 40 be cd bd 9d be 83 ee 79 be c7 fa 8f be
       -0.18766332 -0.3080887 -0.24407391 -0.28121015
000260 1e c3 02 be 9c c5 ad 3c d7 bb 01 be bb dd 96 be
       -0.12769744 0.021212392 -0.12669311 -0.29466042
000270 d2 62 9b be 0c 91 99 bd ed b5 cd bc 14 34 9c be
       -0.3034883 -0.074983686 -0.025111163 -0.30508482
000280 71 cb 91 be ee 6f c2 3e 62 49 24 bd da 2d a4 3d
       -0.28475526 0.3797602 -0.040109046 0.08016558
000290 eb 1a 8e be be 06 b5 bd b1 c9 07 be c8 5c a0 bd
       -0.27754912 -0.088391766 -0.13260533 -0.078301966
0002a0 65 47 c0 3e 43 fa e4 3c 80 cc 86 3e 4b 34 24 3e
       0.3755447 0.027951365 0.26327896 0.16035573
0002b0 30 5e 18 3e e5 81 68 3e b0 39 aa be 53 4c ac bc
       0.1487968 0.22705801 -0.33247137 -0.021032488
0002c0 e0 77 0a 3e 2a 7d c7 bd 1e 76 06 3e 3e f6 26 bd
       0.13522291 -0.0974067 0.13130996 -0.04076218
0002d0 de 9e 82 3e 91 c0 c7 3e 8c a7 39 3b 16 b1 ce bd
       0.2551183 0.39014104 0.0028328625 -0.1009237
0002e0 c8 78 ce 3e 93 09 96 be 6c d2 a3 3e bc d2 35 3e
       0.40326524 -0.2930418 0.31996477 0.1775617
0002f0 85 ad 93 3e ca 91 21 3e 97 ad db 3d 9c 44 b9 3e
       0.28843322 0.1577827 0.10726469 0.36185157
000300 ff a9 35 be 1e 92 0e 3e cb 56 5f be 5e a2 89 3e
       -0.1774063 0.13922927 -0.21810453 0.2688169
000310 50 24 32 3e ab a7 e6 3e 63 90 ab 3e 65 59 54 bd
       0.17396665 0.45049796 0.33508596 -0.051843066

fc_out.weight f4 [334, 200]
000000 24 fa f5 bd 4d 64 70 bd b6 b9 cc bd 96 1d 17 bd
       -0.12010601 -0.058689404 -0.09996359 -0.03689345
000010 28 a2 23 be 97 f2 43 3d 1d d7 6c bb ce 21 57 3c
       -0.15979826 0.047838774 -0.003613896 0.013130618
000020 e8 38 1f be 1f 08 a5 bd fd b7 7d bc 29 3a 64 3d
       -0.15549052 -0.080581896 -0.015485761 0.05571953
000030 7c f1 7a be 28 2d 42 be 8a 20 b0 3d 78 9a 13 bb
       -0.24506181 -0.18962538 0.08599956 -0.002252249
000040 b5 68 32 be 9d c7 fd bd 93 0e 7e 3d f3 1a 8c 3c
       -0.17422755 -0.12391589 0.062025618 0.017102694
000050 92 28 0d be 0d 61 78 be ac c1 e5 3c 98 20 3c 3d
       -0.13785008 -0.24255772 0.028046452 0.04592952
000060 64 62 95 3c 77 23 33 be 1e 66 71 3d 86 7a 47 3d
       0.018235393 -0.17493998 0.058935277 0.04870083
000070 18 99 47 be 93 75 26 be 4a fb a5 3c bb 48 c8 bc
       -0.19491994 -0.16255789 0.020261426 -0.024448743
000080 f2 ef 1e be e6 9b 39 be 4e 15 82 bc 9d 72 fd bd
       -0.1552122 -0.18125877 -0.0158793 -0.123753764
000090 ec 84 35 be 73 cf 5f be 3d b4 1b bd 80 7d 1f 3d
       -0.17726487 -0.2185648 -0.038013685 0.038938046
0000a0 57 8d 2e be b2 76 75 be 74 18 73 3d d3 e3 42 bd
       -0.17046104 -0.2397106 0.059349492 -0.04758055
0000b0 bb 4f 64 bd 13 fd 17 be f3 46 ff 3c 45 83 b3 bd
       -0.0557401 -0.14842634 0.03116176 -0.08765272
0000c0 2c 1f f0 3b 25 42 0e be 62 15 5e 3c aa d2 28 be
       0.0073279347 -0.1389242 0.013554903 -0.16486612
0000d0 ea c2 01 be 78 cc 17 be b0 80 23 be a0 c8 57 bc
       -0.1267201 -0.14824092 -0.15967059 -0.013170391
0000e0 bc 39 f4 bd f7 f2 3d be ee 68 05 be 82 b9 c9 bb
       -0.119250745 -0.18549715 -0.13028309 -0.0061561475
0000f0 28 b0 f1 bb 70 e9 b1 bd d4 d8 02 be 55 16 d4 ba
       -0.007375736 -0.08687103 -0.12778026 -0.0016180972
000100 88 09 73 bd 1c 81 22 3c 2d 25 51 be 99 f7 4c bd
       -0.05933526 0.009918477 -0.20424338 -0.050040815
000110 b8 a4 f1 bd 4a bc b9 3a d4 47 7d bb 85 c7 2b bd
       -0.11798996 0.0014170494 -0.003864755 -0.041938324
000120 bb 77 f3 bd 54 78 e9 bd 7b 2d 2d 3c 55 b3 2c bc
       -0.11888071 -0.11399904 0.010569925 -0.010540803
000130 0c 3c a2 bd 66 57 0e bd 35 96 85 3c c0 8a 38 bc
       -0.07921609 -0.03475132 0.016306976 -0.011263549
000140 3b 15 d4 3c 86 b8 8e 3d 3f 09 87 bd f1 10 90 bc
       0.02588903 0.06968789 -0.065935604 -0.017586203
000150 25 44 94 3d 22 4c 04 bd ba 5b 9c bd e7 93 87 bd
       0.0723956 -0.03229917 -0.07634683 -0.06620007
000160 b0 d9 83 ba 12 78 95 bd 07 d3 68 bd 75 01 0b be
       -0.0010059383 -0.07298292 -0.056841876 -0.13574775
000170 84 70 2d 3d 99 25 01 3d 88 5c 60 3d 6c ba 69 bd
       0.04234363 0.031529997 0.054775745 -0.05706255
000180 96 f9 c6 bd 2b bf 5a be 41 41 40 bd 67 7e 37 bd
       -0.097155735 -0.21361987 -0.04693723 -0.04479828
000190 61 7f 73 bd 2b 0b 56 3d 1c fd 7f bd 42 52 66 3d
       -0.05944765 0.052256744 -0.062497243 0.05623079
0001a0 3c 21 43 bc 05 6f 6f bc bb 98 55 3d 43 53 42 be
       -0.011909779 -0.014613871 0.05214761 -0.18977074
0001b0 d8 18 ea 3b 92 03 91 3c 18 66 91 3d e6 94 64 bd
       0.007144075 0.017701898 0.07099551 -0.055806063
0001c0 e3 bf 84 bd 53 c4 af 3d 44 e8 b9 bd 86 0b c0 bd
       -0.06481912 0.08582368 -0.09077504 -0.09377198
0001d0 7e fd af 3b 4b f8 1b bd ae 16 8f 3d a3 80 90 bd
       0.005370795 -0.038078588 0.06986748 -0.070557855
0001e0 54 6f 61 be 98 8c 67 3d dd b9 11 bd 49 86 bb 3d
       -0.22015125 0.056530565 -0.035577644 0.09156472
0001f0 42 87 1a bd b0 64 23 3d 15 18 80 bd 78 2c 18 bc
       -0.03772665 0.039890945 -0.06254593 -0.009287946
000200 94 ea b9 bd 56 ff 7c 3d 6e a8 e4 3c 00 19 2d 3d
       -0.09077945 0.061766945 0.027912345 0.04226017
000210 44 d0 3c bd 1b fc 67 bc 45 69 2d be eb cc 85 bc
       -0.046097055 -0.014159228 -0.16934688 -0.016333064
000220 2c a9 10 be 6f fd 8e 3c c0 2c a5 3c 8a 61 e1 bd
       -0.14127034 0.01745483 0.02016294 -0.11004932
000230 56 57 0e be fc 43 21 be a8 3e da ba fa 3b 04 be
       -0.13900504 -0.1574859 -0.0016650753 -0.12913504
000240 7b b6 e2 ba 1f 4c 30 3d bb a2 66 bd 3c e8 48 bc
       -0.0017296815 0.043041345 -0.056307536 -0.0122624
000250 71 0d d4 bd 11 2d 62 bd b5 a8 31 3d ca 4b 8e bd
       -0.10354126 -0.05521876 0.043373782 -0.06948049
000260 36 e8 1f 3d ac 79 49 bd 31 32 46 3d 38 09 ca 3d
       0.039039813 -0.0491883 0.04838771 0.098650396
000270 b6 f7 87 3d 07 37 5b 3d ff 20 16 be 62 61 80 3c
       0.06639044 0.053519275 -0.14661025 0.015671436
000280 64 e9 c1 3c 6a c3 df bd 5c 03 59 be 16 dc 1b be
       0.02367086 -0.10925944 -0.21192688 -0.15220675
000290 f1 12 22 3d ac c2 1e bc 18 f9 c5 3c 84 15 34 3d
       0.039568845 -0.009689968 0.024166629 0.04396583
0002a0 14 18 89 bd 59 7d 94 3d 15 75 82 be b1 ed 7f be
       -0.06694046 0.07250471 -0.25479952 -0.24993016
0002b0 94 e8 d1 3c 9c f2 63 be 06 f6 72 3d a7 46 54 3d
       0.025623597 -0.22260517 0.059316657 0.05182519
0002c0 31 bd 0d be ef 06 30 3d 87 8c db 3c 4b b1 54 bd
       -0.13841702 0.042975362 0.026800407 -0.051926892
0002d0 94 30 97 be 9f f3 f9 bd 47 69 3e 3d 47 47 24 3d
       -0.2952925 -0.1220467 0.04648712 0.040107038
0002e0 23 03 80 be 24 66 c7 bb db e0 96 be 71 ce 7d bd
       -0.25002393 -0.006085174 -0.29468426 -0.061964456
0002f0 52 f5 48 bf 77 8f 62 be 7f 5e 9a be 6f f2 22 bf
       -0.7849933 -0.2212504 -0.3015022 -0.63651174
000300 d7 9b 69 3c c9 dc 8b be 9c 7c 11 bc 9c 91 47 bf
       0.0142583465 -0.27316883 -0.008879807 -0.7795656
000310 91 03 af bd d5 aa 0f bf 43 2c 10 bf 6d e0 40 be
       -0.08545602 -0.56120044 -0.5631754 -0.18835612
000320 36 56 03 be ab c4 b2 be 24 cf ee 3d 06 c7 2c 3d
       -0.12825856 -0.3491567 0.11660603 0.04218199
000330 f1 42 29 be f3 d3 40 be b4 87 fc 3d ca 97 19 bd
       -0.16529442 -0.18830852 0.12330571 -0.037498273
000340 71 ec d2 bd a3 22 bf 3c 53 77 ab 3d aa 92 c9 bd
       -0.10299004 0.023331946 0.08372369 -0.09842427
000350 33 e7 08 be d8 42 54 bd cd 20 f8 bd f6 ad b4 3c
       -0.13369446 -0.05182156 -0.12115631 0.022055607
000360 b1 7b ec bd f3 c6 1e be 6a 1b b0 bd ba e1 44 3c
       -0.1154703 -0.1550558 -0.08598979 0.012016708
000370 29 2b 04 be 37 1a f9 bd 49 cf 9d be f4 ce 01 3c
       -0.1290709 -0.12163203 -0.3082221 0.007922877
000380 83 a7 a4 bd c8 7f 77 bc ae b6 26 be 35 cb a6 3c
       -0.08039763 -0.015106149 -0.16280624 0.020360569
000390 cf 57 bf bd 78 e7 d2 3a 1c e2 d7 be fc 52 0a be
       -0.0934292 0.0016090712 -0.42164695 -0.13508219
0003a0 d2 24 0d be 04 ef 86 3d 20 0e f0 be c9 cc bf bd
       -0.13783577 0.06588557 -0.46885777 -0.093652315
0003b0 1f 92 ef bd 9e 8c dc 3d dc 93 a5 be 48 17 09 be
       -0.11697792 0.10769008 -0.3233937 -0.13387787
0003c0 2e 97 0c be e4 8b bb bd a9 75 ca be c0 e3 88 bd
       -0.13729545 -0.091575414 -0.39542893 -0.06684065
0003d0 3d 8f 87 bd 49 f1 ce bd d9 e1 9a 3c 6c 03 a5 bc
       -0.066191174 -0.10104615 0.01890652 -0.020143233
0003e0 d7 fe 68 bd e4 c7 ea bd 41 ca cc bc 2b 7e 20 be
       -0.05688366 -0.11463907 -0.024998786 -0.1567313
0003f0 77 59 21 be 65 13 41 bc 02 13 26 be 61 f8 19 bd
       -0.15756784 -0.011784409 -0.16218188 -0.03759039

fc_out.bias f4 [334]
000000 c9 25 2d be 91 b4 b0 bc 99 bc da 3b 5a cb 1f bd
       -0.16908945 -0.021570476 0.0066753146 -0.03901229
000010 2a 80 8c bd f1 28 49 3b 2b 5f a9 bd 2a a7 29 be
       -0.06860383 0.003069457 -0.08270105 -0.16567674
000020 c4 17 cf bd 1e 10 29 bd 47 98 1f 3d ef be f7 3a
       -0.10111955 -0.041275136 0.038963582 0.0018901507
000030 13 a2 c3 3c cf 0f fd bb b8 90 ee bc 10 97 75 3d
       0.023880994 -0.007722832 -0.029121742 0.059958518
000040 34 db 5c be a1 51 75 be c7 06 3b bd 1f e8 88 3d
       -0.21567994 -0.2395692 -0.04566076 0.066848986
000050 42 1c 0a 3c 58 7e b5 bd 1f 95 3c be e4 0c 31 be
       0.008429589 -0.08861989 -0.1841626 -0.17290074
000060 04 3b 97 3b 47 5e d0 bd cb fa 63 bd 37 7c bb bb
       0.0046151895 -0.10174232 -0.055659097 -0.0057215947
000070 01 98 a1 3d ca ea d0 bd 63 0c 81 bd d4 84 cd bb
       0.078903206 -0.102010325 -0.06301191 -0.006271938
000080 80 46 af bc ef ad b7 bd 0e 56 72 bd fc 83 b7 3c
       -0.021395922 -0.08968722 -0.0591641 0.022401802
000090 2d 24 ac 3b 49 02 11 3d a7 fc 1c bd 27 f9 d3 3d
       0.005253336 0.03540257 -0.038326886 0.103502564
0000a0 fc 60 12 3e 66 8e 47 3e 98 76 87 3c 45 87 58 3c
       0.14294809 0.19487914 0.016536042 0.0132158445
0000b0 57 85 b0 3d 7b d9 f6 3d d7 e3 98 3d b5 35 06 3e
       0.086191826 0.120532 0.07465332 0.13106425
0000c0 58 99 25 bc 11 28 ec bd 57 86 e1 bd 6d c7 b7 bd
       -0.010107361 -0.115310796 -0.110119514 -0.08973584
0000d0 14 40 72 bd a2 e2 e2 bd 87 b6 e0 bc 85 ff 65 bc
       -0.05914314 -0.11078383 -0.027430786 -0.014037971
0000e0 b6 45 2c 3e f6 6a 7f bd 05 20 10 bd ec de 17 be
       0.16823468 -0.062357865 -0.035186786 -0.14831132
0000f0 a6 52 c2 3b 63 de 22 3d 8b ce a5 3d d5 f7 d4 3c
       0.0059302626 0.039762866 0.080960356 0.025997082
000100 cb 24 ef 3c 98 43 2c bc 02 52 1d 3e d9 3c 8d bd
       0.029192349 -0.0105141625 0.15363315 -0.068963714
000110 9f 78 6e 3d 6a 69 c4 bd e3 a6 c9 3c 35 01 57 3d
       0.058220502 -0.09590419 0.02461571 0.052491385
000120 b0 dd fb 3d 72 a4 d4 bd 79 70 a5 3b 6c 37 35 bd
       0.12298143 -0.10382928 0.005048808 -0.044242308
000130 87 7c d2 bd fb ec 3c bd 05 e7 e6 3c 46 f6 1c bc
       -0.10277658 -0.04612444 0.02818633 -0.009580201
000140 ca 4d 3b 3d dc 90 d5 bc 7a d4 e7 3a 1e 3f f2 bd
       0.045728482 -0.02607005 0.0017687224 -0.11828445
000150 95 c4 a5 bd 95 8e 5a 3d 57 a0 76 bc 79 2e 20 3d
       -0.08094136 0.053358633 -0.015052876 0.03910682
000160 7a b6 e5 3d 63 97 7b 3d 34 ca e2 3d 66 bd 56 3d
       0.11216445 0.06142367 0.110737234 0.05242672
000170 d6 04 2b 3d 65 cd 7b 3d 9e c7 73 bd 89 e3 8e bc
       0.04175266 0.061475176 -0.05951654 -0.017442482
000180 ce aa c2 bd e3 51 38 be 28 7c 17 be 65 35 c6 bd
       -0.09505235 -0.17999987 -0.14793456 -0.09678153
000190 bb 7a 06 3e b1 c6 50 bd df b7 14 3e 49 47 2d 3c
       0.13132755 -0.050970737 0.14523266 0.010576078
0001a0 43 46 3f be f0 6e 9b ba 85 19 09 3e 4c 5d df 3d
       -0.18679146 -0.0011858623 0.13388641 0.10906467
0001b0 95 68 16 be a9 51 5b bd 20 85 53 3e 31 2b 13 3e
       -0.14688332 -0.053544674 0.20656252 0.14371945
0001c0 37 02 0d be ad be bb bc f6 4f 91 bd 41 93 aa bd
       -0.13770376 -0.02291807 -0.070953295 -0.08328868
0001d0 69 bf 1b be 49 9b a3 bd a2 77 09 3e b2 34 01 3e
       -0.15209736 -0.07988603 0.13424543 0.12617758
0001e0 c5 dc 91 bd 53 c2 99 3c 47 e5 86 3d 68 e6 f1 3d
       -0.071221866 0.018769419 0.065867 0.11811525
0001f0 28 85 66 bd d6 cc 81 3c 0c 0c 46 3d c2 42 a7 3d
       -0.05627933 0.015844744 0.048351333 0.0816703
000200 02 a2 4f bd 02 69 ff 3b bd 5d 3e 3e 04 08 3d 3e
       -0.050691612 0.0077945003 0.18590446 0.18460089
000210 bd a4 9f b6 a3 9a 4f 3a 69 3c 30 3e d0 6b 26 3e
       -4.7577473e-06 0.0007919466 0.17210545 0.16252065
000220 5b db 5e bd 16 f7 8a bc ed 08 62 3b 68 63 43 3c
       -0.054408412 -0.016963523 0.0034490183 0.011925556
000230 90 48 38 bd 84 50 aa 3d 57 90 b8 3d d0 2f 0c 3e
       -0.044991076 0.083161384 0.09011906 0.13690114
000240 2e 35 b3 bd 50 b3 9d 3c 1a b7 1b 3d c7 6c aa bd
       -0.087503776 0.019250542 0.038016416 -0.08321529
000250 2b bf 66 3d 90 fe 5d bd e3 2f 32 bd d5 47 22 bd
       0.056334656 -0.054197848 -0.0435027 -0.039619286
000260 e4 a8 2d 3c 9d e7 f3 bd f5 8e ce 3d 4f a2 10 be
       0.010599349 -0.11909411 0.10085861 -0.14124416
000270 62 15 50 3c 9c f5 45 3d 77 23 6e bc 23 fa d5 3b
       0.012700411 0.048329934 -0.014534823 0.0065300628
000280 a5 89 cd bd 2f ad 83 3d 05 24 fe bd 23 79 46 bd
       -0.10036019 0.064295165 -0.12409214 -0.04845537
000290 10 67 ba bd e8 c1 99 bd 1f 4f ab bd 9a ec c0 3d
       -0.09101689 -0.07507688 -0.083647005 0.09420128
0002a0 ad 34 88 bd e4 22 e3 3d 42 15 68 3d fe 8d 4a 3e
       -0.06650672 0.11090639 0.056660898 0.19780728
0002b0 24 e4 24 3e ba 26 4b 3d 32 7f 92 3e d2 3e 41 3d
       0.16102654 0.04959748 0.28612667 0.04717905
0002c0 f6 ba 53 3e 28 aa 48 3d 5e 53 01 3e d7 4b 9d 3d
       0.20676789 0.0489904 0.12629458 0.07680481
0002d0 65 8b 15 3e 14 c6 23 3d 82 39 7e bd df 7c 35 bd
       0.14603956 0.039983824 -0.062066562 -0.04430854
0002e0 6b 79 da bd 1b 80 9a bc f4 64 5b bd c8 8b a8 3c
       -0.1066769 -0.018859914 -0.053563073 0.020574465
0002f0 ae 24 63 bd d2 bd 10 be 0c d0 22 bd 88 f8 1c be
       -0.055454902 -0.1413491 -0.03974919 -0.15329182
000300 49 4c 84 bd 3f 2d 94 3d 40 ce 6e bc e4 53 27 3d
       -0.06459863 0.072351925 -0.014575541 0.04085149
000310 cb eb 05 be 34 6a 1b bd 2c 0b 3f 3d a0 48 81 bc
       -0.13078229 -0.03794308 0.046641514 -0.0157817
000320 5e 0b bd 3d 66 76 fe 3a 26 44 9c 3d 36 68 27 3d
       0.09230684 0.0019413948 0.07630186 0.040870868
000330 8e 22 64 bd 02 75 fc 3d 32 26 ab 3d 85 cd 12 3d
       -0.055697016 0.12327005 0.083568946 0.03584053
000340 bb 25 7a 3e 20 24 6a 3e 7e 7b 00 be e5 3e ed bd
       0.24428456 0.22865343 -0.12547109 -0.11584262
000350 2e 2d 53 be f5 01 6c 3d ab 66 53 be 2e 2e 83 bd
       -0.20622703 0.057619054 -0.20644633 -0.064052925
000360 4e fc 08 be 57 a2 e9 ba 81 03 ea bd 2d 4e 90 bd
       -0.13377497 -0.001782487 -0.114264496 -0.07046161
000370 09 fa e5 3c af 97 a3 bd 82 ed 2e 3e f4 6e d3 3d
       0.028073328 -0.07987916 0.1708279 0.10323897
000380 36 cf 8d 3e 94 bd 00 3e 26 69 ab bd e4 4f 2f be
       0.27697152 0.12572318 -0.08369665 -0.1712032
000390 96 68 ed 3b 59 60 17 bd 4d 6c 91 3d c8 f1 6c 3d
       0.0072451336 -0.03695712 0.07100735 0.057847768
0003a0 56 21 e0 3d 97 88 ad 3c da 2d ef 3c 7d 25 87 3d
       0.10943858 0.021183295 0.029196668 0.06598947
0003b0 ea 1e e1 bc d4 86 fc 3c f7 0f 0f 3d 3c 5f 10 3e
       -0.027480561 0.03082601 0.034927335 0.14098829
0003c0 dc 2e 17 3e 76 cd 1a be 44 46 a1 bd 3d 01 b1 3c
       0.14763969 -0.1511744 -0.0787473 0.021607036
0003d0 97 8f 18 3d 6a 87 e9 bd 14 81 79 3c 20 71 4f 3c
       0.037246313 -0.11402781 0.0152285285 0.012661248
0003e0 ae fd 53 3e ff 3a 27 3d 8b fc 25 3d cd af e9 3d
       0.2070224 0.040827747 0.040524047 0.114104845
0003f0 5c 0e 60 3d 9c c2 c3 3d 6d b1 db 3d a1 7b 3e 3e
       0.054701194 0.09558603 0.10727201 0.18601848
