mlp/model_pt/mlp_trajectory_start_frame_lifespan_frame_4_fold_CV_2000.pt (torch, 595679 bytes, 6 tensors)

fc1.weight f4 [200, 200]
000000 e9 9e 40 3e b3 0b 9d bd 1a be 82 3d d8 74 ab bd
       0.1881062 -0.07668247 0.06383915 -0.083718956
000010 c6 9e 40 3e a9 52 97 bc f5 34 70 3d e1 f0 33 3b
       0.18810567 -0.018472033 0.058644254 0.0027456807
000020 73 9f 40 3e aa 2a 43 bc 30 4b 2b 3c 71 be e6 3c
       0.18810825 -0.011912027 0.010454938 0.028166981
000030 1b 9f 40 3e 8f 0c b3 3c e5 e5 4b 3c 0f ae 59 bc
       0.18810694 0.021856574 0.012444948 -0.013286128
000040 37 9f 40 3e a0 6c 31 3d 82 d7 67 ba 6c 53 84 3b
       0.18810736 0.043316483 -0.0008844064 0.004038265
000050 de 9e 40 3e 6d a4 ac 3d 2c c6 a7 bc e8 c9 e6 bc
       0.18810603 0.08429799 -0.020480238 -0.028172448
000060 d3 9e 40 3e 8a 81 66 3d 5e 03 e4 bb d9 9c 5d bb
       0.18810587 0.05627588 -0.006958409 -0.0033815412
000070 20 9f 40 3e 19 c1 63 3c 30 f7 04 3b 7e a8 5b bc
       0.18810701 0.013901019 0.0020288937 -0.013406871
000080 a7 9e 40 3e 4a cb 8a bc af 2d 4d 3c bd 2c ad bc
       0.18810521 -0.016942639 0.012523099 -0.021139497
000090 23 9f 40 3e 01 19 29 bd 4c 7b 1e bc b1 3b f5 3c
       0.18810706 -0.04128361 -0.009672951 0.02993569
0000a0 ac 9e 40 3e d6 82 95 bd 39 01 81 bd f3 f2 c7 3c
       0.18810529 -0.073003456 -0.06299061 0.02440784
0000b0 ce f8 52 3d be a6 4b 3c 02 3a a2 3c c6 b9 ce 3c
       0.05150681 0.012429891 0.01980305 0.025235068
0000c0 7e dd 18 3d 8f b9 20 3c 4b c1 72 3c c2 6f ac 3c
       0.037320606 0.009809866 0.014816592 0.021049384
0000d0 0b fc fe bb c4 89 9b bc 63 56 88 bc 85 7a 53 bc
       -0.0077815107 -0.01898659 -0.016642755 -0.012907629
0000e0 24 d0 a2 bc 63 b3 e2 bc 04 7d d6 bc 2e 96 bc bc
       -0.01987464 -0.027673429 -0.026182659 -0.02302083
0000f0 bb be 96 bb 14 c1 32 bc 26 8f 1e bc 97 42 dd bb
       -0.0046003736 -0.010910291 -0.009677684 -0.006752323
000100 e7 59 6f bc 04 da ad bc 4d 72 a2 bc 9a 97 89 bc
       -0.014608837 -0.021222122 -0.019829893 -0.016795922
000110 12 76 d0 bc a8 07 06 bd 14 ce fc bc 0c 6d e1 bc
       -0.025446925 -0.032722145 -0.030859984 -0.027517818
000120 8b 86 37 bd 4b c9 57 bd e9 15 4f bd 2a 09 42 bd
       -0.044806045 -0.052682202 -0.050558005 -0.04737202
000130 66 3b a1 bb 3a 4e 45 bc b4 33 23 bc aa e4 d9 bb
       -0.004920411 -0.012042576 -0.009961057 -0.0066495733
000140 61 d2 9b bd 75 ca aa bd 71 c8 a4 bd c4 3d a0 bd
       -0.07608486 -0.08339397 -0.08046044 -0.07824281
000150 a3 eb 1c bd 7a bf 39 bd 64 e9 2c bd b4 17 25 bd
       -0.03831066 -0.045348622 -0.042214766 -0.04030581
000160 1e e7 77 bd 8e 2e 8a bd e8 04 84 bd 3d e1 7e bd
       -0.060523145 -0.06747161 -0.06446248 -0.062226523
000170 00 41 e3 bc 99 13 0b bd 76 5a ff bc b3 a2 ee bc
       -0.027740955 -0.033954237 -0.031171065 -0.029130315
000180 8a 8a 05 bc e9 dd 61 bc 14 48 34 bc dc 0f 16 bc
       -0.008150706 -0.013785818 -0.011003513 -0.009159055
000190 2f 1d 12 bd 1d 5e 28 bd aa 31 1d bd 3d 2b 17 bd
       -0.035672363 -0.04110538 -0.03837744 -0.03690647
0001a0 48 a7 7a 39 2e 70 85 bb 9d 24 ed ba aa ec 81 b9
       0.00023904175 -0.0040722108 -0.0018092577 -0.00024781126
0001b0 62 f3 a2 bc 69 7c c3 bc 3c 86 ae bc da 64 a6 bc
       -0.019891445 -0.023863034 -0.021304242 -0.020311762
0001c0 8f e4 01 be 95 ff 05 be 46 7a 03 be d8 c6 02 be
       -0.12684844 -0.13085778 -0.12839612 -0.12771165
0001d0 ee 4f 8c bd 04 a1 94 bd 86 81 8f bd 53 01 8e bd
       -0.06851183 -0.07257274 -0.070071265 -0.06933846
0001e0 63 ef 66 ba 47 48 9f bb 2d 14 15 bb c0 35 c2 ba
       -0.0008809475 -0.004860911 -0.0022747621 -0.0014817044
0001f0 6a 42 84 bc 91 82 a4 bc f7 c5 8e bc 0f 07 8a bc
       -0.01614495 -0.02008179 -0.017428381 -0.016849069
000200 81 ab a3 bc b3 60 c2 bc 16 c1 ad bc 99 45 aa bc
       -0.01997924 -0.02372775 -0.021210235 -0.02078514
000210 c6 01 38 bc 44 cc 70 bc d4 d7 4b bc 2f 2f 46 bc
       -0.011230892 -0.014697138 -0.012441594 -0.01209621
000220 26 b6 7e ba 8d 44 8c bb a0 56 02 bb d8 64 e8 ba
       -0.0009716473 -0.004280633 -0.0019888058 -0.0017730249
000230 6d 36 df 3b 05 b1 68 3b 1f 96 c0 3b 8d 30 c6 3b
       0.006811908 0.0035505902 0.005877271 0.006048268
000240 76 44 2e b9 39 93 60 bb be 7d 95 ba 0c 00 66 ba
       -0.00016619437 -0.003426744 -0.0011405272 -0.00087738107
000250 65 4d 32 ba 29 6a 61 bb fe cd c7 ba 9f c7 9b ba
       -0.0006801694 -0.0034395552 -0.0015243886 -0.0011885053
000260 d2 e0 b0 3c b1 91 9c 3c 46 58 aa 3c d1 de ac 3c
       0.021591578 0.01911244 0.020794045 0.02110234
000270 3f 5f ab 3c 99 a6 99 3c aa 51 a5 3c 33 ab a8 3c
       0.02091944 0.018756198 0.020180542 0.020589447
000280 77 37 76 bc 8f 31 8a bc 4a 6a 7e bc d8 56 78 bc
       -0.015027872 -0.016869335 -0.015528271 -0.015157424
000290 5a 9a 1b bc 9c bc 34 bc 57 33 22 bc 9d bd 1e bc
       -0.0094972495 -0.011031296 -0.009899936 -0.009688762
0002a0 f8 f0 bd 3b bc 9c 98 3b 82 49 af 3b 46 82 b6 3b
       0.005796548 0.004657356 0.005349339 0.005569729
0002b0 b4 e2 50 bc b1 cb 5f bc 50 39 54 bc 99 73 52 bc
       -0.012749363 -0.013659404 -0.0129531175 -0.012844943
0002c0 71 97 8b bc 4e f3 91 bc 65 5d 8d bc 6e 4d 8d bc
       -0.017039986 -0.017816212 -0.017256448 -0.017248835
0002d0 99 ff 83 bc 4a 37 89 bc cf 3b 86 bc e1 ca 86 bc
       -0.01611309 -0.016749997 -0.01638594 -0.016454162
0002e0 62 d0 0d 3c ca 7c 03 3c 12 47 09 3c ad 3e 08 3c
       0.008655639 0.0080253575 0.008378761 0.008315724
0002f0 b3 d1 18 3a 1d 56 24 39 1f 19 c8 39 9e 7b af 39
       0.00058295875 0.00015672338 0.0003816569 0.00033470703
000300 44 86 b7 bb e1 30 c2 bb 15 b3 bc bb 7a 70 be bb
       -0.0056007225 -0.005926237 -0.005758653 -0.005811748
000310 3d 0c 80 3d 57 0c 80 3d e8 0b 80 3d bb 0b 80 3d
       0.06252334 0.06252354 0.06252271 0.062522374
000320 dc db 6d bb 2f 3c 21 3f e0 89 b6 3c 73 f6 33 bc
       -0.0036294376 0.6298246 0.02228254 -0.010984051
000330 33 f9 6d bb c4 7f 77 3e c5 f1 fc bc d1 30 fc bc
       -0.0036311864 0.24169832 -0.030877003 -0.030784996
000340 4d fa 6d bb 15 c0 05 3e ca 71 87 bc 67 0c 35 3c
       -0.003631252 0.13061555 -0.016533751 0.01105032
000350 50 e0 6d bb b1 50 d1 bc 07 68 b9 ba ef 9f 0a 3b
       -0.003629703 -0.025551172 -0.0014145382 0.0021152457
000360 32 d7 6d bb 7b 47 1d be 99 19 31 bd b5 b4 8f 3c
       -0.0036291596 -0.15359299 -0.043237302 0.017542223
000370 bd df 6d bb 26 da 4a be 61 53 bf 3b 04 2f 03 3d
       -0.0036296688 -0.1980978 0.005838797 0.03202726
000380 66 d2 6d bb b1 f0 2a be 0e be 47 3c cd 38 c0 3b
       -0.0036288737 -0.16693379 0.012191309 0.005866146
000390 02 cd 6d bb 8e 0c 18 be f6 29 a6 3c e4 69 3a bc
       -0.0036285524 -0.14848539 0.02028368 -0.011377785
0003a0 c4 f6 6d bb 7f 1b f3 bd c1 62 0c 3b 4d 14 27 3c
       -0.0036310414 -0.11870479 0.0021421167 0.010197711
0003b0 bf da 6d bb fc ab ca bd c3 3c c6 3c c3 69 10 3c
       -0.0036293713 -0.09896085 0.024198895 0.008814278
0003c0 46 fe 6d bb 7a 3c bd bd d6 23 0e 3c aa 5b ed bb
       -0.003631489 -0.092400506 0.008675536 -0.007243593
0003d0 83 06 12 3d 56 fc 1d bc a3 2d 1c 3d ba 5e 33 3c
       0.03565074 -0.009642681 0.03812946 0.010947878
0003e0 d6 7d 97 3c 37 8f fe 3b 89 fd a3 3c 62 1a 3b 3c
       0.01849262 0.0077685374 0.020018356 0.011419864
0003f0 1d b4 e3 3c fd 4a b8 3c 1e 48 f2 3c 7b b3 b7 3c
       0.027795846 0.022496695 0.029575404 0.02242445

fc1.bias f4 [200]
000000 4b 2e 83 be 62 64 a5 bd 22 ff 1d be 05 d8 96 be
       -0.25621256 -0.08075787 -0.15429357 -0.29461685
000010 43 25 79 be 9c 5d 3c bd 39 cb e8 bd b4 6b aa bd
       -0.2433062 -0.04598771 -0.11366887 -0.08321324
000020 e1 b4 51 be 8f f6 0e bf fa 89 d1 be eb 5c 2d be
       -0.20479156 -0.5584497 -0.4092558 -0.16929977
000030 16 fb 32 be ff b1 27 bf 64 10 43 be c2 37 b6 be
       -0.17478594 -0.65505975 -0.19049221 -0.35589415
000040 3e 7b 7d be a2 e6 b9 bb 41 d4 87 bd 6d a1 31 bf
       -0.24754044 -0.0056732455 -0.06632281 -0.6938694
000050 3d 66 6c be 3c 87 aa bb 1c 45 0b bf 0e 27 5d be
       -0.23085876 -0.0052041095 -0.5440233 -0.2159693
000060 d1 ed ad be 3d 29 b1 ba 3b 9b 0d bf f6 7c 07 bf
       -0.33970502 -0.0013516318 -0.5531499 -0.5292505
000070 dc 38 99 be 97 70 a7 bb 61 ab 11 bf 5f bf 2f bf
       -0.29926193 -0.0051098573 -0.5690213 -0.68651384
000080 7b f3 1b be e5 d9 25 ba 25 1a d2 bd a4 1e ca bd
       -0.15229599 -0.00063267193 -0.10258893 -0.098691255
000090 40 07 3e be 70 22 a1 ba 77 82 37 be de 40 5c be
       -0.18557453 -0.0012293588 -0.17920862 -0.2150912
0000a0 af d7 9b be 8c a5 e6 be 54 29 61 bc 72 7b 2c be
       -0.3043799 -0.45048177 -0.013742764 -0.16843966
0000b0 3b fa 2d 3d 07 90 bc be 30 d3 73 3d aa 67 2e bf
       0.042474966 -0.36828634 0.059527576 -0.6812693
0000c0 6d 28 eb 3c fc 16 27 bd bd 58 4d 3c db 76 a6 be
       0.0287058 -0.040793404 0.012533364 -0.32512555
0000d0 ad c8 3c bf ab 49 13 bf a8 48 bb 3e f3 44 79 3d
       -0.73743707 -0.57534283 0.3657887 0.06085677
0000e0 e2 67 21 bf e0 60 87 bd f6 5e 0d 3d be b0 cb be
       -0.6304914 -0.06610274 0.03451439 -0.3978328
0000f0 f8 f0 9a 3d ed 99 77 3c f2 fb b3 3c 90 fb 0a bf
       0.075654924 0.015112382 0.021970723 -0.54290104
000100 c7 e0 0e be 7a da 01 be 20 3c 13 bf a7 b2 7f 3d
       -0.13952933 -0.12680998 -0.5751362 0.062426236
000110 c9 37 88 3d 7d a3 20 3e e0 f0 29 3d 96 83 77 ba
       0.06651265 0.15687366 0.041489482 -0.000944191
000120 fb 97 85 3d c9 04 fc be 74 5e ea be a9 4e 17 be
       0.065231286 -0.492224 -0.45775187 -0.147761
000130 b8 99 5c 3d ea 57 ab 3d 4a 89 bf 3d 3c 07 39 be
       0.053857535 0.08366378 0.09352358 -0.18069166
000140 38 a1 1e be bf 4d 87 bd a0 ac 22 bf 52 26 92 be
       -0.15491188 -0.06606626 -0.63544655 -0.2854486
000150 9a 4d 52 3d 2b b8 3b 3d 90 5c 6f be 12 08 57 be
       0.051343538 0.045829933 -0.23375154 -0.20999172
000160 0f 33 d9 be 91 80 25 3d 54 9f fb 3c a2 19 c3 3c
       -0.42421767 0.040405814 0.030715622 0.023815934
000170 02 d2 5c 3d 2a c0 1a bf 8d a8 49 be 1c 5d 6e 3d
       0.053911217 -0.6044947 -0.19693203 0.058194265
000180 4f 10 05 3d d6 28 54 bf 09 d7 69 3d 7d 78 0d bf
       0.032486256 -0.8287481 0.05708984 -0.55261976
000190 d7 6f 07 bf bf 55 97 be 22 af c9 be 20 a7 08 3d
       -0.5290503 -0.29557607 -0.39391428 0.033362508
0001a0 f9 06 d1 be da c1 0b bf 69 5a 7d bd e5 e6 aa 3d
       -0.40825632 -0.5459267 -0.0618538 0.08344821
0001b0 20 80 58 bf 8e bd 86 3d 97 ff 8d 3d c8 9e c3 bd
       -0.84570503 0.065791234 0.069335155 -0.095517695
0001c0 f6 86 10 3d 0b a4 8a 3d 4e 55 88 3c 9e fa 70 3d
       0.03528496 0.0676957 0.016642239 0.058832757
0001d0 c4 c2 ff be 0f 97 46 bf f9 7c 13 3d dc 48 89 bd
       -0.49953282 -0.7757425 0.036007855 -0.0670335
0001e0 d6 2b 55 bf 04 a2 25 be a4 a1 80 3d 49 e2 8b bd
       -0.83270013 -0.16175085 0.062808305 -0.0683027
0001f0 98 05 16 3d e4 2e ef be 6f 63 3a bf b0 c9 e0 be
       0.03662643 -0.46715462 -0.72807974 -0.43903875
000200 d4 23 99 3c 58 0c b6 3c 21 80 ea be 9d af 30 bf
       0.018693842 0.022222683 -0.4580088 -0.69017965
000210 0a 13 b7 be fb 07 c2 be 5a 63 32 bf 32 4f 98 be
       -0.35756713 -0.37896714 -0.6968285 -0.2974792
000220 96 4d 17 bf 65 49 59 bf c2 8b 80 bf da ee d1 be
       -0.5910276 -0.84877616 -1.0042651 -0.41002542
000230 3f 99 06 bf a8 e8 1f bf 45 da 67 bf de 34 6c bf
       -0.52577585 -0.6246438 -0.9056743 -0.9226817
000240 7c 73 3c bf 59 2f 1c bf cf 16 09 bf 36 e7 ed bd
       -0.73613715 -0.61009747 -0.5355043 -0.116163656
000250 3b 58 32 bf 16 7d 21 bf 30 17 f3 be 42 c2 b8 be
       -0.6966588 -0.6308149 -0.47478628 -0.36085707
000260 cd d5 7c be 10 0d 51 be a9 65 9a be d9 bf 04 bf
       -0.24690934 -0.20415139 -0.30155686 -0.51855236
000270 39 fb 4a bd af 29 c0 bd ac c0 83 be 53 71 86 be
       -0.04955599 -0.093829505 -0.25732934 -0.26258335
000280 1d 10 d2 be 43 84 3b bf 9e 59 94 be 6a c6 67 be
       -0.41027918 -0.7324869 -0.28974622 -0.22634283
000290 90 b0 bc be d2 8e b6 3d 91 a7 a7 be 1b 57 0d 3e
       -0.36853456 0.089139596 -0.3274503 0.1380276
0002a0 a1 a7 d5 3d 3d 0d 0d 3e 08 c2 45 3d 7a 66 4d 3d
       0.10432363 0.13774581 0.048280746 0.050146557
0002b0 ac 26 d6 3d e0 f7 0c 3c 60 c8 51 bf 84 4d fa bd
       0.10456595 0.00860402 -0.81946373 -0.12221816
0002c0 95 cf a1 3d 43 a0 4e bd f9 93 ba be bb ca e9 3d
       0.07900921 -0.050445806 -0.3644102 0.11415621
0002d0 6d 6d fc be d8 7b c0 ba dc 63 d8 be 46 03 3a 3e
       -0.49302235 -0.0014685346 -0.42263687 0.18165311
0002e0 c5 9f 37 3e 92 67 45 3e 00 af 8b 3e 1e f9 2c 3e
       0.17932041 0.1927779 0.27281952 0.16891906
0002f0 04 87 ca 3c 74 55 62 3d 09 80 c3 3c 4e 44 f5 be
       0.024722584 0.055257276 0.023864763 -0.47903675
000300 e9 fa e6 3d 9b 7f e6 be 30 29 3b 3d 7a 98 90 be
       0.11278326 -0.4501923 0.045693576 -0.2824133
000310 94 be 74 3d 4f 2f b4 3e 9c ea 63 3d 72 1d 6d 3d
       0.059752062 0.35192344 0.055643663 0.05788941

fc2.weight f4 [200, 200]
000000 ee 4d b0 3e 11 06 5b 3c bc 30 38 3e 4b e2 8a be
       0.34434456 0.013368146 0.1798734 -0.27125773
000010 9e da b3 3e bf 8e 28 3d d2 69 34 3e 9f 11 15 be
       0.3512773 0.04115176 0.17618492 -0.14557503
000020 8b 5a 8e 3e 9f 7f 22 3d 6c 9e e6 3d 10 7f ce bc
       0.27803454 0.03967249 0.11260685 -0.025207072
000030 38 c3 12 3e b0 74 b1 bb a7 bc cd 3d 17 0f 03 bd
       0.14332283 -0.0054155216 0.10045748 -0.031996813
000040 49 a4 be 3e f7 d9 40 3d a0 61 83 3d 54 f7 2d bd
       0.37234715 0.047082867 0.06415105 -0.0424722
000050 50 6f 70 3e a5 d3 b0 3d 5a f3 04 3d db 12 ce bd
       0.23479962 0.08634118 0.03245864 -0.1006219
000060 cd fc ba 3e 7c 54 80 3d 4c c9 49 bc da 82 cb bd
       0.36520997 0.06266114 -0.012316059 -0.09937067
000070 d9 ae 5b 3e ef 8e 11 3d 99 b5 24 3b 3f 31 8f ba
       0.21453418 0.035536703 0.0025132655 -0.0010924711
000080 c9 4b 96 3e 9b 1a 46 3c e4 b4 43 bd 29 11 84 bd
       0.29354694 0.012091304 -0.047779933 -0.064485855
000090 ae 64 93 3e 50 01 9b bc 8c 71 9d bd b0 5d 6f bc
       0.2878775 -0.018921524 -0.07687673 -0.014609739
0000a0 dd dd ba 3e 30 dd b1 bc aa b1 de bd 62 85 19 bd
       0.36497393 -0.021711916 -0.108737305 -0.03748072
0000b0 b8 9f 28 bb 76 34 80 bd a7 ac 00 bb 03 1b 32 3c
       -0.0025729965 -0.06260006 -0.0019634159 0.010870698
0000c0 10 76 33 3d c6 cd 43 3d ae 1a 4c 3d 7c 73 63 bc
       0.043813765 0.047803663 0.04983013 -0.013882514
0000d0 88 cd 44 3b d1 47 5b bc af 11 3f bc b0 fa 70 3b
       0.0030029733 -0.013383822 -0.011661931 0.0036770515
0000e0 9f 72 4a 3c b5 c7 15 3c d5 89 83 bc fd 41 c2 3d
       0.012356429 0.009141852 -0.016056934 0.094852425
0000f0 da 7e b9 bb 06 4c 8a 3c 63 5f 76 bb e2 1b 65 ba
       -0.005660874 0.016881954 -0.0037593476 -0.00087398116
000100 9f 2d cd 3c 82 e7 2c bd a7 3a 72 3c a5 bf c6 bc
       0.025046168 -0.04221297 0.014784492 -0.024261305
000110 13 21 91 3c 56 ae 49 3c 0f 92 8e bd 27 11 2e bb
       0.017715966 0.012309631 -0.06961452 -0.0026560517
000120 a5 96 2b 3d 07 46 2d bd a5 75 53 bc 3f 59 3c 3c
       0.041891713 -0.04230311 -0.012906467 0.011495887
000130 7d cb 83 bd d0 6b 1f bd 41 6e 4b bc ba a1 01 bd
       -0.06435297 -0.038921177 -0.012416423 -0.031648375
000140 a9 32 2e bd 42 9e 30 bd a1 4b 06 bc de 9c 85 bd
       -0.042528782 -0.043119676 -0.008196742 -0.06524061
000150 cc f5 9b bc e1 b6 22 be 0c 01 ec 3b cc c9 8a bc
       -0.019038104 -0.15890075 0.0072022732 -0.016941927
000160 d3 32 4d bd 85 38 a5 3c 61 fa 17 bd 7a 7c dd 3d
       -0.050097298 0.020168552 -0.037104014 0.10814758
000170 de 35 a7 bc 84 e5 af 3b 2e 7e 56 3c a6 13 89 3d
       -0.020411428 0.0053679366 0.013091607 0.06693201
000180 33 f2 ce 3d e7 4f 98 3c 06 f4 b3 bc bf e7 7a bc
       0.101047896 0.018592788 -0.021966945 -0.015314042
000190 02 5c 93 3c ad 36 99 3d b7 20 17 3e 06 70 7a bb
       0.017988209 0.07481132 0.14758573 -0.0038213744
0001a0 c2 86 e8 3c 1c 14 2c 3d dd 9d 26 3d 99 29 65 bd
       0.02838457 0.042011365 0.040677894 -0.055947874
0001b0 78 ea 20 be d1 b8 b3 bd 01 b2 2b be 7b 28 32 be
       -0.15714443 -0.08775485 -0.16767122 -0.17398255
0001c0 96 d9 3c be 7b bc e8 bd 13 3a 72 be 11 2a 69 be
       -0.18442377 -0.11364075 -0.23654966 -0.22769953
0001d0 f6 aa 30 bb 71 1b f0 ba 61 2a 5f be 23 2a 19 be
       -0.002695737 -0.0018318725 -0.2179351 -0.1495748
0001e0 e4 90 28 bc 86 74 09 be 7e 92 26 bd 5f c4 dd bd
       -0.010288451 -0.13423356 -0.04066705 -0.108284704
0001f0 58 fc aa 3b 2f aa 07 bd 2c 30 2a 3d c1 ce 9f bc
       0.00521807 -0.033121284 0.041549847 -0.019507768
000200 e7 63 9c bc b6 36 02 3d f5 05 21 bd 6e a2 a8 3c
       -0.019090606 0.031790458 -0.03931232 0.020585265
000210 f3 0f b9 3d c4 ea b4 3d 80 12 11 bc 9d 74 64 3d
       0.09036245 0.088338405 -0.008854508 0.055775274
000220 2a b6 e2 3d 4e f6 83 bc ae 13 12 bd 24 dd de 3d
       0.11069901 -0.016108658 -0.0356633 0.10882023
000230 75 e5 2c 3d bc 3a 91 3c 8f 90 5c bd c2 3b 2e 3c
       0.042211015 0.017728202 -0.0538488 0.010634365
000240 a2 05 05 bd 74 ab 9d 3c 3b e3 aa 3a fb b6 e4 bc
       -0.032476075 0.019246794 0.0013037691 -0.027919283
000250 db f5 2e bd 36 58 21 bd 37 b0 a6 3d e8 2b 8d 3d
       -0.042714935 -0.039390765 0.08139079 0.0689314
000260 44 17 f7 bb 8e d0 89 bc 34 a0 bc 3c c0 73 f1 3b
       -0.0075406153 -0.01682308 0.02302561 0.007368535
000270 05 51 a6 bc 65 c1 8b bc b9 62 0f bd a3 21 f8 bc
       -0.020302305 -0.017059991 -0.03500626 -0.030289477
000280 56 2c 06 bc bb 56 6d bd f3 42 05 3d 41 a2 98 bb
       -0.008189281 -0.05794404 0.03253455 -0.004658014
000290 5f 8e 32 3c 2d c9 b0 3c 10 8a b6 ba 70 df 9f bc
       0.010898202 0.021580303 -0.0013926644 -0.019515723
0002a0 67 b1 06 bd 16 ad 00 bc a7 61 bd bd ff fe 81 bc
       -0.032884028 -0.007853767 -0.09247141 -0.015868662
0002b0 de 36 9e 3b f0 28 cb ba 96 b1 e7 bc 94 85 ab 3d
       0.004828318 -0.0015499871 -0.028282922 0.083750874
0002c0 cb 38 e4 bc 24 24 76 bd 79 fb 20 bc 05 60 05 bd
       -0.027859112 -0.06009306 -0.009825581 -0.032562274
0002d0 22 70 10 bc 8a 84 49 bd 21 c4 fa bc cd 41 98 bc
       -0.008815797 -0.049198665 -0.0306111 -0.018586064
0002e0 43 5a b7 bc de 5e 29 bd 8f 9a 74 bd 78 23 2f 3b
       -0.022381907 -0.041350238 -0.05971771 0.0026724022
0002f0 2b b8 b1 bd 94 04 e0 bc d8 1a 85 bd 62 bd 6c bc
       -0.086777054 -0.027345933 -0.06499261 -0.014449449
000300 53 31 b8 bb 1d 04 d7 bb 1b 71 dd bd 31 a3 1c 38
       -0.0056211143 -0.0065617696 -0.10812589 3.7345282e-05
000310 81 c1 8b bd 22 68 85 bc 8e d1 29 bd 09 7f 0b bc
       -0.06824017 -0.016285006 -0.041459613 -0.008514174
000320 3f df bd bc 8d 72 84 3f e5 25 0e 3d ca a0 06 be
       -0.023177741 1.0347458 0.034704108 -0.13147274
000330 bc af 90 3b 3f 46 ea 3e 4d 67 bb bd 37 61 14 bd
       0.0044154804 0.4575672 -0.091505624 -0.036225524
000340 8f 8d e5 bc b3 17 0d 3e 28 6b d0 bc c5 6b c5 bc
       -0.028021602 0.13778572 -0.025441721 -0.02409924
000350 ba 94 a0 bc b8 9c 75 bd 2b a3 a4 bc 1b 1d a0 3c
       -0.019602168 -0.05996391 -0.020097336 0.019545129
000360 0b 5c 4f bc 54 0b 99 be ab 40 ce bd 06 fc 01 bc
       -0.012656222 -0.29891455 -0.10070928 -0.007933622
000370 b5 be 63 bc 12 0c be be ee 11 9d 3a 1a 7b 5f 38
       -0.013900449 -0.37118584 0.0011983493 5.328199e-05
000380 63 90 f0 3b d1 e3 93 be 0f 86 2b 3d 55 a3 18 bc
       0.007341431 -0.28884748 0.041875895 -0.009316285
000390 45 1f 4b bc 21 ec 6a be ee 73 06 3d f8 17 07 bb
       -0.012397592 -0.22941639 0.032825403 -0.0020613652
0003a0 8f c0 12 bd f6 a8 29 be 19 06 8d 3d a3 b4 a2 bc
       -0.03582817 -0.1656836 0.06885929 -0.019861525
0003b0 f1 30 23 bd e5 26 0f be f9 e1 83 3d 04 5b fd ba
       -0.039841596 -0.13979681 0.06439585 -0.0019329493
0003c0 e4 2b 23 bc f0 93 ca bd 57 fa 93 3d 65 95 20 bd
       -0.009959195 -0.09891498 0.07225483 -0.039204974
0003d0 a1 0a 60 bc d7 78 c6 bb 99 b3 e5 39 79 c0 75 bc
       -0.013674409 -0.0060568857 0.00043812094 -0.014999502
0003e0 47 da 83 bc 67 7b 0b bd 39 14 cb 3d a1 83 26 bb
       -0.016095294 -0.034053233 0.099159665 -0.0025408047
0003f0 6c 01 2d bc 5a f9 c3 bc da fb 81 bb a1 d2 17 bb
       -0.010559421 -0.023922611 -0.0039667906 -0.0023166316

fc2.bias f4 [200]
000000 9c 86 9e bd 90 76 12 3e 14 84 b4 3d 24 a0 23 be
       -0.077405185 0.1430304 0.088142544 -0.15979058
000010 4f 23 a5 bc e0 d9 4b 3e 0a 71 e8 3d 4e 9c 0d bd
       -0.020158438 0.19907331 0.113496855 -0.034572892
000020 5d 1a 3c bc 72 83 d8 bd 9f 58 2f be 46 49 03 bf
       -0.011480895 -0.10571946 -0.1712365 -0.5128368
000030 d5 4a d2 3d 4a 3f 8c be 6d 99 80 be 5a d0 4d be
       0.10268179 -0.27392036 -0.25117055 -0.20099011
000040 35 3f 9a bd 76 1b d6 3d ad e5 f1 bc 9e 40 b5 be
       -0.07531587 0.104544565 -0.029528463 -0.35400862
000050 c5 d6 9f 3c 1b e4 09 be 4f 40 bd bd e2 7b 03 3e
       0.01951159 -0.13465922 -0.092407815 0.12840226
000060 38 e7 9c be 5a 57 ca be 5b 25 89 be 49 cb d3 be
       -0.30645156 -0.3951977 -0.26786312 -0.41366032
000070 ca 89 c7 bc bb 5c 22 3d e3 dd 1e be 9a 51 84 be
       -0.024357695 0.039639216 -0.1551433 -0.25843507
000080 70 95 11 bd a2 3b 4e 3d 75 72 18 3e ea 4e bb 3d
       -0.035542905 0.05034984 0.14887412 0.09145911
000090 53 02 0b bd da 5b ad bd b8 c7 28 3e c3 55 81 be
       -0.033937763 -0.08464785 0.16482437 -0.25260743
0000a0 19 36 65 bc d4 71 c4 3d 43 25 03 3e 59 b8 93 be
       -0.013989949 0.095920235 0.12807183 -0.28851584
0000b0 8b bb 20 3e 16 5e 65 be 3d a2 88 3c e2 78 a5 be
       0.15696542 -0.22399172 0.016678924 -0.3231879
0000c0 82 5c b8 3d d4 05 94 bd 0e 74 ae be df 2a a9 be
       0.090020195 -0.07227674 -0.34072918 -0.3304052
0000d0 ee 77 a8 be bf 9e 82 be 20 24 17 3e 85 22 9e 3d
       -0.32904 -0.2551174 0.14759874 0.07721428
0000e0 67 ae 6c be 74 bd 11 bd 8d 11 5b 3e 27 28 de bd
       -0.23113404 -0.035581067 0.21393414 -0.10847502
0000f0 45 95 b6 3e 8f f7 6b 3c 11 c8 04 be 72 65 84 be
       0.3566076 0.014402284 -0.12966944 -0.25858647
000100 33 b2 68 3d 38 09 7d 3e dc f9 55 be 28 ed e9 3c
       0.05681057 0.24710548 -0.20896095 0.028555468
000110 e9 74 40 3e 28 c4 b4 3d 97 30 4e 3e cb 0e cc bd
       0.18794598 0.08826476 0.20135723 -0.09963759
000120 a8 c6 4a 3e 1d 9a 23 be 13 55 64 be 34 a0 66 bd
       0.19802344 -0.15976758 -0.22298078 -0.056305125
000130 44 16 1b 3e 91 b1 2e 3c 46 49 ee bd 2d 73 08 be
       0.15145212 0.010662452 -0.116350695 -0.13325186
000140 81 ba 80 be a7 c0 8b 3d 59 2d 83 be bd 58 07 be
       -0.2514229 0.06823855 -0.25620535 -0.13217445
000150 3c f5 14 be 29 f4 58 be 8a 57 05 be b2 6d a2 be
       -0.14546674 -0.2118689 -0.13021675 -0.31724316
000160 86 f4 2b be a6 ec 31 be 1a 62 0b 3e d7 6d f9 3d
       -0.16792497 -0.1737543 0.13611642 0.121791534
000170 d6 32 3a 3e e9 04 61 be 7d ee b4 bc aa 8e b7 3c
       0.18183455 -0.2197453 -0.022086376 0.022406895
000180 70 65 37 3e 0d d0 b1 be d4 15 a4 3d 57 65 24 be
       0.17909789 -0.34729043 0.08011976 -0.16054283
000190 fb 86 81 be e9 2d 02 be d9 cd 54 be f7 58 10 be
       -0.25298294 -0.12712826 -0.2078165 -0.14096437
0001a0 6a 2e 42 be e2 2b 90 be 29 24 11 be 81 99 03 3e
       -0.18963018 -0.2815848 -0.1417395 0.12851526
0001b0 bd 06 17 bf e4 d3 4d 3e 41 2b d7 3d 56 b8 79 3e
       -0.58994657 0.20100361 0.10506297 0.24386725
0001c0 c9 a3 8b 3e 5b f8 97 3e 20 82 8a 3e 34 61 9d 3d
       0.27273396 0.29681668 0.27052402 0.07684556
0001d0 31 28 90 be 72 83 a9 be bb 85 7b 3e 00 d1 8e 3d
       -0.28155664 -0.33108097 0.24562733 0.06973457
0001e0 a1 01 cb be 79 8b 2e be d4 dc 7b 3e 8e 5f 9a 3e
       -0.3964968 -0.17045392 0.24595958 0.30151027
0001f0 b7 7b a1 be 6a bf ce bb c2 84 bd be e4 14 9d be
       -0.315397 -0.0063094394 -0.3701535 -0.3068
000200 ca ef 14 be c6 a4 10 3e f4 8b 03 bd 9f cd a3 be
       -0.14544597 0.14125356 -0.03211589 -0.31992814
000210 ac 1b e1 bd 4c fe 91 3d 95 64 84 be e4 7f 16 3e
       -0.10991606 0.071285814 -0.25857988 0.14697224
000220 84 18 59 be 74 2b f9 be c6 ed 0a bf e8 41 be be
       -0.21200758 -0.48665965 -0.54269063 -0.37159657
000230 fe b9 ca bc 97 b5 a3 be bf 80 cc be 17 7e 23 bf
       -0.024746891 -0.3197448 -0.39941975 -0.6386427
000240 c6 0d b7 be 67 e6 90 be 2e 26 7c be 19 a3 06 bd
       -0.35752696 -0.28300783 -0.2462394 -0.032870386
000250 fb 01 89 be 4b 12 a9 be ae 7c 51 be 0b 99 17 be
       -0.26759323 -0.3302177 -0.20457718 -0.14804475
000260 a2 7e 4f be 2b 9a 46 be 70 bf 3b 3e ab 79 3f be
       -0.2026315 -0.19394748 0.18334746 -0.18698756
000270 3d 18 2e 3d 49 fc 41 3e 64 d4 5f be a3 69 fc bd
       0.042503584 0.18943895 -0.21858364 -0.12324836
000280 ca 68 16 be 10 95 da be 9d a2 f6 bc 43 c1 44 be
       -0.14688411 -0.4269185 -0.030106837 -0.19214348
000290 03 8a a7 bd 84 c7 85 3e 4f a4 fb bd 19 a4 4d 3e
       -0.081806205 0.2612878 -0.12287199 0.2008213
0002a0 33 a1 8f 3e ef 9c 1e 3e 5e be 39 bd 2d 25 7e 3d
       0.28052673 0.15489553 -0.045347564 0.062047172
0002b0 4f 04 b0 3e 9a 09 40 3e 67 87 8c be 9e b5 8c bd
       0.34378287 0.18753663 -0.27447054 -0.06870578
0002c0 83 8f 86 3e f5 40 a6 3d ab c6 9c bc a8 46 b2 3d
       0.26281366 0.08117858 -0.019137701 0.08704883
0002d0 61 2d 88 be f7 fe 40 3e ef dc 09 be 41 99 36 3e
       -0.2659712 0.18847261 -0.13463186 0.17831899
0002e0 24 f9 22 bc 42 e0 88 3d 96 bd 2d 3e 9b 92 5c 3e
       -0.009947095 0.06683399 0.16966853 0.215403
0002f0 6c 46 b7 3e 94 00 c2 3e ed d0 53 3d e2 d0 38 be
       0.35795915 0.37891066 0.05171292 -0.18048432
000300 94 2f fe 3e 43 e4 72 be 4b 61 c2 3d 8b aa 74 bd
       0.49645674 -0.23719887 0.094912134 -0.059732955
000310 14 30 b3 3e d8 49 53 3e 48 91 9e 3e ae 9e 91 3e
       0.34997618 0.20633638 0.30970216 0.28441375

fc_out.weight f4 [334, 202]
000000 64 b7 a4 bd dc fe 64 3d 16 7a 94 3b df ed bd bb
       -0.080427915 0.055907115 0.0045311553 -0.0057961787
000010 60 81 ff bd 55 68 72 3d cd c1 9f 3c 87 61 1e be
       -0.12475848 0.05918153 0.019501591 -0.15466891
000020 ec 1d 0c be 7b 99 10 bb ae 56 d1 3b e1 9a 96 3c
       -0.1368329 -0.0022064138 0.006388507 0.018384399
000030 ce 0a 20 be 45 49 17 be 40 f5 5b 3d 0e c7 39 ba
       -0.15629122 -0.14774044 0.053700686 -0.00070868514
000040 1f 89 d3 bd a8 af 11 be 04 3c c6 3d ae 5f dc 3c
       -0.10328888 -0.14227164 0.09679416 0.026901092
000050 cf 3d e8 bd 6e 5b 87 be 27 6b 87 3d 6b 4e 02 3e
       -0.11339914 -0.26436943 0.066122346 0.12725227
000060 43 e6 b9 bd 6c f4 fa bd 4e d4 4a 3d e2 d8 8f 3d
       -0.09077122 -0.12253651 0.049518876 0.07023789
000070 7b f7 58 be b6 66 35 be c8 cb 89 3d 66 a4 de bd
       -0.21188156 -0.17714962 0.06728321 -0.108712
000080 09 f0 e1 bd 21 c3 47 be 70 5c 44 bc 03 4a 3b 3d
       -0.11032111 -0.1950803 -0.011984929 0.04572488
000090 40 6e 37 bd 87 d7 82 be 6f e1 4a 3c 84 e8 33 3b
       -0.044782877 -0.2555506 0.012382849 0.0027451823
0000a0 de 30 7f bd 5d 2e 39 be 34 8b e6 3b 3d 6f 4a bc
       -0.062302463 -0.18084092 0.0070356373 -0.012355623
0000b0 fa 14 70 bd d6 15 68 bd 95 c5 f5 bd 0c 73 82 bc
       -0.058613755 -0.05666145 -0.120005764 -0.015924
0000c0 6f 04 32 be f2 be 44 be 73 dd 1e be 53 c0 a2 bd
       -0.17384504 -0.19213465 -0.15514164 -0.07946839
0000d0 34 dc 5a 3c 13 5a 4d ba 28 37 44 be 04 f3 82 be
       0.013358165 -0.00078335515 -0.19161665 -0.2557603
0000e0 50 7a 8d bc 3d 53 0c be 39 c6 2f be 90 22 7a bd
       -0.017270237 -0.13703628 -0.1716546 -0.061068118
0000f0 2a 0c a5 bd 98 81 a3 bd 3e 30 d4 ba b0 09 cf bc
       -0.08058961 -0.079837024 -0.0016188694 -0.025273174
000100 97 b7 ff bd 1e 6b 14 bc d4 58 21 bd a4 b7 32 be
       -0.12486189 -0.009058742 -0.039391354 -0.17452866
000110 28 e0 30 be 49 85 bc bd 6f c4 f3 bd 90 d0 b2 3b
       -0.17273009 -0.092051096 -0.11902701 0.0054569915
000120 75 b9 06 be a8 28 05 bd 2b b2 0a bd 85 8d b9 bd
       -0.13156684 -0.032509476 -0.03386132 -0.09060196
000130 66 88 d7 bd f2 f2 20 be 32 73 2e 3c 87 c5 2a 3c
       -0.10524063 -0.15717676 0.010647582 0.010423071
000140 20 e5 a6 3d de 96 07 be 1d 45 0d 3a 67 f7 cf 3b
       0.08149171 -0.13241145 0.0005389022 0.0063466313
000150 33 6d 10 be 39 f9 5e 3d 38 b7 7f 3b 54 f6 1e 3d
       -0.14104156 0.054436896 0.003901912 0.038809136
000160 51 eb d3 3c 48 f4 63 bd 61 19 a8 bb 34 e2 9b bd
       0.025869044 -0.055652887 -0.0051299785 -0.07611504
000170 f4 bc d2 bd 80 2b 5d 3c 83 e0 08 bd e0 4e 96 bd
       -0.10289946 0.013499141 -0.033417236 -0.07339263
000180 4b 3a 1d bb d3 2d 4f 3d 1b fb ec bc 2d 4b 9f 3c
       -0.0023991044 0.05058081 -0.02892833 0.019445026
000190 16 09 03 bc 35 e2 38 bd ea a0 bc bd 3f c3 62 3d
       -0.007997772 -0.045137603 -0.092103794 0.055361982
0001a0 66 4b a5 bd b9 10 db bc b2 85 a5 3c 16 2c 17 3d
       -0.08071022 -0.026741372 0.020205352 0.036907278
0001b0 4f 9d 99 3c 3a a4 c6 bd a4 ef 6b 3d 06 9e c6 b8
       0.018751768 -0.096992925 0.057601586 -9.47081e-05
0001c0 74 47 23 3c 47 18 89 bd e8 5b 13 be 43 86 a8 3d
       0.009965766 -0.06694084 -0.14390528 0.082287334
0001d0 c3 3a 4d bc 13 fe 8a 3c c5 29 1d 3d 63 e6 61 be
       -0.012526217 0.016966855 0.038369913 -0.22060542
0001e0 50 52 6e 3d 5a 84 10 bd 4b c3 0d 3d 2b 6d 59 bd
       0.058183968 -0.03528247 0.034610074 -0.053082626
0001f0 ab f3 17 be 00 2b 9c bd 44 a8 29 3d e0 5e 2c 3d
       -0.14839046 -0.07625389 0.041420236 0.042082667
000200 3e 7e cc bd 52 43 1d bc a2 6b 0e be 6e 6f 12 3d
       -0.09985016 -0.00959857 -0.13908246 0.0357508
000210 8c 9c 07 bd cb d7 88 bd 54 d9 fe bd 65 9f 80 bd
       -0.03310828 -0.06681784 -0.12443796 -0.06280402
000220 ef 4e 1f bc 73 90 98 bd bf 90 84 3d cf 33 fa bd
       -0.009723409 -0.074494265 0.064729206 -0.12216913
000230 08 52 19 bd 30 15 20 bd 55 8d 0d be 4f 6d 4e 3d
       -0.037431747 -0.039082706 -0.13823445 0.050397214
000240 65 db 09 3d be 8f 32 3d ac 39 91 bd 92 a2 61 3d
       0.033656497 0.043594114 -0.07091078 0.05508668
000250 c9 61 46 be b7 5e f8 3c 35 b4 47 be 1e 34 82 3d
       -0.1937324 0.030318601 -0.19502337 0.06357597
000260 4d 19 c0 3d 28 fd 68 3d 91 dd 83 be 26 35 c7 3c
       0.09379826 0.056882054 -0.2575498 0.024317335
000270 34 fc 98 bb 93 d9 4c be 25 86 84 3d 74 c9 93 be
       -0.004668737 -0.20004873 0.064708985 -0.28864634
000280 d7 d9 ac be 8c 89 61 3d 3e 75 d7 bd c4 fa 24 3d
       -0.3375995 0.055062816 -0.10520409 0.04027821
000290 53 dd 4f be 34 ea 26 bc 11 c8 27 3d f0 21 48 be
       -0.20299272 -0.010187674 0.040962283 -0.19544196
0002a0 f4 6c 12 be 93 b6 4d be 39 ca 4c 3d 8e 47 f3 3b
       -0.14299375 -0.20089178 0.049997542 0.0074243015
0002b0 65 25 39 be 73 2e de be 3e ce 73 3d d7 af cd bd
       -0.18080671 -0.43394813 0.05952286 -0.100433044
0002c0 91 df 0c be 2f 67 09 3d 80 48 a5 3c d5 5a f8 3c
       -0.13757159 0.03354567 0.020176172 0.03031675
0002d0 51 f9 a2 bb c4 ec 48 bd ad ba 50 bc c8 79 d2 3c
       -0.0049735685 -0.049053922 -0.0127398195 0.025692835
0002e0 db 7f 04 3c 55 06 d2 bc 40 3f e1 bd 02 6d c6 bd
       0.008087124 -0.025637785 -0.10998392 -0.0968876
0002f0 2c 19 24 bf 94 7b 3c 3d 14 c9 2d 3d 9a 4a 15 3d
       -0.6410091 0.04601629 0.04242809 0.0364481
000300 34 45 28 bf 60 99 4c 3a cf 18 b2 bd 0d 21 b7 bd
       -0.65730596 0.0007804837 -0.08696138 -0.08941851
000310 9c 89 d1 be d8 ca 95 3b 6f fb 5a bf 5a bf 8e bf
       -0.409253 0.0045713 -0.8553991 -1.1152146
000320 a8 df 18 be 5a e8 73 bd be 8b c3 bd f3 a4 dc be
       -0.14929068 -0.05954776 -0.09548138 -0.43094596
000330 b3 f3 c2 3c 3e 86 0e bd 30 76 58 bd 37 1b 92 be
       0.023797845 -0.034795992 -0.052847087 -0.28536388
000340 f5 90 b2 3d 39 91 62 bc 23 b5 d9 bd ce 8a 80 be
       0.087190546 -0.013828569 -0.10630252 -0.251059
000350 86 54 ac bd e8 2c 7b 3d 22 d3 ed bd 63 45 d7 bc
       -0.08414559 0.061322123 -0.11612536 -0.026278203
000360 75 c0 73 bd 41 d6 31 3c 42 74 e6 bd d3 5b 56 be
       -0.059509713 0.010854305 -0.11252643 -0.20933466
000370 20 08 fa bd a7 f3 0b bb c6 58 03 be 47 4e ce bd
       -0.12208581 -0.0021354945 -0.12826833 -0.10073524
000380 c2 f4 05 be cd 2e 69 3c 1e 72 1d be a3 2c 27 3c
       -0.13081649 0.01423235 -0.15375564 0.010203513
000390 be be 04 be 0c d3 ab bc c7 b3 27 be 5a 98 d1 bb
       -0.12963387 -0.020974658 -0.16377173 -0.0063963355
0003a0 09 f5 9c be d4 12 98 bd 10 45 89 bd 73 eb 42 3c
       -0.30655697 -0.07425466 -0.06702626 0.011896956
0003b0 5b 91 d1 be 3d 20 8e bc 1f 0b 66 bd b3 2e d0 3c
       -0.4093121 -0.017349357 -0.05616295 0.025412893
0003c0 17 cb db be ae 06 a9 bd df e2 89 bd a2 54 22 3e
       -0.42928383 -0.08253227 -0.06732725 0.15852597
0003d0 e9 49 af be db de 75 bd 21 a1 51 bd 9e 7c 94 bc
       -0.34236076 -0.060026985 -0.051179055 -0.018125828
0003e0 4a 44 10 bd 27 ed 4a bb bd 3a d8 bd dd fd 08 be
       -0.035221376 -0.0030964108 -0.105580784 -0.13378091
0003f0 e6 7c 0f be 46 eb 58 bd e2 86 10 bb 06 08 c5 3c
       -0.14012489 -0.05295875 -0.0022053053 0.024051677

fc_out.bias f4 [334]
000000 4b 70 33 be 4a a7 d1 bc 69 1a 6c bc dc 08 ac bd
       -0.17523305 -0.025592465 -0.014410594 -0.08400127
000010 c9 fe 97 bd 65 13 08 bc ae 57 06 be e0 4d 35 be
       -0.07421643 -0.008305405 -0.13119385 -0.17705488
000020 b2 a0 9f bd d8 c7 a2 bd 02 0d 01 3d 31 44 43 bc
       -0.07794322 -0.079482734 0.031506546 -0.011918114
000030 90 ba 84 3d 89 cf 11 bc 6e 79 7a bd 7d 59 4b 3d
       0.064808965 -0.008899578 -0.06115096 0.04964589
000040 fb 6a 55 be cd fe 88 be ff 26 03 bd e8 75 3f 3d
       -0.20841591 -0.26756898 -0.03201961 0.046743304
000050 1c 56 d2 ba 51 24 a3 bd 7d 63 60 be cd 64 33 be
       -0.0016047391 -0.07965911 -0.21912952 -0.17518921
000060 8c 81 c8 3c c6 cc e2 bd 3c 36 8a bd 87 3c 77 3c
       0.024475835 -0.11074214 -0.06748626 0.015090114
000070 f5 cd a0 3d cc af c8 bd 4b dc a8 bd 7b 4e 62 3c
       0.07851783 -0.097991556 -0.082451425 0.0138126565
000080 ca 5a 93 bc a2 6d b7 bd 14 c6 b7 bd 65 c6 e8 bb
       -0.017987628 -0.08956458 -0.08973327 -0.0071037286
000090 5c 1f b0 bc 42 cb 0f 3c f1 4e a6 bd eb 52 eb 3d
       -0.021499328 0.008776488 -0.08120526 0.11490425
0000a0 c7 ed 0f 3e ba a0 14 3e 18 a8 37 bc 8c f1 ac 3c
       0.14055549 0.14514437 -0.01120951 0.021111272
0000b0 cd ef 26 3d 95 df 02 3e 13 e9 84 3d ed f2 0d 3e
       0.040756036 0.12780602 0.06489768 0.138622
0000c0 42 ce f0 bb f5 d7 23 be 5f 52 a6 bd 5b 49 04 be
       -0.0073488066 -0.1600035 -0.0812118 -0.12918608
0000d0 18 f2 ab bd 8d 98 f2 bd 4d 71 7b ba 64 1b ea bc
       -0.08395785 -0.11845503 -0.0009591773 -0.028577514
0000e0 bb 94 45 3e a8 4a 94 bd 53 0d 58 bd 49 48 14 be
       0.19295017 -0.07240802 -0.052747082 -0.144807
0000f0 f8 31 b1 3c fd 68 3c 3c 87 f7 9e 3d 7d 40 d4 3c
       0.021630272 0.0114996405 0.07762056 0.025909657
000100 d4 27 bb 3c 1f 0a 1c bd cb de 07 3e 00 26 fe bc
       0.02284614 -0.03809559 0.13268583 -0.03102398
000110 01 3e 72 3d ea 44 50 bd ec 1a 2b 3d 57 b0 97 3d
       0.059141163 -0.05084697 0.04177372 0.07406681
000120 85 b0 1f 3e 49 5d b6 bd 5e 5f c0 3c 08 2e f7 bc
       0.1559468 -0.089045115 0.023482975 -0.030173317
000130 6b 36 f0 bd 5c 7f 3e bd 5c 86 19 3d 5a 4c ad bc
       -0.117291294 -0.046508178 0.03748165 -0.021154571
000140 24 7b 40 3d 68 34 81 bc a8 29 ea 3c 64 80 eb bd
       0.046992436 -0.01577206 0.028584316 -0.11499098
000150 c2 0f bc bd b0 97 92 3d 48 7e 80 bc 4e 4b c7 3c
       -0.09182693 0.07157838 -0.015685216 0.0243279
000160 29 e5 dc 3d 03 0f a8 3d 03 63 b5 3d fa 6b 0d 3d
       0.10785896 0.08205988 0.088567756 0.034526803
000170 1b 54 8b 3d 8d c1 bf 3d 32 5b 49 bd 2c 03 91 ba
       0.06803151 0.09363089 -0.049159236 -0.0011063567
000180 6d af 0a bd 74 b6 2c be 46 60 0a be b1 9f ac bd
       -0.033858705 -0.16866475 -0.13513288 -0.08428896
000190 94 68 16 3e b7 eb 9f bd c1 c0 0c 3e 29 b8 69 bc
       0.14688331 -0.07808631 0.13745405 -0.014265099
0001a0 e1 a2 35 be 1a 29 f6 3c 89 f7 07 3e 1a 51 10 3e
       -0.17737915 0.030048896 0.13278021 0.14093438
0001b0 05 5b 0b be 33 aa d9 bd 50 4f 55 3e e1 4e 0c 3e
       -0.1360894 -0.10628166 0.20831037 0.13701965
0001c0 4e f7 09 be eb 03 b0 bc c8 bf 87 bd 4c 0f a6 bd
       -0.13473246 -0.021486243 -0.06628376 -0.081083864
0001d0 ee 92 40 be 82 63 8c bd 4c 79 24 3e 1f 07 06 3e
       -0.18806049 -0.06854917 0.16061896 0.13088654
0001e0 8a 5c bc bd fb c6 01 3c 6f 26 6e 3d 1b d3 e2 3d
       -0.09197338 0.007920976 0.058142122 0.110754214
0001f0 c3 25 74 bd 3f 4f 48 3c ef 9d 98 3d f2 5f 9c 3d
       -0.059606325 0.012225925 0.074519984 0.076354876
000200 67 ae 5b bd c3 96 49 3b 3c 1c 54 3e 25 e8 2b 3e
       -0.05363312 0.0030760027 0.20713896 0.16787775
000210 26 80 90 bc 41 7a 08 3d aa 26 1e 3e cc f2 3e 3e
       -0.017639231 0.033319715 0.15444437 0.18647307
000220 55 a9 91 bd d7 c0 32 bc d2 5b 40 ba 70 50 b1 3c
       -0.07112376 -0.010910234 -0.0007337901 0.0216448
000230 20 dd 24 bd 87 7c 9c 3d 4d 9f c8 3d 44 14 f0 3d
       -0.040249944 0.07640939 0.09796009 0.11722615
000240 ac 7c c6 bd 9d 94 6a bb 2f 01 0d 3d 54 7a 0a be
       -0.09691748 -0.0035794147 0.034424957 -0.13523227
000250 7a 2c 68 3d 57 d8 68 bd 34 16 37 bd 2d 0c f7 3a
       0.05668304 -0.056846943 -0.04469891 0.0018848233
000260 b8 db d1 3c c0 b6 96 bd fc d5 d8 3d cc df 03 be
       0.025617465 -0.073590755 0.10587689 -0.1287834
000270 16 ab ab bc 45 3e 8b 3d 40 c6 0f 3d 3c 76 51 3d
       -0.020955604 0.06798986 0.035101175 0.051138148
000280 0b 75 ab bd 47 0f 91 3d ee 8a 19 be 66 9f e0 bc
       -0.083719335 0.07082992 -0.14994404 -0.027419757
000290 d6 71 c8 bd 59 bb f2 bd e0 45 a5 bd 0d 63 b1 3d
       -0.097873375 -0.1185214 -0.08069968 0.086614706
0002a0 92 11 64 bd c7 11 f8 3d 54 45 49 3d 75 f5 36 3e
       -0.05568082 0.12112766 0.049138382 0.17867072
0002b0 f1 65 25 3e ba 1b 57 3d 56 a8 b4 3e 30 b5 90 3c
       0.16152169 0.052516676 0.3528468 0.017664522
0002c0 00 ab 22 3e 9c 1c b6 3d de ef db 3d 0d 35 c3 3d
       0.15885544 0.088921756 0.107391104 0.09531603
0002d0 6f 20 06 3e d3 35 80 3d e4 62 9c bd 5e 1d 18 bd
       0.1309831 0.06260266 -0.076360494 -0.03713738
0002e0 9a 6c dc bd 5a 08 07 bd 30 f8 62 bd eb ee 81 3c
       -0.107629016 -0.03296695 -0.05541247 0.015860995
0002f0 19 53 3b bd 7a 20 01 be 1c 26 f8 bc f0 9b 10 be
       -0.045733545 -0.12610045 -0.03029161 -0.14121985
000300 bb d7 92 bd b9 49 9f 3d 33 20 06 bd 63 57 03 3d
       -0.071700536 0.07777733 -0.03274555 0.03206576
000310 53 c8 1e be 49 c7 8c bd e8 1d 6b 3d 04 1b 2a bd
       -0.15506105 -0.06873948 0.057401568 -0.04152967
000320 d3 3a 93 3d 73 6a 03 3c 22 18 26 3d bf b0 d3 3c
       0.07188954 0.008020985 0.04055036 0.025841115
000330 0a 7f 7a bd 03 80 f0 3d 71 9c ab 3d 2c 2d a6 3c
       -0.06115631 0.11743166 0.08379448 0.020285212
000340 22 b9 83 3e 72 7e 6f 3e 2a ca 10 be d9 87 fd bd
       0.25727183 0.23388079 -0.1413962 -0.123794265
000350 5a dd 45 be ef ba 7f 3d 2f e9 55 be 18 2b 5f bd
       -0.1932272 0.062434133 -0.20889734 -0.054484457
000360 73 70 25 be 68 7e 12 bd 14 a9 a5 bd b6 91 ab bd
       -0.16156177 -0.03576508 -0.0808889 -0.083774015
000370 d7 54 4c 3d 7e f7 8f bd 87 d5 2c 3e d0 0a d2 3d
       0.049885597 -0.07029627 0.16878329 0.102559686
000380 14 6c 85 3e f0 23 0a 3e 8d 43 b4 bd 32 01 31 be
       0.2605902 0.13490272 -0.08801947 -0.17285612
000390 9d fc 01 3c 93 d7 87 bc 87 44 d9 3d 2b 84 24 3d
       0.007933763 -0.016582286 0.10608774 0.040165108
0003a0 38 2c b3 3d e5 31 05 3d ef 70 7b 3c 0c c0 97 3d
       0.087486684 0.032518286 0.01534675 0.07409677
0003b0 fb 8b 44 bd 67 eb 0e 3d 22 0a 81 3c 8b 84 ed 3d
       -0.04798506 0.034892466 0.015751902 0.11597546
0003c0 36 27 28 3e 7b 7c 23 be 45 ce 9b bd 06 0a 82 bc
       0.16421208 -0.15965454 -0.07607702 -0.01587392
0003d0 72 5f ed 3c a8 4b 01 be ab 48 b9 bb 31 2b ee 3c
       0.028976176 -0.12626517 -0.0056544147 0.02907333
0003e0 88 98 54 3e 36 fb 21 3d 98 1e cc 3c b7 a0 01 3e
       0.20761311 0.039546214 0.024916932 0.12658964
0003f0 9a 40 de 3d 4a 6c b0 3d 9e 54 cd 3d ac c3 2c 3e
       0.108521655 0.086144045 0.10025905 0.16871518
