mlp/model_pt/mlp_traj_test_2000.pt (torch, 431137 bytes, 4 tensors)

fc1.weight f4 [200, 200]
0.28489482 0.27729774 0.5053681 -0.14099137 0.28448567 0.2989993 0.3933702 -0.095127836
0.28464547 0.24625215 0.24984811 -0.05803565 0.2846074 0.1604148 0.19728053 -0.017428195
0.2850499 0.10167521 0.08289316 0.010236339 0.2846975 0.037528504 -0.027746843 0.07109413
0.28448436 -0.03303208 -0.14457738 0.046871293 0.28490803 -0.11625894 -0.20165399 0.11354941
0.2850112 -0.21538033 -0.24112013 0.025412299 0.28448427 -0.32676923 -0.2430168 0.07921504
0.28478476 -0.46656868 -0.35850203 -0.044324346 0.16128363 -0.17422596 -0.0780073 0.021184018
0.10040363 -0.05800222 0.00020059755 0.040727172 0.016313408 -0.052993257 -0.029300578 -0.010059057
0.003410858 -0.04089046 -0.02716543 -0.013305643 -0.043635573 -0.080967456 -0.06931664 -0.057680093
-0.03596094 -0.07521777 -0.062454212 -0.050652653 -0.033800494 -0.0745042 -0.061057594 -0.047697566
-0.03313193 -0.07576537 -0.061226055 -0.046689425 -0.029455742 -0.070444874 -0.05603869 -0.040599342
-0.018154947 -0.050964016 -0.03766749 -0.027515065 -0.010838791 -0.03906734 -0.026967747 -0.018417278
-0.006342648 -0.030615162 -0.020162402 -0.012231585 0.005863405 -0.013890895 -0.0046347748 0.0012572204
-0.0034642264 -0.01895738 -0.0113213565 -0.0068270806 -0.0009191024 -0.014479205 -0.007715398 -0.003702688
-0.003828129 -0.013418078 -0.0084665725 -0.0052342005 -0.006903087 -0.01492618 -0.010080525 -0.007803205
0.009017088 0.0022687644 0.0060949735 0.0076705287 0.025722768 0.020441946 0.02416739 0.02518549
-0.032062232 -0.037553623 -0.03362025 -0.032362863 -0.07183672 -0.077297956 -0.073238514 -0.07253994
-0.21105115 -0.21632953 -0.21284546 -0.21232453 -0.04873667 -0.054205794 -0.04995183 -0.04992373
-0.05100425 -0.055617988 -0.051257975 -0.05199726 0.035588443 0.031379007 0.03499264 0.033851705
-0.006017395 -0.009588235 -0.006788224 -0.007516871 -0.047416385 -0.050668076 -0.047804065 -0.04824708
0.03264964 0.02959826 0.032133024 0.031456925 -0.019248314 -0.021489032 -0.020364145 -0.020432472
0.0047559734 0.003545684 0.0048295725 0.0046226876 -0.011595289 -0.012934092 -0.011923665 -0.011257837
0.0142012825 0.012313126 0.013284699 0.014174628 0.009658506 0.008597626 0.0095332265 0.010276745
-0.010343365 -0.011273795 -0.010205387 -0.009883636 0.014333289 0.013997379 0.014384205 0.014536288
-0.005096208 -0.005501209 -0.0047188033 -0.0046394905 -0.0032494417 -0.003304054 -0.003406716 -0.0035121029
0.004649896 0.004679717 0.0049291034 0.004395474 0.033476774 0.033740655 0.033879895 0.033757318
0.08447664 1.2331233 -0.14201015 0.053849228 0.08437862 0.8853226 -0.1407877 0.011776105
0.08429759 0.68682086 -0.16663305 -0.0002133576 0.08471817 0.51003855 -0.15269311 0.00545778
0.08436163 0.32201993 -0.13587333 0.027734991 0.08452894 0.27889234 -0.10232058 0.01041763
0.08441189 0.2937068 -0.11729207 0.0157867 0.08459376 0.2504239 -0.1426584 -0.081467934
0.08421101 0.2707776 -0.19833407 0.054482393 0.08418276 0.2831984 -0.2793401 -0.030855482
0.084230505 0.266027 -0.3414614 -0.092479534 0.023979733 0.0269917 -0.0490991 -0.013762589
-0.10028113 -0.10734467 -0.14781009 -0.12954247 -0.008121706 -0.008775606 -0.029297771 -0.018847302
00000000: bcdd 913e f8f9 8d3e ce5f 013f 0b60 10be
00000010: 1ba8 913e 7016 993e d267 c93e 62d2 c2bd
00000020: 0dbd 913e 8629 7c3e 2fd8 7f3e cab6 6dbd
00000030: 10b8 913e c743 243e e803 4a3e 93c5 8ebc
00000040: 0ff2 913e 183b d03d e4c3 a93d 51b6 273c
00000050: dfc3 913e 7db7 193d 594d e3bc cd99 913d
00000060: efa7 913e a54c 07bd 180c 14be 1dfc 3f3d
00000070: 77df 913e 2b19 eebd 627e 4ebe 988c e83d
00000080: fdec 913e a98c 5cbe 32e8 76be 742d d03c
00000090: eca7 913e 4c4e a7be 65d9 78be 7f3b a23d
000000a0: 4fcf 913e 17e2 eebe 948d b7be 728d 35bd
000000b0: 8927 253e 4a68 32be 4bc2 9fbd 1b8a ad3c
000000c0: 6ba0 cd3d bc93 6dbd 7f57 5239 89d1 263d
000000d0: b2a3 853c 750f 59bd c407 f0bc bece 24bc
000000e0: b488 5f3b c17c 27bd 098a debc e9ff 59bc
000000f0: 37bb 32bd 44d2 a5bd e2f5 8dbd f641 6cbd
00000100: c74b 13bd c60b 9abd fdcf 7fbd 2879 4fbd
00000110: 6372 0abd a895 98bd 8717 7abd 865e 43bd
00000120: 59b5 07bd e02a 9bbd 2cc8 7abd 693d 3fbd
00000130: 2b4d f1bc 6745 90bd d388 65bd 7f4b 26bd
00000140: afb9 94bc a5bf 50bd 3a49 1abd 4667 e1bc
00000150: 2f95 31bc 1305 20bd 77eb dcbc d5df 96bc
00000160: fdd5 cfbb a6cc fabc 9f2b a5bc fc66 48bc
00000170: ce21 c03b a396 63bc 4fdf 97bb 51c9 a43a
00000180: 1308 63bb 824c 9bbc 367d 39bc b4b5 dfbb
00000190: ebef 70ba 303a 6dbc 73d1 fcbb cca8 72bb
000001a0: 59e1 7abb 80d7 5bbc 61b7 0abc a883 abbb
000001b0: 4a33 e2bb f08c 74bc c928 25bc 07b2 ffbb
000001c0: 69bc 133c 8daf 143b 58b8 c73b 0f59 fb3b
000001d0: 8eb8 d23c de75 a73c b1fa c53c cd51 ce3c
000001e0: b053 03bd d4d1 19bd 63b5 09bd ec8e 04bd
000001f0: 211f 93bd 644e 9ebd 13fe 95bd d28f 94bd
00000200: cb1d 58be 7d85 5dbe 29f4 59be 9a6b 59be
00000210: 1aa0 47bd e506 5ebd 4a9a 4cbd d37c 4cbd
00000220: d5e9 50bd b0cf 63bd e2f3 51bd 14fb 54bd
00000230: 30c5 113d 4687 003d 7154 0f3d 16a8 0a3d
00000240: 912d c5bb f917 1dbc c06f debb 1650 f6bb
00000250: af37 42bd 5489 4fbd 32ce 43bd bb9e 45bd
00000260: a1bb 053d 0d78 f23c eb9d 033d fad8 003d
00000270: a4ae 9dbc c409 b0bc b5d2 a6bc 0062 a7bc
00000280: ffd7 9b3b b55e 683b 6441 9e3b ea79 973b
00000290: 2bfa 3dbc 84e9 53bc 7a5b 43bc ca72 38bc
000002a0: 7fac 683c febc 493c 11a8 593c b33c 683c
000002b0: b63e 1e3c 0fdd 0c3c 4031 1c3c cb5f 283c
000002c0: 3877 29bc b9b5 38bc 7f34 27bc f9ee 21bc
000002d0: 2cd6 6a3c 4355 653c bbab 6b3c 9c29 6e3c
000002e0: 17fe a6bb 7c43 b4bb 31a0 9abb de06 98bb
000002f0: 96f4 54bb d488 58bb 3643 5fbb 4f2b 66bb
00000300: 285e 983b 5058 993b 5184 a13b e907 903b
00000310: f11e 093d a433 0a3d a5c5 0a3d 1d45 0a3d
00000320: 1702 ad3d fcd6 9d3f 1c6b 11be 0291 5c3d
00000330: b3ce ac3d 80a4 623f a72a 10be 90f0 403c
00000340: 37a4 ac3d 7ed3 2f3f dba1 2abe bfb8 5fb9
00000350: b880 ad3d e391 023f 955b 1cbe 2dd7 b23b
00000360: cac5 ac3d ccdf a43e 6122 0bbe 7e34 e33c
00000370: 821d ad3d faca 8e3e 748d d1bd b5ae 2a3c
00000380: 24e0 ac3d bd60 963e d336 f0bd 1c53 813c
00000390: 7e3f ad3d 9037 803e 0b15 12be a9d8 a6bd
000003a0: d276 ac3d 5da3 8a3e 1618 4bbe ee28 5f3d
000003b0: 0368 ac3d 61ff 903e aa05 8fbe a3c4 fcbc
000003c0: 0b81 ac3d b134 883e 07d4 aebe e965 bdbd
000003d0: 2571 c43c b31d dd3c 231c 49bd 7b7c 61bc
000003e0: 3160 cdbd 86d7 dbbd 875b 17be c8a6 04be
000003f0: e710 05bc 8fc7 0fbc e101 f0bc a865 9abc

fc1.bias f4 [200]
0.012797933 -0.38363427 0.031363312 -0.11763786 0.007598446 0.08030422 -0.22805108 0.026006337
-0.10364479 0.072229296 -0.007618285 -0.35116202 0.024383958 0.124394394 -0.019340822 -0.04165269
0.016224382 0.15581824 0.13388488 -0.5422526 0.0051415632 0.22878265 -0.11325538 -0.36791813
-0.120409265 0.35161868 0.044747613 -0.29363334 0.09374635 0.13598709 -0.018749723 0.094443165
0.05782345 -0.20305352 -0.29676735 0.13082486 0.025960768 0.32934988 -0.17194113 -0.38557526
-0.05457817 -0.3575365 0.16314636 -0.5248696 0.20881405 -0.36724043 0.21622594 0.3746862
0.36983156 0.19037303 0.105225034 -0.19048503 0.06447623 -0.1798382 0.21673924 -0.42541102
0.13429582 0.1265531 -0.47653127 0.04611719 0.08680504 0.1686247 0.21910034 0.08737585
0.20082293 0.27677447 -0.35862005 0.29708844 0.20198871 0.14041834 -0.45388877 0.05774226
-0.34891734 0.003772552 0.089026146 0.14253446 0.027375853 -0.34504756 -0.37664598 -0.39197645
0.27290297 -0.28709137 -0.4333368 0.1196401 0.11725338 0.16678403 -0.11732457 -0.512144
-0.09153352 -0.13187116 -0.009094062 -0.45577914 -0.45323926 -0.28484163 0.08669656 -0.062908426
-0.00061174744 0.14757949 -0.5258823 0.12921274 0.06431505 0.038130593 -0.37181818 0.06113706
-0.45177993 0.20813331 -0.46201664 0.1275104 0.11813135 0.08048705 0.17274992 -0.21565059
-0.26985437 0.006837242 0.11359769 -0.27827018 0.028860139 -0.31512246 -0.4988941 0.16853443
-0.39872813 0.112763695 -0.29641053 -0.4991029 -0.42013133 -0.3157524 -0.48299423 0.13676025
-0.18520443 0.00259021 0.21609701 -0.22424261 0.09639945 0.119810015 -0.41029146 -0.19759615
-0.5597806 -0.3881781 -0.54884166 -0.44076827 -0.26707944 -0.44724014 -0.5611071 -0.44697386
-0.2892801 0.11815893 -0.39651418 -0.23753469 0.017464971 -0.23221941 -0.16100971 -0.3554577
-0.30235198 -0.17871404 -0.3749388 -0.16022235 0.18875065 -0.117622204 -0.1675243 -0.34954825
-0.48308817 -0.08919436 -0.027121702 -0.16997954 -0.1762005 0.0044916198 -0.02248469 -0.0015015845
-0.27114573 0.062766 0.055655263 0.10572848 0.14787981 0.121725544 0.30320385 0.02523578
0.07449863 0.12884708 0.0061167045 0.06530549 0.09368935 0.18626471 -0.082652956 0.044242006
0.19422531 0.09238489 0.11269698 0.41229627 0.10357099 0.18289262 0.019226886 0.14381346
0.18244688 0.22362013 0.24538994 0.18266238 0.40681228 0.16855341 0.3260525 0.16765022
00000000: 6cae 513c b66b c4be d176 003d 1eec f0bd
00000010: 63fc f83b 8a76 a43d 3986 69be 3e0b d53c
00000020: b843 d4bd f4ec 933d cea2 f9bb 82cb b3be
00000030: dec0 c73c 7dc2 fe3d a570 9ebc 039c 2abd
00000040: ffe8 843c d18e 1f3e 1e19 093e 11d1 0abf
00000050: 8f7a a83b 0046 6a3e 70f2 e7bd c45f bcbe
00000060: 2299 f6bd 5d07 b43e 4649 373d 1c57 96be
00000070: 16fe bf3d 3340 0b3e 0599 99bc 6b6b c13d
00000080: 48d8 6c3d 43ed 4fbe e4f1 97be f4f6 053e
00000090: adab d43c 8ca0 a83e 5611 30be 1f6a c5be
000000a0: 5c8d 5fbd 060f b7be d70f 273e db5d 06bf
000000b0: 5ad3 553e f006 bcbe 556a 5d3e dfd6 bf3e
000000c0: 905a bd3e 26f1 423e 3980 d73d 820e 43be
000000d0: 1d0c 843d 8127 38be e4f0 5d3e 79cf d9be
000000e0: d884 093e 2397 013e e8fb f3be 61e5 3c3d
000000f0: d7c6 b13d f4ab 2c3e d75b 603e 1cf2 b23d
00000100: 87a4 4d3e 62b5 8d3e 0c9d b7be fa1b 983e
00000110: 21d6 4e3e d3c9 0f3e 1c64 e8be 2683 6c3d
00000120: 4ba5 b2be eb3c 773b 5753 b63d 8ef4 113e
00000130: 5343 e03c 13aa b0be bed7 c0be 23b1 c8be
00000140: f0b9 8b3e a4fd 92be 52de ddbe de05 f53d
00000150: 8a22 f03d 6fc9 2a3e dd47 f0bd df1b 03bf
00000160: ed75 bbbd 3c09 07be 43ff 14bc e25b e9be
00000170: fa0e e8be c3d6 91be f78d b13d 22d6 80bd
00000180: ad5d 20ba 141f 173e 39a0 06bf 5850 043e
00000190: 9cb7 833d d32e 1c3d f45e bebe db6a 7a3d
000001a0: b34f e7be e620 553e 728d ecbe 1692 023e
000001b0: d9ee f13d 65d6 a43d 5be5 303e 82d3 5cbe
000001c0: 5a2a 8abe f10a e03b e8a5 e83d 6e79 8ebe
000001d0: 196c ec3c bb57 a1be 0c6f ffbe 4a94 2c3e
000001e0: 1826 ccbe a7f0 e63d 1fc3 97be 6a8a ffbe
000001f0: 741b d7be 4caa a1be 054b f7be e10a 0c3e
00000200: 3ba6 3dbe 83c0 293b 8948 5d3e db9f 65be
00000210: 136d c53d f45e f53d b911 d2be a556 4abe
00000220: c84d 0fbf 48bf c6be e380 0cbf 61ac e1be
00000230: a3be 88be a9fc e4be b7a4 0fbf c2d9 e4be
00000240: 851c 94be 4ffd f13d e803 cbbe 4b3c 73be
00000250: b312 8f3c edca 6dbe bbdf 24be 8dfe b5be
00000260: e1cd 9abe d000 37be faf7 bfbe 5411 24be
00000270: da47 413e e9e3 f0bd 7d8b 2bbe fdf7 b2be
00000280: 5557 f7be 88ab b6bd 552e debc 1e0f 2ebe
00000290: e76d 34be 702e 933b d031 b8bc d1d0 c4ba
000002a0: 9dd3 8abe 768b 803d c6f6 633d 2c88 d83d
000002b0: ce6d 173e 3e4b f93d 893d 9b3e 44bb ce3c
000002c0: bd92 983d 7df0 033e a36e c83b e2be 853d
000002d0: 34e0 bf3d 2dbc 3e3e f445 a9bd 1b37 353d
000002e0: 00e3 463e 4a34 bd3d adcd e63d 7f18 d33e
000002f0: 071d d43d 3448 3b3e b481 9d3c d643 133e
00000300: 5bd3 3a3e adfc 643e 8047 7b3e d90b 3b3e
00000310: b349 d03e 4499 2c3e 5af0 a63e 80ac 2b3e

fc_out.weight f4 [334, 200]
-0.18121503 -0.12976801 -0.10250211 0.030433483 -0.09977273 -0.012311471 0.04303621 0.10757775
-0.28684846 -0.072646864 0.037139114 0.046712454 -0.12374349 -0.083239324 0.03764997 0.037230935
-0.12426106 -0.10827576 -0.09121004 0.034989376 -0.02590641 -0.13293941 0.030686622 0.04533964
-0.2869211 -0.15787701 0.10157284 0.025159715 -0.11699425 -0.24451317 -0.008230352 -0.034410242
-0.0070128003 -0.19482102 0.04493436 -0.04220587 -0.29806226 -0.34434664 0.021557868 0.04720754
-0.26456252 -0.24244368 0.09751471 0.04283486 -0.09900193 0.039639268 -0.07401459 0.0052781007
-0.19253424 -0.1062986 -0.13080971 -0.07206548 -0.11230533 -0.01313877 -0.14277267 0.036911853
-0.15552287 -0.13742334 0.031737346 -0.12965463 -0.012889918 -0.078143954 -0.11598153 -0.15465927
-0.048376195 -0.051341027 -0.05621151 -0.10550272 -0.083349586 0.034642447 0.035913866 -0.0026545697
0.043758012 -0.13137536 -0.06380189 -0.06178659 -0.168256 0.037063617 -0.0021116575 0.015397423
0.030899663 0.018774109 0.038091216 -0.027888186 -0.07684969 -0.053729825 0.018688215 0.033753496
-0.18275803 0.026254695 -0.04851048 0.037854686 0.04456903 -0.004228276 -0.094241396 -0.12531878
-0.044016667 -0.08103026 0.03948776 -0.07694256 -0.13065167 -0.03806087 -0.010117319 -0.05854754
0.045589138 0.064720415 0.037370823 -0.12292048 -0.09993781 -0.07541597 0.14123563 0.05552506
0.038710274 -0.26259223 -0.012266901 0.027012656 -0.1721239 0.035406586 0.038813 -0.0045149866
0.031800292 0.12621213 -0.13082151 0.03415244 0.027369088 0.035332575 0.022839101 0.09585898
0.03206784 -0.01744811 -0.015395277 -0.013825638 0.12954913 -0.1106801 0.020625293 -0.20424253
0.019927992 -0.14370258 0.019789819 0.020574601 0.0010768638 0.02133048 0.047517527 -0.22878772
-0.34848672 0.124795265 0.0045507355 -0.010442659 -0.39050335 0.026595652 -0.018481737 0.041729998
0.008713648 0.03312419 0.016784243 -0.4462055 -0.09075455 0.023594078 -0.27890262 0.022417799
0.044085495 0.016983593 0.02821682 0.020321684 0.011771273 -0.31675145 -0.033431005 -0.22979604
0.0006753161 -0.46593207 -0.3190378 -0.07358512 -0.015246426 -0.24539801 -0.29531568 -0.16594622
-0.18134472 -0.2865915 0.00674873 -0.26259392 0.009072771 -0.33647949 -0.03469849 0.045256138
-0.31369323 0.028491544 -0.48904684 -0.111750685 0.027244583 0.038151454 -0.35117257 -0.40080845
0.014850969 -0.026246674 -0.51202357 -0.5243881 0.03873327 -0.57422656 -0.08784578 -0.4834882
-0.19767004 -0.015178317 0.24042116 0.036649276 -0.080991045 -0.3380695 0.07544281 0.1366489
-0.18737146 -0.26903686 0.00995275 0.030602453 -0.118337005 -0.16033812 -0.12710106 0.042849667
-0.12252783 -0.1424369 -0.2486047 0.039933696 -0.021700472 -0.0803837 -0.12905116 0.055401746
-0.26908243 -0.09675879 -0.37073737 0.02456635 -0.12377172 -0.07432593 -0.42755634 -0.30975974
0.008367317 -0.044474874 -0.3144826 -0.027706685 -0.3021666 -0.13184941 -0.42533582 0.0486333
-0.13160098 0.0070513245 -0.4533559 0.037558466 -0.07933464 0.04096456 -0.07101301 -0.024694163
-0.09937171 -0.11752744 -0.043326143 -0.18432115 -0.13187487 -0.014157201 -0.14520402 0.039792612
00000000: 6f90 39be e8e1 04be a0ec d1bd a44f f93c
00000010: a555 ccbd 0db6 49bc bd46 303d b951 dc3d
00000020: cddd 92be e1c7 94bd 2f1f 183d 8f55 3f3d
00000030: 3a6d fdbd 6179 aabd db36 1a3d 777f 183d
00000040: 957c febd afbf ddbd 54cc babd 0551 0f3d
00000050: ae39 d4bc 4521 08be 8362 fb3c 0fb6 393d
00000060: 53e7 92be 83aa 21be 6c05 d03d bf1b ce3c
00000070: ae9a efbd a961 7abe 99d8 06bc c1f1 0cbd
00000080: a2cb e5bb 297f 47be 170d 383d 10e0 2cbd
00000090: 9e9b 98be 344e b0be 209a b03c b25c 413d
000000a0: bd74 87be 2843 78be cbb5 c73d 9b73 2f3d
000000b0: 86c1 cabd c95c 223d f694 97bd ebf3 ac3b
000000c0: b227 45be 15b3 d9bd fbf2 05be 1197 93bd
000000d0: 5600 e6bd ff43 57bc 0033 12be e230 173d
000000e0: 6341 1fbe b4b8 0cbe 05ff 013d 2fc4 04be
000000f0: 3c30 53bc f009 a0bd b987 edbd 005f 1ebe
00000100: 1e26 46bd f84a 52bd 0a3e 66bd cf11 d8bd
00000110: 30b3 aabd 3de5 0d3d 6b1a 133d 4af8 2dbb
00000120: 9a3b 333d 4387 06be 91aa 82bd ef13 7dbd
00000130: 4d4b 2cbe 05d0 173d bc63 0abb 7945 7c3c
00000140: 4a21 fd3c 29cc 993c 8905 1c3d c475 e4bc
00000150: 5f63 9dbd ce13 5cbd 0718 993c 1b41 0a3d
00000160: ec24 3bbe 1614 d73c edb2 46bd 840d 1b3d
00000170: 048e 363d 5a8d 8abb a201 c1bd 9153 00be
00000180: d24a 34bd 31f3 a5bd ebbd 213d 1094 9dbd
00000190: 8dc9 05be b7e5 1bbd 1dc3 25bc 8ccf 6fbd
000001a0: adbb 3a3d 238c 843d 2612 193d bcbd fbbd
000001b0: 32ac ccbd b073 9abd 13a0 103e 3f6e 633d
000001c0: aa8e 1e3d 7d72 86be 1dfb 48bc a549 dd3c
000001d0: 3f41 30be 7f06 113d 61fa 1e3d 74f2 93bb
000001e0: 0641 023d c13d 013e 13f6 05be 6ee3 0b3d
000001f0: 2335 e03c e4b8 103d 1119 bb3c b751 c43d
00000200: 9159 033d 57ef 8ebc 793c 7cbc ee84 62bc
00000210: 87a8 043e 40ac e2bd 60f6 a83c f424 51be
00000220: 0740 a33c c526 13be 421e a23c 118c a83c
00000230: 8e25 8d3a 42bd ae3c bda1 423d 5447 6abe
00000240: da6c b2be a994 ff3d 561e 953b b017 2bbc
00000250: 0ef0 c7be 20df d93c 0367 97bc 13ed 2a3d
00000260: b0c3 0e3c 3bad 073d 1c7f 893c 0c75 e4be
00000270: 86dd b9bd 5e48 c13c 53cc 8ebe 88a5 b73c
00000280: fe92 343d 2d21 8b3c f626 e73c a979 a63c
00000290: 4cdc 403c 3f2d a2be f3ee 08bd a74f 6bbe
000002a0: b207 313a a68e eebe ec58 a3be ccb3 96bd
000002b0: 25cc 79bc 9e49 7bbe 9e33 97be ceed 29be
000002c0: 6eb2 39be 1fbc 92be 7324 dd3b b672 86be
000002d0: f6a5 143c 0a47 acbe 0120 0ebd 805e 393d
000002e0: 669c a0be 1967 e93c 5964 fabe 8bdd e4bd
000002f0: 0830 df3c b344 1c3d e4cc b3be c436 cdbe
00000300: 7b51 733c 4403 d7bc fa13 03bf 4c3e 06bf
00000310: c7a6 1e3d 8300 13bf 7de8 b3bd c48b f7be
00000320: 046a 4abe 7aae 78bc f730 763e 8d1d 163d
00000330: a2de a5bd 7217 adbe c381 9a3d b0ed 0b3e
00000340: 4ede 3fbe 33bf 89be dc10 233c ffb1 fa3c
00000350: ac5a f2bd ad2f 24be c826 02be 2283 2f3d
00000360: dfef fabd fbda 11be 3b92 7ebe 8491 233d
00000370: 30c5 b1bc 36a0 a4bd fd25 04be f1ec 623d
00000380: 2cc5 89be 7929 c6bd 4ad1 bdbe 5f3f c93c
00000390: 077c fdbd 3138 98bd aae8 dabe d498 9ebe
000003a0: 1217 093c 492b 36bd dd03 a1be 21f9 e2bc
000003b0: 95b5 9abe 8803 07be 9ec5 d9be b633 473d
000003c0: 68c2 06be cc0e e73b 441e e8be e8d6 193d
000003d0: 337a a2bd 74ca 273d 456f 91bd 6a4b cabc
000003e0: 6583 cbbd 3ab2 f0bd c176 31bd afbe 3cbe
000003f0: 350a 07be 9bf3 67bc 5db0 14be 94fd 223d

fc_out.bias f4 [334]
-0.10395174 -0.03790472 0.018168049 -0.023019236 -0.072065935 -0.010055055 -0.082857676 -0.19277842
-0.0931504 -0.046493407 0.04716332 0.0061182976 0.054536857 0.03568334 -0.013340408 0.05566
-0.18218337 -0.22048976 -0.0087688 0.07213793 -0.011220369 -0.08181277 -0.2805066 -0.12716547
0.016757961 -0.08966877 -0.022292692 0.04113835 0.08463745 -0.12485619 -0.024779927 0.023575075
0.025292963 -0.005385984 -0.041884687 0.010200847 -0.039184883 0.03896547 -0.004269012 0.095661975
0.16494049 0.0807772 -0.01124742 0.069272235 0.03199689 0.057619344 0.083516166 0.08866166
0.06374617 -0.20667718 -0.12667541 -0.19466151 -0.09691881 -0.07511705 -0.018474055 -0.009896226
0.09063322 -0.030823732 -0.01613729 -0.12896334 0.044735715 0.028863886 0.07080731 0.020998351
0.05122827 -0.003881172 0.08358379 0.0038939063 0.06571401 -0.038355015 0.07563464 0.051326733
0.104830444 -0.028450172 0.060140442 -0.01775358 -0.10189122 -0.08293024 0.035205353 -0.092340305
0.034907416 -0.03843655 0.06893415 -0.1161207 -0.09126247 0.041320603 0.036148056 0.030641865
0.039526872 0.093898855 0.034553748 0.057943933 0.04678338 0.12162165 -0.014185044 -0.0435196
-0.07826691 -0.19579874 -0.13482848 -0.045310423 0.14125058 -0.05788146 0.122909345 -0.10048949
-0.17162795 0.05103515 0.089929834 0.12248682 -0.12699471 -0.085194044 0.22908905 0.103314064
-0.09736728 -0.009994444 -0.029920913 0.0060723503 -0.08452556 -0.042321738 0.17263646 0.09451301
-0.061448038 0.026726393 0.08393856 0.09792903 -0.050986867 0.03491916 0.021261424 0.083256476
-0.08744765 -0.04418579 0.13814986 0.17678407 -0.007051711 -0.027564388 0.12958288 0.18027098
-0.02639181 -0.029091468 0.05704038 0.04962035 -0.02518278 0.06909259 0.043434054 0.13402417
-0.030076753 -0.0048042745 0.06383346 -0.066343956 -0.008639952 -0.0054868804 -0.0675452 -0.018720014
0.024157526 -0.105541475 0.09510386 -0.15167598 -0.055382296 -0.0100752525 0.04284492 0.06878764
-0.08546498 0.037567504 -0.16630712 -0.027519502 -0.12522173 -0.090571 -0.0073874434 0.03903804
-0.042106733 0.11408052 0.10635547 0.18621017 0.19264585 0.033566054 0.25146854 0.057798404
0.17835599 0.0546612 0.09646516 0.08905075 0.18187116 0.022370992 -0.06446821 -0.068850406
-0.10220259 -0.02248996 -0.07262057 0.03656416 -0.065494046 -0.13819481 -0.087359175 -0.11586556
-0.08512902 0.073755085 -0.05789232 -0.028757287 -0.07769035 -0.023086393 0.06569569 -0.04700695
0.019932162 0.007947861 0.06440956 0.0038975556 -0.074472055 0.080177926 0.030309293 0.015333128
0.19035318 0.16173218 -0.12353513 -0.10019437 -0.19098088 0.13132001 -0.15921427 -0.051792152
-0.13390188 -0.052901763 -0.07593094 -0.08982062 0.033832263 -0.034969732 0.12811138 0.0846545
0.23355767 0.10759297 -0.081604935 -0.21973838 0.04568522 0.0089369705 0.031467576 0.07339449
0.10581638 0.00023069062 -0.0063489936 0.031557035 -0.07214856 0.021905366 0.014598649 0.09295245
0.08703361 -0.14040743 -0.0689611 -0.016137121 0.021840617 -0.105554074 0.025760513 0.120626435
0.1799821 0.070863344 0.07818599 0.18123305 0.08570131 0.12240165 0.122589804 0.14139019
00000000: a6e4 d4bd fb41 1bbd 29d5 943c d692 bcbc
00000010: 4e97 93bd f5bd 24bc 49b1 a9bd b567 45be
00000020: a3c5 bebd df6f 3ebd 532e 413d 007c c83b
00000030: 0a62 5f3d b228 123d ba91 5abc bdfb 633d
00000040: 478e 3abe 11c8 61be 03ab 0fbc 0dbd 933d
00000050: a3d5 37bc 748d a7bd 909e 8fbe aa37 02be
00000060: fe47 893c 43a4 b7bd 2a9f b6bc b080 283d
00000070: 6656 ad3d 9ab4 ffbd 46ff cabc 8420 c13c
00000080: 3033 cf3c e97c b0bb 478f 2bbd 7421 273c
00000090: 5480 20bd 429a 1f3d 11e3 8bbb 6dea c33d
000000a0: 29e6 283e 846e a53d 1947 38bc 9ade 8d3d
000000b0: 2c0f 033d 4302 6c3d 860a ab3d 3f94 b53d
000000c0: 5a8d 823d 2fa3 53be 33b7 01be 5955 47be
000000d0: 5e7d c6bd f8d6 99bd e756 97bc c823 22bc
000000e0: e99d b93d 0d82 fcbc 5a32 84bc f70e 04be
000000f0: cc3c 373d f573 ec3c 6c03 913d bc04 ac3c
00000100: bcd4 513d 435b 7ebb fa2d ab3d e830 7f3b
00000110: 1195 863d 261a 1dbd 56e6 9a3d fb3b 523d
00000120: 58b1 d63d 5610 e9bc d355 763d f56f 91bc
00000130: 58ac d0bd 54d7 a9bd 7d33 103d ea1c bdbd
00000140: 14fb 0e3d a56f 1dbd 592d 8d3d b1d0 edbd
00000150: d1e7 babd cb3f 293d fc0f 143d a604 fb3c
00000160: eee6 213d 0b4e c03d 3b88 0d3d 9e56 6d3d
00000170: ee9f 3f3d c614 f93d 6368 68bc 9c41 32bd
00000180: 674a a0bd 777f 48be 7a10 0abe 6c97 39bd
00000190: fea3 103e 1c15 6dbd e5b7 fb3d 6fcd cdbd
000001a0: 3dbf 2fbe 3c0a 513d 222d b83d 5fda fa3d
000001b0: e70a 02be 377a aebd 5296 6a3e 5396 d33d
000001c0: 7f68 c7bd bdbf 23bc b41c f5bc 91fa c63b
000001d0: bd1b adbd 8f59 2dbd 9dc7 303e 0990 c13d
000001e0: f0b0 7bbd 4ff1 da3c fbe7 ab3d 048f c83d
000001f0: 9bd7 50bd 6507 0f3d 702c ae3c 5f82 aa3d
00000200: c117 b3bd 29fc 34bd 2877 0d3e e206 353e
00000210: 0a12 e7bb b6ce e1bc 60b1 043e f598 383e
00000220: a333 d8bc 3b51 eebc 2ca3 693d b53e 4b3d
00000230: 1e4c cebc 6a80 8d3d e8e7 313d a23d 093e
00000240: 8663 f6bc 2d6d 9dbb 1ebb 823d 57df 87bd
00000250: 968e 0dbc 4acb b3bb 2355 8abd b75a 99bc
00000260: 01e6 c53c 2126 d8bd d0c5 c23d f350 1bbe
00000270: 8cd8 62bd ac12 25bc 287e 2f3d 89e0 8c3d
00000280: 4308 afbd 62e0 193d 6a4c 2abe 9470 e1bc
00000290: 203a 00be 4a7d b9bd 5e12 f2bb 5ae6 1f3d
000002a0: 1c78 2cbd 0ca3 e93d e6d0 d93d e1ad 3e3e
000002b0: f444 453e 8f7c 093d 7cc0 803e 05be 6c3d
000002c0: f4a2 363e 6ce4 5f3d 878f c53d 3d60 b63d
000002d0: 6f3c 3a3e 5f43 b73c e907 84bd 7101 8dbd
000002e0: 974f d1bd dd3c b8bc 18ba 94bd 4dc4 153d
000002f0: be21 86bd f182 0dbe 5ee9 b2bd ec4a edbd
00000300: 2058 aebd e80c 973d 7f20 6dbd 6794 ebbc
00000310: 1e1c 9fbd ad1f bdbc 768b 863d 5c8a 40bd
00000320: c648 a33c bf37 023c 29e9 833d 226e 7f3b
00000330: ce84 98bd 5334 a43d 324b f83c cd37 7b3c
00000340: f2eb 423e 1f9d 253e fcff fcbd b532 cdbd
00000350: 7e90 43be c178 063e 1109 23be 0224 54bd
00000360: 931d 09be 85af 58bd ae81 9bbd e0f3 b7bd
00000370: b393 0a3d 6c3c 0fbd a12f 033e 575f ad3d
00000380: be29 6f3e b459 dc3d 7d20 a7bd 1903 61be
00000390: 6d20 3b3d 5f6c 123c 25e4 003d da4f 963d
000003a0: 42b6 d83d 8be5 7139 380b d0bb f341 013d
000003b0: a0c2 93bd e272 b33c 2c2f 6f3c db5d be3d
000003c0: ad3e b23d f7c6 0fbe 7a3b 8dbd ff31 84bc
000003d0: 18eb b23c bc2c d8bd b607 d33c fe0a f73d
000003e0: 3a4d 383e cd20 913d fa1f a03d 2895 393e
000003f0: 2b84 af3d b7ad fa3d 5d10 fb3d 97c8 103e
