mlp/model_pt/mlp_full_1_fold_CV_800.pt (torch, 445881 bytes, 4 tensors)

fc1.weight f4 [200, 200]
0	0x3ed84593	0.4224058
1	0x3e079d59	0.13243617
2	0x3c915d38	0.017744645
3	0xbe9b7456	-0.30362195
4	0x3ed8f403	0.42373666
5	0x3dc28513	0.09498038
6	0x3cf67504	0.030085094
7	0xbe0d7586	-0.13814363
8	0x3ed80fd2	0.4219957
9	0x3d6045ca	0.054754056
10	0x3c35af6d	0.011089188
11	0xbd790f39	-0.060805533
12	0x3ed8bdf4	0.42332423
13	0x3cf9ae54	0.030478634
14	0x3cefdbe1	0.029279651
15	0xbd693d80	-0.056943417
16	0x3ed8e86b	0.4236482
17	0x3d0595e2	0.032613643
18	0x3b9433e0	0.0045227855
19	0x3d3dec37	0.04636785
20	0x3edad871	0.42743257
21	0x3d1c029d	0.03808843
22	0x3b8f6064	0.0043755043
23	0x3cbbc750	0.022922188
24	0x3eda033d	0.42580596
25	0x3c245464	0.010029886
26	0x3b66b6ad	0.0035204098
27	0x3d2ef9cc	0.042718694
28	0x3eda98af	0.42694613
29	0xbc5ac60c	-0.013352882
30	0x3c25e31b	0.010124947
31	0x3dd65d91	0.10467065
32	0x3ed95a87	0.4245188
33	0xbd3a4049	-0.045471463
34	0x3c28cd7d	0.0103028985
35	0x3e071d5f	0.13194798
36	0x3ed83f3c	0.42235744
37	0xbde8160b	-0.11332329
38	0x3bf19937	0.007373001
39	0x3dc2eb05	0.09517483
40	0x3ed92a7a	0.4241522
41	0xbe07d7a3	-0.13265853
42	0xbd0ba641	-0.0340941
43	0x3d4371b2	0.04771585
44	0x3ea1d7d7	0.31609985
45	0xbe24415f	-0.16040562
46	0xbb94f2e6	-0.0045455573
47	0x3c3c14d6	0.011479577
48	0x3e0a730a	0.13520446
49	0x3b690967	0.0035558583
50	0x3d0730e9	0.03300563
51	0x3d1a708f	0.037705
52	0x3be34307	0.0069354805
53	0xbcf5e868	-0.030018046
54	0xbcc39c60	-0.023878276
55	0xbcab1e19	-0.020888375
56	0xbbff56b4	-0.0077923182
57	0xbd15bc43	-0.036556493
58	0xbcd3fe47	-0.025878085
59	0xbce9c9e0	-0.028538644
60	0xbdc04817	-0.0938875
61	0xbdecd4f7	-0.11564057
62	0xbde0a661	-0.10969234
63	0xbdd753a0	-0.10513997
64	0xbd58f3a6	-0.052966736
65	0xbd91fd11	-0.07128347
66	0xbd862f38	-0.06551975
67	0xbd8255a1	-0.06363989
68	0xbd366b5e	-0.044535987
69	0xbd86f014	-0.0658876
70	0xbd840e71	-0.06448067
71	0xbd6fafc9	-0.05851725
72	0xbd375ba9	-0.04476515
73	0xbd85240b	-0.06501015
74	0xbd7070a6	-0.05870118
75	0xbd7c7360	-0.061633468
76	0xbd2b3748	-0.041800767
77	0xbd834cb5	-0.06411115
78	0xbd75a75f	-0.05997407
79	0xbd5d2b99	-0.053996656
80	0xbcc7befe	-0.024383064
81	0xbd22a08d	-0.039703894
82	0xbd2270e1	-0.03965843
83	0xbd0fb7dc	-0.03508745
84	0x3ce1c7c9	0.027561085
85	0x3c095491	0.008381979
86	0x3c652c49	0.013987609
87	0x3c81cbad	0.01584419
88	0xbc084680	-0.00831759
89	0xbc8f18c5	-0.017467866
90	0xbc27f9f5	-0.0102524655
91	0xbc378756	-0.0112017
92	0xbb394a39	-0.0028273
93	0xbc0c15ce	-0.0085501205
94	0xbc005256	-0.00783213
95	0xbb74d9ad	-0.003736119
96	0xbd050be8	-0.032482058
97	0xbd20b261	-0.039232615
98	0xbcf44bcb	-0.029821297
99	0xbd0e0a5b	-0.034677844
100	0xbdb9e401	-0.090766914
101	0xbdbe5248	-0.09293038
102	0xbdbadf67	-0.09124642
103	0xbdbafa91	-0.09129823
104	0xbde1ea3f	-0.11031007
105	0xbdf4f25e	-0.1196029
106	0xbdf2ba97	-0.118519954
107	0xbdeb9981	-0.11503888
108	0xbdea68a9	-0.114457436
109	0xbdfaea55	-0.122517265
110	0xbdf42ad5	-0.11922232
111	0xbdefd0c3	-0.1170974
112	0xbe0d7a1d	-0.13816114
113	0xbe0f9ccf	-0.14024661
114	0xbe0f1263	-0.13971858
115	0xbe0ab33c	-0.13544935
116	0xbe4072f7	-0.18793856
117	0xbe468b34	-0.1938904
118	0xbe4827ef	-0.19546483
119	0xbe435e60	-0.1907897
120	0xbe0d3075	-0.13788016
121	0xbe14716f	-0.14496396
122	0xbe113929	-0.14181961
123	0xbe135714	-0.14388686
124	0xbda1571b	-0.07877942
125	0xbda08667	-0.07838135
126	0xbda121f0	-0.07867801
127	0xbd991a36	-0.074757025
128	0x3c019880	0.007909894
129	0x3c1783a3	0.009247693
130	0x3c59cbc7	0.013293213
131	0x3c333069	0.010936835
132	0xbcaabeaa	-0.020842869
133	0xbcd7aaae	-0.026326504
134	0xbce00be0	-0.027349412
135	0xbcf37db0	-0.029723018
136	0x3b15dfcf	0.0022868996
137	0x3a1ca6dd	0.00059757923
138	0xbb3daea8	-0.0028943215
139	0xbb93e016	-0.004512797
140	0xbc5ce759	-0.013482892
141	0xbc7a72f9	-0.015286201
142	0xbc3f5191	-0.011677162
143	0xbc93734e	-0.017999317
144	0xbc26a540	-0.010171235
145	0xbc6a6b79	-0.01430785
146	0xbc34f969	-0.011045792
147	0xbc0f777a	-0.008756513
148	0xbcb99774	-0.022655226
149	0xbcb8c748	-0.022555962
150	0xbcaeca2c	-0.021336637
151	0xbc966f94	-0.018363751
152	0x3bbd36af	0.005774341
153	0x3bfbb4fa	0.007681486
154	0x3c11c153	0.00889619
155	0x3be8f1dc	0.00710891
156	0x3c2aff3d	0.01043683
157	0x3c027c87	0.00796426
158	0x3c0eec69	0.008723357
159	0x3b9e57ba	0.004832235
160	0xbc32ae22	-0.010905774
161	0xbc208743	-0.009797874
162	0xbc44a71b	-0.012002732
163	0xbc10cd45	-0.008838003
164	0xbcc55802	-0.024089817
165	0xbce3cccb	-0.027807614
166	0xbcc35062	-0.02384204
167	0xbcebd9ef	-0.028790442
168	0xbb928002	-0.004470826
169	0xbc1063ac	-0.008812826
170	0xbaf52466	-0.0018702864
171	0xbafeec2a	-0.0019449044
172	0x3b6bb91d	0.003596849
173	0x390e9277	0.00013596738
174	0xba720cf4	-0.00092334975
175	0xba856b4d	-0.0010179073
176	0xbc511a32	-0.012762593
177	0xbc69a649	-0.014260837
178	0xbc794a71	-0.015215502
179	0xbc6e341c	-0.014538791
180	0x3b0d2493	0.0021536693
181	0x3b378eaa	0.0028008618
182	0x3be7fd24	0.0070797373
183	0x3bc0eb2f	0.005887411
184	0x3a8591a8	0.0010190504
185	0x3a3f1fbc	0.00072908006
186	0x3a9744ba	0.0011540868
187	0x3b22fc34	0.0024869563
188	0xbd147f3a	-0.036254145
189	0xbd28a7a7	-0.04117551
190	0xbd23ba0e	-0.039972357
191	0xbd224ae5	-0.039622206
192	0xbce2f895	-0.027706424
193	0xbce61657	-0.028086824
194	0xbcd3a7dd	-0.02583688
195	0xbcf3a068	-0.029739574
196	0x3b1dfff3	0.0024108856
197	0x3b3f836d	0.0029222623
198	0xba9562b9	-0.001139722
199	0xbb3746bf	-0.0027965752
200	0xbd903642	-0.07041599
201	0x3f889eec	1.0673499
202	0xbddb64f9	-0.107126184
203	0x3db3de2d	0.08782611
204	0xbd95851f	-0.073007815
205	0x3f580866	0.84387815
206	0xbddda018	-0.10821551
207	0x3e26b2a2	0.1627908
208	0xbd949d19	-0.072565265
209	0x3f3a96f4	0.72886586
210	0xbda98dcd	-0.082789995
211	0xbd19c93f	-0.03754544
212	0xbd9a768f	-0.075421445
213	0x3f208d04	0.6271517
214	0xbd5d792c	-0.054070637
215	0xbc054116	-0.0081331935
216	0xbd9af6b2	-0.07566585
217	0x3ef99fbc	0.4875468
218	0xbccdda67	-0.025128556
219	0x3d31bee4	0.043394938
220	0xbd940907	-0.07228284
221	0x3ec7f3f5	0.39053312
222	0xbd25feaa	-0.04052607
223	0x3d71dda9	0.059049282
224	0xbd9cef30	-0.07662809
225	0x3e9dbbac	0.30807245
226	0xbdb396cb	-0.08768996
227	0xbd7eef9e	-0.062240236
228	0xbd9eeb27	-0.077596955
229	0x3e925820	0.2858286
230	0xbde1c152	-0.11023201
231	0xbdcbf293	-0.09958377
232	0xbd9dba9b	-0.07701608
233	0x3e9d3252	0.30702454
234	0xbe0a6a46	-0.13517103
235	0xbd4555c9	-0.048177514
236	0xbd98ef96	-0.074675724
237	0x3e91b3dd	0.28457537
238	0xbe2cad9a	-0.16863099
239	0xbd288dab	-0.04115073
240	0xbd981f05	-0.074277915
241	0x3e9b70cf	0.30359504
242	0xbe643259	-0.22284831
243	0xbd003426	-0.031299733
244	0xbc9c9a71	-0.019116612
245	0x3a041156	0.00050379836
246	0xbcbb2067	-0.0228426
247	0xbc2619bc	-0.0101379715
248	0xbc050f64	-0.008121345
249	0x3b95b231	0.004568361
250	0xbbdb3095	-0.006689141
251	0xbaa00c87	-0.0012210765
252	0x3b302265	0.002687597
253	0x3c5351ee	0.0128979515
254	0x39e8af5f	0.0004438115
255	0x3c0f3e72	0.0087429155

fc1.bias f4 [200]
0	0x3cb47886	0.022030126
1	0x3e16cec0	0.14727306
2	0xbe8c7d19	-0.27439192
3	0xbe9a5b35	-0.3014771
4	0x3da5d998	0.08098143
5	0x3cd1cf03	0.025611406
6	0x3e3630d1	0.1779206
7	0xbee16649	-0.4402335
8	0x3d03fe27	0.0322248
9	0x3df211a8	0.11819774
10	0x3dc220e8	0.094789326
11	0xbcf16ddb	-0.029471328
12	0xbc4b5048	-0.012409277
13	0x3e879442	0.264803
14	0xbe4ee41a	-0.20204201
15	0xbe25a39c	-0.16175693
16	0x3c580a6f	0.013186081
17	0x3e3913f2	0.18074015
18	0xbe2bc7ea	-0.1677548
19	0xbe823258	-0.25429034
20	0xbd49361a	-0.04912386
21	0x3e31aa12	0.17350033
22	0x3e24779d	0.16061254
23	0xbf09c68f	-0.538186
24	0x3d4c8f30	0.04994124
25	0x3e2b0c7b	0.1670398
26	0xbea0475f	-0.31304452
27	0xbf175b10	-0.59123325
28	0x3d598362	0.053103812
29	0x3e51911c	0.20465511
30	0x3e0ff735	0.14059146
31	0xbf2b39e7	-0.66885227
32	0xbd32c837	-0.04364797
33	0x3d8d025f	0.06885218
34	0xbe77adf6	-0.24187455
35	0xbf32d5a3	-0.69857234
36	0x3b66d2ae	0.003522079
37	0x3eabcac5	0.33553138
38	0x3e2fca56	0.17167029
39	0xbf13dd00	-0.57759094
40	0x3d283c57	0.04107317
41	0x3e347fd8	0.17626894
42	0x3c6e38b5	0.014539887
43	0xbf12a0d4	-0.57276654
44	0x3ea1e642	0.31620985
45	0x3d3489b7	0.044076648
46	0x3e59a603	0.21254735
47	0x3de91f75	0.11382953
48	0x3debdfcc	0.11517295
49	0x3def38fd	0.116807915
50	0x3e199649	0.14998735
51	0x3e536521	0.20644046
52	0x3e05602a	0.13024965
53	0xbf17dafa	-0.59318507
54	0x3c932673	0.01796267
55	0x3df16986	0.11787705
56	0x3db27e56	0.08715503
57	0x3df43961	0.11925007
58	0xbebdbc26	-0.37057608
59	0xb9868dd6	-0.00025664148
60	0x3ccf7a12	0.025326762
61	0x3e347764	0.17623669
62	0xbd436dc5	-0.047712106
63	0xbf7234a1	-0.94611555
64	0x3e186276	0.1488131
65	0xbddd127f	-0.107945435
66	0xbd9454ef	-0.07242762
67	0x3e2ec944	0.17068964
68	0xbddd9cd5	-0.10820929
69	0x3dac82aa	0.0842336
70	0xbf2ac0e4	-0.6670058
71	0x3ddbc336	0.10730593
72	0x3da0326f	0.078221194
73	0x3dc63476	0.09677975
74	0x3d57e635	0.052709777
75	0x3dfb472e	0.12269436
76	0xbf25d779	-0.6478191
77	0x3d83bac8	0.0643211
78	0x3e19aba9	0.1500689
79	0x3e026daf	0.12737153
80	0x3db5662d	0.08857379
81	0xbf329b17	-0.697679
82	0x3dfdbb33	0.12389221
83	0x3d693c68	0.056942374
84	0x3d9712ae	0.0737661
85	0x3d00dd95	0.031461317
86	0xbc236061	-0.009971709
87	0xbf0d6ad6	-0.55241144
88	0x3e82df8b	0.25561175
89	0xbf1ee43f	-0.62067026
90	0x3d8fcbaa	0.07021268
91	0xbe167d8b	-0.14696328
92	0x3dd7ded2	0.105405465
93	0x3c93508a	0.01798274
94	0xbe2f92a2	-0.1714578
95	0xbf0684a3	-0.5254614
96	0xbe485657	-0.19564186
97	0x3de1fb2e	0.11034237
98	0x3e163450	0.14668393
99	0x3e86be7c	0.26317203
100	0xbde4ef8c	-0.111785024
101	0x3e02fd0e	0.12791845
102	0xbe3e1fe4	-0.18566853
103	0xbea18633	-0.31547698
104	0xbf21fbcc	-0.63274837
105	0x3d91eddf	0.071254484
106	0xbf2ba805	-0.6705325
107	0xbf4a15a1	-0.78939253
108	0xbd4fc50b	-0.050725024
109	0x3db2c3a5	0.087287225
110	0x3deca73e	0.115553364
111	0xbf2490bc	-0.6428335
112	0x3da43437	0.08017772
113	0xbeb076e5	-0.3446571
114	0xbf079c9e	-0.52973354
115	0xbf532985	-0.8248523
116	0xbed6b893	-0.41937694
117	0xbe04a2a4	-0.12952667
118	0xbe3bd4a2	-0.18342832
119	0xbebe9ac9	-0.37227467
120	0xbf389d5d	-0.7211512
121	0xbf0c92fa	-0.5491177
122	0x3d941b26	0.07231741
123	0x3dca029d	0.0986378
124	0xbecbcfa9	-0.3980687
125	0xbe8ce8c0	-0.27521324
126	0xbf073ca6	-0.5282692
127	0x3d41ac07	0.0472832
128	0xbdfda034	-0.12384072
129	0xbe175c85	-0.14781387
130	0xbf1c3c60	-0.61029625
131	0xbef97717	-0.4872367
132	0xbcf8a100	-0.030350208
133	0x3d5691d6	0.052385174
134	0xbe09aa88	-0.13443959
135	0xbf199546	-0.599934
136	0x3bd9abdb	0.006642801
137	0xbef83a1b	-0.4848183
138	0xbf2a424b	-0.66507405
139	0xbf00592a	-0.50136054
140	0xb76123dc	-1.3419394e-05
141	0xbf4a34e4	-0.78986955
142	0xbf111d49	-0.5668531
143	0xbe94de2c	-0.29075754
144	0xbef65314	-0.4811026
145	0xbef35379	-0.47524622
146	0xbe9718d9	-0.29511145
147	0xbf11102d	-0.5666531
148	0xbea67f5a	-0.32519037
149	0xbd5c1b41	-0.05373693
150	0xbe903a41	-0.28169444
151	0xbeebd91b	-0.46064076
152	0xbea645b3	-0.3247505
153	0xbee70e87	-0.4512827
154	0xbf2ee754	-0.6832173
155	0xbe751990	-0.23935533
156	0xbe971771	-0.29510072
157	0xbc6db1ec	-0.014507752
158	0x3c89d2b0	0.016824096
159	0x3bb8e86c	0.005642941
160	0xbd9cdcf8	-0.07659334
161	0x3d859ea8	0.06524402
162	0xbd6c598a	-0.05770258
163	0xbb645821	-0.0034842568
164	0xbe8fcc16	-0.28085393
165	0xbe239fed	-0.15978976
166	0xbbb39ba7	-0.0054812017
167	0x3db01975	0.085986055
168	0xbc87ba6f	-0.01656839
169	0xbdf20ffa	-0.118194535
170	0x3d9dea96	0.07710759
171	0x3dced1a8	0.100985825
172	0x3dfc1a54	0.12309709
173	0x3e357b07	0.17722712
174	0xbdaf5aec	-0.08562264
175	0x3dcc8527	0.09986334
176	0x3d0c6af0	0.03428167
177	0x3dea9279	0.11453719
178	0x3dfc534e	0.123205766
179	0x3c0f15cc	0.008733224
180	0x3e672cd7	0.22575699
181	0x3e379a53	0.17929964
182	0x3e6e12d7	0.23249374
183	0x3df1dd32	0.11809768
184	0x3e91ee49	0.2850211
185	0x3e13371b	0.1437649
186	0x3e6ba153	0.23010759
187	0x3e12f31e	0.14350554
188	0x3ddb1c7d	0.10698793
189	0x3e2006f1	0.15627648
190	0x3e168eb8	0.1470288
191	0x3e71e783	0.23623471
192	0x3ea234ce	0.31680912
193	0x3dac68a5	0.08418397
194	0x3dd6cec0	0.10488653
195	0x3e113e4c	0.1418392
196	0x3e46b7a4	0.19405991
197	0x3e04a7e2	0.12954667
198	0x3ec60df2	0.38682514
199	0x3e420478	0.18947017

fc_out.weight f4 [334, 211]
0	0xbe7c0d2b	-0.24614398
1	0xbe6bcba7	-0.23026906
2	0x3ca52cbe	0.020162936
3	0xbe1f0f61	-0.1553321
4	0xbde910f3	-0.11380186
5	0xbe7e7cc7	-0.24852286
6	0x3d807622	0.06272532
7	0x3d0f8c8f	0.035046156
8	0xbde0efc1	-0.109832294
9	0xbe1b5a37	-0.15171133
10	0x3dbc1da0	0.09185338
11	0xbe1f50a7	-0.1555811
12	0xbe23b936	-0.15988621
13	0xbe89dcda	-0.2692631
14	0x3d1543cc	0.03644161
15	0x3d17f782	0.037101276
16	0xbdf85ab8	-0.12126678
17	0xbe6fb391	-0.23408343
18	0x3c7f136c	0.015568595
19	0x3ccaf57a	0.024775255
20	0xbe780497	-0.24220501
21	0xbe757e9c	-0.23974079
22	0xbc53d8f6	-0.0129301455
23	0x3ccbaed7	0.024863644
24	0xbdde4ae7	-0.1085413
25	0xbe800ca6	-0.2500965
26	0x3d534772	0.051581807
27	0x3d1bc8c8	0.038033277
28	0xbdc8c743	-0.09803631
29	0xbe4dea6d	-0.20108958
30	0x3cb1303a	0.021629442
31	0x3d09d309	0.033648524
32	0xbe372dec	-0.17888612
33	0xbeb79169	-0.35853127
34	0x3d902f16	0.07040231
35	0x3d3397db	0.043845993
36	0x3c8717cb	0.016490838
37	0xbe9f0dae	-0.31065124
38	0xbd5e0393	-0.054202627
39	0x3d236257	0.039888706
40	0xbe525507	-0.20540248
41	0xbe87de44	-0.26536763
42	0xbd1a750d	-0.037709285
43	0x3d30c553	0.043156933
44	0x3beb3491	0.0071778973
45	0xbd9d5fc5	-0.07684282
46	0xbd88e280	-0.066838264
47	0xbd9646e9	-0.07337744
48	0xbd1c5ecf	-0.038176354
49	0xbdcf82ad	-0.10132346
50	0xbdcb8a63	-0.099385045
51	0xbdea556d	-0.11442075
52	0xbdf01da3	-0.11724403
53	0x3c6b986b	0.014379601
54	0xbd059fba	-0.03262303
55	0xbe05284d	-0.13003655
56	0xbe259c91	-0.16173007
57	0xbe10af04	-0.14129263
58	0xbcfdee64	-0.030997463
59	0xbd45ad5c	-0.04826103
60	0xbdc25d00	-0.094903946
61	0xbdcb0975	-0.09913913
62	0x3ce27348	0.027642861
63	0xbdfd633e	-0.123724446
64	0x3d4edd45	0.050503988
65	0xbd552d14	-0.052044943
66	0xbda077cc	-0.078353494
67	0xbd83ac99	-0.06429405
68	0xbdcd976d	-0.10038648
69	0xbdc7e879	-0.097611375
70	0x3cb71400	0.022348404
71	0xbd972062	-0.073792234
72	0xbdad604f	-0.08465635
73	0xbd8ef748	-0.06980759
74	0xbcdd12b5	-0.02698646
75	0xbda21c99	-0.07915611
76	0x3cf06f94	0.02935008
77	0xbd5d1b16	-0.05398091
78	0xbdbf06f5	-0.09327499
79	0xbd85d66b	-0.065350376
80	0xbc9075b1	-0.017634245
81	0x3d1f63e6	0.03891363
82	0xbcab1ce2	-0.020887796
83	0xbd47fa7d	-0.04882287
84	0xbc8d6341	-0.017259242
85	0xbd825eef	-0.063657634
86	0x3da40e2a	0.08010514
87	0xbd42fb7b	-0.04760311
88	0xbd2c4d55	-0.042065937
89	0x3cecba2e	0.028897371
90	0xbd1b033c	-0.03784488
91	0x3c6145b0	0.013749525
92	0xbd82cd75	-0.06386844
93	0x3d802513	0.06257071
94	0xbdd2b723	-0.10288837
95	0x3d2f65f0	0.042821825
96	0x3ce2c23c	0.027680509
97	0x3da2b39b	0.07944413
98	0xbd154d1b	-0.036450487
99	0x3d800d85	0.06252579
100	0xbcff1170	-0.031136245
101	0x3d203696	0.039114557
102	0xbb020681	-0.0019840302
103	0x3c113bc5	0.008864348
104	0x3d358957	0.04432043
105	0xbd2e0d69	-0.042493258
106	0x3d54ade2	0.05192364
107	0x3d237e03	0.039915096
108	0xbdbc52c2	-0.09195472
109	0x3d54d71c	0.051962957
110	0x3dd2d462	0.10294415
111	0x3d2ca798	0.042152017
112	0x3df2e3e8	0.11859876
113	0x3d416e58	0.047224373
114	0xbbe0629b	-0.006847692
115	0x3d3a3eac	0.045469925
116	0xbb340ccf	-0.0027473455
117	0xbe928708	-0.28618646
118	0x3d304fc2	0.043044813
119	0x3d01fdeb	0.031736296
120	0x3d554fa8	0.05207792
121	0x3d383430	0.044971645
122	0xbde23107	-0.110445075
123	0xbe0fad4b	-0.1403095
124	0xbdd312fa	-0.10306354
125	0xbd5bce90	-0.05366379
126	0x3c2f4a2e	0.010698838
127	0xbdb37c99	-0.087639995
128	0x3d39dc4f	0.04537612
129	0x3bd27a2b	0.006423255
130	0x3d268e4a	0.04066304
131	0x3d09e76b	0.033667963
132	0x3da4e476	0.08051388
133	0xbd31c1d7	-0.04339775
134	0x3d5f46f6	0.054511033
135	0x3c54b1d5	0.012981852
136	0x3dc3b0ad	0.095551826
137	0x3d219c39	0.039455626
138	0x3d2ea077	0.0426335
139	0x3d2424b5	0.04007407
140	0xbd90ab0a	-0.07063873
141	0x3d1382bd	0.036013354
142	0x3d217e0c	0.03942685
143	0x3d5b58e4	0.05355157
144	0xbd1b8b28	-0.037974507
145	0x3c883f24	0.01663167
146	0x3ba8db7e	0.0051531186
147	0x3d84ab37	0.06477969
148	0xbe4838f5	-0.19552977
149	0xbb19b03e	-0.0023450996
150	0x3c658b94	0.014010329
151	0x3d19a054	0.037506416
152	0xbcc7f827	-0.02441032
153	0x3d461a43	0.04836489
154	0x3d2aacb9	0.041668627
155	0x3d8ec5c9	0.06971318
156	0xbe1199b4	-0.1421879
157	0x3ceabece	0.028655436
158	0xbe502294	-0.2032569
159	0xbe2499e1	-0.16074325
160	0x3c4806d1	0.012208656
161	0xbdf7305f	-0.12069773
162	0x3d7227a7	0.059119847
163	0xbd277627	-0.040884163
164	0xbe183b5d	-0.14866395
165	0x3caf1c7b	0.021375885
166	0x3cd96a2f	0.02653989
167	0xbe7eb8e0	-0.24875212
168	0xbd9f5acd	-0.07780991
169	0xbd0f836f	-0.035037454
170	0xbe6a3094	-0.22870094
171	0x3d8b5113	0.06802573
172	0xbe80fda3	-0.2519351
173	0xbe0dceed	-0.13848467
174	0x3cf61d1b	0.030043175
175	0x3c98024d	0.018555785
176	0x3d5710e8	0.052506357
177	0x3d8562dc	0.065129966
178	0xbeaec0b5	-0.341314
179	0xbe7766d8	-0.24160326
180	0xbe3da93f	-0.18521594
181	0x3d99f2a3	0.075169824
182	0xbd26746f	-0.040638383
183	0xbe93a6b6	-0.28838128
184	0x3cac4e5b	0.021033457
185	0xbea60ad3	-0.32430133
186	0xbea6bedb	-0.32567486
187	0xbec9de17	-0.39427254
188	0xbec62758	-0.38701892
189	0xbd6a2479	-0.05716369
190	0xbe104c1f	-0.14091538
191	0xbe922b22	-0.28548533
192	0xbd852a6b	-0.06502231
193	0xbeaf77ac	-0.3427099
194	0xbe74cde6	-0.23906669
195	0x3d16f35a	0.036853172
196	0xbee25bca	-0.44210654
197	0xbf0e8c53	-0.5568287
198	0x3ccf6aaf	0.025319425
199	0xbf1c29f4	-0.61001515
200	0xbdd90a00	-0.105976105
201	0xbd3987d3	-0.045295548
202	0xbf1548f5	-0.5831445
203	0x3ea4924c	0.32142866
204	0x3e134ee5	0.14385565
205	0x3ed7afce	0.42126316
206	0xbec06877	-0.375797
207	0xbe06c766	-0.13162002
208	0xbec6d057	-0.38830826
209	0x3f176296	0.59134805
210	0xbd8c25ff	-0.06843185
211	0xbe5c302d	-0.21502753
212	0xbd41de81	-0.047331337
213	0x3df1b037	0.118011884
214	0x3bdb0266	0.0066836355
215	0xbe37cce5	-0.17949255
216	0x3ad4a635	0.001622385
217	0x3da4abe1	0.08040596
218	0x3cb0e085	0.021591434
219	0xbdfafafa	-0.12254901
220	0xbe8818b5	-0.2658135
221	0x3e177b3b	0.14793102
222	0xbd3da2f8	-0.046297997
223	0xbe2a0be0	-0.16606092
224	0xbe21161e	-0.15731093
225	0xbc4e001a	-0.012573266
226	0x3c9c358a	0.019068498
227	0xbdf2f683	-0.11863425
228	0xbe1dd8fd	-0.15414806
229	0xbe149903	-0.14511494
230	0x3ca20773	0.019778943
231	0xbe71d7c2	-0.23617461
232	0xbdde3da1	-0.108515985
233	0xbeb9414c	-0.3618263
234	0x3d58132b	0.052752655
235	0xbdf27b3f	-0.118399136
236	0xbd71e93a	-0.059060313
237	0xbde0bbae	-0.10973297
238	0x3d167b58	0.036738724
239	0xbdcee251	-0.1010176
240	0xbd02593c	-0.03182338
241	0xbef0fd68	-0.47068334
242	0x3d1c6e78	0.03819129
243	0xbe157234	-0.14594346
244	0xbcdc6e02	-0.026907925
245	0xbe322edb	-0.17400686
246	0x3d0da129	0.034577522
247	0x3cbb0349	0.022828715
248	0xbe160cff	-0.14653395
249	0xbf0002b7	-0.5000414
250	0x3cf0baf1	0.029386016
251	0xbe41559c	-0.18880314
252	0x3e0be97f	0.1366329
253	0xbef59069	-0.4796174
254	0x3d3f358b	0.046681922
255	0xbd15cf26	-0.036574505

fc_out.bias f4 [334]
0	0xbd8d95c6	-0.06913333
1	0x3ced6930	0.028980821
2	0x3d64b207	0.055833843
3	0xbcf08485	-0.029360065
4	0xbc925ffc	-0.017868035
5	0x3cac8238	0.021058187
6	0xbd234af1	-0.03986639
7	0xbe1267e7	-0.14297448
8	0xbd0d888f	-0.03455406
9	0xba8be75a	-0.0010673807
10	0x3d4c8b91	0.04993779
11	0x3c750632	0.01495509
12	0x3dae0726	0.08497457
13	0x3d76b951	0.060235325
14	0xbc472830	-0.012155578
15	0x3cf1d5f1	0.02952096
16	0xbd516249	-0.051119123
17	0xbdf15dfc	-0.11785504
18	0x3d0f66ad	0.03501003
19	0x3da8ae3d	0.08236358
20	0x3d30d770	0.043174207
21	0xbd8f0751	-0.06983817
22	0xbdedee54	-0.11617723
23	0xbe0b97c8	-0.13632119
24	0x3bf51591	0.0074793776
25	0xbdbb9901	-0.091600426
26	0xbd3e2e72	-0.046431012
27	0x3d7fccbe	0.062451117
28	0x3d8c16db	0.06840297
29	0xbdb9b335	-0.09067384
30	0xbca1f355	-0.01976935
31	0x3d2aa4a2	0.041660912
32	0x3d1fe028	0.03903213
33	0x3a8e1895	0.0010841066
34	0xbce9f22e	-0.028557863
35	0x3c0a42e4	0.0084387995
36	0x3c0b0aa6	0.0084864255
37	0x3d9ffff4	0.07812491
38	0xbc484a2d	-0.012224716
39	0x3bf12697	0.0073593366
40	0x3e1da812	0.15396145
41	0x3d373710	0.044730246
42	0xbb9050d5	-0.004404167
43	0x3d25ade7	0.04044905
44	0x3ca3ff50	0.020019203
45	0x3d9db39d	0.07700274
46	0x3dc2dacc	0.095143884
47	0x3e00b7d6	0.12570128
48	0xbd126eac	-0.035750076
49	0xbe1d9a54	-0.15390903
50	0xbe345d67	-0.17613755
51	0xbe38d4d3	-0.18049936
52	0xbe418c76	-0.18901238
53	0xbe0cca5c	-0.13749069
54	0xbd985c74	-0.07439509
55	0x3aa6a2c7	0.0012713306
56	0x3d9ff4ec	0.07810387
57	0xbda9be47	-0.08288246
58	0xbda0b0a0	-0.078461885
59	0xbde06bd0	-0.109580636
60	0x3d450238	0.04809782
61	0x3d0df25e	0.034654967
62	0x3d938d51	0.07204688
63	0x3cc92b44	0.024556763
64	0x3d4e8342	0.050418146
65	0x3ca0ce5d	0.019629652
66	0x3d7e8bd0	0.062145054
67	0x3d12ac8c	0.035809085
68	0x3d99fe6b	0.075192295
69	0x3d149125	0.036271233
70	0x3d78d8f3	0.060753774
71	0x3d3e9357	0.046527233
72	0x3dc1c02b	0.09460481
73	0xbb7a9477	-0.0038235465
74	0x3c9cea2b	0.019154629
75	0x3be97942	0.0071250508
76	0xbda45599	-0.08024139
77	0xbd17790a	-0.036980666
78	0x3d419582	0.047261722
79	0xbd845b6f	-0.06462752
80	0xbd8dd6c5	-0.0692573
81	0x3c412be2	0.011790248
82	0x3d1de0f7	0.03854462
83	0xbdc3a2df	-0.095525496
84	0xbd77c037	-0.060486045
85	0x3d3b4f32	0.045729823
86	0x3cf1b2f3	0.029504275
87	0x3ca7f7df	0.020503936
88	0x3dac716a	0.084200695
89	0x3dbbb2df	0.09164976
90	0x3dae36f8	0.08506578
91	0x3da1235c	0.078680724
92	0x3dcff501	0.10154153
93	0x3de4fc93	0.11180987
94	0xbd059d9d	-0.032621015
95	0xbd43bd0e	-0.04778772
96	0xbd7cedb0	-0.061750114
97	0xbe000d73	-0.1250513
98	0xbdeaa145	-0.11456541
99	0xbd98292f	-0.0742973
100	0x3df70e77	0.12063306
101	0xbd798ce9	-0.060925398
102	0x3d511c2f	0.05105227
103	0xbd8eb5c4	-0.06968263
104	0xbdf00bea	-0.117210224
105	0xbc9b9283	-0.01899076
106	0xbcd1739a	-0.025567818
107	0x3dce0a2e	0.10060535
108	0xbd70ebc5	-0.058818597
109	0xbd6fdd20	-0.05856049
110	0x3e334ed2	0.17510536
111	0x3db0338e	0.08603583
112	0xbd773e70	-0.06036228
113	0x3c8598ea	0.016308267
114	0xbde9657c	-0.1139631
115	0xbd763db7	-0.06011745
116	0xbdfa89cd	-0.12233315
117	0xbd8ebd6a	-0.069697216
118	0x3db9567d	0.090496995
119	0x3dcffc1c	0.10155508
120	0xbd4e968c	-0.05043654
121	0x3cbfc1e3	0.023407882
122	0x3dbbd66b	0.09171756
123	0x3d615dc0	0.055021048
124	0xbd50ae0b	-0.05094723
125	0x3d80d612	0.06290831
126	0x3d6835b3	0.056691837
127	0x3d2a798b	0.04161982
128	0xbd8ae450	-0.067818284
129	0xbc3f36d2	-0.011670785
130	0x3de61e15	0.112362064
131	0x3e0640c3	0.13110642
132	0x3ca3b643	0.01998437
133	0xbd060a7f	-0.032724854
134	0x3e1d0677	0.15334497
135	0x3db57d9a	0.08861847
136	0xbdde3003	-0.10849001
137	0x3c44e7a4	0.012018118
138	0x3d67fdb4	0.056638435
139	0x3d2b8049	0.04187039
140	0xbd0e8126	-0.034791134
141	0x3d98cdb0	0.07461107
142	0x3dbacc30	0.09120977
143	0x3dd5e091	0.10443223
144	0xbddbb48c	-0.10727796
145	0xbd281413	-0.04103477
146	0x3d04364c	0.032278344
147	0xbe0def75	-0.13860877
148	0xbc4d8517	-0.012543938
149	0xbdae4f0c	-0.08511171
150	0xbd76f887	-0.060295608
151	0xbc46ad4f	-0.012126281
152	0x3ba182a0	0.004928902
153	0xbd5aede6	-0.053449534
154	0x3d96f2c8	0.073705256
155	0xbe027781	-0.127409
156	0xbdabfa74	-0.083973795
157	0xbcc1b6f9	-0.023646818
158	0xbd1a4600	-0.037664413
159	0x3cf95499	0.030435847
160	0xbd2e66e9	-0.04257861
161	0xbc9f28d4	-0.019428648
162	0xbdb6355b	-0.088968955
163	0xbcc530a4	-0.024071045
164	0xbe43755d	-0.1908774
165	0xbe0db7cc	-0.13839644
166	0xbd43ec34	-0.047832683
167	0x3cfbfd98	0.030760571
168	0x3cd7849f	0.026308356
169	0x3dc21097	0.094758205
170	0x3d3f45ec	0.046697542
171	0x3e0745e4	0.13210255
172	0x3e164fe0	0.14678907
173	0x3d393bef	0.045223173
174	0x3e313da8	0.17308676
175	0x3d8f530d	0.069982626
176	0x3e0d35ce	0.13790056
177	0x3dca6113	0.09881797
178	0x3d8da4ca	0.06916197
179	0x3d6b75e2	0.05748547
180	0x3d9c3430	0.076271415
181	0x3d2092bc	0.039202437
182	0xbdbc68cd	-0.09199677
183	0xbdc7e0d1	-0.09759677
184	0xbe23a6a7	-0.15981542
185	0xbc1182e5	-0.008881305
186	0xbd43dbf1	-0.047817174
187	0x3c6b309f	0.014354854
188	0xbd74926c	-0.05970995
189	0xbdf6100d	-0.1201478
190	0xbd7ee052	-0.062225647
191	0xbe05568b	-0.13021295
192	0xbda3fbe0	-0.08007026
193	0x3da0f894	0.078599125
194	0xbcc6a761	-0.024249734
195	0xbc0d46c9	-0.0086228335
196	0xbd7a0f0b	-0.061049502
197	0xbd2bce46	-0.041944765
198	0x3d30923b	0.043108206
199	0xbce800d6	-0.028320711
200	0x3cb34adb	0.02188628
201	0x3d45216d	0.04812758
202	0x3d3ae764	0.045630828
203	0x3cf0e176	0.029404383
204	0xbd4e57b6	-0.050376616
205	0x3d25a382	0.040439136
206	0x3cf22ae6	0.029561471
207	0x3d2f141c	0.042743787
208	0x3e47eea9	0.19524635
209	0x3e0d3f19	0.13793601
210	0xbd9d3fcf	-0.07678186
211	0xbdd69663	-0.10477903
212	0xbe065b44	-0.13120753
213	0x3dfc9c64	0.12334517
214	0xbdda836e	-0.106695995
215	0xbdf0c79d	-0.11756823
216	0xbe2a4e41	-0.16631414
217	0xbdb2809e	-0.08715938
218	0xbdffcb73	-0.12489977
219	0xbdeff134	-0.11715928
220	0x3d8f7dd6	0.07006423
221	0xbd789d4b	-0.06069688
222	0x3e150563	0.14552836
223	0x3db78de5	0.08962611
224	0x3e5a9693	0.21346502
225	0x3dc1324c	0.094334215
226	0xbd85efd9	-0.06539888
227	0xbe3b12e8	-0.18268931
228	0x3d586536	0.052830897
229	0x3c697c1f	0.014250784
230	0x3c95f8a1	0.018307032
231	0x3d888fab	0.066680275
232	0x3d1fef7a	0.039046742
233	0x3c6a2548	0.014291115
234	0xbda236ed	-0.079206325
235	0x3d248f96	0.040175997
236	0xbce9554b	-0.028483054
237	0x3cf3145c	0.029672794
238	0x3bfdbadd	0.007743223
239	0x3e337b98	0.17527616
240	0x3e0f4319	0.1399044
241	0xbdcf1812	-0.10112013
242	0xbe00db26	-0.12583598
243	0xbccd43f1	-0.025056811
244	0x3c863aa9	0.016385393
245	0xbdb26d18	-0.08712214
246	0xbc7ede50	-0.015555933
247	0x3d8e9787	0.06962495
248	0x3d61576a	0.055015005
249	0x3d27b27a	0.040941693
250	0x3d541eb1	0.051787082
251	0x3e01a0b3	0.12658958
252	0x3d638be0	0.055553317
253	0x3debd019	0.11514301
254	0x3ce73acb	0.028226277
255	0x3d823ff5	0.06359855
