mlp/model_pt/mlp_traj_sf_0_fold_CV_2700.pt (torch, 432593 bytes, 4 tensors)

fc1.weight f4 [200, 200]
0	0x3f0859f4	0.5326226
1	0xbcb2810d	-0.021790052
2	0xbdee11b9	-0.11624474
3	0xbe19b5da	-0.15010777
4	0x3f087d62	0.5331632
5	0x3db1f5c8	0.08689457
6	0xbdab0342	-0.08350231
7	0xbcb2e563	-0.021837896
8	0x3f084fe4	0.53246903
9	0x3e060a81	0.13089944
10	0xbdbabf1a	-0.09118481
11	0xbd69cc86	-0.057079814
12	0x3f085a8d	0.5326317
13	0x3e43dcf7	0.1912726
14	0xbdb5678d	-0.08857641
15	0xbbac6e4c	-0.005262172
16	0x3f0878c4	0.53309274
17	0x3e6bae78	0.23015773
18	0xbe24ebe7	-0.16105615
19	0x3d37e930	0.04490012
20	0x3f087444	0.5330241
21	0x3e81a9ea	0.25324947
22	0xbe136627	-0.14394437
23	0x3d74f850	0.05980712
24	0x3f084ee5	0.53245384
25	0x3e808b91	0.2510648
26	0xbd8a2525	-0.06745366
27	0x3d1961bb	0.03744672
28	0x3f088100	0.5332184
29	0x3e5574a4	0.20845276
30	0xbce8ba69	-0.0284092
31	0x3d0c5823	0.03426374
32	0x3f086f5a	0.5329491
33	0x3e3915c6	0.18074712
34	0xbc170b54	-0.009219009
35	0x3d43c7ff	0.047798153
36	0x3f086d4d	0.5329178
37	0x3e2ec36e	0.17066738
38	0xbd00daf8	-0.031458825
39	0xbd851062	-0.064972654
40	0x3f08714a	0.53297865
41	0x3e18bfc2	0.149169
42	0xbdeb6205	-0.11493305
43	0xbd89d1c7	-0.06729465
44	0x3ecb92cf	0.39760444
45	0x3e96d0c5	0.29456154
46	0xbc73f3aa	-0.014889637
47	0x3d24b70d	0.040213633
48	0x3e42764e	0.18990442
49	0x3e02ce46	0.12774
50	0x3d6f3fe5	0.058410544
51	0x3da25afe	0.07927512
52	0x3e1993cb	0.14997785
53	0x3de134d4	0.10996404
54	0x3d8b8bf2	0.06813802
55	0x3da58df8	0.08083719
56	0x3df4850f	0.119394414
57	0x3dc97ea5	0.09838609
58	0x3d9c1aff	0.076223366
59	0x3dada86b	0.08479389
60	0x3de2098a	0.11036976
61	0x3dc0b813	0.09410109
62	0x3da0c39a	0.07849808
63	0x3dacb071	0.08432091
64	0x3de03c64	0.109490186
65	0x3dc030b4	0.093842894
66	0x3d9f6976	0.07783787
67	0x3dae33a5	0.08505944
68	0x3ddc3e56	0.10754077
69	0x3dbfd451	0.09366668
70	0x3d9f74d3	0.07785954
71	0x3dad9c36	0.084770605
72	0x3ddb4587	0.10706621
73	0x3dc15431	0.09439886
74	0x3d9dbc34	0.077019125
75	0x3dadf9c6	0.08494906
76	0x3dd6b9ec	0.104846805
77	0x3dc1d684	0.09464744
78	0x3d9fb2ea	0.07797797
79	0x3dae7aba	0.08519502
80	0x3dcd2039	0.100159116
81	0x3dbd4de2	0.092433706
82	0x3da353ca	0.07974966
83	0x3db0d003	0.08633425
84	0x3d10f161	0.035386447
85	0x3cec2ef5	0.028830985
86	0x3cb0b88d	0.021572376
87	0x3cd0f7fa	0.02550887
88	0xba4f8487	-0.00079161715
89	0xbb9706c3	-0.0046089604
90	0xbc228364	-0.009919021
91	0xbbf07306	-0.0073379306
92	0x3c335816	0.010946294
93	0x3c05ef75	0.008174767
94	0x3b669fe9	0.0035190529
95	0x3bcab680	0.0061863065
96	0xbd16e0ba	-0.03683541
97	0xbd227eae	-0.039671592
98	0xbd303c78	-0.043026417
99	0xbd26dc18	-0.04073724
100	0x3c9b7a53	0.018979227
101	0x3c8f26c6	0.017474543
102	0x3c681486	0.014165049
103	0x3c7e4280	0.0155187845
104	0xbc4beee7	-0.0124470955
105	0xbc5deddc	-0.01354548
106	0xbc82a3cb	-0.015947243
107	0xbc67fe61	-0.01415977
108	0xbcfa234f	-0.030534415
109	0xbd031dc2	-0.0320108
110	0xbd0d62e9	-0.034518156
111	0xbd055fa4	-0.032561913
112	0xbbe433c8	-0.0069641806
113	0xbc03f2cb	-0.008053492
114	0xbc1b6d56	-0.009486517
115	0xbc08c4d5	-0.00834771
116	0xbd80593c	-0.0626702
117	0xbd834d17	-0.06411188
118	0xbd864691	-0.06556428
119	0xbd82b4ba	-0.06382127
120	0xbe202858	-0.1564039
121	0xbe211d46	-0.15733823
122	0xbe22a072	-0.15881518
123	0xbe20daee	-0.15708515
124	0xbe38f6e9	-0.18062939
125	0xbe3a692c	-0.18204182
126	0xbe3baf97	-0.18328701
127	0xbe3a1317	-0.18171345
128	0xbdd20cd5	-0.10256354
129	0xbdd2d54f	-0.10294592
130	0xbdd64991	-0.104632504
131	0xbdd4f7c2	-0.103988186
132	0xbd82fc25	-0.06395749
133	0xbd82d87a	-0.06388946
134	0xbd870695	-0.06593052
135	0xbd841dd3	-0.06451001
136	0x3d43b837	0.047783103
137	0x3d43cf3c	0.047805056
138	0x3d3d6bad	0.046245266
139	0x3d410d54	0.04713185
140	0xbd501c37	-0.050808158
141	0xbd4fdab7	-0.050745692
142	0xbd555c16	-0.052089773
143	0xbd5400ba	-0.051758505
144	0xbd9d16a5	-0.07670335
145	0xbd9a7bf7	-0.07543176
146	0xbd9dcda8	-0.077052414
147	0xbd9f1cd8	-0.077691734
148	0xbcc506e2	-0.024051134
149	0xbcba5153	-0.022743857
150	0xbccf99d5	-0.025341908
151	0xbcc7521e	-0.024331149
152	0xbd15bf9a	-0.03655968
153	0xbd0ffb01	-0.035151485
154	0xbd17444d	-0.03693037
155	0xbd170334	-0.03686829
156	0x3d497bc3	0.049190294
157	0x3d4cb5a8	0.04997793
158	0x3d48016b	0.048829477
159	0x3d48c8ec	0.04901974
160	0xbd90fcc9	-0.07079465
161	0xbd8fc7ea	-0.070205525
162	0xbd91b3fd	-0.07114408
163	0xbd91f454	-0.0712668
164	0x3bacef9c	0.005277587
165	0x3bc3af05	0.0059717917
166	0x3b8f44e2	0.004372225
167	0x3babd9fd	0.005244492
168	0xbca48161	-0.020081224
169	0xbca34ae6	-0.019933175
170	0xbca5f72d	-0.020259464
171	0xbc9f2f18	-0.019431636
172	0x3d3e5352	0.04646618
173	0x3d40285f	0.0469135
174	0x3d3fb1bf	0.04680037
175	0x3d40499b	0.046945196
176	0xbd00bac7	-0.031428125
177	0xbcff0ab9	-0.031133043
178	0xbd00020d	-0.031251956
179	0xbcfa3ba3	-0.030546015
180	0xba5f4afb	-0.0008517948
181	0xba9d71d3	-0.0012012072
182	0xba557281	-0.00081423676
183	0xb9007098	-0.00012248976
184	0x3c049cd4	0.008094031
185	0x3c00985e	0.007848827
186	0x3c0419b3	0.008062768
187	0x3c0e5bd3	0.008688885
188	0xbd5fd9a0	-0.054650903
189	0xbd605861	-0.054771785
190	0xbd60aa2e	-0.054849796
191	0xbd5f2ba1	-0.054484967
192	0xbdabf810	-0.083969235
193	0xbdad0aad	-0.08449302
194	0xbdac7fe6	-0.08422832
195	0xbdac15f8	-0.08402628
196	0xbd9d91b9	-0.0769381
197	0xbd9e8e9e	-0.07742046
198	0xbd9ee5c9	-0.07758672
199	0xbd9e8ec6	-0.077420756
200	0xbac56bda	-0.001506205
201	0x3fab34c3	1.3375477
202	0xbc0fc830	-0.008775756
203	0x3c61e999	0.013788604
204	0xbb164067	-0.002292657
205	0x3efeed35	0.4979035
206	0xbd573665	-0.05254211
207	0xbc6a080b	-0.014284144
208	0xbaca3081	-0.0015425832
209	0x3e8a7d8d	0.27048913
210	0xbcf0d967	-0.02940054
211	0xbcfc2af9	-0.03078221
212	0xbb106975	-0.0022035514
213	0xbc5b4bc9	-0.013384768
214	0x3cbf63be	0.02336299
215	0xbca1fe22	-0.0197745
216	0xbb165705	-0.0022940051
217	0xbea1b3e8	-0.3158257
218	0x3ad4a4e0	0.0016223453
219	0xbc310059	-0.010803306
220	0xbae958d2	-0.001780296
221	0xbeceb360	-0.40371227
222	0x3caf9ddf	0.021437583
223	0xbcb3ef77	-0.021964772
224	0xbafff2a3	-0.0019527267
225	0xbea3dca2	-0.32004267
226	0x3c9fb5f9	0.019495951
227	0x3bfa5492	0.007639476
228	0xbaf5349f	-0.0018707699
229	0xbe8b8f0e	-0.2725758
230	0x3c163e5e	0.009170143
231	0x3d4ec02f	0.05047625
232	0xbac01a28	-0.0014656233
233	0xbe87d4c9	-0.2652953
234	0x3c47b397	0.012188814
235	0xbb83966a	-0.0040157335
236	0xbb02f1d0	-0.0019980557
237	0xbe78bfe8	-0.24291956
238	0x3d076652	0.033056565
239	0x3cd526a8	0.02601941
240	0xbb175c5d	-0.0023095824
241	0xbe6823e5	-0.22669943
242	0x3c9eabbc	0.019368999
243	0x3ca8b85b	0.02059572
244	0x3d80a0b4	0.06280652
245	0x3a70b414	0.0009182107
246	0x3e236f56	0.1596044
247	0x3e229b1e	0.15879485
248	0x3ac72c15	0.0015195633
249	0xbc52e016	-0.012870809
250	0x3c290548	0.010316201
251	0x3bdc41f8	0.0067217313
252	0xbb64586f	-0.003484275
253	0xbc4b9c20	-0.01242736
254	0xba8c9c22	-0.0010727684
255	0xbb271e86	-0.002550037

fc1.bias f4 [200]
0	0x3db66350	0.08905661
1	0x3e095b5b	0.13413756
2	0x3de2c6bb	0.11073061
3	0xba477ac6	-0.0007609542
4	0x3d3d0c63	0.04615439
5	0x3eeb6656	0.45976514
6	0x3e5f3e01	0.21800996
7	0xbe572d8a	-0.21013466
8	0xbd99e09a	-0.075135425
9	0x3e115aef	0.14194845
10	0x3d81c0fd	0.06335638
11	0xbe8e5bcb	-0.27804407
12	0x3cb8bf8d	0.022552276
13	0x3d3e9ce4	0.04653634
14	0xbe98274f	-0.2971749
15	0xbec28270	-0.3799014
16	0xbbdfcd88	-0.006829921
17	0x3e8cbb41	0.27486613
18	0xbe6209b6	-0.22074017
19	0xbeebbfff	-0.4604492
20	0x3de92d0e	0.113855466
21	0x3e3e20c5	0.18567188
22	0xbe6ce811	-0.23135401
23	0xbea6c963	-0.3257552
24	0xbbc8d41c	-0.006128801
25	0xbdc51a70	-0.09624183
26	0xbe303430	-0.17207408
27	0xbef0fd55	-0.47068277
28	0x3e1e8395	0.15479882
29	0x3dc68378	0.096930444
30	0x3da85466	0.08219223
31	0x3dc8fada	0.09813471
32	0x3d66f366	0.056384467
33	0x3e1b0b89	0.15141119
34	0x3db21112	0.08694662
35	0x3cdad6e6	0.0267138
36	0x3ce14fac	0.02750381
37	0x3e45d870	0.19320846
38	0xbf03edab	-0.5153453
39	0xbe03e418	-0.1287998
40	0xbd39e854	-0.04538758
41	0x3e4d9aa7	0.20078526
42	0x3e0a4a41	0.13504888
43	0xbedadb37	-0.42745373
44	0x3e3b60db	0.18298666
45	0x3e680bd3	0.2266076
46	0x3e283428	0.16426146
47	0x3e64b37e	0.22334096
48	0x3df5aa05	0.11995319
49	0x3e134bdc	0.14384407
50	0x3e349a95	0.17637093
51	0x3e98440e	0.29739422
52	0x3e0bd6a1	0.13656093
53	0x3e40eaaa	0.18839517
54	0x3db2fc5a	0.087395385
55	0x3e97a9c0	0.29621696
56	0x3e5be11c	0.21472591
57	0x3e711f57	0.23547111
58	0x3e546b61	0.20744087
59	0xbeadac1a	-0.33920366
60	0xbe6fd239	-0.23420037
61	0xbc9f6418	-0.019456908
62	0x3d9ddaac	0.07707724
63	0x3e0821d5	0.13294156
64	0x3e18d64c	0.14925498
65	0xbed4abba	-0.41537267
66	0x3da40402	0.08008577
67	0x3d5758be	0.052574866
68	0x3da4ca75	0.08046428
69	0xbc5ac727	-0.013353146
70	0xbd53acf5	-0.051678617
71	0x3def9c4d	0.11699734
72	0x3e02c109	0.1276895
73	0x3e320501	0.17384721
74	0x3ea8095a	0.32819635
75	0x3e5db82b	0.21652286
76	0xbd13f13d	-0.036118735
77	0x3dce61ab	0.100772224
78	0x3dc7dea9	0.09759266
79	0xbe939161	-0.28821853
80	0x3e0bd35b	0.13654844
81	0xbe011436	-0.12605366
82	0xbdbe00d9	-0.092775054
83	0x3df6d395	0.12052075
84	0xbee989ea	-0.45613033
85	0xbefb0a7f	-0.49031445
86	0x3d8b562b	0.068035446
87	0xbf07b666	-0.5301269
88	0x3d1ae9ed	0.037820745
89	0x3dbd342b	0.09238466
90	0xbceaf85d	-0.028682882
91	0x3dc6cacc	0.09706649
92	0xbed889e7	-0.4229271
93	0xbd1a843f	-0.037723776
94	0xbe1ec960	-0.15506506
95	0x3e189c12	0.14903286
96	0x3db0c642	0.08631565
97	0xbe1ad2e6	-0.15119514
98	0x3e1d76c9	0.15377344
99	0xbe6f5939	-0.2337388
100	0x3e2dcf93	0.16973715
101	0xbe4347fd	-0.1907043
102	0x3e0bb6f8	0.13644016
103	0xbdba2a0a	-0.090900496
104	0x3d569457	0.05238756
105	0xbf0713b4	-0.5276444
106	0xbecdb2f8	-0.40175605
107	0x3dea49fa	0.11439891
108	0x3d0800a5	0.03320374
109	0x3cb32826	0.02186973
110	0xbf1d43c4	-0.6143153
111	0xbe639a22	-0.22226766
112	0x3d1a00dd	0.03759848
113	0xbeae3655	-0.34025827
114	0xbec78fd7	-0.3897693
115	0x3d5dbf68	0.054137617
116	0x3dd8e730	0.105909705
117	0xbefb4749	-0.49077824
118	0xbd6a8c2a	-0.057262577
119	0x3d3b8869	0.045784388
120	0xbefb8ce0	-0.49130917
121	0x3e04a9fb	0.12955467
122	0xbea614cd	-0.32437745
123	0xbe617ba6	-0.22019824
124	0xbf220684	-0.6329119
125	0x3dca5e3d	0.09881256
126	0xbee57be0	-0.44821072
127	0xbf17f93f	-0.59364694
128	0xbec377f2	-0.3817745
129	0xbeb3a347	-0.35085508
130	0x3ddd79a7	0.10814219
131	0x3e05443d	0.13014312
132	0x3e2a8c31	0.16655041
133	0xbe9e124a	-0.30873328
134	0x3d525747	0.051352765
135	0xbeb04229	-0.34425476
136	0xbf0d384b	-0.5516402
137	0xbecd087b	-0.40045533
138	0xbd8bff90	-0.06835854
139	0xbe49aa62	-0.19693902
140	0xbed7f16f	-0.42176387
141	0xbeb9ab86	-0.36263674
142	0xbd073fd0	-0.03301984
143	0xbeffdc4a	-0.49972755
144	0xbe555e01	-0.20836641
145	0xbeb4c7fa	-0.3530882
146	0x3deaf485	0.1147242
147	0xbeb16e2f	-0.34654376
148	0xbeb2468b	-0.34819445
149	0xbea14f1a	-0.31505662
150	0xbef7a22b	-0.48365912
151	0x3d4a2166	0.049348257
152	0x3c80a05b	0.015701463
153	0xbebfe056	-0.37475842
154	0xbde923c0	-0.11383772
155	0xbe6e921d	-0.23297925
156	0xbdc04a4a	-0.093891695
157	0xbeb9fa29	-0.3632367
158	0xbe0889a6	-0.13333759
159	0xbec64e51	-0.38731626
160	0xbe74f647	-0.23922072
161	0x3ca75b21	0.020429196
162	0xbe935b48	-0.2878058
163	0xbeaf778c	-0.34270895
164	0x3e1c4052	0.15258911
165	0xbc1f6033	-0.0097275255
166	0xbe5d067b	-0.21584503
167	0xbdf9b978	-0.121935785
168	0x3e177392	0.1479018
169	0xbb5a4402	-0.0033304696
170	0x3df1444e	0.11780606
171	0x3d4ddd2a	0.050259747
172	0x3e567eff	0.20946883
173	0x3e4c40ec	0.1994664
174	0xbe3ec084	-0.18628126
175	0x3d0d038f	0.034427222
176	0xbdd99418	-0.1062395
177	0x3ebc9402	0.3683167
178	0x3e18a908	0.1490823
179	0x3e2f86e5	0.17141302
180	0x3e8ccdf9	0.27500895
181	0x3e4069d6	0.18790373
182	0x3e8a2f0e	0.26989025
183	0x3d8cc727	0.06873923
184	0x3e35d81a	0.17758217
185	0x3e423f62	0.18969491
186	0x3e241e4a	0.1602718
187	0x3e0226c2	0.12710097
188	0x3dffc782	0.12489225
189	0x3e380393	0.17970113
190	0xbf081cf8	-0.531692
191	0x3e21e1c0	0.15808773
192	0x3e654fbb	0.22393696
193	0xbebb52fc	-0.3658675
194	0x3e0eafcc	0.13934249
195	0x3e3cba24	0.18430382
196	0x3e84a8c3	0.25910005
197	0x3e23dce1	0.16002227
198	0x3e585b5c	0.21128601
199	0x3e05b2ed	0.13056536

fc_out.weight f4 [334, 201]
0	0xbdd8e526	-0.105905816
1	0x3da9afeb	0.08285507
2	0xbe56b8da	-0.20968953
3	0x3d691f2a	0.056914486
4	0xbe8a6d5d	-0.27036563
5	0xbe8bdcab	-0.27316794
6	0x3cce6417	0.025194211
7	0x3d2e0e54	0.042494133
8	0xbe95a624	-0.29228318
9	0xbe03fa5f	-0.12888478
10	0x3e0d9954	0.13828021
11	0x3cd20d2b	0.025641045
12	0xbe848fb9	-0.25890902
13	0xbd9beb32	-0.07613219
14	0x3d1c9e2c	0.038236782
15	0x3d26b307	0.040698078
16	0xbe086b4d	-0.13322182
17	0xbe8aa8c4	-0.27081883
18	0x3cd2a504	0.025713451
19	0x3d16e706	0.036841415
20	0xbe993f6f	-0.29931208
21	0xbdfd368a	-0.12363918
22	0x3ce06d74	0.027395941
23	0x3c7e6be8	0.015528657
24	0xbde3be22	-0.11120249
25	0xbe92640f	-0.28591964
26	0x3d17eb66	0.037089728
27	0x3d3f67e1	0.046729926
28	0xbe9f3a23	-0.31099042
29	0xbe42595a	-0.18979397
30	0x3d2c880e	0.04212194
31	0xbd49a07d	-0.04922532
32	0xbe95af5d	-0.29235354
33	0xbe3db769	-0.18526997
34	0x3dc16c6b	0.09444507
35	0xbdafee44	-0.085903674
36	0xbde08d0e	-0.10964404
37	0xbe570531	-0.20998074
38	0x3d743e67	0.059629824
39	0x3d222b03	0.0395918
40	0xbe8c6aa4	-0.2742511
41	0xbe417416	-0.1889194
42	0x3e177a6d	0.14792795
43	0x3d37c917	0.04486951
44	0xbcb2285b	-0.021747759
45	0xbde65e82	-0.11248495
46	0xbddeac31	-0.10872687
47	0xbdf96501	-0.12177468
48	0x3c0e66f6	0.00869154
49	0xbe2f5754	-0.17123157
50	0xbe06077e	-0.13088796
51	0xbe0ce199	-0.13757934
52	0xbe1c7090	-0.15277314
53	0xbe3dbbc8	-0.18528664
54	0xbccc7224	-0.02495677
55	0xbbce239d	-0.0062908665
56	0xbe067746	-0.13131437
57	0xbe06b3b7	-0.13154493
58	0xbe185cf7	-0.14879213
59	0x3d09cb6b	0.03364126
60	0xbc12eab9	-0.008967095
61	0xbd0ab423	-0.033863198
62	0xbdb0f5fd	-0.086406685
63	0xbd81560c	-0.0631524
64	0xbdc4c3fb	-0.09607693
65	0x3d11e57c	0.035619244
66	0xbdae0333	-0.08496704
67	0xbe1e9869	-0.15487827
68	0xbd727361	-0.059192065
69	0x3c7480b1	0.014923261
70	0xbde219e3	-0.11040094
71	0xbdc9ab32	-0.09847106
72	0x3c3f3707	0.011670834
73	0xbd262b53	-0.04056866
74	0xbd6d087d	-0.057869423
75	0xbd21ae88	-0.039473087
76	0x3c2333eb	0.009961109
77	0xbcd9af56	-0.026572865
78	0xbd3bee4c	-0.045881554
79	0x3c9bc001	0.019012453
80	0xbd009619	-0.031393144
81	0xbd0dce68	-0.034620672
82	0x38558dc7	5.0915198e-05
83	0xbd014f7e	-0.03156995
84	0x3d29b4bb	0.041432124
85	0x3d25ad03	0.0404482
86	0xbd840899	-0.064469524
87	0x3d3301a5	0.04370274
88	0xbce8249d	-0.028337771
89	0xbd20dd90	-0.0392738
90	0xbdaa985e	-0.08329843
91	0xbdccb730	-0.09995878
92	0x3d3918b6	0.04518958
93	0xbd06bc2f	-0.03289431
94	0xbddb513e	-0.10708855
95	0x3de27480	0.11057377
96	0x3d93426a	0.07190402
97	0xbe35055b	-0.17677824
98	0x3dd61cbe	0.10454701
99	0x3d196e15	0.037458498
100	0xbe04025d	-0.12891527
101	0xbe24e7c6	-0.1610404
102	0x3d8b857b	0.06812569
103	0xbe6b406d	-0.22973795
104	0xbd363f68	-0.044494063
105	0x3d1aab83	0.037761223
106	0x3d66d46c	0.056354925
107	0xbdb2f67e	-0.08738421
108	0xbd7b813c	-0.061402544
109	0x3d4a6933	0.049416732
110	0x3d2a4498	0.041569322
111	0xbcef2288	-0.02919127
112	0x3cf58066	0.029968452
113	0x3c12fea8	0.008971848
114	0x3cfdb4fb	0.030970087
115	0xbd869376	-0.06571095
116	0xbe16a5ed	-0.14711733
117	0x3d086a84	0.033304706
118	0xbd1417ae	-0.036155395
119	0xbdb94333	-0.0904602
120	0x3cdc5d6c	0.026900016
121	0xbda9250f	-0.082590215
122	0x3d326387	0.043551948
123	0x3ca7e8bd	0.02049672
124	0x3d2ff345	0.04295661
125	0xbdcaf5ba	-0.0991015
126	0x3c674b9f	0.014117151
127	0x3d279837	0.040916648
128	0x3cdae978	0.026722655
129	0x3d171ec1	0.036894564
130	0xbe11cbd7	-0.14237915
131	0xbe334404	-0.17506415
132	0x3de6f160	0.112765074
133	0xbe7d4d98	-0.24736631
134	0x3d305fa6	0.043059967
135	0x3d35d63a	0.044393755
136	0x3d3c0fc1	0.04591346
137	0x3cec6682	0.028857473
138	0x3c86a076	0.016433936
139	0x3cf3673d	0.029712314
140	0xbd984e19	-0.07436771
141	0x3cb31325	0.021859715
142	0x3d4eab56	0.050456367
143	0x3d213cf0	0.039364755
144	0xbedba1a5	-0.42896762
145	0x3c6958a2	0.014242323
146	0x3d2ce4b8	0.04221031
147	0x3cfb63eb	0.030687293
148	0x3ce3bd7f	0.02780032
149	0xbe8d7d0c	-0.27634466
150	0x3d0e8110	0.034791052
151	0x3daf7fc6	0.08569293
152	0x3ced080f	0.028934507
153	0x3d3c5b90	0.04598576
154	0x3cc2a514	0.023760356
155	0xbe4d0e25	-0.20024927
156	0xbdae7103	-0.08517649
157	0xbe80dd9b	-0.25169072
158	0x3ca4c7df	0.020114837
159	0xbd2ed122	-0.042679913
160	0x3d19d31a	0.037554838
161	0xbe1dbc9a	-0.15403977
162	0x3ce0972e	0.027415838
163	0x3cec12c8	0.02881755
164	0xbe81bf4e	-0.25341266
165	0x3cb91449	0.02259268
166	0x3cfd081c	0.030887656
167	0x3c7c4506	0.015397316
168	0xbe137f40	-0.14404011
169	0xbd1232b0	-0.03569287
170	0xbdce4901	-0.10072518
171	0xbe27d6dd	-0.16390558
172	0xbea0617c	-0.31324375
173	0xbe57d133	-0.21075897
174	0x3d0b8a7c	0.034067616
175	0xbe770b59	-0.24125423
176	0xbc336062	-0.010948272
177	0xbcbf9621	-0.023387017
178	0x3c994533	0.018709755
179	0xbe99799a	-0.29975587
180	0xbe423ce3	-0.18968539
181	0xbec1a4ad	-0.3782095
182	0xbeb974ef	-0.36222026
183	0xbe5bb62e	-0.21456215
184	0xbecc03d2	-0.39846665
185	0x3c2c5b3e	0.010519801
186	0xbec4ce6b	-0.38438734
187	0xbc9d0b71	-0.019170495
188	0x3dbba64d	0.09162579
189	0xbec7246e	-0.3889498
190	0x3d3a97ec	0.04555504
191	0xbecf6727	-0.40508386
192	0x3d0faa25	0.03507437
193	0x3d2222d7	0.039584007
194	0x3c00ba3b	0.007856901
195	0xbf1173e6	-0.5681747
196	0x3c842808	0.01613237
197	0xbef2acfd	-0.47397605
198	0x3c961a5a	0.018323112
199	0x3cb6cf9d	0.022315795
200	0xbdcf2ae9	-0.10115606
201	0xbe06d6e2	-0.13167909
202	0xbee067dc	-0.43829238
203	0x3e86c327	0.26320764
204	0xbd245da4	-0.040128365
205	0xbe7c230f	-0.24622749
206	0xbd511f55	-0.05105527
207	0x3e1b6b1e	0.1517758
208	0x3d389fb5	0.045074183
209	0xbe5d1de1	-0.21593429
210	0xbe7619f1	-0.24033333
211	0xbde791fc	-0.11307141
212	0x3d0b2fe4	0.03398122
213	0xbe0cedc8	-0.13762581
214	0xbe41a3a8	-0.18910086
215	0x3cf4c6bc	0.02987992
216	0x3d3ca86f	0.04605907
217	0xbdf62371	-0.12018479
218	0xbda4f35f	-0.08054232
219	0xbc41fe6b	-0.011840443
220	0x3d10cd77	0.035352197
221	0xbe878d3d	-0.26474944
222	0xbde0cfed	-0.10977159
223	0xbea2cab1	-0.31795266
224	0xbd458c86	-0.048229717
225	0xbdf3bbaf	-0.11901032
226	0xbd980aac	-0.074239105
227	0xbed0cf31	-0.40783074
228	0x3d461637	0.04836103
229	0xbe701cfb	-0.23448555
230	0x3c7c802b	0.015411417
231	0xbed503a6	-0.41604346
232	0xbd33be29	-0.043882523
233	0xbe8a3b55	-0.26998392
234	0xbb2c82db	-0.0026323113
235	0xbeea4f66	-0.457637
236	0xbdd8baf2	-0.10582532
237	0xbe00b1a4	-0.12567765
238	0x3d97d9d9	0.07414598
239	0xbe984323	-0.2973872
240	0x3d174288	0.036928684
241	0xbe5e816b	-0.21729057
242	0x3dc8f575	0.09812442
243	0xbeedaae8	-0.46419454
244	0x3d43a0ee	0.047760896
245	0xbda8c0f5	-0.08239929
246	0xbda73f9b	-0.08166429
247	0xbda2242f	-0.07917058
248	0xbda5fa70	-0.08104408
249	0xbd334a68	-0.04377213
250	0xbe0846d1	-0.13308264
251	0xbdde285f	-0.10847544
252	0xbdecd82a	-0.115646675
253	0xbe07534e	-0.13215372
254	0xbde80b94	-0.11330333
255	0xbe14afaa	-0.14520136

fc_out.bias f4 [334]
0	0xbdf77ea1	-0.120846994
1	0x3ae45718	0.0017420975
2	0x3d13be11	0.036069933
3	0xbc82db30	-0.015973657
4	0xbdb6fb06	-0.08934598
5	0xbd1480c0	-0.036255598
6	0xbd9a99bc	-0.07548854
7	0xbe482f82	-0.19549373
8	0xbd730768	-0.059333235
9	0xbd726f6c	-0.05918829
10	0x3d95bf6b	0.07311901
11	0x3d0110c8	0.031510144
12	0x3d9ebb34	0.0775055
13	0x3c0b502c	0.008503001
14	0x3ccf836f	0.025331227
15	0x3d682b5e	0.056681983
16	0xbe0bf510	-0.13667703
17	0xbe711ee1	-0.23546936
18	0xbc86e0cb	-0.016464612
19	0x3d3b7623	0.04576696
20	0x3d1791bd	0.03700422
21	0xbd99f332	-0.07517089
22	0xbe6c84e0	-0.23097563
23	0xbdbd9155	-0.092562355
24	0xbcfa90aa	-0.03058656
25	0xbdc65a26	-0.09685163
26	0xbdf47546	-0.11936431
27	0x3d8648fb	0.06556889
28	0x3d8dd7e0	0.069259405
29	0xbde3bd9f	-0.11120152
30	0xbd842b99	-0.06453628
31	0x3cf015ef	0.029307334
32	0x3cd6fcf9	0.026243674
33	0xbd6e9f0a	-0.05825714
34	0xbc2f2688	-0.010690339
35	0x3d3c1350	0.045916855
36	0xbd2a9828	-0.041649014
37	0x3db5730c	0.08859834
38	0xbd4dd616	-0.050252996
39	0x3d085d44	0.03329207
40	0x3e35e55f	0.1776328
41	0x3e2542af	0.16138719
42	0xbce94b51	-0.028478296
43	0x3d7d3673	0.061819505
44	0x3c9dda36	0.01926909
45	0x3d7f596d	0.062341142
46	0x3d58dfc4	0.052947775
47	0x3dbd22d7	0.09235161
48	0x3d8ac0a8	0.067750275
49	0xbe6a6d40	-0.22893238
50	0xbdc96939	-0.09834523
51	0xbe424297	-0.18970715
52	0xbdaa2fcd	-0.083098985
53	0xbd2be4d0	-0.04196626
54	0xbd163b56	-0.03667768
55	0xbc951b53	-0.018201506
56	0x3daefe80	0.08544636
57	0xbd3f85a6	-0.046758316
58	0xbb7e264b	-0.0038780149
59	0xbe23adb7	-0.15984236
60	0x3cf1e8df	0.029529987
61	0x3c846a87	0.016164077
62	0x3d9ac6af	0.07557427
63	0x3cb2fff5	0.021850565
64	0x3d73b962	0.059502967
65	0x3c899f42	0.016799573
66	0x3d1fb788	0.03899339
67	0x3d0dcc93	0.034618925
68	0x3d87244c	0.0659872
69	0x3b83d96e	0.0040237224
70	0x3d8b130a	0.06790741
71	0x3d6bf9f8	0.057611436
72	0x3ddf005b	0.1088874
73	0xbd0ae0ec	-0.03390591
74	0x3d2f3694	0.04277666
75	0x3bf48a0b	0.007462745
76	0xbdd7b819	-0.10533161
77	0xbd3ea15d	-0.046540607
78	0x3d6d8259	0.057985637
79	0xbd781591	-0.060567442
80	0x3c9bf891	0.019039424
81	0xbcc26cb5	-0.023733476
82	0x3d888a11	0.06666959
83	0xbddbf6d2	-0.107404366
84	0xbdaa282a	-0.08308442
85	0x3d081032	0.03321857
86	0x3d716928	0.058938175
87	0x3c0075f0	0.0078406185
88	0x3d8ecbdd	0.069724776
89	0x3da7a1dc	0.08185169
90	0x3d8c78ed	0.06859002
91	0x3d962855	0.073319115
92	0x3d43e695	0.047827322
93	0x3e1c6a42	0.15274909
94	0xbcf5ab06	-0.029988777
95	0xbce71277	-0.028207047
96	0xbdfa2d92	-0.12215723
97	0xbe393ffa	-0.18090811
98	0xbddb595a	-0.10710402
99	0xbd7be0e8	-0.061493784
100	0x3e06e800	0.13174438
101	0xbd99722c	-0.0749248
102	0x3dcb3280	0.099217415
103	0xbd707d2f	-0.058713134
104	0xbe0e14a0	-0.13875055
105	0x3d071b7a	0.032985188
106	0x3dfbc88b	0.1229411
107	0x3d9d3c48	0.07677513
108	0xbda0778e	-0.07835303
109	0xbd87d295	-0.06631962
110	0x3e4987be	0.19680688
111	0x3dac893c	0.08424613
112	0xbdb1ce66	-0.086819455
113	0x3ce995ec	0.028513871
114	0xbd67da06	-0.056604408
115	0xbd688f7d	-0.056777466
116	0xbe4cd1bc	-0.20001882
117	0xbcece080	-0.028915644
118	0x3ddb0d2c	0.10695872
119	0x3d900238	0.07031673
120	0xbdd22d90	-0.102625966
121	0x3d25c67c	0.040472493
122	0x3d1dfe71	0.038572732
123	0x3de65023	0.112457536
124	0xbde66eb4	-0.11251584
125	0x3d6b4a7f	0.057444092
126	0x3ccab90e	0.024746444
127	0x3dabcdfd	0.083888985
128	0xbdcad6b2	-0.09904231
129	0xbcacfce1	-0.021116676
130	0x3da714c4	0.081582576
131	0x3de152c1	0.11002112
132	0x3bc94204	0.006141903
133	0x3d02e3c9	0.031955514
134	0x3e34c411	0.17652918
135	0x3e27b3df	0.16377209
136	0xbc852d20	-0.016256869
137	0xbc2ff395	-0.010739227
138	0x3d8cfb59	0.06883878
139	0x3d65bf8b	0.056090873
140	0xbc8b74b3	-0.01702342
141	0x3d155861	0.036461238
142	0x3d6eec18	0.058330625
143	0x3e0b27c2	0.13589385
144	0xbdb5ad6e	-0.0887097
145	0xbc2a788d	-0.010404718
146	0x3d1383de	0.03601443
147	0xbdfff1ed	-0.124973156
148	0x3cdb9e6c	0.02680894
149	0xbdb2c3d0	-0.087287545
150	0xbda773c0	-0.081763744
151	0xb9db034f	-0.000417734
152	0x3d431b4c	0.047633454
153	0xbd651e48	-0.05593708
154	0x3da30f24	0.07961872
155	0xbe2694f3	-0.16267757
156	0xbd2f57dd	-0.042808402
157	0xbc283834	-0.010267306
158	0x3d8c2b44	0.0684419
159	0x3d3c5aa8	0.045984894
160	0xbe061ad6	-0.13096175
161	0x3d3e4997	0.0464569
162	0xbe35a006	-0.17736825
163	0xbcb53310	-0.022119075
164	0xbdb68bed	-0.089134075
165	0xbdbe6c1a	-0.092979625
166	0x3c2243f4	0.009903897
167	0x3cacb4ed	0.021082366
168	0xbd3f151b	-0.046650987
169	0x3e29f942	0.1659899
170	0x3d5f9715	0.054587442
171	0x3df4f930	0.11961591
172	0x3e4038e8	0.18771708
173	0x3c5d0e50	0.013492182
174	0x3e859ead	0.26097623
175	0x3c5853dd	0.013203588
176	0x3e196339	0.14979257
177	0x3d395370	0.045245588
178	0x3d42766b	0.047476213
179	0x3d49acc9	0.049237046
180	0x3e1f7318	0.15571249
181	0x3cb315b9	0.021860944
182	0xbd98f899	-0.07469291
183	0xbcf1add8	-0.02950184
184	0xbdb6fa22	-0.08934428
185	0xbd4cb2f0	-0.049975336
186	0xbd6ba831	-0.057533447
187	0x3bc16624	0.0059020687
188	0xbd9fa758	-0.0779559
189	0xbe251591	-0.16121508
190	0xbd63fe36	-0.055662356
191	0xbdea9c63	-0.1145561
192	0xbdb30aae	-0.08742271
193	0x3da5caaa	0.08095296
194	0xbc8477c8	-0.016170397
195	0x3cb83233	0.022484874
196	0xbcf86ac0	-0.03032434
197	0xbad2f5cf	-0.0016094985
198	0x3d909136	0.07058947
199	0xbb63d9b2	-0.0034767208
200	0x3d262b39	0.040568564
201	0x3d818aca	0.063253
202	0x3d8e5a49	0.06950814
203	0x3ca9e54a	0.020739216
204	0xbd9c7ec4	-0.07641366
205	0x3dd5e4d7	0.10444038
206	0x3cc1644d	0.023607397
207	0x3d395504	0.045247093
208	0x3e4bac6f	0.19889997
209	0x3e3b3d99	0.18285216
210	0xbdb52ed8	-0.08846825
211	0xbd9c04a8	-0.076180756
212	0xbe2e5a33	-0.17026596
213	0x3dfac99c	0.12245485
214	0xbe1b415b	-0.1516165
215	0xbd7e51b9	-0.062089656
216	0xbe23a638	-0.15981376
217	0xbd9bcfb5	-0.07607976
218	0xbcbf342c	-0.023340307
219	0xbe0bd346	-0.13654813
220	0x3c7b06a8	0.015321411
221	0xbd95045f	-0.07276224
222	0x3e0e8ce6	0.13920936
223	0x3d870d2d	0.0659431
224	0x3e732a3b	0.23746578
225	0x3d813e18	0.063106716
226	0xbd71de28	-0.059049755
227	0xbe776290	-0.24158692
228	0x3d65a4d6	0.056065403
229	0x3c06a813	0.008218783
230	0x3cffbfb6	0.031219345
231	0x3cee20d6	0.029068392
232	0x3d870e4a	0.06594522
233	0x3ca599b4	0.020214893
234	0xbc8ff7e5	-0.01757426
235	0xbcabe1bb	-0.02098166
236	0xbde7a70d	-0.11311159
237	0x3cb92fb8	0.022605762
238	0xbce250ee	-0.02762648
239	0x3dee8c02	0.11647798
240	0x3e12aabf	0.14322947
241	0xbdf64188	-0.12024218
242	0xbda59710	-0.080854535
243	0xbd2d4f57	-0.042311992
244	0xbbab1e02	-0.005222083
245	0xbd90d332	-0.07071532
246	0x3cd23eab	0.025664648
247	0x3ddd30e2	0.10800339
248	0x3e3b84c5	0.18312366
249	0x3d5eaf1e	0.054366224
250	0x3d9b10cd	0.07571564
251	0x3e2fc691	0.17165591
252	0x3d9bdf06	0.07610898
253	0x3dcfe7b9	0.101516195
254	0x3cda91ae	0.026680794
255	0x3e25a0ae	0.16174576
