mlp/model_pt/mlp_trajectory_4_fold_CV_3500.pt (torch, 592647 bytes, 6 tensors)

fc1.weight f4 [200, 200]
000000 04 8e 3c 3e df 0b 00 bc af 18 90 3d 88 3a e6 bd
       0.1841355 -0.00781533 0.07035958 -0.11241633
000010 04 8e 3c 3e b0 d3 91 3d d2 6d 91 3d 21 b8 00 3c
       0.1841355 0.07120454 0.07101025 0.0078564
000020 04 8e 3c 3e 6b 57 9f 3d 96 5b a9 3c 09 8b 6f 3a
       0.1841355 0.077803455 0.020673554 0.00091378443
000030 04 8e 3c 3e f3 96 ab 3d 02 1b 2f 3d 72 bd ae bc
       0.1841355 0.08378401 0.042750366 -0.021330569
000040 04 8e 3c 3e 96 11 a2 3d a9 fc a3 3c d8 3c 98 3c
       0.1841355 0.079135105 0.020017939 0.0185837
000050 04 8e 3c 3e d0 d4 c4 3d 1b 37 e9 bb 32 92 03 3c
       0.1841355 0.09610903 -0.007117165 0.008030461
000060 04 8e 3c 3e f1 55 1c 3d b6 bc 84 bc 50 8a 72 3c
       0.1841355 0.038167898 -0.016203266 0.014803484
000070 04 8e 3c 3e a9 a2 ee bc 55 5d 6d bc 82 fa b9 3c
       0.1841355 -0.029130297 -0.014487584 0.02270246
000080 04 8e 3c 3e 83 6b b3 bd e5 7d 0b bd 66 a7 b6 3c
       0.1841355 -0.087607406 -0.03405561 0.022296619
000090 04 8e 3c 3e f1 82 1d be 9f 9b 8c bd cd 77 18 3d
       0.1841355 -0.15381981 -0.0686562 0.037223626
0000a0 04 8e 3c 3e 8b bc 5c be e8 20 10 be a7 f3 e2 3c
       0.1841355 -0.21556298 -0.14075053 0.027704073
0000b0 10 22 ba 3d cb 2e 8c bd 73 59 e9 bc 0b d6 1d 3c
       0.09088528 -0.068448626 -0.028485036 0.009633551
0000c0 9f 8b 56 3d b0 4e 93 bc bb 90 f5 3a 9a f3 af 3c
       0.052379247 -0.017981857 0.001873515 0.021478463
0000d0 6d dd 85 3c 75 1e d3 39 10 7e b0 3b 20 5b 38 3c
       0.016340936 0.00040267748 0.0053861216 0.011252195
0000e0 ea 50 b8 3c 7b c5 34 3c 50 c0 6f 3c 0b 79 a0 3c
       0.02249952 0.011033411 0.014633253 0.019588968
0000f0 70 19 2c 3c d9 29 6e 39 bb 31 66 3b 6d 24 04 3c
       0.010504112 0.00022713038 0.0035124857 0.008065325
000100 e7 64 75 3a 1f 62 23 bc 16 f3 d1 bb 03 7a c7 ba
       0.0009361044 -0.009972124 -0.006407152 -0.0015218857
000110 42 b0 d9 bb b8 7f 98 bc 7e e4 69 bc ec 19 12 bc
       -0.006643326 -0.018615589 -0.014275668 -0.008917313
000120 4e 8f 3a bd 5a 1e 70 bd 52 d8 5c bd d4 10 47 bd
       -0.045546822 -0.058622696 -0.053917237 -0.048600033
000130 ad 17 04 bc 3d 0e 9f bc 2a e0 76 bc e6 64 24 bc
       -0.008062285 -0.019415969 -0.015068093 -0.010033822
000140 e4 cb 8d bc f9 c4 de bc 75 c0 b6 bc be 31 9c bc
       -0.017309137 -0.027193533 -0.022308568 -0.019066688
000150 82 0c ca bd e5 1f df bd d6 9f d4 bd 55 24 cf bd
       -0.09865667 -0.10894755 -0.10382049 -0.10114352
000160 e7 e1 b9 bd 13 f0 cd bd 5a cd c3 bd 8b c4 bd bd
       -0.090762906 -0.10055556 -0.09560652 -0.09266003
000170 7e aa aa bd 4a 8d bd bd 19 f9 b3 bd 2c 22 ae bd
       -0.083333 -0.092554644 -0.08787746 -0.085026115
000180 d7 e4 a5 bc 0d 43 ea bc b2 35 c4 bc 3a aa af bc
       -0.02025072 -0.028596425 -0.023951385 -0.021443475
000190 b7 7d 22 3c ab 30 0f 3b 25 42 da 3b 0d 15 10 3c
       0.009917668 0.0021849077 0.006660717 0.008794081
0001a0 09 94 ea 3b ca f2 41 3a 0d 48 97 3b 40 02 dc 3b
       0.0071587604 0.0007398544 0.0046167434 0.0067141354
0001b0 b0 1f 6c 3b fc b0 f8 ba 16 4c f4 3a 89 26 55 3b
       0.003602963 -0.0018973644 0.0018638398 0.003252419
0001c0 ee d9 ee bc 18 6a 0c bd 9f 20 fa bc a4 f9 f2 bc
       -0.029156651 -0.034280866 -0.030533133 -0.029660054
0001d0 d9 ca ce bd 12 da d9 bd 5c de d1 bd 55 72 d0 bd
       -0.10097284 -0.10637297 -0.1024749 -0.10178057
0001e0 33 06 17 bd 1d fc 2c bd bb 8d 1c bd ca ab 19 bd
       -0.036871146 -0.04223262 -0.038221102 -0.037517346
0001f0 db f6 09 bd 08 89 1f bd 04 c3 0e bd 92 fe 0c bd
       -0.033682685 -0.038949043 -0.03485395 -0.034422465
000200 2f b8 9a bc 03 2c c4 bc 92 45 a4 bc b5 d9 a0 bc
       -0.018886654 -0.023946768 -0.020052705 -0.01963506
000210 a6 dd a0 bc ff 96 c7 bc 71 cb a9 bc 6b 4a a7 bc
       -0.01963694 -0.024363993 -0.020726891 -0.020421227
000220 a9 88 39 3c 26 72 de 3b 36 5e 2c 3c 90 8b 2c 3c
       0.011324086 0.00678851 0.0105205085 0.010531321
000230 4a f5 cb 3b 5f 00 00 3b 41 f5 ad 3b 7f d6 ae 3b
       0.006224309 0.0019531471 0.0053087776 0.0053356285
000240 59 24 f8 bb 48 98 3e bc 5f d5 0c bc 47 f1 07 bc
       -0.0075726924 -0.011632986 -0.0085957935 -0.008297271
000250 73 a7 82 bc 78 19 9e bc c9 a2 89 bc 82 76 86 bc
       -0.015948987 -0.019299254 -0.016801255 -0.01641393
000260 ca dd 77 3c c8 d8 48 3c 44 ef 68 3c fc 79 6f 3c
       0.015128562 0.012258716 0.014217202 0.014616486
000270 52 03 9e bb 6f aa f2 bb ba 77 b8 bb d4 40 a8 bb
       -0.004822173 -0.007405571 -0.005629507 -0.0051346812
000280 c0 47 a2 bc 35 ce b2 bc 91 bd a6 bc 3b 70 a3 bc
       -0.019809604 -0.021826843 -0.020354064 -0.019950977
000290 63 e8 09 bc 01 aa 24 bc a2 5b 10 bc 8e d5 0e bc
       -0.008417222 -0.010050298 -0.008810909 -0.008717908
0002a0 a7 ca c9 bb d0 8f ed bb 51 4e db bb 38 27 d1 bb
       -0.0061581912 -0.00724981 -0.0066926857 -0.006382849
0002b0 b6 db aa bc 45 84 b1 bc 1f 3b ac bc f8 23 ab bc
       -0.02085672 -0.021669516 -0.021024285 -0.020891175
0002c0 e4 e5 44 bd 51 31 47 bd ea 64 45 bd 1c 44 45 bd
       -0.048070803 -0.048631016 -0.048191942 -0.048160657
0002d0 49 eb dd bc 4f f5 e0 bc 9d 68 df bc 24 f0 df bc
       -0.027089732 -0.027460722 -0.027271563 -0.027336188
0002e0 70 ce 9a bc 51 bf 9d bc 91 22 9c bc ee 72 9c bc
       -0.018897265 -0.019256266 -0.019059451 -0.019097771
0002f0 cd 6d de bb 86 01 e9 bb db f8 e3 bb 0a 07 e5 bb
       -0.0067879916 -0.0071107773 -0.006957156 -0.0069893645
000300 70 e7 c3 3c a9 56 c1 3c 2b a7 c2 3c 43 70 c2 3c
       0.023914069 0.023600893 0.023761353 0.023735171
000310 b0 26 44 3e b0 26 44 3e b0 26 44 3e b0 26 44 3e
       0.19155383 0.19155383 0.19155383 0.19155383
000320 a8 18 2d bb c5 e3 1d 3f db d9 31 3d 2e a7 00 bc
       -0.0026412401 0.61675674 0.043420654 -0.007852359
000330 a8 18 2d bb 95 98 66 3e d3 76 a7 bc 88 57 61 bc
       -0.0026412401 0.22519143 -0.020442402 -0.013753779
000340 a8 18 2d bb 66 08 fa 3d 18 59 23 bb 94 f2 41 3b
       -0.0026412401 0.12208633 -0.002492493 0.002959405
000350 b0 18 2d bb fb c3 b5 bc 96 d1 a2 3b fa 34 d7 3b
       -0.002641242 -0.022188177 0.0049688322 0.0065675946
000360 a8 18 2d bb af cd 1b be 8c 07 0a bd 05 ac e0 3c
       -0.0026412401 -0.15215181 -0.033698604 0.027425775
000370 b0 18 2d bb 95 cd 49 be 15 16 a1 3b 23 35 00 3d
       -0.002641242 -0.1970733 0.0049159625 0.031300675
000380 a8 18 2d bb c8 f0 26 be fe 06 18 3c e2 9d 88 3c
       -0.0026412401 -0.16302788 0.009279011 0.016676847
000390 a8 18 2d bb c6 8d 13 be f2 54 a7 3c c7 ef 3c bb
       -0.0026412401 -0.14409551 0.020426247 -0.0028829442
0003a0 a8 18 2d bb 6f e9 e7 bd e4 88 7c ba 07 cb c5 3b
       -0.0026412401 -0.11323821 -0.00096334354 0.0060361656
0003b0 a8 18 2d bb 2a 4f be bd 00 1f 50 3c db b1 4e 3b
       -0.0026412401 -0.09292443 0.0127027035 0.0031539116
0003c0 a8 18 2d bb e1 3b c7 bd 78 87 c6 ba dc bb 1e bc
       -0.0026412401 -0.09728218 -0.0015146574 -0.009688344
0003d0 34 cd 05 3c ba 9f 74 bc 80 71 81 3b 9f 56 1e bb
       0.0081666 -0.01493066 0.003950298 -0.0024160517
0003e0 26 49 64 3c 4e 3a 6f 3b 9b 4c 61 3c 46 78 0f 3c
       0.013933456 0.0036503258 0.013751174 0.008756703
0003f0 ff 96 b4 ba 8b d9 0d bc 45 57 05 bb 65 67 f6 bb
       -0.001377791 -0.008657823 -0.0020346206 -0.00751965

fc1.bias f4 [200]
000000 e7 43 49 be 41 03 b0 bd 1c 51 2f be 50 a2 11 be
       -0.19654809 -0.08594371 -0.17120785 -0.14222074
000010 d8 3b 2a be d6 96 49 bd e6 a8 38 be 33 4e ca be
       -0.16624391 -0.049216114 -0.1803318 -0.39512786
000020 6c 82 90 be 26 f4 01 b8 c2 a1 9d bd 42 ca cd bd
       -0.28224504 -3.0983378e-05 -0.076968685 -0.10048343
000030 cf e0 a9 be b4 43 21 bf 50 b4 d1 b8 c4 ee 91 be
       -0.33179328 -0.6299393 -9.9994824e-05 -0.28502476
000040 e7 0c 59 be a5 43 11 b9 57 85 9c bd a8 2a 2f bf
       -0.21196328 -0.00013853477 -0.0764262 -0.68424463
000050 01 50 64 be 78 a0 36 b4 a0 b4 58 b7 c7 de 9e be
       -0.22296144 -1.7008449e-07 -1.2916658e-05 -0.3102934
000060 89 a6 9b be 70 21 0e bf 10 ba 0d bf 0e 25 97 be
       -0.30400494 -0.5551977 -0.55362034 -0.29520458
000070 35 84 b5 be b4 da 99 b5 10 88 f6 be 10 bf c6 bd
       -0.35452428 -1.1463039e-06 -0.48150682 -0.09704411
000080 da a8 29 be 64 ae 65 b5 ab d5 03 be 43 82 4b bf
       -0.16568318 -8.556292e-07 -0.12874477 -0.7949564
000090 09 a2 79 be 17 89 c5 bc 0b 97 56 be fd 1c 10 be
       -0.24378218 -0.024113221 -0.20956056 -0.14073558
0000a0 e9 25 80 be ba a9 bb b5 d7 31 38 b9 43 8c 43 bf
       -0.25028923 -1.3981983e-06 -0.00017566174 -0.763859
0000b0 66 9d 00 bf 9b 13 c9 3d 0d 33 37 bf aa 2e 8d be
       -0.5024017 0.098181926 -0.7156227 -0.27574664
0000c0 14 5e 4a be 93 97 c3 3c 11 6f 3f bf 8b ed 9e 3d
       -0.1976245 0.023875987 -0.7477885 0.077601515
0000d0 6d f3 97 bc b8 60 67 3e 93 ac 5a be 82 5f 41 bf
       -0.018548692 0.22595489 -0.21354894 -0.7553636
0000e0 f6 5a 1e 3d 14 84 7e 3e 37 13 e8 3d b9 66 93 be
       0.038660966 0.24855071 0.1133179 -0.2878931
0000f0 cd 2a 57 be 80 b1 19 bf d0 18 83 be 30 01 08 3e
       -0.21012421 -0.6003647 -0.25604868 0.13281703
000100 9b 59 27 3d 17 5f c9 be c6 e9 00 3e 7b 46 b9 bd
       0.04085694 -0.3933036 0.12589177 -0.09046646
000110 09 3b e4 bc d4 9c 90 3e e1 3a 16 bf bb f1 9d 3d
       -0.027860181 0.2824465 -0.5868359 0.07712122
000120 2d 23 3b bf 88 84 19 3c 3b ae e3 bd 46 4b 29 bf
       -0.7310055 0.009369977 -0.11117216 -0.66130483
000130 13 2f 0b be 77 ec ce be a5 9f dc be 86 60 25 bf
       -0.13592176 -0.40414783 -0.4309055 -0.6460041
000140 3f 34 00 bf a2 d7 b2 be 3a de a9 3c 59 65 97 3d
       -0.5007972 -0.3493014 0.020735849 0.073923774
000150 87 07 0c 3c 9f 62 27 3d c3 d8 11 be d1 6f 3e 3d
       0.0085467165 0.040865537 -0.14242844 0.046493355
000160 91 e2 47 bd 32 b4 33 3d b9 d2 85 be 0c 6b f2 3b
       -0.048800055 0.04387302 -0.2613733 0.007398015
000170 0d 03 0b 3d d6 d2 3e bd 3a 9d 87 bd 15 97 4c 3d
       0.033938456 -0.046587788 -0.066217855 0.04994877
000180 78 50 28 be f7 68 96 bf a6 da 77 3d 41 c7 c3 be
       -0.16436946 -1.1750783 0.060511254 -0.38237956
000190 8b ba 14 3d 39 ca 5b bd 3d 0e 33 bc 83 64 4e bf
       0.036310714 -0.05365965 -0.010928688 -0.8062212
0001a0 d0 3e 0c bf d3 d9 ab bc 58 64 b1 bd cb d1 39 be
       -0.54783344 -0.02097789 -0.08661717 -0.18146436
0001b0 3e e7 c5 bd 67 68 fe 3c e8 ba 72 bf 97 67 50 be
       -0.096632466 0.031055642 -0.94816446 -0.20352016
0001c0 48 ec 7b be d5 d9 61 3c 7f c5 f2 bb 82 bf c4 be
       -0.24601853 0.013784845 -0.0074087973 -0.3842736
0001d0 a6 d6 09 bf 50 49 4e 3d 2c 36 7b 3d 48 65 c0 be
       -0.5384315 0.050362885 0.06133096 -0.3757727
0001e0 41 74 00 3d c7 73 c5 bc 9c d9 64 3d 02 e1 4e 3d
       0.03136087 -0.024103059 0.05587159 0.050507553
0001f0 c8 b9 ef be 04 41 a9 bd ea 04 4d be 9e 33 3f be
       -0.46821427 -0.08264354 -0.20021406 -0.18672034
000200 61 cf 69 be d8 c3 48 bf bb 01 1f bf b0 da ae bd
       -0.22833015 -0.78423834 -0.62112015 -0.08537805
000210 79 a4 79 be 97 ab 52 bd d0 ca ae 3c 27 3d 85 bd
       -0.24379148 -0.051433172 0.021336943 -0.065058045
000220 c0 31 cc be 84 6c 00 bf 9f 76 33 bf 4b 1e b4 be
       -0.39881706 -0.5016558 -0.70102876 -0.35179362
000230 86 e8 be be a6 f4 cf be eb 85 8f be 2f 88 f4 be
       -0.37286776 -0.4061634 -0.2803186 -0.4776015
000240 e9 d3 2c bf 43 77 bc be ba 7e c6 be 3c 48 d1 be
       -0.6751085 -0.3680974 -0.3876856 -0.40875423
000250 86 6f c1 be 91 7d ed be e6 cd b5 be 5a e2 a9 be
       -0.37780398 -0.46384862 -0.3550865 -0.33180505
000260 bc fd 05 be 1a a0 6d 3b 0a 60 bd be 55 7d 86 be
       -0.13085073 0.0036258758 -0.36987334 -0.26267496
000270 65 45 0d bf 64 42 b5 be 16 de 07 be 13 6c 3e bf
       -0.5518401 -0.35402215 -0.13268313 -0.7438366
000280 ae f0 40 bf 1d f1 4f 3d 32 f0 04 be 7c 3b ad be
       -0.7536725 0.050767053 -0.12982252 -0.33834445
000290 5a b2 0b bf 7a 96 6c be 33 4b 24 be d8 42 8b be
       -0.5456902 -0.23104277 -0.16044311 -0.27199435
0002a0 ca ef 7a 3d 46 b0 40 3d d4 00 d1 3d c8 39 c6 3d
       0.061263837 0.047043107 0.10205236 0.0967899
0002b0 f5 56 74 3e 12 56 60 3e 32 34 14 bf e9 71 3b bf
       0.23861296 0.21907833 -0.57892144 -0.7322069
0002c0 1b e0 bd 3d 57 03 0f 3e 0a 3e c7 3d 5c 88 c4 3d
       0.0927126 0.13966118 0.0972863 0.09596321
0002d0 a0 53 c3 3c 63 97 f4 bd 06 79 3e bf 92 ab e3 be
       0.023843586 -0.11942937 -0.7440342 -0.44466835
0002e0 73 0f 41 3e 57 43 3a bf 51 01 9f 3c 12 d3 52 3e
       0.1885355 -0.72759 0.019409807 0.2058833
0002f0 90 00 c8 3d 90 ac e9 3c 32 2d 14 be 5a 7d b3 3d
       0.09765732 0.028524667 -0.14470366 0.08764143
000300 9e c8 f7 be c4 82 2d 3e 2a 8f 15 bf be ff 02 3e
       -0.48395246 0.16944414 -0.58421576 0.1279287
000310 07 bc af 3d 64 9d 75 bb 54 38 5a 3d ac a0 d9 bd
       0.08580785 -0.0037477845 0.053276375 -0.10626349

fc2.weight f4 [200, 200]
000000 69 9c ac 3e ab 39 29 3e 79 97 fd 3d fa f2 db bd
       0.3371308 0.16525905 0.12382407 -0.107397035
000010 8d ee 50 3e a3 9d 59 3e 46 6d 00 3e b0 66 4f bd
       0.204035 0.2125154 0.12541685 -0.05063504
000020 20 83 84 3e 34 4e 32 3e fc 22 dc 3d dd d8 60 bd
       0.2588129 0.17412645 0.1074886 -0.054894317
000030 b9 a2 91 3e 6f 32 ee 3d 0c 27 04 3e 8f a8 5b 3a
       0.2844446 0.11630713 0.1290552 0.0008379304
000040 0c a4 99 3e 0f 80 d3 3d 55 3c c4 3d d1 bb a8 ba
       0.3000797 0.103271596 0.0958182 -0.0012873356
000050 e9 43 1b 3e 4a e0 87 3d 39 16 8b 3d 99 03 62 bb
       0.15162624 0.066345766 0.06791348 -0.0034487008
000060 5a 2b 8e bc 0d 55 cd 3a 0e 02 bc 3c ed 8d c9 3a
       -0.017354656 0.0015665606 0.022950199 0.001537738
000070 46 29 8c 3e 6c ec ac bd ea e3 18 bd 8d 61 15 bd
       0.2737524 -0.084435314 -0.03732673 -0.036469985
000080 15 59 82 3e 7f 79 29 be b8 81 10 be c1 28 eb 3a
       0.2545859 -0.16550253 -0.14111984 0.0017941223
000090 f9 67 9b 3e f2 d3 8a be 7f 08 2e be 43 1c 31 3d
       0.30352762 -0.27114826 -0.16995429 0.043239843
0000a0 c3 58 37 3e d1 b1 b3 be a6 6f 95 be f9 3f 00 3d
       0.17904954 -0.350966 -0.29186743 0.03131101
0000b0 6b 74 91 3c 61 bf fd bc f1 a5 a0 3c d3 e5 ee bc
       0.017755708 -0.030975046 0.019610377 -0.029162323
0000c0 52 b5 56 3d 90 bb f6 bd 12 5f 1c 3b fd 56 92 bd
       0.052419014 -0.120474935 0.0023860377 -0.07145498
0000d0 96 aa 82 3d 52 2d 49 3a 01 8d 3f 3d 48 33 01 3d
       0.06380193 0.0007674295 0.04676533 0.031543046
0000e0 57 ef 85 bd 3b 2b cd ba 32 73 a1 3c 67 dd 81 3d
       -0.06539791 -0.0015653142 0.01970825 0.06341057
0000f0 f4 85 87 b7 5f d4 73 bc 6a 36 12 3d ff 26 61 3d
       -1.615563e-05 -0.014882176 0.035696425 0.05496883
000100 ff db 01 3e 31 16 21 b9 e7 9b 99 3c d0 a6 51 3d
       0.12681578 -0.00015362423 0.018751098 0.051184475
000110 cc c8 94 3d e3 57 07 3c c5 9e 09 3c c3 d4 45 3e
       0.072648615 0.0082607 0.00839967 0.19319443
000120 de 33 2d bb 4c 85 58 be 6c 04 dd bc 7c e9 1d bc
       -0.002642862 -0.21144599 -0.026979648 -0.009638187
000130 23 ed cb 3c b6 d7 06 bd 97 30 9b bc 1f 9e c8 3c
       0.024893349 -0.03292056 -0.018944068 0.02448946
000140 f9 ba ad 3c 4c 00 d5 bc 37 ab 0d be f3 e8 8f bd
       0.02120732 -0.026001118 -0.13834845 -0.070268534
000150 34 54 ac be 8a 46 bb be 57 96 b3 bd db 8e c0 be
       -0.33657992 -0.36577255 -0.087689094 -0.3760899
000160 dc ac a4 bd 85 12 a6 bc 54 6a 48 bd 12 c5 6d 3c
       -0.08040783 -0.020272503 -0.048929527 0.014512317
000170 16 9f 4e be ce d6 d6 3b 36 52 3c be 1d 70 0d 3e
       -0.20177874 0.0065563684 -0.18390736 0.13812299
000180 a2 e2 a7 3c 6e 09 df bc 95 be 42 3e 23 0b 50 3b
       0.02049381 -0.027226176 0.19018014 0.003174492
000190 3d 19 14 3e ca 78 b0 bd 2d 9e 1b be 33 ab b1 3c
       0.14462753 -0.08616789 -0.15197058 0.02168808
0001a0 24 40 e9 3d 1e 88 ea 3d 16 d7 97 3d 6c 9f b8 bb
       0.11389187 0.114517435 0.07414071 -0.005634239
0001b0 c5 01 8b bc f4 9b e6 3c 5b 81 88 bc 99 b5 4f 3d
       -0.016968617 0.028150536 -0.016663244 0.050710294
0001c0 21 39 36 bc 14 87 a2 bd 40 3c 55 bd fb 07 ee bb
       -0.011122019 -0.0793592 -0.052059412 -0.007264135
0001d0 72 b8 8b 3b f8 3f d3 3d 3a e5 dc 3c 66 46 9f 3d
       0.004263931 0.103149354 0.026964772 0.07777099
0001e0 1a 10 11 be 18 64 05 be 3b c2 fc 3d 50 b7 db 3d
       -0.14166299 -0.13026464 0.12341734 0.107283235
0001f0 99 de 5b 3c de 9d 23 be bc 63 98 bd 08 fa 14 bd
       0.013419771 -0.1597819 -0.07440898 -0.03637126
000200 f5 f6 95 3b 89 bf a0 bc 23 5c 80 bc c6 2a 96 be
       0.0045765587 -0.019622581 -0.015668934 -0.2932951
000210 f6 16 ac bc 4f 0a f5 bd 44 11 ac be f5 31 62 be
       -0.021007042 -0.11964857 -0.33606923 -0.2208937
000220 8b b9 c8 3c dc b9 95 bd cb be d5 bc da a9 a3 3c
       0.024502536 -0.073108405 -0.026091954 0.019978452
000230 2b 52 34 3c 2b e8 83 3c 7c fe 02 3d 01 e1 0b 3d
       0.0110059185 0.016101917 0.031980976 0.034150127
000240 47 e8 46 3c 12 89 3f bd 6e 1a 1c bd fd 02 cb bd
       0.01214034 -0.04676158 -0.038111143 -0.09912679
000250 28 9e 30 bd 9a 91 41 bd 0b a8 96 bc 4c c5 a9 bb
       -0.04311958 -0.047257997 -0.018390676 -0.0051809903
000260 f7 fe 93 3c f0 03 0c bd 3a 0f 11 3d 81 98 c6 3d
       0.018065913 -0.034183443 0.03541491 0.096970566
000270 e7 90 61 bb 43 af 97 bc b7 8e 9f 3c 64 63 ce 3c
       -0.0034418644 -0.018516188 0.019477231 0.025193878
000280 d4 4d 3a 3d 34 8c 5d 3c c6 09 b0 3b cf b5 e0 3b
       0.04548438 0.013522197 0.005372259 0.006857611
000290 68 18 a2 3c 3c 63 04 bb 17 70 09 3c 55 76 1a 3c
       0.019787028 -0.002020075 0.008388541 0.009427627
0002a0 c2 1d cb 3b e7 a0 21 bc 3a 07 d3 bb 97 fd cd 3b
       0.0061986158 -0.009865022 -0.0064400705 0.006286334
0002b0 4e 88 39 3c 89 48 0c 3c b1 24 bd 3c d3 e7 da 3c
       0.0113240015 0.008562216 0.023088785 0.02672187
0002c0 9e e5 88 3c 45 8b 68 bb 77 06 2d bd 49 a8 52 bc
       0.016711053 -0.0035483402 -0.042242493 -0.012857505
0002d0 d5 78 64 3b 1f db e7 3c f4 aa 39 bd 4f 29 e0 bc
       0.003486206 0.028302727 -0.04532905 -0.027363447
0002e0 e5 55 91 bc d5 49 a5 bb e9 24 68 bc 39 98 95 bc
       -0.017741153 -0.005044202 -0.014168956 -0.018261062
0002f0 78 2f 63 bc 5f ac dd bc 73 e8 84 bc b2 fd f5 bb
       -0.013866298 -0.027059732 -0.016224122 -0.0075070495
000300 c7 6b 84 3b b6 f2 60 3c 55 a3 dc 3b 2e 49 d7 3c
       0.0040411684 0.013729742 0.006733338 0.026280012
000310 87 9c b8 bd e6 e2 bb 3c 59 6e db bd bc c0 4a 3c
       -0.0901423 0.022935342 -0.107144065 0.012375053
000320 a8 d4 c1 3b 7e 90 82 3f 55 f1 df 3d ff 35 16 bd
       0.005915243 1.0200346 0.10934702 -0.03667259
000330 8e 32 2c 3c fd 23 d6 3e 5d 5d 64 bd e6 ca 96 bc
       0.0105101 0.41824332 -0.0557531 -0.018407296
000340 04 fc 0f 3d 0f 06 1d 3e ee 71 9e 3c 99 58 c5 39
       0.03515245 0.15334342 0.019341435 0.00037640778
000350 0e b4 fd bb f8 c0 98 bd 4b e1 8a bc 6a 7f bc 3b
       -0.0077424115 -0.07458681 -0.016953131 0.0057524936
000360 30 71 90 bb b1 d6 9c be 44 d0 c2 bd 5e a8 ee 3c
       -0.0044080243 -0.30632547 -0.0951238 0.029133018
000370 94 f1 06 3b b2 ff be be 46 5f ae bc ac c3 45 3c
       0.002059077 -0.37304455 -0.021285664 0.012070578
000380 57 a3 9f 3c 38 de 58 be 87 89 ed 3c 97 13 c2 bb
       0.019487066 -0.2117852 0.028996242 -0.0059227454
000390 3e b6 94 3c 5b 51 59 be 5b d7 b3 3c ca 51 d8 bc
       0.018153306 -0.21222441 0.021953275 -0.026406188
0003a0 5b f9 59 bb f2 e8 0e be 62 98 db 3c 26 67 97 bb
       -0.00332602 -0.13956049 0.02680606 -0.0046204505
0003b0 e9 24 de bb bd 69 ec bd 73 3c 92 3d 0a 1d 4a 3c
       -0.0067793024 -0.115436055 0.07140436 0.012336025
0003c0 67 44 83 3c 8c 9a a7 bd 21 63 15 3d 24 5c b3 bc
       0.016023828 -0.08183774 0.03647149 -0.021894522
0003d0 a6 0d 36 3b 5f 19 43 3c c2 3a 37 bc 80 54 7b 3b
       0.0027779131 0.011907904 -0.011183443 0.0038349926
0003e0 b7 bc 3a bc c1 68 45 3c e1 c4 14 3d 42 1d 9a bc
       -0.011397532 0.012048901 0.03632057 -0.01881278
0003f0 71 13 3b 3b cc a6 21 3b 31 9e cd 3b 44 f7 69 3c
       0.0028545524 0.002466607 0.0062749614 0.014280144

fc2.bias f4 [200]
000000 b9 67 11 3d 8f d6 03 3e 86 a1 06 3e 82 e6 6c be
       0.03549931 0.12874816 0.13147554 -0.23134807
000010 64 c2 0b bd e4 e2 11 3e 92 24 18 3e c4 aa 97 be
       -0.034120932 0.14246708 0.148577 -0.2962247
000020 cf 0b b7 bc f4 21 ad be 5c 56 0d 3e c2 71 98 be
       -0.022344498 -0.33814967 0.13802475 -0.2977429
000030 9a 43 2a be 13 c3 e8 bd 66 a1 8e be 3f 6c df bd
       -0.1662735 -0.113653325 -0.27857512 -0.10909318
000040 ba a2 81 bc c7 40 b6 bd fe 70 93 be 0e 6d b4 be
       -0.015824664 -0.08899074 -0.28797144 -0.35239452
000050 52 03 8d 3d 3e 8b 5a bd e0 02 1b be ae 1f cb bd
       0.06885399 -0.053355448 -0.15137815 -0.09918152
000060 c2 b1 8a be ef 0e 5f be b0 80 d9 be 34 6a 35 be
       -0.27088743 -0.2178304 -0.42480993 -0.17716295
000070 c7 53 01 be 57 95 b0 be 68 99 82 bd 42 f7 7c 3e
       -0.12629615 -0.34488937 -0.06376916 0.24703696
000080 39 e8 26 3d 69 b1 78 bd 54 8a b0 3d 50 c4 79 be
       0.04074881 -0.060716067 0.08620134 -0.24391294
000090 1a 0c 4d bd 4d f6 d3 3d de bb e6 3d 44 8f 66 3e
       -0.05006037 0.103497125 0.112663016 0.22515589
0000a0 fa c4 69 3d 8d 60 5b bd 8a 17 9f 3d 0f de 9e be
       0.057072617 -0.053558875 0.077681616 -0.31028792
0000b0 ae 18 d9 bd f7 34 95 3e 6a 90 97 be 8b f4 65 bd
       -0.106004104 0.2914197 -0.29602367 -0.056141417
0000c0 91 cc bf bd 00 4a 48 bd 74 e0 a3 be 30 40 33 3e
       -0.0936519 -0.048898697 -0.32007182 0.17504954
0000d0 10 60 0e 3e a9 d2 7f 3e 41 ac ca bd 8c e6 8f be
       0.13903832 0.24982704 -0.09896136 -0.2810558
0000e0 83 f5 45 3e 16 61 1e 3e 96 63 a7 3e 13 2c 41 be
       0.19331937 0.15466723 0.32693166 -0.18864469
0000f0 82 3d 35 be 71 50 39 be 8b e2 38 be 6f ad af 3d
       -0.17699245 -0.18097092 -0.1805517 0.08578002
000100 c2 cf 6d 3e 5c e0 a9 be 2d c8 bd 3d 0e c3 40 3e
       0.23223785 -0.33178985 0.09266696 0.18824407
000110 e6 09 4e be 75 d0 0e be b8 71 80 be 4f ac 31 3e
       -0.20120963 -0.13946708 -0.2508676 0.17350887
000120 c9 41 3f be 6c da 25 3e 17 29 b0 bd 90 7c 64 be
       -0.18677439 0.16196603 -0.08601587 -0.22313142
000130 71 97 c9 bd f1 f2 3b be b8 06 5a be 4b 38 7c be
       -0.09843338 -0.18354394 -0.21291625 -0.24630849
000140 b7 e1 b3 be 87 df 01 be d3 29 83 3e 42 c4 15 3e
       -0.35133144 -0.12682925 0.25617847 0.14625648
000150 11 8e 2f 3d 55 09 09 3e 32 d6 14 3d 0b 23 66 3e
       0.042860094 0.13382466 0.036337085 0.22474305
000160 c4 e3 89 3e b3 29 07 be ba 53 a0 bd 15 7e 29 3c
       0.26931584 -0.131995 -0.078284696 0.010345002
000170 19 7d 06 bf 24 ed 1e be f6 1a 6d 3e be 2c 4f 3e
       -0.52534634 -0.1552015 0.23154816 0.20231912
000180 d0 c9 53 3e ef 5c 02 bf 05 71 8f 3e 23 cc b5 bd
       0.20682454 -0.50923055 0.28015915 -0.088768266
000190 54 a9 95 3e 32 57 78 3c 5b 47 c3 be 65 5f ed be
       0.2923075 0.015157508 -0.38140377 -0.46361843
0001a0 2b 3b 40 be 4b 4f 81 3e ab 53 65 3e 0c bc 96 bd
       -0.18772571 0.25255808 0.22395198 -0.07360086
0001b0 cf 32 0a 3c 08 4e 3e 3e 23 32 10 bf 14 8e cd bd
       0.008434965 0.18584454 -0.563265 -0.10036865
0001c0 ae bd ab bd 69 8c bb 3d d2 cb 97 3e 7b 1e 31 be
       -0.08385788 0.091576405 0.2964769 -0.17296784
0001d0 97 01 3d be 7b 71 76 3e f6 de 1b 3e f3 1e cf be
       -0.18457638 0.24066727 0.15221772 -0.404533
0001e0 ed 4a 8a 3e b8 7b 0e bd 0a 61 0a 3e c2 08 04 3e
       0.2701029 -0.034785956 0.1351358 0.12893966
0001f0 0d ec 89 be 79 e0 97 3b 48 be 8a be 44 6a 36 3d
       -0.26937905 0.0046349135 -0.27098298 0.044534937
000200 a4 b0 23 ba 13 4d fd be ec 93 98 be 9c b9 52 bd
       -0.0006244278 -0.49472865 -0.29800355 -0.051446542
000210 e9 ad ea bd 8b f1 cb be 11 44 09 3e a5 4b 68 be
       -0.11458952 -0.3983272 0.13404872 -0.22685106
000220 c2 de d7 bd 8b 89 b5 be fe 27 a3 be 25 9b a5 be
       -0.105405346 -0.354565 -0.3186645 -0.32344928
000230 39 4f a1 bd b4 5d 11 be 50 8b 7c bd ce 85 ca bd
       -0.07876439 -0.14195901 -0.061656296 -0.098888025
000240 75 c6 89 be 02 1e 0e bf 21 8d 02 be d8 9c 21 be
       -0.26909223 -0.5551454 -0.12749149 -0.15782487
000250 c6 ae 1c be 85 43 9a be f9 61 94 be 8d 68 86 be
       -0.15301046 -0.30129638 -0.28980997 -0.2625164
000260 a0 34 14 be c8 96 7c 3d 3a e0 fc bd 6e 87 83 be
       -0.144732 0.061667234 -0.12347455 -0.25689262
000270 f6 e9 98 be 8e a4 9d bd 58 54 01 bd 2a c4 8a be
       -0.29865998 -0.07697402 -0.031574577 -0.27102786
000280 49 f8 8d be 4c cf c4 3e da 14 4c bd 92 8b 30 3d
       -0.2772849 0.38439405 -0.049824573 0.043101855
000290 cb e0 97 be 34 5b 04 be b9 7b d6 bd cf c7 dd bd
       -0.2966369 -0.12925416 -0.10472817 -0.10829126
0002a0 de 74 c7 3e 0d 49 32 bb 9e b8 81 3e aa 82 45 3e
       0.3895635 -0.0027204186 0.25336164 0.19288126
0002b0 32 a7 84 3e 97 2b 93 3e 52 b7 a1 be 5a 21 30 bd
       0.2590881 0.28744194 -0.31585175 -0.043000557
0002c0 44 07 36 3e fb bd e8 bd 25 a7 12 3e cb d8 32 bc
       0.17776209 -0.11364361 0.14321573 -0.010915945
0002d0 2b 77 61 3e b1 11 91 3e 49 bc 3a 3d 60 e0 8c bd
       0.22018115 0.2833381 0.04558972 -0.06878734
0002e0 fe 08 f6 3e 49 6a 90 be 09 d8 8e 3e 53 2a 84 3e
       0.48053735 -0.2820609 0.27899197 0.2581354
0002f0 69 7f a6 3e 25 6b d7 3d 63 7c 78 3b fb 13 b4 3e
       0.3251908 0.10518483 0.0037915937 0.35171494
000300 5a 41 3d be 68 34 ef 3d 69 4f 6d be 27 8b a6 3e
       -0.18481961 0.116799176 -0.23174824 0.3252804
000310 f2 d0 42 3e ff 3e c8 3e a5 29 8c 3e 92 81 a5 bd
       0.19025019 0.39110562 0.27375522 -0.08081354

fc_out.weight f4 [334, 200]
000000 6e 30 0d be ab b3 6b 3d c5 e0 64 bd 83 66 d9 bc
       -0.13788006 0.05754439 -0.05587842 -0.02653814
000010 d7 08 52 be 29 7e 79 b9 f8 c2 2b 3b 77 d5 1c bc
       -0.20511185 -0.00023793489 0.002620874 -0.009572378
000020 c6 78 46 be aa ba c2 bd 97 8f d3 3c 2f fb 15 bc
       -0.19382009 -0.095082596 0.025825305 -0.009154125
000030 b4 db 1a be 7a 49 2f be 1f b4 21 3c fb ab 60 3c
       -0.15122873 -0.17117873 0.009869604 0.013712878
000040 20 29 41 be 86 c7 00 be 6b f7 e2 3c ba e0 f8 bb
       -0.18863344 -0.12576112 0.027705869 -0.007595149
000050 b0 b9 04 be 22 d2 87 be 03 a9 5b 3d 00 74 47 3d
       -0.12961459 -0.26527506 0.05362798 0.04869461
000060 4e 31 d2 bc d2 95 68 be 51 cc 91 3d 1c f5 dc 3c
       -0.025658276 -0.22713402 0.071190484 0.026972346
000070 fa da 19 be 4f f9 71 be 80 38 06 3a 37 91 e5 bc
       -0.15024939 -0.2363026 0.00051201135 -0.028023345
000080 71 3e 17 be 5e 26 3a be 8b ec 01 3c 1e a6 c4 bd
       -0.14769913 -0.18178698 0.007929931 -0.09601997
000090 f1 bf 5a be 03 78 2e be 0e 17 d2 bb b8 6f 63 3d
       -0.21362282 -0.17037968 -0.0064114397 0.055526465
0000a0 86 06 14 be 29 ac 45 be d1 58 e6 3c 03 47 93 bd
       -0.14455613 -0.19303955 0.028118523 -0.07191279
0000b0 93 f9 1a be d2 32 37 be 2a f3 8c 3c be c5 39 bd
       -0.15134268 -0.1789048 0.017205793 -0.045354597
0000c0 43 ee 41 3c cb 1a 06 be 4c ed 81 3c 1d ba 39 be
       0.011836591 -0.13096158 0.015860222 -0.18137403
0000d0 6f f6 15 be eb 87 1d be c8 80 2a be f0 22 a8 bc
       -0.14644788 -0.1538388 -0.16650689 -0.020524472
0000e0 18 41 0a be 54 a5 35 be ac 95 0b be e5 68 0d bd
       -0.13501394 -0.17738849 -0.13631314 -0.034523863
0000f0 2f 21 00 bc fe d4 d4 bd f5 9c b3 bd 06 c9 55 bc
       -0.007820412 -0.103921875 -0.087701716 -0.013048416
000100 79 67 3f bc 9e 94 a9 3c e6 25 51 be 79 05 8a bd
       -0.011682385 0.020700749 -0.20424613 -0.06739325
000110 61 c4 ef bd 96 17 ce 3c 57 23 2c bc d0 f8 1d bd
       -0.11707378 0.025157731 -0.010506473 -0.038567364
000120 65 15 08 be 76 09 e9 bd 78 92 13 3d b4 86 8b 3b
       -0.13289411 -0.11378758 0.036028355 0.004258001
000130 ab a0 0e be 4e b1 57 bb 2e 92 37 3c 0a 2f 9d bb
       -0.13928477 -0.0032912078 0.011204286 -0.0047968673
000140 ee 16 09 3d 13 d9 55 bc 64 cd 81 bc bf f9 a0 bc
       0.033469133 -0.013052243 -0.015845008 -0.019650338
000150 0e 61 02 3d db 65 86 bd 34 23 f3 bd a7 b2 98 bd
       0.03183084 -0.06562396 -0.11871949 -0.0745595
000160 75 e4 11 3c 41 de c6 bc 90 75 41 bc 10 0b f2 bd
       0.008904566 -0.0242759 -0.011807814 -0.11818516
000170 4b 9c 2c 3d 06 5d 01 3c db 77 5c 3d 19 03 97 bc
       0.04214124 0.007895714 0.05382524 -0.018434094
000180 7f a3 77 bd f6 31 64 be 42 29 48 bc ef 76 68 bc
       -0.060458656 -0.22284684 -0.012216868 -0.014188512
000190 af 61 02 bd 2d c1 52 3d 3b 23 a9 bd 52 47 3a 3a
       -0.03183144 0.051453758 -0.08258673 0.00071059645
0001a0 1b 14 ff bb 1c bf 99 bb 6c 0a d3 3d 03 43 35 be
       -0.007784379 -0.0046919715 0.10304722 -0.17701344
0001b0 c3 8c 73 3d 8c 5d 93 3c 4c 1d b3 3d 58 3e 41 3c
       0.059460413 0.017988943 0.08745822 0.011794649
0001c0 be da 09 bd 55 33 f3 3c f2 26 c3 bd cf 95 64 bd
       -0.033655874 0.029687563 -0.095289126 -0.05580693
0001d0 5d ef fc 3b 60 8e bd bc ba f2 ce 3d a8 e0 08 be
       0.007718964 -0.023139179 0.1010489 -0.1336695
0001e0 df e8 34 be 90 27 41 3d 18 1b 8f 3d f8 ec 37 3d
       -0.17666958 0.04715687 0.069875896 0.044903725
0001f0 8c 7e ac 3c bd 07 30 3d 8b bf d6 bd 64 f2 d5 bd
       0.021056436 0.04297613 -0.10485753 -0.10446623
000200 c1 45 62 bd 76 b1 55 3d 69 59 4f 3d a6 d6 ba 3d
       -0.055242304 0.052171193 0.050622378 0.09122972
000210 b6 f9 e2 bb 91 5f ea 3b 66 b3 18 be b3 ca ba bd
       -0.0069267405 0.0071525057 -0.14912185 -0.09120693
000220 bf 26 0e be 31 48 d7 3c 2f 4f 77 3d ea ba 15 be
       -0.13881968 0.02627954 0.06037825 -0.14622083
000230 57 79 09 be 2c ea 4c be c8 9c bf bc c7 3f bb bd
       -0.13425194 -0.20011204 -0.023390189 -0.09143024
000240 1f 76 26 3c 5b c8 65 3d 71 31 bb bd 45 17 d5 3c
       0.010159998 0.056099277 -0.091402896 0.026012072
000250 cd 4f 24 bd 94 0e 67 bd bd 66 b3 3c cb f7 3e bd
       -0.040115166 -0.056410387 0.021899575 -0.046623033
000260 a6 6c 46 3d ae 18 08 be 0b 1c 43 3d 05 fb da 3c
       0.04844346 -0.13290665 0.047634166 0.026731024
000270 28 b8 4c 3d ce 9f 92 3d db ec 50 be c6 a8 08 3d
       0.049980313 0.071593866 -0.20402853 0.03336408
000280 b8 74 2d 3d 5d 26 c9 bd 9b 7f 62 be 19 fd 02 be
       0.04234764 -0.0982177 -0.2211899 -0.12791862
000290 fd f0 87 3c 06 79 3c bb 53 66 e2 3c 0d 90 44 3d
       0.016594404 -0.002875866 0.027636683 0.04798894
0002a0 3e 08 9f bd a6 50 88 3d da e2 bd be 74 48 79 be
       -0.07765244 0.066560075 -0.37087137 -0.24344045
0002b0 cb a7 0f bb 03 9c f6 bd 40 96 cb 3c 40 93 64 3d
       -0.002192008 -0.120414756 0.024851918 0.05580449
0002c0 27 10 1b be 3a ec 36 3b 6a 3d 54 3d eb 38 d6 bc
       -0.1514288 0.0027911798 0.05181638 -0.026150187
0002d0 cd 20 94 be aa 2d 7a be 9c e0 d0 3b 86 1b 81 3d
       -0.28931275 -0.24431482 0.006374432 0.06304078
0002e0 c9 a1 6f be d7 8a 2a 3c ec 7a 9b be 10 fa bd be
       -0.2340156 0.010409079 -0.3036722 -0.37104845
0002f0 62 39 27 bf 15 8e bf be 08 dc 15 be e4 9c 31 bf
       -0.65321934 -0.37413087 -0.14634717 -0.6938002
000300 d0 10 5c bb dd d4 3e be 9d 55 45 3d 1a 6a 3b bf
       -0.0033579357 -0.18635888 0.04817735 -0.73208773
000310 74 6c b6 bd 49 c2 ae be 4d 95 0c bf d5 c6 80 bd
       -0.089074045 -0.34132603 -0.54915315 -0.06287924
000320 3d 8c 02 be e2 b9 74 be 44 30 0b 3e f2 6e b6 3c
       -0.12748809 -0.23899034 0.1359263 0.0222697
000330 02 95 fc bd 84 29 83 be 26 f2 d9 3d 08 b1 67 bc
       -0.123331085 -0.2561761 0.10641889 -0.014141329
000340 51 db ec bd 6b a9 30 bc 86 83 b7 3d 1d ac 90 3d
       -0.11565269 -0.01078258 0.08960633 0.07064078
000350 a2 84 22 be 39 5b 8d bd cc b7 b8 bd ca 5b e6 3c
       -0.15870908 -0.06902165 -0.090194315 0.02811994
000360 3b b3 0f be 77 60 3a be 06 e7 a7 bd 35 18 0a 3d
       -0.14033215 -0.18200861 -0.08198361 0.033714492
000370 a3 6e 05 be f5 8a ab bd 2a 94 14 be b3 f7 a6 3d
       -0.13030486 -0.08376113 -0.14509645 0.081527136
000380 a4 b1 85 bd 5c 29 62 bd 88 d6 b0 bd d5 69 00 bd
       -0.06528023 -0.055215225 -0.086346686 -0.03135093
000390 b0 16 54 bd 92 9a 3d bd 62 5e cd be 71 8e 20 be
       -0.05177945 -0.046289988 -0.4011107 -0.15679337
0003a0 fa 13 f9 bd 23 6d 79 3d 86 e9 c9 be 23 76 73 bd
       -0.12162013 0.060895097 -0.39435977 -0.059438836
0003b0 a5 bf 01 be d0 02 ee 3d 45 e2 a7 be ea e5 00 be
       -0.12670763 0.1162163 -0.32789817 -0.12587705
0003c0 6e ff 34 be 18 e5 d4 bd d9 23 cd be ce 04 80 bd
       -0.17675564 -0.10395259 -0.40066412 -0.062509164
0003d0 5d 47 e1 bd f8 59 b2 bd 52 09 d1 bc e7 53 1d 3a
       -0.109999396 -0.087085664 -0.02551714 0.0006001577
0003e0 e1 81 39 bd 27 b3 be bd a7 5a 8a 3b 2b d1 0d be
       -0.045289878 -0.09311514 0.0042222324 -0.13849322
0003f0 0f 10 24 be ae bb 1a bd 0a 78 1c be 21 c6 5d bc
       -0.16021751 -0.03777664 -0.15280166 -0.013536007

fc_out.bias f4 [334]
000000 ed 33 0c be 5e 56 52 bc e8 f3 98 3b f6 bf 0a bd
       -0.13691683 -0.012837974 0.0046677478 -0.033874474
000010 50 47 8b bd 04 91 1a 3c ab b7 b1 bd 0f 5d 2f be
       -0.06800711 0.0094339885 -0.0867761 -0.17125343
000020 44 66 f2 bd d2 2f 2f bd 82 2a 34 3d 96 1b 3f 3a
       -0.11835912 -0.042770214 0.04398585 0.00072901824
000030 6b bf 80 3c fe 23 ff bc 4e 6b 08 bd 2f a3 4d 3d
       0.015716275 -0.031145092 -0.03330546 0.050204452
000040 2b c6 5b be 19 e0 7c be 0d 90 2c bd 70 7d a3 3d
       -0.21462314 -0.24694861 -0.042129565 0.0798291
000050 05 85 82 3c b8 e5 a1 bd 81 23 3b be 81 0c 2a be
       0.01593257 -0.079051435 -0.18275262 -0.16606332
000060 be e4 c9 3b 9b 2e be bd f5 e0 8f bd 76 92 58 bb
       0.0061613014 -0.09286233 -0.07025329 -0.0033046282
000070 2e 00 a9 3d b2 d2 e1 bd cc 61 78 bd 5a 2c da bb
       0.082519874 -0.11026515 -0.06064014 -0.006658119
000080 22 ff f3 bb 08 1a d1 bd 66 e3 9d bd f8 97 00 3c
       -0.0074461857 -0.10210043 -0.077093884 0.007848732
000090 33 f7 b9 3b 7a 50 fe 3c 97 9f 52 bd cf db ec 3d
       0.0056752204 0.031044234 -0.051421728 0.11565363
0000a0 0e 3e 0a 3e ab 99 3a 3e eb b1 da bb 69 f8 01 3c
       0.13500234 0.18222682 -0.0066740415 0.007932761
0000b0 77 dc 8a 3d 1f 58 f4 3d 6c c7 54 3d ed 04 07 3e
       0.067803316 0.1193087 0.051947996 0.13185473
0000c0 52 87 e1 bc 0e e8 16 be e5 d9 01 be 28 70 b2 bd
       -0.027530346 -0.1473696 -0.12680776 -0.08712798
0000d0 ff cb 86 bd b5 10 f5 bd ad 62 ce bc 0e bd b4 bb
       -0.06581878 -0.11966077 -0.025193537 -0.005515701
0000e0 87 46 33 3e 31 91 7b bd 09 82 22 bd bf ad 21 be
       0.17507373 -0.061417762 -0.039674792 -0.15788935
0000f0 47 80 75 3b 37 9d ee 3c df d0 b6 3d 10 24 b3 3c
       0.0037460492 0.0291277 0.08926558 0.021867782
000100 59 a5 09 3d c7 9f 98 bc 6c 5b 28 3e 6c 6d 8c bd
       0.033604953 -0.018630875 0.16441125 -0.06856808
000110 56 15 75 3d ae 53 c6 bd 49 6a 00 3d 4d ba 6f 3d
       0.0598348 -0.096839294 0.03135136 0.05852728
000120 85 e3 ff 3d d4 25 d1 bd e6 c4 cf 3c fb 4d 3f bd
       0.12494568 -0.10212293 0.025362443 -0.046705227
000130 63 32 cf bd b3 00 fe bc 53 fa fa 3c 50 49 8e bb
       -0.101170324 -0.031006193 0.030636942 -0.0043422356
000140 74 07 32 3d 44 47 92 bc b7 a7 97 bb a8 1a e5 bd
       0.04346414 -0.017856248 -0.0046281475 -0.11186725
000150 0f ce 85 bd be 03 5a 3d 6a 05 f6 bc 4b a1 4d 3d
       -0.06533443 0.053226225 -0.030031879 0.05020265
000160 88 b1 03 3e ab 4b 43 3d f6 3c d9 3d 65 93 33 3d
       0.12860692 0.047679584 0.106073305 0.04384174
000170 29 a2 58 3d 0a 1b 60 3d ad 23 6e bd 9e 9f bf bc
       0.052889023 0.054713286 -0.05813949 -0.023391541
000180 bc ea ae bd da b7 2e be 69 09 15 be 5f a0 b5 bd
       -0.08540866 -0.17062321 -0.14554371 -0.08868479
000190 0b ad 14 3e 37 ab 4d bd d2 a3 16 3e e3 c6 46 bc
       0.14519136 -0.05021211 0.1471093 -0.012132379
0001a0 9e 1d 2e be d8 63 ca 3b 54 53 ea 3d c2 97 fb 3d
       -0.17003486 0.006176453 0.11441675 0.12284805
0001b0 bb fc 10 be 6d 81 6b bd 40 53 54 3e 86 61 15 3e
       -0.14158909 -0.057496477 0.20734882 0.14587983
0001c0 77 60 0c be c8 0b d0 bc f0 06 8e bd d1 b7 ae bd
       -0.13708673 -0.025396243 -0.06934917 -0.08531154
0001d0 9b e5 38 be 3d b7 a7 bd 16 e4 da 3d f7 ec 00 3e
       -0.18056338 -0.08189247 0.10688035 0.12590395
0001e0 59 8f 6f bd c6 83 4f 3c ec ed a0 3d d4 eb e8 3d
       -0.058486316 0.012665695 0.0785788 0.11373106
0001f0 93 56 65 bd 36 b8 a4 3c 1a 2e 5a 3d 2d cc 9c 3d
       -0.055990767 0.02010737 0.053266622 0.07656131
000200 d6 03 81 bd e8 96 71 bb c1 fb 45 3e 71 61 32 3e
       -0.0629956 -0.0036863629 0.19334318 0.17419983
000210 4f a4 db bb b0 17 d9 3b 47 cb 2c 3e ad c8 2b 3e
       -0.0067029367 0.006625138 0.16874419 0.1677577
000220 b0 9d 93 bd 62 4c 8c bc 8a 2a 8e bb 87 23 62 3c
       -0.07207811 -0.017126266 -0.004338567 0.013802416
000230 87 ab 1c bd f0 75 b8 3d 48 f0 a5 3d b5 cb 03 3e
       -0.03824952 0.0900687 0.08102471 0.12870677
000240 fb 9f ae bd bc 08 ac 3c 94 7e db 3c 94 d6 ef bd
       -0.085266076 0.021000259 0.026793756 -0.117108494
000250 86 d4 88 3d db 40 36 bd 9d 10 01 bd 86 ac 02 bd
       0.06681161 -0.044495445 -0.031509984 -0.031902812
000260 3d 9d 17 3c 4e d9 fd bd 8d b4 c4 3d 8b ac df bd
       0.009253797 -0.12394963 0.0960475 -0.10921582
000270 d4 3e 32 bb 7b 83 62 3d 1f 77 36 bb 0e 1b 96 3c
       -0.0027198093 0.05530117 -0.0027841998 0.018323448
000280 4e 10 c9 bd b1 8c 85 3d 5a e6 ea bd 69 27 54 bd
       -0.09817563 0.065209754 -0.11469717 -0.051795397
000290 5a e0 c5 bd 5e 66 9d bd 61 21 a3 bd a2 37 a4 3d
       -0.09661932 -0.076855406 -0.07965351 0.080184236
0002a0 f1 d9 68 bd 42 0e d6 3d 7d b8 51 3d 92 23 39 3e
       -0.05684847 0.10451938 0.051201332 0.18079975
0002b0 1d af 24 3e ee aa 5b 3d db 1c 97 3e ee 0b 23 3d
       0.16082425 0.053629808 0.29514202 0.0398063
0002c0 ba 17 4a 3e 0f 8e 8a 3d f9 17 07 3e 29 bb 83 3d
       0.19735613 0.06765377 0.13192739 0.06432182
0002d0 2d 58 1d 3e 2e 31 82 3d d4 c2 75 bd 97 8c 1c bd
       0.15365668 0.063570365 -0.060000256 -0.038220014
0002e0 f5 cd cc bd 41 e1 ab bc 34 0a 5c bd 82 be 0b 3c
       -0.10000221 -0.020981433 -0.053720668 0.008529307
0002f0 db 80 8c bd 53 87 03 be ac 7a 27 bd 21 9c 18 be
       -0.06860515 -0.12844591 -0.040888473 -0.14903308
000300 03 aa 84 bd 27 91 94 3d 64 db 91 bc 06 9e 3c 3d
       -0.0647774 0.07254248 -0.017804809 0.04604914
000310 a2 aa ff bd f8 46 45 bd 7b a3 38 3d 93 1b 5d bc
       -0.124837175 -0.048163384 0.045077782 -0.013495344
000320 0e 0f a4 3d e7 6e 1a bc de 7c ad 3d b5 98 49 3d
       0.08010684 -0.009425855 0.08471082 0.0492179
000330 c4 77 8c bd 4e 19 f8 3d 36 34 bd 3d 43 94 3a 3d
       -0.06858781 0.121142015 0.09238474 0.04555155
000340 50 3e 7b 3e 6f f4 64 3e c9 8a 08 be 6f 49 f0 bd
       0.24535489 0.22358869 -0.13334192 -0.11732756
000350 5d b1 4d be 41 d0 71 3d e7 77 4c be b4 26 9a bd
       -0.2008719 0.059036497 -0.19967614 -0.07526913
000360 29 20 03 be 89 de 87 bc 1d dc ef bd 08 aa 91 bd
       -0.12805237 -0.016585605 -0.11711905 -0.07112509
000370 27 12 f1 3c 68 b0 86 bd e5 c2 3a 3e 5a 7d e0 3d
       0.029427601 -0.065766156 0.18238409 0.10961409
000380 66 d1 94 3e e1 05 e1 3d 6b fa b5 bd 70 3a 25 be
       0.29066008 0.109874494 -0.08885654 -0.16135573
000390 d0 48 4c 3c 6b 0b 16 bd 83 a0 a1 3d ec fc 93 3d
       0.012468532 -0.036631983 0.07891943 0.072259754
0003a0 b4 c4 ca 3d 49 5b a5 3c 38 b7 ea 3c 73 e2 7d 3d
       0.099007994 0.02018513 0.028651819 0.061983537
0003b0 e1 59 2d bd e3 f6 21 3d 9a 9d 01 3d 82 11 01 3e
       -0.042322043 0.03954209 0.03164444 0.12604335
0003c0 8d 46 1c 3e a4 b9 17 be 20 78 b2 bd 14 5e 64 3c
       0.15261288 -0.1481691 -0.08714318 0.013938446
0003d0 5d fb 24 3d 37 21 e4 bd ea a4 ab 3c d1 b7 52 3c
       0.04027878 -0.11139148 0.02095266 0.012861208
0003e0 e2 95 56 3e d8 c0 48 3d fc c4 20 3d 40 ea da 3d
       0.20955613 0.049012035 0.03925036 0.10689211
0003f0 78 23 89 3d b3 85 c5 3d 1f 6f d4 3d 61 52 43 3e
       0.06696218 0.09644642 0.10372757 0.19074394
